libraryExamples/mnist_lightning/.mnist_{epoch}-{val_loss:.2f}/epoch=480-step=413660.ckpt (torch, 502448 bytes, 102 tensors)

model.layer_1.mainModule.weight f4 [4, 784]
0	0xbc36af01	-0.011150123
1	0xbd754d84	-0.059888378
2	0xbcfb422b	-0.0306712
3	0xbc45e47e	-0.012078403
4	0xbd8820f0	-0.06646907
5	0xbc810ea7	-0.015754057
6	0xbd5f10a2	-0.05445922
7	0xbd663698	-0.05620441
8	0xbd0a1c54	-0.033718422
9	0xbceb94ac	-0.028757416
10	0xbd363357	-0.044482555
11	0xbd998cb9	-0.07497544
12	0xbd67fca8	-0.056637436
13	0xbd384b51	-0.044993702
14	0xbdaf3f4c	-0.08556995
15	0xbd8051bf	-0.06265592
16	0xbd10b24d	-0.03532629
17	0xbd180fe2	-0.037124522
18	0xbd972e1b	-0.07381841
19	0xbd32bf35	-0.04363938
20	0xbd4e2943	-0.05033232
21	0xbd549b54	-0.051905945
22	0xbca37870	-0.01995489
23	0xbbbb5776	-0.0057172133
24	0xbd12d186	-0.03584435
25	0xbcbfa4c2	-0.023393992
26	0xbd16588e	-0.036705546
27	0xbd858cb5	-0.06520978
28	0xbbf1f894	-0.007384369
29	0xbce59f07	-0.028029932
30	0xbcc17623	-0.023615902
31	0xbd6058d0	-0.0547722
32	0xbd10a436	-0.035312854
33	0xbd355c04	-0.044277206
34	0xbb825ba3	-0.003978209
35	0xbca56785	-0.020190964
36	0xbcc584d5	-0.02411119
37	0xbcebe471	-0.028795453
38	0x3d355700	0.044272423
39	0x3da757a6	0.081710145
40	0xbcaa024b	-0.020753046
41	0xbd66215b	-0.056184154
42	0xbd4612fc	-0.04835795
43	0xbe4bed25	-0.19914682
44	0xbe87fc38	-0.26559615
45	0xbe4bf577	-0.19917856
46	0xbda7ccd5	-0.081933655
47	0xbd0cc859	-0.034370754
48	0xbd0dffc2	-0.034667738
49	0xbd66b2fd	-0.05632304
50	0xbd80922b	-0.06277879
51	0xbcf20140	-0.029541612
52	0xbd5d17f9	-0.05397794
53	0xbd814593	-0.06312098
54	0xbce8da35	-0.028424362
55	0xbcb20ef3	-0.021735644
56	0xbd012019	-0.03152475
57	0xbd813c43	-0.06310322
58	0xbd48bf74	-0.04901071
59	0xbd10412e	-0.03521841
60	0xbd9a9196	-0.075472996
61	0xbbf01895	-0.007327149
62	0x3b328601	0.0027240517
63	0x3cca9443	0.0247289
64	0x3df73b74	0.12071887
65	0x3d961fbe	0.07330273
66	0x3effd5cf	0.4996781
67	0x3e114ca1	0.14189388
68	0x3eb9536a	0.36196452
69	0x3f0bb23c	0.5456884
70	0x3f316662	0.6929685
71	0x3f0a09d1	0.5392123
72	0x3e73d030	0.23809886
73	0x3d80ad70	0.062830806
74	0x3f964108	1.1738596
75	0x3f24a5ad	0.643153
76	0x3ea8ca73	0.32966956
77	0x3e8dcf07	0.27697012
78	0x3ddfc0ae	0.109254226
79	0xbd2c493f	-0.04206204
80	0xbd8560de	-0.065126166
81	0xbd8a434e	-0.067511186
82	0xbd9038ba	-0.0704207
83	0xbd5e7844	-0.054313913
84	0xbcf7ea14	-0.030262984
85	0xbcb19b71	-0.021680566
86	0xbd66e752	-0.056372948
87	0xbc97f179	-0.01854776
88	0x3ba9d837	0.0051832455
89	0xbbec46c9	-0.0072105867
90	0x3d2fb425	0.04289641
91	0x3e62478b	0.22097604
92	0xbe7c086d	-0.24612589
93	0x3cae8e1f	0.021308003
94	0xbb15fef9	-0.0022887571
95	0xbd05e034	-0.03268452
96	0xbf1e759c	-0.6189821
97	0xbd43ae42	-0.047773607
98	0xbf16f53a	-0.58967936
99	0x3ed3772f	0.41301867
100	0x3eb60225	0.3554851
101	0x3e110812	0.14163235
102	0x3f80a78f	1.0051135
103	0x3f08dd6c	0.5346286
104	0x3ea401a1	0.32032493
105	0x3eeb0a40	0.45906258
106	0x3f3392bb	0.7014577
107	0x3ec79c80	0.38986588
108	0x3ec6d345	0.3883306
109	0xbc859fee	-0.016311612
110	0xbc8950f2	-0.01676223
111	0xbc255852	-0.010091858
112	0xbd66b316	-0.056323133
113	0xbd0e6bc1	-0.03477073
114	0xbd5605f5	-0.052251775
115	0xbd7a50fe	-0.061112396
116	0xbdf1c9bc	-0.11806056
117	0xbe91eb4d	-0.28499833
118	0xbe00a046	-0.1256114
119	0xbef9cd8d	-0.48789635
120	0x3e0e6e4e	0.13909265
121	0xbdf3bd31	-0.1190132
122	0xbf330b31	-0.6993895
123	0xbf428f4f	-0.7599992
124	0xbd7f510b	-0.062333148
125	0xbf558e13	-0.83419913
126	0xbe1df6bf	-0.15426157
127	0xbf496bce	-0.7868012
128	0xbea261f0	-0.31715345
129	0xbe224d07	-0.15849696
130	0xbf72e38b	-0.94878453
131	0xbe245103	-0.16046529
132	0xbe7191a2	-0.23590711
133	0x3e8371a1	0.2567263
134	0x3d747113	0.05967815
135	0xbe29ab91	-0.16569354
136	0x3ef47490	0.4774518
137	0xbd2a7443	-0.041614782
138	0xbd9f2da9	-0.07772381
139	0xbd39b72f	-0.045340713
140	0xbc08892b	-0.008333485
141	0xbcbcd811	-0.023052247
142	0x3dbbe7ac	0.09175047
143	0xbe86051f	-0.26175782
144	0xbda4125c	-0.08011314
145	0xbe9b36b0	-0.3031516
146	0xbe8cfcc3	-0.27536592
147	0xbe8365b6	-0.25663537
148	0xbf2f7262	-0.6853391
149	0x3d9d48ee	0.07679926
150	0x3e2c4a0a	0.16825119
151	0xbe2a7e24	-0.16649681
152	0xbc3e6396	-0.011620423
153	0xbe868ab5	-0.262777
154	0x3ef79ab5	0.4836022
155	0x3ec05067	0.37561342
156	0x3f1b30fc	0.6062162
157	0x3f705429	0.9387842
158	0x3efa378a	0.48870498
159	0x3f3e4469	0.74323136
160	0xbd40815e	-0.046998374
161	0x3eeee3a7	0.4665806
162	0x3e697fe5	0.22802694
163	0xbe13a92c	-0.14420003
164	0x3e88b2d0	0.26698923
165	0xbe8188ad	-0.25299588
166	0xbe05a1b4	-0.13049966
167	0xbc8d60c8	-0.017258063
168	0xbc329b42	-0.010901274
169	0xbd691d99	-0.056912992
170	0xbdb4ab8f	-0.08821785
171	0xbeaace00	-0.3336029
172	0xbf275dcb	-0.6537749
173	0xbdeb9d35	-0.11504594
174	0x3d38ab1b	0.045085054
175	0x3e46228a	0.19349113
176	0xbf24c0bd	-0.64356595
177	0xbc21e12b	-0.009880344
178	0xbe81fdd6	-0.25388974
179	0xbe63578c	-0.22201365
180	0xbea52dcf	-0.32261512
181	0xbecbecd3	-0.3982912
182	0xbec2d438	-0.38052535
183	0xbea66d7e	-0.3250541
184	0xbf8305ce	-1.0236146
185	0xbe522bb1	-0.2052448
186	0xbf09b3ee	-0.53790176
187	0x3d3bd8ff	0.04586124
188	0xbe9322e4	-0.28737557
189	0x3e8439a3	0.25825223
190	0x3eaeafa8	0.3411839
191	0x3f11762f	0.5682096
192	0x3f0ad58b	0.5423209
193	0x3d5cc459	0.05389819
194	0xbec6f22c	-0.38856637
195	0xbdf0f5c9	-0.1176563
196	0xbcae4387	-0.021272434
197	0xbe658e53	-0.22417574
198	0xbdc85ec8	-0.09783703
199	0xbf1d432c	-0.6143062
200	0xbf913316	-1.1343715
201	0xbe9d3946	-0.3070776
202	0xbf1f671a	-0.62266695
203	0xbe147bbd	-0.14500327
204	0x3e5f046e	0.21779034
205	0xbf0b825c	-0.5449579
206	0xbea86363	-0.32888326
207	0xbe4e5a45	-0.20151623
208	0xbf3a5880	-0.7279129
209	0xbe43adbf	-0.19109248
210	0xbedac10d	-0.4272541
211	0xbe9d7e17	-0.3076026
212	0xbd84cea2	-0.064847246
213	0xbf24bd2a	-0.6435114
214	0xbe9943f8	-0.2993467
215	0x3c3a31ae	0.011364384
216	0xbf0463e8	-0.51714945
217	0xbcb3e5ec	-0.021960221
218	0x3e653ed0	0.22387242
219	0x3e21cf99	0.15801848
220	0x3f3df23a	0.74197733
221	0xb71fdc42	-9.528421e-06
222	0xbe25675f	-0.16152714
223	0xbd4dc7f6	-0.050239526
224	0xbd0a2903	-0.033730518
225	0xbe48723d	-0.19574828
226	0xbde4a710	-0.11164677
227	0xbf225940	-0.63417435
228	0xbfa7e0a8	-1.3115435
229	0xbee71b6a	-0.45138103
230	0xbdc13e77	-0.09435742
231	0x3ea52d0b	0.32260928
232	0xbd922e9c	-0.07137796
233	0x3ddb8d3e	0.10720299
234	0xbf0c1fee	-0.5473622
235	0xbc4ca8ee	-0.012491448
236	0xbf0dcc90	-0.5539026
237	0xbe8f6385	-0.28005615
238	0xbecc98ec	-0.3996042
239	0xbe871ace	-0.26387638
240	0xbf808cbb	-1.0042948
241	0xbd87dcff	-0.066339485
242	0xbeb73cd4	-0.35788596
243	0xbe2f088a	-0.17093101
244	0xbddeca35	-0.10878412
245	0x3c3eee24	0.011653457
246	0xbe9fc16f	-0.31202266
247	0x3d987356	0.074438736
248	0x3f115837	0.5677523
249	0x3eb74989	0.3579829
250	0x3cc4897e	0.023991343
251	0x3d6d548b	0.057941955
252	0xbd991288	-0.07474238
253	0xbdaa6474	-0.08319941
254	0xbe41d60a	-0.18929306
255	0xbf49dc5e	-0.7885188

model.layer_1.mainModule.bias f4 [4]
0	0x3d60a7dc	0.054847583
1	0x3e5ba10e	0.21448156
2	0x3d2db02e	0.042404346
3	0x3e880e46	0.2657339

model.layer_1.PBtoTop.0 f4 [1, 4]
0	0x31546a7d	3.0910592e-09
1	0x34ca00c9	3.7626003e-07
2	0xb52dbb82	-6.472038e-07
3	0x3454f204	1.9832083e-07

model.layer_1.PBtoTop.1 f4 [2, 4]
0	0x31d9a19b	6.3339036e-09
1	0x3549cba8	7.5174694e-07
2	0xb5ad88c4	-1.2929308e-06
3	0x34d47c45	3.9578495e-07
4	0xb08d65a8	-1.0287993e-09
5	0x34c998ed	3.7550436e-07
6	0xb52d5147	-6.4565796e-07
7	0x348dc0b5	2.640351e-07

model.layer_1.PBtoTop.2 f4 [3, 4]
0	0x3bedae60	0.007253453
1	0x3bb71b7c	0.005587993
2	0x395ac7a6	0.00020864475
3	0x3c1cc8fd	0.009569404
4	0x3bce5777	0.0062970477
5	0x3bb70ffb	0.005586622
6	0x3988e4f9	0.0002611054
7	0x3cc91b10	0.024549037
8	0x3bfecd30	0.007775925
9	0x3bb5a466	0.0055432795
10	0x396db203	0.00022668396
11	0x3c387737	0.011258892

model.layer_1.pb.layers.0.weight f4 [4, 784]
0	0xbcf5e41e	-0.030016001
1	0xbd0f4356	-0.034976326
2	0xbd1cc16a	-0.03827039
3	0xbd18af75	-0.037276704
4	0xbd30a955	-0.043130238
5	0xbd17d49c	-0.037067994
6	0xbd071239	-0.032976363
7	0xbbf0f9b0	-0.007353984
8	0xbd0b00be	-0.033936255
9	0xbcd6b853	-0.02621094
10	0xbc6a872b	-0.014314453
11	0xbcd209c8	-0.02563943
12	0xbd1856ed	-0.037192274
13	0xbd16ca6e	-0.036814146
14	0xbce7d1ed	-0.028298343
15	0xbc30fbfb	-0.010802264
16	0xbcc683e0	-0.024232805
17	0xbcb2c8c8	-0.021824256
18	0xbcb905ba	-0.022585738
19	0xbca82f0c	-0.020530246
20	0xbccaed08	-0.024771228
21	0xbd496bcc	-0.04917507
22	0xbd0a13dd	-0.03371035
23	0xbc2a74ee	-0.010403855
24	0xbca385a5	-0.019961188
25	0xbcd916f6	-0.026500206
26	0xbd0842ca	-0.03326682
27	0xbcbfa75a	-0.02339523
28	0xbc739f48	-0.014869519
29	0xbd0f5abf	-0.03499865
30	0xbd0d34c6	-0.034474157
31	0xbc74d7b7	-0.014944009
32	0xbcbba6b8	-0.022906646
33	0xbcf6bde2	-0.03011984
34	0xbc8267be	-0.015918609
35	0xbcb4ad46	-0.02205528
36	0xbd27eb1c	-0.040995702
37	0xbd0b5d27	-0.034024384
38	0xbcdd88cf	-0.027042774
39	0xbcf2f803	-0.029659277
40	0xbceb3bd4	-0.028715052
41	0xbd00ecd1	-0.031475846
42	0xbd3394ed	-0.0438432
43	0xbca39600	-0.019968987
44	0xbcec5c64	-0.028852649
45	0xbcfb8f72	-0.030708048
46	0xbbafb849	-0.0053625447
47	0xbcd31427	-0.025766445
48	0xbcec9ebb	-0.028884282
49	0xbc9614d0	-0.018320471
50	0xbd31309d	-0.043259252
51	0xbcba21d8	-0.022721216
52	0xbd0a3b6a	-0.033748068
53	0xbcb57d9c	-0.022154622
54	0xbd0b65aa	-0.0340325
55	0xbca65789	-0.020305412
56	0xbd1bbac0	-0.038019896
57	0xbd79a9bb	-0.060952883
58	0xbc98b067	-0.018638803
59	0xbcd179eb	-0.02557083
60	0xbcb6f955	-0.022335688
61	0xbc63e715	-0.013910075
62	0xbc4e2663	-0.012582394
63	0xbd0fcff8	-0.035110444
64	0xbd54b7e7	-0.051933195
65	0xbd43e8e2	-0.047829516
66	0xbc676eb9	-0.014125519
67	0xbcddfbf5	-0.027097682
68	0xbd0c01a0	-0.034181237
69	0xbce45c49	-0.027876036
70	0xbc962c0c	-0.01833155
71	0xbc4c21f1	-0.012459264
72	0xbca8103b	-0.020515552
73	0xbd2a6297	-0.04159793
74	0xbd16eadb	-0.03684507
75	0xbc9123cb	-0.017717263
76	0xbd27f991	-0.04100949
77	0xbccf2e4d	-0.025290633
78	0xbd05831d	-0.032595742
79	0xbd1cd292	-0.038286753
80	0xbd08235f	-0.033236858
81	0xbc71147c	-0.0147143565
82	0xbcc5cb4c	-0.024144791
83	0xbd15a9fd	-0.036539067
84	0xbd05948c	-0.03261237
85	0xbceff154	-0.029289879
86	0xbcda79cf	-0.026669411
87	0xbcfbc46f	-0.030733315
88	0xbd2b3087	-0.041794326
89	0xbcd0f410	-0.025507003
90	0xbcd2fb9f	-0.025754748
91	0xbc5a36c6	-0.013318723
92	0xbb0ca57d	-0.0021460943
93	0xbc33f184	-0.010982875
94	0xbc8eccb1	-0.017431589
95	0xbcc43397	-0.023950381
96	0xbcbf01f4	-0.023316361
97	0xbc7f1bd5	-0.0155706005
98	0xbcb1de09	-0.02171232
99	0xbcfd98c8	-0.03095664
100	0xbd3aa4a3	-0.045567166
101	0xbd016364	-0.031588927
102	0xbd680d5a	-0.056653358
103	0xbd32cc14	-0.043651655
104	0xbc6b26a2	-0.0143524725
105	0xbd00b82e	-0.031425647
106	0xbd1b60ca	-0.037934102
107	0xbcac5560	-0.021036804
108	0xbce269a1	-0.027638258
109	0xbccfe903	-0.025379663
110	0xbd31b5b8	-0.04338619
111	0xbc883f33	-0.016631698
112	0xbd2e6c21	-0.04258359
113	0xbd08d241	-0.03340364
114	0xbca51a5f	-0.020154176
115	0xbd37cc4d	-0.04487257
116	0xbcb84085	-0.022491703
117	0xbce36994	-0.027760305
118	0xbbbc683e	-0.0057497313
119	0xbc1b7aec	-0.009489756
120	0x3c270af0	0.010195479
121	0xbc19c2e3	-0.0093848435
122	0xbd05d7c2	-0.032676466
123	0xbc94ed81	-0.018179657
124	0xbcc3a183	-0.023880726
125	0xbc229a71	-0.009924517
126	0x3b970121	0.004608289
127	0xbc61ca1e	-0.013781099
128	0xbcb547c8	-0.022128955
129	0xbb5c1330	-0.0033580773
130	0x3c117850	0.008878782
131	0xbc9c3d04	-0.019072063
132	0xba7407f8	-0.0009309049
133	0xbc7a254d	-0.015267682
134	0xbc8f58c9	-0.01749839
135	0xbce97447	-0.028497828
136	0xbccc6f76	-0.024955492
137	0xbd0a9fd0	-0.033843815
138	0xbcf7c08a	-0.030243177
139	0xbccd8a08	-0.025090232
140	0xbd057f65	-0.032592196
141	0xbcfc9afa	-0.030835617
142	0xbcaa044c	-0.020754002
143	0xbd31e54d	-0.04343157
144	0xbc5980db	-0.01327535
145	0xbcb67055	-0.022270361
146	0x39b6300d	0.00034749546
147	0x3c7a13a0	0.015263468
148	0x3cdad27a	0.026711691
149	0xbc53a25d	-0.012917128
150	0xbcc71542	-0.024302129
151	0xbbb2e866	-0.005459833
152	0xbbf4379f	-0.0074529196
153	0xbabfb721	-0.001462672
154	0x3a90082b	0.0010988762
155	0x3b99b1d4	0.004690388
156	0xbab8e9a7	-0.001410772
157	0x39ab4faf	0.0003267503
158	0x3c6a074b	0.014283965
159	0x3c5f4080	0.013626218
160	0xb95edec9	-0.00021254564
161	0xba85be24	-0.0010203761
162	0xbc951d0c	-0.018202327
163	0xbc89ee7d	-0.016837353
164	0xbca7e86c	-0.02049657
165	0xbd1bef52	-0.03807003
166	0xbce81776	-0.0283315
167	0xbd0150ba	-0.031571127
168	0xbd229f56	-0.039702736
169	0xbd2acf34	-0.04170151
170	0xbce4746a	-0.027887542
171	0xbcfb440f	-0.030672101
172	0xbb3c136c	-0.00286981
173	0xbcbb0610	-0.02283004
174	0x3bbb33c5	0.0057129585
175	0x3c4aa17a	0.012367601
176	0xbc8bb811	-0.017055543
177	0xbc92640e	-0.017869975
178	0xbccf0786	-0.025272142
179	0x3c218254	0.009857733
180	0x3c9c7435	0.01909838
181	0xbb9f38a2	-0.004859046
182	0x3cb9f500	0.022699833
183	0x3cacf719	0.02111392
184	0x3ce99338	0.028512582
185	0x3d2aa72f	0.041663345
186	0x3c141240	0.009037554
187	0x3b6eac04	0.0036418447
188	0x3b319547	0.0027097033
189	0x3b06e700	0.0020584464
190	0xba9a88ed	-0.0011790075
191	0xbaea4404	-0.0017873053
192	0xbca3b119	-0.019981908
193	0xbd2d366a	-0.04228822
194	0xbcbc2c11	-0.022970231
195	0xbcf8114b	-0.030281683
196	0xbcf272e7	-0.029595805
197	0xbc7cbb7e	-0.015425561
198	0xbd24ed1d	-0.04026519
199	0xbcb31e2c	-0.021864973
200	0xbce7dcba	-0.028303493
201	0xbbbc9148	-0.0057546236
202	0x3d0c93d0	0.034320652
203	0x3ca17a14	0.019711532
204	0xbc2fb429	-0.010724106
205	0x3c527d34	0.012847234
206	0xbc1bce03	-0.009509566
207	0xbb8cc00e	-0.0042953556
208	0x3cb95dfb	0.022627821
209	0x3d00cf04	0.031447425
210	0x3d3d7c13	0.046260905
211	0x3d0aa350	0.033847153
212	0x3d005974	0.03133531
213	0x3bb597df	0.005541786
214	0xbb6dbebf	-0.0036277024
215	0x3b0059ac	0.0019584699
216	0x3c82dcb8	0.015974388
217	0x3b68d0f4	0.0035524936
218	0xbc15efd6	-0.00915142
219	0xbc65409e	-0.013992457
220	0xbca24fc5	-0.019813428
221	0xbd4a3484	-0.04936649
222	0xbd3cc214	-0.046083525
223	0xbd325732	-0.043540187
224	0xbccf3a76	-0.025296431
225	0xbd13822e	-0.03601282
226	0xbcb49cfb	-0.02204751
227	0xbcaf5f41	-0.021407725
228	0xbbd7426c	-0.0065691974
229	0x3c270258	0.01019343
230	0x3c39336d	0.011303765
231	0xbc8af022	-0.016960207
232	0xbd0c6690	-0.0342775
233	0xbb91326d	-0.00443106
234	0x3c8e85c7	0.017397774
235	0x3a3ef712	0.0007284741
236	0x3ad791e6	0.0016446679
237	0x3c7a64d0	0.015282825
238	0x3c728f88	0.014804728
239	0x3d15f10c	0.036606833
240	0x3c6172e8	0.013760306
241	0x3b0e14c2	0.0021679853
242	0xbc016577	-0.007897726
243	0xbaf78ced	-0.0018886604
244	0xba6bf94f	-0.00090016884
245	0xbc478350	-0.012177303
246	0x39ff6a26	0.00048716477
247	0xb9c70347	-0.0003795868
248	0x3ba09c7c	0.004901467
249	0xbcd62a73	-0.026143288
250	0xbcc171d8	-0.023613855
251	0xbd31919f	-0.043351766
252	0xbc627381	-0.013821484
253	0xbc896b1a	-0.016774703
254	0xbd249f02	-0.040190704
255	0xbcc5cf7b	-0.024146786

model.layer_1.pb.layers.0.bias f4 [4]
0	0x3d020bbe	0.03174948
1	0x3d18502d	0.037185837
2	0x3d3eae46	0.04655292
3	0x3d233852	0.039848633

model.layer_1.pb.layers.1.weight f4 [4, 784]
0	0xbd1a64ac	-0.037693664
1	0xbd000d5c	-0.03126274
2	0xbd039a2b	-0.032129448
3	0xbd6d0e73	-0.057875108
4	0xbc814109	-0.015778081
5	0xbd062a18	-0.032754987
6	0xbcbe828b	-0.023255607
7	0xbc80532d	-0.015664661
8	0xbd06db87	-0.0329242
9	0xbbad3dc0	-0.005286902
10	0xbd3559e4	-0.04427518
11	0xbd1b15dc	-0.037862644
12	0xbd08bbe0	-0.033382297
13	0xbd0f38df	-0.034966346
14	0xbd33d55a	-0.04390464
15	0xbd0a5456	-0.033771835
16	0xbd1d4722	-0.038397916
17	0xbcbfbbbd	-0.02340495
18	0xbd1afc48	-0.03783825
19	0xbd60a195	-0.054841597
20	0xbcff1d00	-0.031141758
21	0xbce1dacb	-0.027570149
22	0xbd154b9a	-0.036449052
23	0xbcf5230d	-0.02992394
24	0xbcec234c	-0.028825425
25	0xbce6fdeb	-0.02819725
26	0xbd0fadb5	-0.03507777
27	0xbd399b70	-0.045314252
28	0xbc96c0c4	-0.018402465
29	0xbd255bc3	-0.040370714
30	0xbd4b8831	-0.04969043
31	0xbccdf4cf	-0.025141148
32	0xbcabaa29	-0.020955162
33	0xbcb8e988	-0.022572294
34	0xbcf3c8b2	-0.029758785
35	0xbcbaeb12	-0.022817168
36	0xbcd580ac	-0.026062332
37	0xbd520f32	-0.051284023
38	0xbd54bac0	-0.05193591
39	0xbd2b9699	-0.041891668
40	0xbc4274ac	-0.011868637
41	0xbcb7dd5e	-0.022444423
42	0xbcda6163	-0.026657766
43	0xbce2f125	-0.027702877
44	0xbd1efad9	-0.038813446
45	0xbd23b4c2	-0.039967306
46	0xbcd513ed	-0.026010478
47	0xbd204d89	-0.039136443
48	0xbd4221f2	-0.047395654
49	0xbcc6aec7	-0.024253262
50	0xbcd8d119	-0.026466893
51	0xbd37dfdc	-0.044891223
52	0xbcf1a874	-0.02949927
53	0xbca1dc63	-0.019758409
54	0xbcc674d0	-0.024225622
55	0xbd2bd7a7	-0.04195371
56	0xbcafb95e	-0.021450695
57	0xbd06d419	-0.032917116
58	0xbd186aff	-0.037211414
59	0xbd05ba4c	-0.03264837
60	0xbc916c11	-0.017751725
61	0xbcea4d49	-0.028601306
62	0xbc1c6020	-0.009544402
63	0xbd0609fc	-0.032724366
64	0xbd39e6d4	-0.04538615
65	0xbcb1ed86	-0.021719705
66	0xbd2c8705	-0.042120952
67	0xbd23fe31	-0.040037338
68	0xbcd15b0b	-0.025556108
69	0xbca97579	-0.020685898
70	0xbc17c295	-0.009262701
71	0xbc3dd092	-0.011585372
72	0xbd3a6ed2	-0.045515843
73	0xbd4004d1	-0.046879593
74	0xbd094770	-0.033515394
75	0xbc0ab596	-0.008466145
76	0xbbb1e0df	-0.005428418
77	0xbcb2dd9c	-0.021834187
78	0xbcbb2130	-0.022842973
79	0xbd13698f	-0.03598934
80	0xbce61238	-0.02808486
81	0xbcda0dad	-0.02661785
82	0xbd119fb3	-0.03555269
83	0xbcdbe33e	-0.026841756
84	0xbcc6464f	-0.024203448
85	0xbcc62236	-0.024186235
86	0xbcbe7bbf	-0.023252366
87	0xbcdfd2b3	-0.027322149
88	0xbd2fb36b	-0.042895716
89	0xbd096f94	-0.033553675
90	0xbd07d96f	-0.033166345
91	0xbd10e467	-0.03537407
92	0xbbc72e98	-0.0060785525
93	0xba875678	-0.0010325452
94	0xbb8cdf6c	-0.004299095
95	0xbc7e941a	-0.01553824
96	0xbba552e4	-0.0050452817
97	0xbc62eb57	-0.013850055
98	0xbc71626a	-0.014732936
99	0xbb750783	-0.003738851
100	0xbd090c9d	-0.033459295
101	0xbd892b65	-0.0669773
102	0xbd19169d	-0.03737508
103	0xbd0b8da8	-0.03407064
104	0xbcbaf827	-0.022823406
105	0xbcc33cd8	-0.023832723
106	0xbc9b81bb	-0.018982759
107	0xbcb33728	-0.021876886
108	0xbd348fd6	-0.044082485
109	0xbcae0787	-0.021243824
110	0xbc52d3ba	-0.012867862
111	0xbd2a5947	-0.041589048
112	0xbccf726b	-0.025323113
113	0xbcbaf74e	-0.022823002
114	0xbce94aef	-0.028478114
115	0xbd06409d	-0.032776464
116	0xbc9d4745	-0.019199023
117	0xbc797cc4	-0.0152275
118	0xbc8f4128	-0.017487124
119	0xbb876454	-0.004131833
120	0x3bcd92d6	0.0062736077
121	0x3c0597c4	0.0081538595
122	0xbd1859de	-0.03719508
123	0xbc1795f5	-0.009252061
124	0xbc6f2adb	-0.01459762
125	0xbc88110e	-0.016609695
126	0xbc33aeb7	-0.010966948
127	0xbc949d59	-0.018141435
128	0xbc8d590f	-0.01725438
129	0x3c72904a	0.014804909
130	0x3be2ac9a	0.0069175484
131	0x3c1dc5ba	0.009629661
132	0xbbef725e	-0.007307335
133	0xbb91e27e	-0.004452049
134	0xbb84619c	-0.0040399563
135	0xbc8d8e37	-0.017279727
136	0xbcaca633	-0.021075344
137	0xbcefafe6	-0.02925868
138	0xbca95e1d	-0.02067476
139	0xbd51c134	-0.051209643
140	0xbc3f8e19	-0.011691594
141	0xbd1ba4de	-0.037999026
142	0xbced5e2c	-0.028975569
143	0xbccc8384	-0.024965055
144	0xbd23bbb9	-0.03997395
145	0xbc6cca66	-0.014452552
146	0xbc8073ce	-0.01568022
147	0x3bfc6018	0.007701885
148	0x3d02afbe	0.031905882
149	0xbca3d4e4	-0.019998975
150	0xbc23103e	-0.009952603
151	0x39f86e7d	0.00047384566
152	0xbba1a6b1	-0.0049332012
153	0x3c75e125	0.015007292
154	0x3c2d2845	0.010568683
155	0x3b7dd428	0.0038731191
156	0x3cfb2eff	0.030662058
157	0x3c8f9090	0.017524987
158	0x3c0c5dd3	0.008567291
159	0xba881ede	-0.0010385176
160	0xbc9952f7	-0.018716319
161	0xbcfd17c6	-0.030895125
162	0xbba2f167	-0.004972625
163	0xbce5a2d6	-0.028031748
164	0xbc6cc7c7	-0.0144519275
165	0xbd0c2862	-0.0342182
166	0xbd12691d	-0.035744775
167	0xbcd7f724	-0.026362963
168	0xbce0e18a	-0.027451295
169	0xbd045ef0	-0.032317102
170	0xbd1e0a23	-0.038583886
171	0xbccfd3b6	-0.025369506
172	0xbcc813be	-0.024423476
173	0xbc2f35cc	-0.0106939785
174	0x3ce6695c	0.028126411
175	0x3c97e0c2	0.01853979
176	0x3b00d0c9	0.0019655696
177	0xbc3055e4	-0.010762665
178	0x3beb99b5	0.007189954
179	0xbb508e26	-0.0031823008
180	0x3c09ce32	0.008410977
181	0x3cd1b073	0.025596833
182	0x3d2e18fa	0.04250429
183	0x3d54903f	0.051895376
184	0x3d14834d	0.03625803
185	0x3d0d3c4b	0.034481328
186	0x3c3309e9	0.010927656
187	0x3a4d3a87	0.00078288506
188	0xbc6b52f7	-0.014363042
189	0xbc182687	-0.009286529
190	0xbc9d67ec	-0.019214593
191	0xbc5a2f6e	-0.013316972
192	0xbcf48629	-0.029849129
193	0xbc82757f	-0.015925167
194	0xbccbea41	-0.024891974
195	0xbd1d1cd4	-0.03835757
196	0xbd2d705b	-0.04234348
197	0xbd0b8d11	-0.03407008
198	0xbceb4f03	-0.0287242
199	0xbc85e32f	-0.016343681
200	0xbd02eef2	-0.031966157
201	0xbb59b2d9	-0.0033218174
202	0x3ca11573	0.019663548
203	0x3bf1a3f1	0.0073742797
204	0xbc3b5ee0	-0.011436194
205	0x3b26f2bf	0.0025474278
206	0xbc2a1ba9	-0.010382571
207	0x3c2f1dd6	0.010688266
208	0x3cae5ade	0.021283563
209	0x3d7cbe0c	0.06170468
210	0x3d25f601	0.04051781
211	0x3d1cf6da	0.038321353
212	0x3d2fc45c	0.042911872
213	0x3c7a8b71	0.0152920345
214	0xbb8a197a	-0.004214463
215	0xbc0f1508	-0.008733042
216	0x3c71142e	0.014714284
217	0xbbe19384	-0.0068840403
218	0xbce2e85e	-0.027698692
219	0xbd2d597a	-0.04232166
220	0xbcbdfa69	-0.023190694
221	0xbd688379	-0.056766007
222	0xbd1545e6	-0.036443613
223	0xbd0abcf0	-0.03387159
224	0xbd13a1e2	-0.036043055
225	0xbd0aa9a5	-0.033853192
226	0xbd17a7b5	-0.037025172
227	0xbd1bdda3	-0.038053166
228	0xba3b9e64	-0.0007157086
229	0x3c98361b	0.018580487
230	0x3cce0e17	0.025153203
231	0x3b4175e5	0.0029519734
232	0xbd06ba8f	-0.03289276
233	0xbb2ba3f5	-0.0026190255
234	0x3af3e7cb	0.0018608508
235	0x3c099792	0.008397954
236	0x3ccf4a74	0.025304057
237	0x3d0b6cf1	0.03403944
238	0x3d0536cd	0.032522965
239	0x3cc8f63c	0.024531476
240	0x3cf2107b	0.029548874
241	0xbc5a68cd	-0.0133306505
242	0xbcc7c2b2	-0.02438483
243	0xbc0974f9	-0.008389705
244	0x3b8111ee	0.003938905
245	0xbbd01791	-0.0063504656
246	0xbc834ecd	-0.016028786
247	0x3b384059	0.0028114526
248	0xbb2ed4ed	-0.0026677207
249	0xbd22bd9e	-0.039731614
250	0xbd0756e3	-0.033041846
251	0xbd0c0a7f	-0.034189697
252	0xbd1b8906	-0.037972473
253	0xbd225379	-0.039630387
254	0xbc7bcd75	-0.015368809
255	0xbd19fcfa	-0.037594773

model.layer_1.pb.layers.1.bias f4 [4]
0	0x3cde6917	0.02714972
1	0x3ccfd5bd	0.025370473
2	0x3d2d9170	0.042375028
3	0x3d192f15	0.037398417

model.layer_1.pb.layers.2.weight f4 [4, 784]
0	0xbcbbcdb0	-0.022925228
1	0xbd2cb068	-0.04216042
2	0xbcf1b819	-0.02950673
3	0xbcdd5ea0	-0.02702266
4	0xbceb43c9	-0.028718846
5	0xbcdbca3d	-0.026829833
6	0xbd4aaeb5	-0.04948302
7	0xbd099530	-0.033589542
8	0xbcfe0ecd	-0.031012917
9	0xbc6a7df5	-0.014312257
10	0xbcde4724	-0.027133532
11	0xbceb0c84	-0.028692491
12	0xbd227282	-0.039659984
13	0xbd099f5f	-0.033599254
14	0xbcca1658	-0.024668857
15	0xbce1adf1	-0.027548762
16	0xbd25bdcb	-0.040464204
17	0xbcbbc5d5	-0.022921482
18	0xbce39b8a	-0.027784128
19	0xbcd5eee6	-0.026114892
20	0xbcc7fdf3	-0.024413085
21	0xbd3591b9	-0.044328425
22	0xbc90b6d4	-0.017665304
23	0xbcbc4a1f	-0.022984562
24	0xbc9412c4	-0.018075354
25	0xbd0f9918	-0.03505811
26	0xbcbbb7dc	-0.02291482
27	0xbd02faff	-0.03197765
28	0xbcea4cf9	-0.028601157
29	0xbce1ca1e	-0.027562197
30	0xbcef3e77	-0.02920459
31	0xbcdb7e1f	-0.026793538
32	0xbd63c057	-0.05560335
33	0xbce263d2	-0.027635489
34	0xbce5d1b2	-0.028054092
35	0xbd239859	-0.039940212
36	0xbc9b373e	-0.01894724
37	0xbce3ab99	-0.027791785
38	0xbcf2cc4f	-0.029638438
39	0xbd778ac6	-0.06043508
40	0xbce1748a	-0.02752139
41	0xbca9adb1	-0.020712705
42	0xbd1b137f	-0.03786039
43	0xbd08945d	-0.033344615
44	0xbcffd011	-0.031227143
45	0xbd01d4c9	-0.03169707
46	0xbd12046e	-0.035648756
47	0xbce06523	-0.027391976
48	0xbca551e6	-0.020180654
49	0xbd2139b5	-0.039361674
50	0xbd0fba92	-0.035090037
51	0xbcf71373	-0.030160641
52	0xbccf7527	-0.025324417
53	0xbcc1730d	-0.02361443
54	0xbd0acbb8	-0.033885688
55	0xbc657b0d	-0.014006388
56	0xbd146011	-0.03622443
57	0xbd159134	-0.03651543
58	0xbd0e2138	-0.03469965
59	0xbc87a37c	-0.016557448
60	0xbcbda720	-0.02315098
61	0xbd14d2c8	-0.03633383
62	0xbcaedcbb	-0.021345487
63	0xbd20195d	-0.03908669
64	0xbcefe509	-0.029284017
65	0xbd4be0a8	-0.049774796
66	0xbce1dac0	-0.027570128
67	0xbd1e4dff	-0.0386486
68	0xbd0961fd	-0.033540715
69	0xbd3332d1	-0.043749634
70	0xbcc6196a	-0.02418204
71	0xbcafe83d	-0.021473045
72	0xbca90b16	-0.020635169
73	0xbcb51232	-0.022103403
74	0xbc69c12d	-0.014267248
75	0xbc7e2a85	-0.015513067
76	0xbc68017a	-0.014160508
77	0xbc988172	-0.018616412
78	0xbcb3345a	-0.02187555
79	0xbcf08bc8	-0.029363528
80	0xbcb22a26	-0.021748614
81	0xbd2d5291	-0.04231507
82	0xbcd27fe1	-0.025695743
83	0xbceeeeec	-0.029166661
84	0xbd00bb7e	-0.031428806
85	0xbd0048e7	-0.031319525
86	0xbd325e80	-0.043547153
87	0xbd226acf	-0.03965264
88	0xbcb01f05	-0.021499166
89	0xbcd879e5	-0.026425311
90	0xbca9e45c	-0.020738773
91	0xbc9ae787	-0.018909229
92	0xbb7ae43e	-0.0038283016
93	0x3b8841e7	0.004158247
94	0xbca29bc7	-0.019849671
95	0xbbb3a752	-0.0054825926
96	0xbc632d8a	-0.013865838
97	0xbcb9b1a1	-0.022667708
98	0xbd2556b6	-0.040365897
99	0xbd05290f	-0.03250986
100	0xbd389de3	-0.045072448
101	0xbd4cc8e2	-0.049996264
102	0xbd17dd27	-0.03707614
103	0xbc9eb7d9	-0.019374775
104	0xbc7ad50e	-0.015309585
105	0xbd3e7b86	-0.04650452
106	0xbc17fb65	-0.009276246
107	0xbceae58b	-0.028673908
108	0xbc5d0e0c	-0.013492119
109	0xbceced36	-0.028921705
110	0xbd0fd72f	-0.035117324
111	0xbd0fc3f3	-0.03509898
112	0xbd193985	-0.03740837
113	0xbd452f07	-0.048140552
114	0xbcf11965	-0.029431054
115	0xbccc63de	-0.024949964
116	0xbce7df46	-0.028304707
117	0xbcbd1bf3	-0.023084616
118	0xbc0d26c5	-0.0086152
119	0xb8e2c88e	-0.00010813876
120	0x3c025756	0.007955393
121	0x3c7777f2	0.015104281
122	0xbd132175	-0.03592058
123	0x3b5ae6e7	0.0033401789
124	0xbcd2161d	-0.02564531
125	0xbcb375c3	-0.02190674
126	0x3b9620eb	0.004581561
127	0xbba49efc	-0.005023835
128	0xb9503b0a	-0.0001985842
129	0xbc3bb1cb	-0.011455963
130	0xbcbc05e7	-0.022952033
131	0xbc56af4a	-0.013103316
132	0x3b73ad86	0.0037182285
133	0xbca8c23b	-0.020600429
134	0xbcfbc1b2	-0.03073201
135	0xbca48164	-0.02008123
136	0xbc99eb9e	-0.018789109
137	0xbce6a56b	-0.02815505
138	0xbcf09e69	-0.02937241
139	0xbcdb0b25	-0.026738713
140	0xbbbd9279	-0.005785283
141	0xbbf90d04	-0.0076004285
142	0xbd094e83	-0.03352214
143	0xbc9e8eca	-0.019355197
144	0xbcc0a770	-0.02351734
145	0xb7dab0d2	-2.6069963e-05
146	0xbad3bbba	-0.0016153969
147	0x3c343767	0.010999537
148	0x3d5674bc	0.05235742
149	0x385ae8cc	5.219206e-05
150	0xbc424479	-0.0118571455
151	0x3c39c912	0.011339443
152	0xbbc28a6f	-0.0059369127
153	0x3c33b44a	0.010968277
154	0x3c850d7f	0.016241787
155	0x3ccd4c86	0.025060903
156	0x3d3b0344	0.04565741
157	0x3b241925	0.0025039401
158	0x3aec642a	0.0018035222
159	0xba66eb21	-0.00088088406
160	0xbc70adef	-0.0146899065
161	0xbc1fe500	-0.009759188
162	0xbb166ef6	-0.0022954321
163	0xbc97dc68	-0.018537715
164	0xbd235b81	-0.039882187
165	0xbc3ab40d	-0.0113954665
166	0xbd0adace	-0.033900075
167	0xbcf1784a	-0.029476304
168	0xbcaa269a	-0.02077036
169	0xbd0c36f2	-0.034232087
170	0xbd2818a4	-0.041039124
171	0xbca4ef2a	-0.020133574
172	0xbc680a19	-0.014162564
173	0xbc75055e	-0.014954893
174	0x3b431b20	0.0029770806
175	0x39d9d940	0.0004155133
176	0xbbbac2af	-0.0056994776
177	0xbd0d5568	-0.034505278
178	0xbc481517	-0.012212059
179	0xbb80960f	-0.0039241384
180	0x3c8f8de2	0.01752371
181	0x3d09d87b	0.033653717
182	0x3d450ea2	0.048109658
183	0x3d361a2e	0.04445856
184	0x3ce45f46	0.027877461
185	0x3d0239f5	0.031793553
186	0x3b190a3b	0.0023352045
187	0xbb1f4b93	-0.002430652
188	0x3b9a193d	0.0047027157
189	0x3b9fb666	0.0048740385
190	0xbc02828b	-0.007965694
191	0xbbe1db80	-0.0068926215
192	0xbcd77290	-0.026299745
193	0xbd73bfe8	-0.059509188
194	0xbd01ea7d	-0.031717766
195	0xbcc7a9b2	-0.02437291
196	0xbd0b142a	-0.033954777
197	0xbd147adc	-0.03624998
198	0xbc785712	-0.015157478
199	0xbb64d420	-0.0034916475
200	0xbcebb658	-0.028773472
201	0xbbdc8a83	-0.006730379
202	0x3cf85256	0.030312698
203	0xbb59ee3b	-0.0033253569
204	0xbc17d845	-0.009267871
205	0xbc391719	-0.011297011
206	0xbcd5bda8	-0.026091412
207	0x3be2ec56	0.006925146
208	0x3c433d4e	0.011916472
209	0x3cf65589	0.030070083
210	0x3d1246ec	0.035712168
211	0x3d2c8d5b	0.042126995
212	0x3d001865	0.031273264
213	0x38540d78	5.0557283e-05
214	0x3b22e7b4	0.0024857344
215	0x3b0dd5cc	0.0021642325
216	0xbb3a0442	-0.0028383886
217	0x3b8685e5	0.004105317
218	0xbcbe513f	-0.0232321
219	0x3c0ca41e	0.00858405
220	0xbccbfc3b	-0.024900546
221	0xbd1d7400	-0.038440704
222	0xbcd10b0a	-0.02551796
223	0xbcc18ba9	-0.023626165
224	0xbc8573cc	-0.016290568
225	0xbd1a739e	-0.037707917
226	0xbc866439	-0.016405212
227	0xbc337c79	-0.01095497
228	0x3b1cca92	0.0023924452
229	0x3c2cf9d6	0.010557612
230	0x3cc098e9	0.023510413
231	0xbafb3dd7	-0.001916821
232	0xbd05abf8	-0.032634705
233	0xbc243009	-0.010021218
234	0x3cbaf974	0.022824027
235	0x36b02bb5	5.250297e-06
236	0x3cb48949	0.022038119
237	0x3cf18b8b	0.029485485
238	0x3d1a37c9	0.037650857
239	0x3d2b3a9f	0.041803952
240	0x3cbf6158	0.023361847
241	0x3cc63568	0.024195388
242	0xbc0d6344	-0.008629624
243	0xbc038e56	-0.008029541
244	0xbc00d1a1	-0.007862479
245	0xbcd36b3b	-0.025807967
246	0xbc91e0a3	-0.01780731
247	0xba7e6e0d	-0.000970573
248	0xbb96ce88	-0.004602257
249	0xbd0b0934	-0.033944324
250	0xbd05f8f7	-0.032708135
251	0xbcc8b44e	-0.024500038
252	0xbc854032	-0.016265962
253	0xbce4e2d5	-0.027940193
254	0xbcf1e7a7	-0.029529406
255	0xbcce26fa	-0.02516507

model.layer_1.pb.layers.2.bias f4 [4]
0	0x3d2768a7	0.04087129
1	0x3d0cd075	0.034378488
2	0x3d2c6085	0.042084236
3	0x3d20a3e0	0.039218783

model.layer_1.pb.parentModule.weight f4 [4, 784]
0	0x3cf6fd9e	0.030150231
1	0xbc9843fc	-0.018587105
2	0x3c2e2313	0.0106284795
3	0x3cef622a	0.029221613
4	0xbcce30ee	-0.025169816
5	0x3cd145e1	0.025546016
6	0xbc57944a	-0.013157913
7	0xbc742c2e	-0.014903111
8	0x3bf86eca	0.0075815665
9	0x3c4d7edc	0.012542453
10	0xbb508037	-0.0031814703
11	0xbd09ef3e	-0.033675425
12	0xbc763105	-0.015026336
13	0x3c17d957	0.009268126
14	0xbcfab581	-0.030604126
15	0xbcaa48a7	-0.020786596
16	0x3bc3c75c	0.005974693
17	0x3b88dc13	0.0041766255
18	0xbd05320b	-0.032518428
19	0xbb193c37	-0.0023381838
20	0xbc13f685	-0.009030943
21	0xbc2dbeca	-0.01060457
22	0x3caedbc5	0.021345029
23	0x3d11bf48	0.03558281
24	0x3bb2cde5	0.0054566734
25	0x3c92af4a	0.01790585
26	0x3b96968a	0.0045955824
27	0xbcc3dbd1	-0.023908528
28	0x3d0aeb18	0.03391561
29	0x3c5969f7	0.013269893
30	0x3c90de0e	0.017684009
31	0xbc5cb501	-0.013470889
32	0x3bc4385c	0.005988164
33	0xbb47e801	-0.0030503275
34	0x3d08d52b	0.033406418
35	0x3c3a55f3	0.011373031
36	0xbc29ca3c	-0.010363158
37	0xbb1c246e	-0.0023825425
38	0xb90ededc	-0.00013625197
39	0xbc516b8a	-0.012781987
40	0xbc31c0b7	-0.010849169
41	0xbd0a5567	-0.033772852
42	0xbaa38bdc	-0.0012477594
43	0xbc0aea2a	-0.008478681
44	0x3c774953	0.015093165
45	0xbcaba4dc	-0.020952635
46	0xbc4385a5	-0.011933719
47	0xbb5c9fb8	-0.0033664536
48	0xba391801	-0.0007060767
49	0xbc89f915	-0.016842404
50	0xbcba11be	-0.022713538
51	0x3c3b9813	0.011449832
52	0xbc4fb177	-0.012676588
53	0xbcb2bece	-0.021819498
54	0x3c52f3d3	0.012875515
55	0x3ca04540	0.019564271
56	0x3c20272e	0.009774966
57	0xbcb2998c	-0.021801732
58	0xbbfdd92e	-0.007746837
59	0x3bd7da4a	0.0065873014
60	0xbd1194ca	-0.035542287
61	0x3d03b0d8	0.032151073
62	0x3cd3c71a	0.025851775
63	0xbc9dff9c	-0.019286923
64	0xbcd15b0e	-0.025556114
65	0xbce35d0c	-0.02775433
66	0x3c84f1f3	0.016228652
67	0x3cb953fa	0.022623051
68	0x3c82df23	0.01597554
69	0x3ca18d50	0.019720703
70	0x3cb83073	0.02248404
71	0xbc8c8ce3	-0.017157024
72	0xbbac79dc	-0.00526355
73	0x3c892ad5	0.016744057
74	0xbb7904ca	-0.003799724
75	0x3c8cfab0	0.01720938
76	0xbc8bce90	-0.01706627
77	0x3d0a71b7	0.033799853
78	0xbc8652ca	-0.016396899
79	0xbd0588ea	-0.032601275
80	0x3ca8cf43	0.020606643
81	0x3bed2d65	0.0072380775
82	0xbcee8e4e	-0.02912059
83	0xbc5532d3	-0.013012606
84	0x3c34d397	0.011036775
85	0x3ca0b8dc	0.019619398
86	0xbc8ba2c3	-0.017045384
87	0x3c7b4e6e	0.015338523
88	0x3d08c2ea	0.03338901
89	0x3cdf5fa3	0.027267283
90	0xbc32b297	-0.010906837
91	0xbd056ef4	-0.032576516
92	0x3ceef5da	0.029169966
93	0xbce2c845	-0.027683387
94	0xbc65fe6a	-0.014037708
95	0xbc84b637	-0.016200168
96	0xbd01c624	-0.031683102
97	0x3cf46703	0.029834276
98	0xbc3e8ce1	-0.011630268
99	0x3c9b1b0c	0.018933795
100	0x3cc2313c	0.023705117
101	0x3d05857f	0.032598015
102	0xbc1b9bbc	-0.009497579
103	0xbcd1f87c	-0.025631182
104	0x3c482057	0.012214742
105	0xbbbd245c	-0.0057721566
106	0x3c1e8273	0.009674656
107	0x3c57412a	0.013138095
108	0x3c6b7efc	0.014373537
109	0xbb794d25	-0.0038040366
110	0x3c3ee6b3	0.011651683
111	0x3cffa8ce	0.031208422
112	0xbc761e13	-0.015021819
113	0x3c7be621	0.015374691
114	0xbc8167c0	-0.015796542
115	0xbc8cb77c	-0.017177336
116	0xbc3cfc57	-0.011534772
117	0xba692fb8	-0.0008895355
118	0x3c97627c	0.018479578
119	0xbb1ba8b7	-0.0023751685
120	0xba1bf000	-0.00059485435
121	0xbad20c4a	-0.0016025391
122	0xbd01b942	-0.031670816
123	0x3b8a1a0a	0.00421453
124	0xbce3d0e3	-0.027809566
125	0xbc717a21	-0.01473859
126	0xbc73c1d3	-0.014877754
127	0x3d0414fe	0.032246582
128	0x3cecbc0e	0.028898265
129	0x3cf4ff4e	0.029906895
130	0x3ce3c028	0.027801588
131	0xbd1235ab	-0.035695713
132	0x3cdc8a51	0.026921423
133	0xbb922b0a	-0.004460697
134	0x3bd0338a	0.0063538
135	0x3c238897	0.009981296
136	0x3c25fd53	0.010131198
137	0x3bfbfe81	0.0076902513
138	0x3ab41501	0.001373917
139	0xbc7ec213	-0.015549201
140	0x3d070813	0.032966685
141	0x3c957bfa	0.018247593
142	0x3d002eeb	0.031294744
143	0xbc7e4bfc	-0.015521046
144	0xbd0e74bd	-0.0347793
145	0xbc2b46bc	-0.010453876
146	0xbcd9ce33	-0.026587581
147	0xbd058676	-0.032598935
148	0xbb150f4a	-0.0022744709
149	0x3c876110	0.016525775
150	0x3c28510e	0.010273231
151	0xbcc09a7e	-0.023511168
152	0x3c2a647c	0.010399934
153	0xbc34b28a	-0.011028895
154	0xbcbbda8e	-0.022931363
155	0xbc2fda3c	-0.0107331835
156	0xbd0672fc	-0.0328245
157	0x3ce2e995	0.027699271
158	0x3d033307	0.032031085
159	0x3c8f8985	0.01752163
160	0x3cad7dea	0.021178205
161	0xbc269d7c	-0.010169383
162	0xbc92389a	-0.017849255
163	0xbc5b1e37	-0.013373903
164	0x3cb03b7c	0.02151274
165	0xbc2ea83c	-0.010660227
166	0xbd03f574	-0.032216504
167	0x3cab4d31	0.020910831
168	0x3cf90775	0.030399064
169	0xbc109a40	-0.008825839
170	0x3cd70483	0.026247269
171	0xbcfa1d3a	-0.030531514
172	0xbc1710aa	-0.009220282
173	0xbce1a82c	-0.02754601
174	0x3d05b268	0.032640845
175	0x3d000f7a	0.03126476
176	0x3c395161	0.011310906
177	0xbcea4ef8	-0.028602108
178	0xbd08817b	-0.033326607
179	0x3cc08bda	0.023504186
180	0x3c9756aa	0.018473942
181	0xbc7b84aa	-0.015351454
182	0xbcc5851e	-0.024111327
183	0x3d10d467	0.035358813
184	0xbcf27705	-0.029597769
185	0xbccf5f41	-0.025313975
186	0xbcea6bc5	-0.028615842
187	0x3c95f9a5	0.018307516
188	0xbc91cae7	-0.017796947
189	0xbcd3ec6e	-0.025869574
190	0x3a324a01	0.00068011886
191	0xbc9ea7be	-0.019367095
192	0x3cc83841	0.024440886
193	0x3ce61e65	0.028090665
194	0x3c59efee	0.013301833
195	0x3cdd2f6a	0.027000148
196	0x3ca410a0	0.020027459
197	0xbd01b66d	-0.031668115
198	0x3be3250a	0.0069319056
199	0xbccd8d75	-0.025091866
200	0xbd0e2886	-0.034706615
201	0xbc2fce53	-0.010730344
202	0xbbf1c55c	-0.0073782634
203	0xbcdcc16e	-0.026947703
204	0xbcd42023	-0.02589423
205	0x3b245037	0.0025072226
206	0x3c0b702a	0.008510629
207	0x3cf7b01e	0.030235346
208	0x3c87921a	0.016549159
209	0xbca9eb23	-0.020742005
210	0xbcafcad5	-0.021459023
211	0xbc85598a	-0.016278047
212	0x3ca6daac	0.020367943
213	0xbcea076c	-0.028567992
214	0xbc7c55ce	-0.015401317
215	0xb910fa4a	-0.0001382615
216	0xbc8d9ffe	-0.017288204
217	0x3c8589e7	0.016301109
218	0xbcda0a1e	-0.026616152
219	0xbcada393	-0.021196162
220	0xbc978375	-0.0184953
221	0x3c80ff7e	0.015746828
222	0x3d0cd916	0.034386717
223	0x3d0927e5	0.033485312
224	0x3bfbaa81	0.0076802378
225	0x3ae26d93	0.0017275087
226	0x3d0c980c	0.03432469
227	0xbd018f2b	-0.031630676
228	0x3ccc33ce	0.024927046
229	0xb9a69800	-0.00031775236
230	0x3c2b0901	0.010439158
231	0xbcee7f61	-0.029113473
232	0xbd08d102	-0.03340245
233	0xbc5fcaee	-0.013659222
234	0x3c2f1a13	0.010687369
235	0xbc78e14e	-0.015190436
236	0xbca94410	-0.020662338
237	0x3d0dbb67	0.03460255
238	0xb9c266dc	-0.000370792
239	0x3d017e47	0.031614568
240	0xbc5f552a	-0.013631145
241	0xbbbeefdc	-0.0058269333
242	0x3c98c887	0.018650306
243	0xbcae29cc	-0.021260165
244	0x3c33a74e	0.0109651815
245	0x3d0981ed	0.033571173
246	0x3c449993	0.011999506
247	0xbd085e65	-0.033293147
248	0x3c90546a	0.017618377
249	0x3c8dbfb5	0.017303327
250	0x3b6f7b38	0.003654195
251	0x3cf28cca	0.02960815
252	0xbd081d5d	-0.033231128
253	0x3c8a3b83	0.01687408
254	0xbd0ed54b	-0.03487138
255	0x3be8cc38	0.007104423

model.layer_1.pb.parentModule.bias f4 [4]
0	0x3c5df1d3	0.013546425
1	0xbcab638a	-0.020921487
2	0xbbb56125	-0.005535262
3	0xba033093	-0.00050044915

model.layer_1.pb.PBtoCandidates.0 f4 [2, 4]
0	0xbd14ad64	-0.03629817
1	0x3d3e5ca9	0.046475086
2	0x3d0129fa	0.031534173
3	0x3d171009	0.036880527
4	0xbd187599	-0.037221525
5	0x3d3f7111	0.046738688
6	0x3d011a75	0.031519372
7	0x3d5c4428	0.053775936

model.layer_1.pb.PBtoPB.1 f4 [1, 4]
0	0x3c070f23	0.008243355
1	0x3c604f2d	0.013690752
2	0x3d61b8e5	0.05510797
3	0x3d1bc613	0.038030695

model.layer_1.pb.PBtoPB.2 f4 [2, 4]
0	0xbd14ad64	-0.03629817
1	0x3d3e5ca9	0.046475086
2	0x3d0129fa	0.031534173
3	0x3d171009	0.036880527
4	0xbd187599	-0.037221525
5	0x3d3f7111	0.046738688
6	0x3d011a75	0.031519372
7	0x3d5c4428	0.053775936

model.layer_1.pb.pbValues.0.topPBCandidateAverage f4 [4]
0	0x3c1952b8	0.009358101
1	0x3f732cde	0.94990337
2	0x3f7e1bf7	0.9926142
3	0x3f667008	0.90014696

model.layer_1.pb.pbValues.0.PrevPBCandidateCorrelation f4 [4]
0	0xb8c7497b	-9.502746e-05
1	0xb71c528a	-9.317542e-06
2	0x37f06a41	2.8659708e-05
3	0xb8ba71ba	-8.8903544e-05

model.layer_1.pb.pbValues.0.currentCorrelationsForParallel f4 [4]
0	0x00000000	0.0
1	0x00000000	0.0
2	0x00000000	0.0
3	0x00000000	0.0

model.layer_1.pb.pbValues.0.bestScore f4 [4]
0	0x3b247061	0.0025091397
1	0x3b718a5e	0.0036856155
2	0x3ba3f669	0.0050037396
3	0x3b4b1736	0.0030989177

model.layer_1.pb.pbValues.0.previousBestScore f4 [4]
0	0x3b244a5e	0.002506874
1	0x3b69bf6b	0.0035667073
2	0x3ba0c506	0.0049062995
3	0x3b4605c8	0.0030215848

model.layer_1.pb.pbValues.0.PrevPBCandidateAverage f4 [4]
0	0x3d0df296	0.034655176
1	0x3f774990	0.9659662
2	0x3f7e5b4b	0.9935805
3	0x3f6f62c5	0.93510085

model.layer_1.pb.pbValues.0.mainGradAverageForScaling f4 [4]
0	0x38f7decc	0.00011819377
1	0x38d293b3	0.000100410914
2	0x3902b313	0.00012464476
3	0x38e99312	0.000111377

model.layer_1.pb.pbValues.0.candidateGradAverageForScaling f4 [4]
0	0x37ece654	2.8240647e-05
1	0x37cf8a00	2.4740584e-05
2	0x3800c9fa	3.0705683e-05
3	0x37e5b9cd	2.7385448e-05

model.layer_1.pb.pbValues.0.indexesOfbest f4 [4]
0	0x00000000	0.0
1	0x00000000	0.0
2	0x00000000	0.0
3	0x00000000	0.0

model.layer_1.pb.pbValues.0.nodesBestImprovedThisEpoch f4 [4]
0	0x00000000	0.0
1	0x00000000	0.0
2	0x00000000	0.0
3	0x00000000	0.0

model.layer_1.pb.pbValues.0.parentsAverageDvector f4 [4]
0	0x370c619e	8.3673785e-06
1	0x363a97d1	2.7804529e-06
2	0xb7d05712	-2.4836078e-05
3	0x37844f33	1.5772506e-05

model.layer_1.pb.pbValues.0.normalPassAverageD f4 [4]
0	0x36d7a5c3	6.4267965e-06
1	0xb70f74e7	-8.550683e-06
2	0x36723e92	3.609723e-06
3	0x369dde81	4.7048675e-06

model.layer_2.mainModule.weight f4 [8, 4]
0	0x3fceb449	1.6148769
1	0xbeabf39e	-0.33584303
2	0x3ed14cf1	0.40879014
3	0x3f3a4404	0.72760034
4	0x3f79f65b	0.97641534
5	0x3fad6ef7	1.3549489
6	0x3ea7ea1a	0.32795793
7	0xbf68939a	-0.9085022
8	0xbeccd37c	-0.400051
9	0x3f5dfa19	0.86709744
10	0xbf952af2	-1.1653731
11	0x3fa22419	1.2667266
12	0x3ecd7801	0.40130618
13	0x3f384c10	0.7199106
14	0xbedc4c6a	-0.4302705
15	0x3f00cfda	0.50317156
16	0x3f972638	1.1808538
17	0xbea62ae4	-0.32454598
18	0xbec2be26	-0.38035697
19	0x3f50738a	0.814263
20	0xbecb12b8	-0.3966272
21	0x3eb57ce7	0.35446855
22	0x3f96b394	1.1773553
23	0x3e972502	0.29520422
24	0xbe9c0daf	-0.3047919
25	0x3e43894a	0.1909534
26	0x3fc55537	1.541663
27	0xbd164736	-0.036689006
28	0x3f1e8ce3	0.61933726
29	0xbf6ae851	-0.91760737
30	0x3f922160	1.1416435
31	0xbe4e7c69	-0.20164646

model.layer_2.mainModule.bias f4 [8]
0	0xc05cdf7b	-3.4511402
1	0xbfe04cb2	-1.7523406
2	0x403e935f	2.9777448
3	0xbfd1d9d2	-1.6394598
4	0x400f6b3b	2.2409198
5	0xc08f4834	-4.477564
6	0x3f25e3de	0.6480082
7	0x400eec23	2.2331626

model.layer_2.PBtoTop.0 f4 [1, 8]
0	0xb4f2dfa7	-4.523874e-07
1	0x3440300b	1.7898871e-07
2	0x353703e0	6.817845e-07
3	0x350e4234	5.299546e-07
4	0xb32aadff	-3.9739458e-08
5	0xb513bfd1	-5.5040897e-07
6	0xb4825493	-2.4275923e-07
7	0xb4a21c64	-3.0195508e-07

model.layer_2.PBtoTop.1 f4 [2, 8]
0	0xb572b9ee	-9.042259e-07
1	0x34c03794	3.5803225e-07
2	0x35b6d8d2	1.362316e-06
3	0x358e2be1	1.0592595e-06
4	0xb3ab6f58	-7.983061e-08
5	0xb593b012	-1.1003597e-06
6	0xb5021e66	-4.847301e-07
7	0xb521e39b	-6.0308383e-07
8	0xb4f081e5	-4.4797994e-07
9	0x344271b1	1.8109019e-07
10	0x3536c79f	6.809077e-07
11	0x350e20f7	5.294709e-07
12	0xb3294de6	-3.9419227e-08
13	0xb513a03d	-5.4994945e-07
14	0xb481efb4	-2.420253e-07
15	0xb4a0bf39	-2.9941455e-07

model.layer_2.PBtoTop.2 f4 [3, 8]
0	0xbe5108c5	-0.20413502
1	0xbd26bbc7	-0.040706422
2	0x3d9929c5	0.0747867
3	0xbce82e03	-0.028342253
4	0x3d5561c7	0.0520952
5	0xbe1c2e7b	-0.15252106
6	0x3d8a8aec	0.067647785
7	0x3d980b74	0.074240595
8	0xbe4e35e9	-0.20137753
9	0xbd24d7cf	-0.040244874
10	0x3d997194	0.074923664
11	0xbce8d6d1	-0.028422745
12	0x3d5297e8	0.0514144
13	0xbe1bbbab	-0.15208308
14	0x3d8aa83c	0.067703694
15	0x3d9a0723	0.075208925
16	0xbe54b0f2	-0.20770624
17	0xbd298d50	-0.04139453
18	0x3d97cae1	0.07411743
19	0xbce8ae9e	-0.028403576
20	0x3d55a0c5	0.052155275
21	0xbe1b9b29	-0.15195908
22	0x3d8b4cad	0.06801734
23	0x3d9962fb	0.07489582

model.layer_2.pb.layers.0.weight f4 [8, 4]
0	0x3d214661	0.03937376
1	0x3de66522	0.11249758
2	0xbe4059ff	-0.18784331
3	0x3d986705	0.074415244
4	0x3dd84427	0.10559874
5	0x3ddc5011	0.10757459
6	0x3d5ce787	0.05393174
7	0x3da447dc	0.080215186
8	0x3e362912	0.17789105
9	0x3e005088	0.1253072
10	0x3e08baf0	0.13352561
11	0x3e00e33f	0.12586688
12	0x3db44c85	0.088036574
13	0x3ddf3825	0.108993806
14	0x3e053b26	0.13010845
15	0x3dc7a608	0.09748465
16	0x3e1f5a62	0.15561822
17	0x3df72fbf	0.12069654
18	0x3dc9a775	0.09846393
19	0x3e070967	0.1318718
20	0x3de1b5a9	0.11020977
21	0x3dceef25	0.10104207
22	0x3d6a6090	0.057220995
23	0x3de824da	0.11335154
24	0x3dffdc9f	0.12493252
25	0x3df9b925	0.12193517
26	0x3daca6dc	0.084302634
27	0x3e03b204	0.12860876
28	0x3dc7f7fc	0.09764096
29	0x3e11943f	0.14216708
30	0x3df27f9f	0.11840748
31	0x3dde80a4	0.1086438

model.layer_2.pb.layers.0.bias f4 [8]
0	0x3d12fb9d	0.03588449
1	0x3e19b777	0.15011393
2	0x3ea3e561	0.3201094
3	0x3e2c721b	0.16840403
4	0x3eb2dfd7	0.349364
5	0x3e29556e	0.16536495
6	0x3e4518fe	0.19247815
7	0x3e29e728	0.16592085

model.layer_2.pb.layers.1.weight f4 [8, 4]
0	0x3c774437	0.015091947
1	0x3dc2d69b	0.09513589
2	0xbe271ee7	-0.16320382
3	0x3d8fdafc	0.0702419
4	0x3dbf64a5	0.09345368
5	0x3ddf12fa	0.10892291
6	0x3c8f3a5f	0.017483888
7	0x3d855a43	0.06511357
8	0x3e05ad66	0.13054428
9	0x3de2daef	0.110769145
10	0x3dc79bb8	0.09746498
11	0x3dd84bab	0.105613075
12	0x3d9d2039	0.076721616
13	0x3daf384c	0.0855566
14	0x3df7a50a	0.120920256
15	0x3db85f2e	0.09002529
16	0x3e12f835	0.14352496
17	0x3de31f76	0.11089985
18	0x3db9a665	0.0906494
19	0x3da3a245	0.07989935
20	0x3da483c2	0.08032943
21	0x3dc42e30	0.09579122
22	0x3d609ff4	0.054840043
23	0x3dbcf2ff	0.09226035
24	0x3e013f39	0.12621774
25	0x3de694a7	0.11258822
26	0x3d820bd4	0.06349912
27	0x3dfcda2b	0.123463
28	0x3d6168a6	0.05503144
29	0x3debddf8	0.115169466
30	0x3dfb2dcd	0.12264595
31	0x3dc643b3	0.09680881

model.layer_2.pb.layers.1.bias f4 [8]
0	0x3c93a56f	0.01802322
1	0x3de54970	0.11195648
2	0x3e7d3658	0.24727762
3	0x3e1ca4e2	0.15297273
4	0x3e831f90	0.25610018
5	0x3e2e2e86	0.17009935
6	0x3e22f7f7	0.15914904
7	0x3e26edf7	0.16301714

model.layer_2.pb.layers.2.weight f4 [8, 4]
0	0x3ce7cbd5	0.028295437
1	0x3dbc25b3	0.09186878
2	0xbe26cef3	-0.16289882
3	0x3d7d5ef7	0.061858144
4	0x3dc56fed	0.09640489
5	0x3db95a76	0.09050457
6	0x3d5a8396	0.053348146
7	0x3d89a967	0.06721764
8	0x3dec24ff	0.11530494
9	0x3dcfb666	0.101422116
10	0x3dbbaec0	0.0916419
11	0x3df16adb	0.11787959
12	0x3d3f919b	0.04676972
13	0x3dd1bf58	0.10241574
14	0x3dd544a6	0.10413484
15	0x3dbec5f6	0.09315102
16	0x3ddf4650	0.10902083
17	0x3dbb3387	0.091406874
18	0x3dad3d08	0.084589064
19	0x3da842e4	0.082158834
20	0x3d9063a6	0.070502564
21	0x3dcaed96	0.09908597
22	0x3d87d848	0.06633049
23	0x3dbd9b58	0.09258145
24	0x3df5d33d	0.12003181
25	0x3dd1d252	0.102451935
26	0x3d9b6aab	0.07588705
27	0x3df00c3e	0.11721085
28	0x3da34b58	0.07973355
29	0x3dd03795	0.101668514
30	0x3de66b19	0.11250896
31	0x3dc3e643	0.09565403

model.layer_2.pb.layers.2.bias f4 [8]
0	0xbca942c5	-0.020661721
1	0x3e01430f	0.12623237
2	0x3e7bd9cc	0.24594802
3	0x3e118513	0.1421092
4	0x3e8358bb	0.25653633
5	0x3e28e5b1	0.1649387
6	0x3e1e0802	0.15432742
7	0x3e234cd9	0.15947284

model.layer_2.pb.parentModule.weight f4 [8, 4]
0	0x3ef74666	0.48295897
1	0xbed5f4b0	-0.41788244
2	0xbe28a420	-0.16468859
3	0x3eaa8e6c	0.33311784
4	0x3ead1cf2	0.33811146
5	0x3eea9f16	0.45824498
6	0x3de273d0	0.11057246
7	0xbe9ae1c0	-0.3025036
8	0xbeda3d40	-0.42624855
9	0x3e6319ac	0.22177762
10	0xbefc79b6	-0.49311608
11	0x3e953fcc	0.29150236
12	0xbeb27682	-0.3485604
13	0x3d8758e8	0.066087544
14	0xbe65f680	-0.22457314
15	0xbc5a41c0	-0.01332134
16	0x3e93ee4c	0.28892744
17	0xbe954d3a	-0.29160482
18	0xbe8d9544	-0.27652943
19	0x3ee41966	0.44550627
20	0xbdb96360	-0.090521574
21	0x3dcce4d8	0.10004586
22	0x3e34a11c	0.17639583
23	0x3eb54d68	0.3541062
24	0xbe678c14	-0.2261203
25	0xbdee6280	-0.11639881
26	0x3eb98de0	0.36241055
27	0x3c8d0780	0.01721549
28	0x3eec95a2	0.4620791
29	0xbcb56b40	-0.022145867
30	0x3e8a696a	0.2703355
31	0xbd60e610	-0.054906905

model.layer_2.pb.parentModule.bias f4 [8]
0	0xbe0b7da8	-0.13622153
1	0x3ea58ca6	0.3233387
2	0xbefce558	-0.49393725
3	0x3df612b8	0.12015289
4	0xbe5fd7a8	-0.2185961
5	0xbeeb380e	-0.45941204
6	0x3ee21a36	0.44160622
7	0x3ea790b4	0.32727587

model.layer_2.pb.PBtoCandidates.0 f4 [2, 8]
0	0x3eec427d	0.46144477
1	0x3e4356d4	0.19076091
2	0x3ece48be	0.40289873
3	0x3e42fe28	0.19042265
4	0x3ed9511e	0.424447
5	0x3e49bcb8	0.19700897
6	0x3e653dcb	0.22386853
7	0x3e5cb909	0.2155496
8	0x3ee21c61	0.44162276
9	0x3e433f53	0.19067125
10	0x3ed00f3e	0.4063663
11	0x3e449ccb	0.19200437
12	0x3edaffc2	0.42773253
13	0x3e4a08dc	0.19729942
14	0x3e65238c	0.22376841
15	0x3e61549d	0.22004934

model.layer_2.pb.PBtoPB.1 f4 [1, 8]
0	0x3ef5c8ad	0.48004666
1	0x3e2ee7db	0.17080633
2	0x3ed870c6	0.4227354
3	0x3e5f2f63	0.2179542
4	0x3ee2df33	0.44310912
5	0x3e531e28	0.20616972
6	0x3e6203e9	0.22071804
7	0x3e4eef57	0.20208488

model.layer_2.pb.PBtoPB.2 f4 [2, 8]
0	0x3eec427d	0.46144477
1	0x3e4356d4	0.19076091
2	0x3ece48be	0.40289873
3	0x3e42fe28	0.19042265
4	0x3ed9511e	0.424447
5	0x3e49bcb8	0.19700897
6	0x3e653dcb	0.22386853
7	0x3e5cb909	0.2155496
8	0x3ee21c61	0.44162276
9	0x3e433f53	0.19067125
10	0x3ed00f3e	0.4063663
11	0x3e449ccb	0.19200437
12	0x3edaffc2	0.42773253
13	0x3e4a08dc	0.19729942
14	0x3e65238c	0.22376841
15	0x3e61549d	0.22004934

model.layer_2.pb.pbValues.0.topPBCandidateAverage f4 [8]
0	0x3f3fd1c3	0.74929446
1	0x3f7fe1c3	0.9995386
2	0x3f7ffc1b	0.9999406
3	0x3f7eb5fb	0.9949643
4	0x3f7ffc8a	0.9999472
5	0x3f7f888e	0.9981774
6	0x3f7ff1db	0.9997842
7	0x3f7f91c8	0.9983182

model.layer_2.pb.pbValues.0.PrevPBCandidateCorrelation f4 [8]
0	0xb7e39776	-2.7131038e-05
1	0xb64e1420	-3.0708106e-06
2	0xb7c96f70	-2.401296e-05
3	0x37ff41e0	3.0429044e-05
4	0xb87ec98b	-6.074602e-05
5	0xb6d1b620	-6.2498875e-06
6	0xb6fe1a51	-7.5728535e-06
7	0xb79a0300	-1.8359628e-05

model.layer_2.pb.pbValues.0.currentCorrelationsForParallel f4 [8]
0	0x00000000	0.0
1	0x00000000	0.0
2	0x00000000	0.0
3	0x00000000	0.0
4	0x00000000	0.0
5	0x00000000	0.0
6	0x00000000	0.0
7	0x00000000	0.0

model.layer_2.pb.pbValues.0.bestScore f4 [8]
0	0x3a339e91	0.00068519363
1	0x3a94aa91	0.0011342337
2	0x3a987f2c	0.001163458
3	0x3a73d8ce	0.0009302021
4	0x3a9e847d	0.0012093928
5	0x3a52f250	0.00080469716
6	0x3a6f8bbb	0.0009137948
7	0x3aaac64b	0.0013029067

model.layer_2.pb.pbValues.0.previousBestScore f4 [8]
0	0x3a29ff21	0.00064848555
1	0x3a9434ae	0.0011307204
2	0x3a98500d	0.0011620537
3	0x3a739330	0.0009291647
4	0x3a9dff1c	0.0012054178
5	0x3a526ac8	0.0008026776
6	0x3a6f4542	0.00091274467
7	0x3aaaa579	0.0013019285

model.layer_2.pb.pbValues.0.PrevPBCandidateAverage f4 [8]
0	0x3f426adf	0.7594432
1	0x3f7f671d	0.99766713
2	0x3f7fe226	0.9995445
3	0x3f7f79c5	0.9979518
4	0x3f7fd9a4	0.9994147
5	0x3f7f7828	0.9979272
6	0x3f7fb76f	0.9988927
7	0x3f7fb760	0.99889183

model.layer_2.pb.pbValues.0.mainGradAverageForScaling f4 [8]
0	0x3858bd61	5.1674786e-05
1	0x38483cd3	4.7740363e-05
2	0x38218253	3.8506765e-05
3	0x38172007	3.6031033e-05
4	0x3834d46d	4.311318e-05
5	0x3833ee26	4.289872e-05
6	0x3806c540	3.2131793e-05
7	0x382d03a6	4.1249812e-05

model.layer_2.pb.pbValues.0.candidateGradAverageForScaling f4 [8]
0	0x37569b80	1.2791599e-05
1	0x3737efa1	1.0963443e-05
2	0x37198a2c	9.151681e-06
3	0x3707ca43	8.09372e-06
4	0x3702ce92	7.7967e-06
5	0x3732c318	1.0655051e-05
6	0x370510f1	7.931362e-06
7	0x372b33ce	1.0204456e-05

model.layer_2.pb.pbValues.0.indexesOfbest f4 [8]
0	0x00000000	0.0
1	0x00000000	0.0
2	0x00000000	0.0
3	0x00000000	0.0
4	0x00000000	0.0
5	0x00000000	0.0
6	0x00000000	0.0
7	0x00000000	0.0

model.layer_2.pb.pbValues.0.nodesBestImprovedThisEpoch f4 [8]
0	0x00000000	0.0
1	0x00000000	0.0
2	0x00000000	0.0
3	0x00000000	0.0
4	0x00000000	0.0
5	0x00000000	0.0
6	0x00000000	0.0
7	0x00000000	0.0

model.layer_2.pb.pbValues.0.parentsAverageDvector f4 [8]
0	0x360085f8	1.9151466e-06
1	0xb5be578a	-1.418158e-06
2	0x369aa442	4.60868e-06
3	0x36030f6b	1.9529496e-06
4	0x37039d1a	7.8447865e-06
5	0xb6002169	-1.9092934e-06
6	0xb6899368	-4.1000785e-06
7	0xb6905f92	-4.3026603e-06

model.layer_2.pb.pbValues.0.normalPassAverageD f4 [8]
0	0x362e7d40	2.6000926e-06
1	0xb6041f56	-1.9687773e-06
2	0xb64ae6d2	-3.02347e-06
3	0xb5d9639f	-1.6196753e-06
4	0x3699f1dc	4.5879115e-06
5	0x3629ad7b	2.5283941e-06
6	0x34adfa74	3.240599e-07
7	0x352a7226	6.3496043e-07

model.layer_3.mainModule.weight f4 [10, 8]
0	0xbfe378f0	-1.7771282
1	0x3f26a7a2	0.6509954
2	0x3f653d5f	0.8954677
3	0x3f516023	0.8178732
4	0xbf548cef	-0.8302755
5	0xbf4253df	-0.7590923
6	0xbf1a98fc	-0.60389686
7	0xc03d1c44	-2.9548502
8	0x3ef4cac0	0.47810936
9	0xbf119162	-0.5686246
10	0xbf24ce73	-0.64377517
11	0xbe2ca03d	-0.16858001
12	0x3e8b455c	0.27201355
13	0xbe96020f	-0.29298446
14	0xbe71fee0	-0.23632383
15	0x3d2aface	0.041743092
16	0x3e1fd6ff	0.15609358
17	0xbf95cadc	-1.1702533
18	0x3e1a156e	0.15047237
19	0xbea0aac4	-0.31380284
20	0x3f793d89	0.9735952
21	0xbfa5e68c	-1.2960982
22	0xbf9a1ffb	-1.204101
23	0xbec8c530	-0.39212942
24	0xbe164800	-0.14675903
25	0xbfe3bd3d	-1.7792126
26	0x3ed26429	0.4109204
27	0x3f45c7ea	0.7725817
28	0xbd89ad9d	-0.06722567
29	0x3edf3bc0	0.43600273
30	0x3ef3fa3f	0.4765186
31	0xbfba32fb	-1.4546808
32	0x3e5ab1e3	0.21356921
33	0x3f7104ac	0.94147754
34	0xbffb36d3	-1.9626106
35	0x3ea93ed8	0.33055758
36	0xbea68c34	-0.32528841
37	0xbf099747	-0.53746456
38	0xbdf9103d	-0.121613
39	0xbd27cf10	-0.040968955
40	0xbeb0e3e4	-0.34548867
41	0x3db5aa40	0.08870363
42	0x3e9b3aa7	0.30318186
43	0x3f22dec5	0.6362117
44	0xbe66e28f	-0.22547363
45	0xbe38d657	-0.18050514
46	0x3e278b64	0.16361767
47	0xbfbcef01	-1.4760438
48	0x3da1debb	0.079038106
49	0x3f7045a9	0.9385629
50	0xbe8c9239	-0.2745531
51	0xbd987904	-0.07444957
52	0x3da24c41	0.079247005
53	0xbfcc0424	-1.5938764
54	0xbfffd845	-1.9987875
55	0x3f229a62	0.6351682
56	0xbfb88b12	-1.4417441
57	0x3e67442b	0.22584598
58	0xbf9d2e92	-1.2279837
59	0xbfbafa17	-1.4607571
60	0x3f37c65e	0.7178706
61	0x3f03c2ab	0.51468915
62	0x3f44b753	0.7684223
63	0x3f89f8d9	1.0779067
64	0x3f1a056a	0.6016451
65	0xbf0659d7	-0.52480835
66	0xbed7fe0a	-0.42186004
67	0x3f0b24f4	0.5435326
68	0xbd92d03e	-0.07168625
69	0x3f0ad5ec	0.5423267
70	0xbc8adbc9	-0.016950505
71	0xbfecdd60	-1.8505058
72	0x3ebd90d8	0.3702457
73	0x3e3f5fb7	0.18688856
74	0xbffc72bb	-1.9722513
75	0xbc53f34b	-0.0129364235
76	0xbfd34d4b	-1.6507963
77	0x3ecefe48	0.40428376
78	0x3ebb2f3d	0.36559477
79	0x3eae59a2	0.3405276

model.layer_3.mainModule.bias f4 [10]
0	0x403019c7	2.7515733
1	0x3fd7bde5	1.6854826
2	0x40bf75aa	5.9831133
3	0x3f11b898	0.5692229
4	0x3cddcc35	0.027074913
5	0x3fd9b0d3	1.7007087
6	0xc0059820	-2.08741
7	0x3f2c1ced	0.6723164
8	0xc0dcf6c7	-6.905124
9	0x3f037859	0.5135551

model.layer_3.PBtoTop.0 f4 [1, 10]
0	0x34a55e37	3.0802195e-07
1	0xb5b0665a	-1.314281e-06
2	0x33964ea3	6.999223e-08
3	0x3428ab92	1.5708636e-07
4	0xb46fdd93	-2.2339218e-07
5	0xb591aa61	-1.0852929e-06
6	0x34124653	1.3622893e-07
7	0xb5087465	-5.0833324e-07
8	0xb4e9e6c6	-4.3567542e-07
9	0x340ddc50	1.3211798e-07

model.layer_3.PBtoTop.1 f4 [2, 10]
0	0x3525402d	6.156068e-07
1	0xb6306562	-2.6285056e-06
2	0x34161fd2	1.3981415e-07
3	0x34a88513	3.1389263e-07
4	0xb4efd881	-4.4674746e-07
5	0xb611a9fe	-2.1705632e-06
6	0x34920d26	2.7204186e-07
7	0xb58866bf	-1.0162693e-06
8	0xb569eaf9	-8.7141194e-07
9	0x348e1c3e	2.647011e-07
10	0x34a4e9bb	3.0717442e-07
11	0xb57fc2ce	-9.527838e-07
12	0x33909a8b	6.733634e-08
13	0x342a05d6	1.5834607e-07
14	0xb3aa4ad2	-7.9298516e-08
15	0xb56ba067	-8.777774e-07
16	0x34225e36	1.51217e-07
17	0xb509cb04	-5.1331904e-07
18	0xb4e94038	-4.3446357e-07
19	0x340fbe69	1.3387184e-07
