libraryExamples/mnist_lightning/.mnist_{epoch}-{val_loss:.2f}/epoch=2-step=2580.ckpt (torch, 105296 bytes, 60 tensors)

model.layer_1.mainModule.weight f4 [4, 784]
-0.04630419 -0.05564113 -0.06722579 -0.024230866 -0.043267377 -0.04561207 -0.00493413 -0.03410526
-0.0009538877 0.0014165718 -0.014487694 -0.035932362 -0.028950976 -0.041709702 -0.0044939513 -0.03358487
-0.0039427467 -0.032675683 -0.00947797 -0.020809632 -0.06809845 -0.044126503 -0.024062388 -0.0462476
-0.06582869 -0.0018923002 -0.05218002 -0.023675993 -0.019293984 -0.06356879 0.0011484616 -0.013333285
-0.00022553423 -0.013388406 -0.009866356 -0.052514553 -0.008546524 -0.054844156 -0.016270617 -0.075879805
-0.03929292 -0.035182063 -0.032439336 -0.025455251 -0.013637246 -0.020344099 -0.01596217 -0.042910654
-0.015861608 -0.055478957 -0.004386164 -0.054249678 0.00170937 -0.03217746 -0.0080433525 -0.041925173
-0.012729365 -0.030598197 -0.06710792 -0.032603256 -0.067714326 -0.03522851 -0.0635842 -0.041170463
-0.030940942 -0.04088203 -0.119221434 -0.13823469 -0.17998473 -0.25271687 -0.20432438 -0.13189961
-0.1433425 -0.14607175 -0.16951309 -0.24336399 -0.2063772 -0.16078958 -0.05854442 -0.04095008
-0.07245816 -0.04070494 -0.005958919 -0.04713874 -0.010298408 -0.045532063 -0.06483662 -0.038732473
-0.020624133 -0.042335056 -0.04813321 -0.03244405 -0.005703875 -0.049260378 0.0049091624 0.025881076
-0.0033619662 0.036041677 0.04084299 0.04814528 -0.0654149 -0.1177713 -0.24226487 -0.30053562
-0.30925167 -0.26218644 -0.17580074 -0.13018914 -0.04499977 -0.04121106 -0.013948601 -0.0026587888
-0.057755403 -0.03186126 -0.065357685 -0.007835786 -0.019615857 0.0115438225 0.0038640238 0.05529154
0.14795765 0.13565949 0.18655087 0.20573862 0.20657738 0.11853164 0.13219142 0.099162064
0.06406568 0.028108021 0.029249143 -0.024130225 -0.005839579 -0.06327949 -0.028323678 -0.091226526
-0.06542862 -0.013332327 -0.013675592 -0.04391064 -0.04250495 -0.049739882 -0.021052115 0.0050390195
0.0100364555 0.093005754 0.122875944 0.13897024 0.12562984 0.1258071 0.13713433 0.20091286
0.19422044 0.22915433 0.17466702 0.15883628 0.09683247 0.005666024 -0.007958601 0.06496488
0.06150871 0.0517685 0.03030352 -0.03236327 0.0705688 0.052535377 -0.031717584 -0.03309896
-0.015156808 -0.030597132 -0.056405086 0.009187298 0.06181881 0.13109401 0.12320949 0.086238936
0.12280046 0.09117396 0.09510516 0.13867493 0.20764752 0.23593873 0.18985246 0.11665068
0.08256068 0.0405248 0.06265059 0.059923023 0.07302423 0.07472685 0.03841694 0.037269525
0.16579871 0.18387489 0.027739998 -0.008585896 -0.0059127794 0.0016564024 -0.04801426 0.039993152
0.11492385 0.13514827 0.15787226 0.07469317 0.03084626 0.05989875 0.087118745 0.0630266
0.15631874 0.19653408 0.11328235 0.025180077 -0.0062138666 -0.0066307504 0.015465821 0.10128219
0.12081789 0.14799155 0.13670447 0.11112418 0.2371967 0.24699137 0.05949839 -0.031118168
-0.04674973 -0.048125215 -0.017764596 0.022424182 0.17427015 0.17007616 0.12652877 0.058860216
0.12250916 0.10534047 0.07091433 0.037874382 0.11656363 0.097386345 0.14625041 0.08249009
0.042505883 0.022855008 0.11436677 0.123035885 0.09082304 0.15354316 0.15171927 0.097780354
0.29405564 0.24930203 0.033472206 0.006987696 -0.06425718 -0.04809858 -0.01842425 0.037640017
00000000: 76a9 3dbd f4e7 63bd adad 89bd cf7f c6bc
00000010: 2239 31bd b9d3 3abd 7bae a1bb f5b1 0bbd
00000020: 520e 7aba 43ac b93a cb5d 6dbc d02d 13bd
00000030: 992a edbc cbd7 2abd ff41 93bb 4a90 09bd
00000040: 2832 81bb f0d6 05bd 7d49 1bbc f678 aabc
00000050: 3377 8bbd febd 34bd 7c1e c5bc 206e 3dbd
00000060: 31d1 86bd 0f07 f8ba b7ba 55bd 28f4 c1bc
00000070: 6b0e 9ebc 5b30 82bd fa87 963a da73 5abc
00000080: 627d 6cb9 0b5b 5bbc 7fa6 21bc 8019 57bd
00000090: b806 0cbc 44a4 60bd f549 85bc df66 9bbd
000000a0: 9df1 20bd 111b 10bd 1cdf 04bd 8887 d0bc
000000b0: c16e 5fbc aba8 a6bc 19c3 82bc 15c3 2fbd
000000c0: 34f0 81bc e73d 63bd cfb9 8fbb e934 5ebd
000000d0: f00c e03a 83cc 03bd 44c8 03bc bbb9 2bbd
000000e0: d48e 50bc 12a9 fabc e16f 89bd fe8a 05bd
000000f0: cfad 8abd c54b 10bd 6f38 82bd 5ca2 28bd
00000100: dc77 fdbc ea73 27bd 5e2a f4bd 658d 0dbe
00000110: eb4d 38be 1b64 81be 693a 51be b110 07be
00000120: 60c8 12be d593 15be d794 2dbe 6934 79be
00000130: 8b54 53be 06a6 24be 46cc 6fbd 45bb 27bd
00000140: f264 94bd 39ba 26bd 0943 c3bb 8d14 41bd
00000150: a7ba 28bc d47f 3abd 10c9 84bd f1a5 1ebd
00000160: f1f3 a8bc 8667 2dbd 5427 45bd 0de4 04bd
00000170: 92e7 babb 40c5 49bd 0add a03b 8d04 d43c
00000180: 6f54 5cbb 70a0 133d fb4a 273d fc33 453d
00000190: 3ff8 85bd 1432 f1bd 4814 78be cedf 99be
000001a0: 3c56 9ebe 4d3d 86be 1c05 34be 4d50 05be
000001b0: ae51 38bd eecc 28bd ac88 64bc 133f 2ebb
000001c0: ee90 6cbd f480 02bd 40da 85bd ab61 00bc
000001d0: 6fb1 a0bc 4d22 3d3c 903b 7d3b 6279 623d
000001e0: 3682 173e 52ea 0a3e 3107 3f3e 25ad 523e
000001f0: 0589 533e b7c0 f23d 305d 073e 7b15 cb3d
00000200: de34 833d cb42 e63c e69b ef3c c0ac c5bc
00000210: f059 bfbb ad98 81bd 0f07 e8bc f9d4 babd
00000220: 71ff 85bd d56f 5abc 970f 60bc a5db 33bd
00000230: ac19 2ebd 0cbc 4bbd 7c75 acbc 5c1e a53b
00000240: f26f 243c cd79 be3d 62a6 fb3d 374e 0e3e
00000250: 1ca5 003e 94d3 003e f16c 0c3e 1abc 4d3e
00000260: b9e1 463e 6fa7 6a3e e9db 323e faa5 223e
00000270: 1a50 c63d 0eaa b93b cb64 02bc 4f0c 853d
00000280: 8ff0 7b3d 350b 543d 163f f83c 598f 04bd
00000290: 6086 903d 562f 573d 4cea 01bd c692 07bd
000002a0: 4354 78bc d6a6 fabc 0509 67bd 5286 163c
000002b0: b835 7d3d 823d 063e 4255 fc3d 0a9e b03d
000002c0: cf7e fb3d 6ab9 ba3d 7ec6 c23d cd00 0e3e
000002d0: 8da1 543e ec99 713e af68 423e 8de6 ee3d
000002e0: 9315 a93d 55fd 253d f44e 803d d871 753d
000002f0: ba8d 953d 640a 993d 155b 1d3d eea7 183d
00000300: 23c7 293e b349 3c3e fe3e e33c dcab 0cbc
00000310: fdbf c1bb a41b d93a 9aaa 44bd dccf 233d
00000320: 325d eb3d 4f64 0a3e 44a9 213e bcf8 983d
00000330: 4cb1 fc3c 6458 753d 506b b23d 1714 813d
00000340: 0512 203e 3b40 493e 9400 e83d 7346 ce3c
00000350: b19d cbbb c446 d9bb 5b64 7d3c 096d cf3d
00000360: 5f6f f73d 198b 173e 42fc 0b3e 1395 e33d
00000370: b1e3 723e 4eeb 7c3e 95b4 733d 87eb febc
00000380: a57c 3fbd f21e 45bd 0f87 91bc ebb2 b73c
00000390: e073 323e 7228 2e3e c290 013e 6917 713d
000003a0: 15e6 fa3d bfbc d73d 883b 913d 2b22 1b3d
000003b0: eab8 ee3d 7e72 c73d abc2 153e 90f0 a83d
000003c0: a61a 2e3d 6d3a bb3c 2039 ea3d 3dfa fb3d
000003d0: 6e01 ba3d 6b3a 1d3e 4c5c 1b3e 1141 c83d
000003e0: 768e 963e 0849 7f3e 271a 093d 0bf9 e43b
000003f0: 4599 83bd 0403 45bd 74ee 96bc 6b2c 1a3d

model.layer_1.mainModule.bias f4 [4]
-0.0010502669 0.003854439 0.073783495 0.039975785
00000000: 1ca9 89ba c19a 7c3b cd1b 973d a6bd 233d

model.layer_1.pb.parentModule.weight f4 [4, 784]
-0.012843128 -0.022180073 -0.033764586 0.009230171 -0.009806327 -0.012151008 0.028526917 -0.00064419
0.032507163 0.03487762 0.018973347 -0.0024713236 0.0088707 -0.0036577415 0.023607744 -0.0003456431
0.029518312 0.0007853849 0.02398307 0.012651405 -0.034637272 -0.010665447 0.009398652 -0.012786538
-0.032367554 0.03156875 -0.01871895 0.009785044 0.014167067 -0.030107683 0.03460951 0.02012777
0.033241533 0.020090321 0.023596756 -0.018948419 0.027364805 -0.017149419 0.02874988 -0.027377479
0.005341696 0.019641962 0.0040615755 0.008637574 0.005302174 0.009426458 0.0208779 -0.0015661079
0.025726397 -0.015970912 0.029863793 -0.020788623 0.035170425 0.0012836158 0.025417704 -0.008464111
0.020731688 0.002862892 -0.0336467 0.0008578088 -0.03423974 -0.001732656 -0.02856055 -0.0034428155
0.012707975 0.025265116 -0.0026432874 -0.016437884 0.010198887 -0.012095669 0.0068014096 0.006414967
-0.034164276 -0.021900408 0.02238206 -0.02552447 -0.033180945 -0.033374067 0.026745869 0.014854845
-0.032632586 -0.008588711 0.027502138 -0.013677674 0.023162639 -0.012071001 -0.031682383 -0.0053355442
0.012788969 -0.010823582 -0.01942469 -0.012339426 0.034185886 -0.011628369 0.03054816 0.0030606773
-0.007889335 0.003722042 -0.025581812 0.026597582 -0.022514272 0.010306661 -0.03314827 0.017885774
0.0069745868 -0.016358104 -0.013580212 -0.014934217 0.029855397 -0.010325858 0.018291036 0.030802255
-0.024294335 0.0015736308 -0.033240743 0.025146311 0.009013287 0.026588416 -0.026151909 -0.03201753
0.033274263 -0.022326356 -0.033487793 0.0017924054 0.019562846 -0.024764229 0.01247421 0.01203136
0.0052370303 -0.013699043 0.030668052 -0.00800814 -0.00980049 -0.020345595 0.002558423 -0.024477752
-0.028439613 -0.00019637177 -0.00033044818 -0.011724932 -0.009043894 -0.016278816 0.011881799 0.01834204
-0.0008506605 0.017276777 -0.0023600843 0.011502365 -0.028305162 0.0059240847 0.0014277144 0.025427619
-0.0009471987 0.016670108 -0.027713235 -0.026973495 0.008182446 -0.01980352 -0.028017143 0.014507116
0.00281818 0.0025958803 0.008126131 0.020460665 -0.004844989 0.011071772 -0.02381198 0.0008938994
0.018304229 0.0025850025 -0.021631893 0.0011984536 -0.008813245 0.000133706 -0.012041343 -0.006796897
-0.0044576954 0.007432806 0.007495808 -0.0018730505 0.022163013 0.011183786 0.00826917 0.002826299
0.029039951 0.0039795637 0.008662624 0.033670124 0.0104582105 -0.01575399 0.018096108 0.021680238
-0.024473958 0.01457509 0.003371622 0.022113064 0.027548157 0.028065104 -0.017494867 0.016211327
-0.021285845 -0.016618513 0.019053306 0.014603509 -0.035103258 0.0006861048 0.022912916 9.616358e-05
0.006769781 0.01858977 -0.009050723 -0.018969694 0.0076470887 -0.012050233 -0.030180085 -0.011589562
-0.019182075 -0.005765898 0.025147196 -0.009189406 -0.030678324 -0.01104862 0.0152660785 -0.005319174
-0.013289137 -0.016907983 0.014577066 -0.014752384 -0.022001123 -0.026398608 -0.017535355 -0.023131056
0.030873517 0.032533605 0.0319073 0.025250478 0.010584674 -0.0023049926 -0.0064684753 -0.010792631
0.02371534 -0.026239915 -0.019630944 -0.0136217605 -0.012019524 -0.015041033 0.013140892 0.00808311
0.026567455 -0.022695977 -0.032140452 0.029960817 -0.03035133 -0.014649669 0.004629182 0.0040229475
00000000: fc6b 52bc fcb2 b5bc bc4c 0abd 253a 173c
00000010: b7aa 20bc 0515 47bc 48b1 e93c dcde 28ba
00000020: 3b26 053d d6db 0e3d fe6d 9b3c eef5 21bb
00000030: 6a56 113c b8b6 6fbb 0765 c13c 6e37 b5b9
00000040: 63d0 f13c 4ae2 4d3a 2578 c43c d747 4f3c
00000050: d0df 0dbd 21be 2ebc cefc 193c a17e 51bc
00000060: d793 04bd 3c4e 013d 7c58 99bc 7351 203c
00000070: fc1c 683c 63a4 f6bc b4c2 0d3d fee2 a43c
00000080: 4628 083d 7594 a43c fc4d c13c b739 9bbc
00000090: 282c e03c f07c 8cbc de84 eb3c bc46 e0bc
000000a0: 6509 af3b 2ee8 a03c f716 853b 9c84 0d3c
000000b0: dcbd ad3b 6e71 1a3c 2108 ab3c dc45 cdba
000000c0: 2ac0 d23c 6ed5 82bc eaa4 f43c e74c aabc
000000d0: dd0e 103d 003f a83a ca38 d03c 0ead 0abc
000000e0: 80d5 a93c 5c9f 3b3b 1fd1 09bd 93de 603a
000000f0: f83e 0cbd 4a1a e3ba d1f7 e9bc dca0 61bb
00000100: 1c35 503c caf8 ce3c 013b 2dbb bea8 86bc
00000110: 3c19 273c ea2c 46bc 5cde de3b a534 d23b
00000120: d7ef 0bbd 7c68 b3bc 955a b73c b118 d1bc
00000130: bee8 07bd 3fb3 08bd 271a db3c bc61 733c
00000140: bfa9 05bd aab7 0cbc 2a4c e13c 5318 60bc
00000150: 93bf bd3c 73c5 45bc 63c5 01bd cad5 aebb
00000160: d388 513c 6555 31bc 8720 9fbc 4e2b 4abc
00000170: 8006 0c3d ea84 3ebc 2340 fa3c a595 483b
00000180: 4542 01bc 81ed 733b f390 d1bc 2ce3 d93c
00000190: da6f b8bc 45dd 283c 7bc6 07bd 3085 923c
000001a0: 138b e43b 6e01 86bc 8a7f 5ebc a5ae 74bc
000001b0: 4e93 f43c ca2d 29bc 15d7 953c 0355 fc3c
000001c0: ea04 c7bc 4a42 ce3a 7227 08bd a3ff cd3c
000001d0: 77ac 133c f3cf d93c 873c d6bc d024 03bd
000001e0: 984a 083d c3e5 b6bc 7f2a 09bd 25ef ea3a
000001f0: 4342 a03c 5ade cabc a160 4c3c 2e1f 453c
00000200: 659b ab3b f371 60bc 913b fb3c 9334 03bc
00000210: 3c92 20bc ceab a6bc 37ab 273b 9185 c8bc
00000220: 31fa e8bc 25e9 4db9 0140 adb9 ee19 40bc
00000230: d72c 14bc 275b 85bc e1ab 423c 0c42 963c
00000240: dcfe 5eba 0788 8d3c a5ab 1abb 6a74 3c3c
00000250: 3ae0 e7bc d31e c23b 2522 bb3a 954d d03c
00000260: 6e4d 78ba c08f 883c de06 e3bc 85f7 dcbc
00000270: aa0f 063c fe3a a2bc 3584 e5bc 41af 6d3c
00000280: 37b1 383b a51f 2a3b 7723 053c 209d a73c
00000290: b7c2 9ebb 6166 353c 5711 c3bc 9354 6a3a
000002a0: c0f2 953c 2569 293b 5e35 b1bc 6e15 9d3a
000002b0: 6e65 10bc 6e33 0c39 0e49 45bc 81b8 debb
000002c0: dc11 92bb e58e f33b 659f f53b 2581 f5ba
000002d0: 358f b53c 333c 373c 6a7b 073c 6e39 393b
000002e0: 31e5 ed3c 0067 823b aeed 0d3c afe9 093d
000002f0: ea58 2b3c 830e 81bc 4a3e 943c c19a b13c
00000300: 9c7d c8bc 5ccc 6e3c 6ef6 5c3b 7526 b53c
00000310: acac e13c cae8 e53c 6551 8fbc 9ecd 843c
00000320: a75f aebc 8c23 88bc ae15 9c3c 8e43 6f3c
00000330: 6fc8 0fbd b7db 333a deb3 bb3c 6eab c938
00000340: 0ad5 dd3b 9349 983c 7c49 14bc 5566 9bbc
00000350: 6e94 fa3b 576e 45bc 3a3c f7bc 25e2 3dbc
00000360: ba23 9dbc dcef bcbb 7e01 ce3c 2a8f 16bc
00000370: 1c51 fbbc 4505 35bc 931e 7a3c 774c aebb
00000380: aeba 59bc 9c82 8abc a5d4 6e3c fcb3 71bc
00000390: b33b b4bc e541 d8bc 4ea6 8fbc 577d bdbc
000003a0: 75ea fc3c f541 053d 3bb1 023d 17da ce3c
000003b0: 576b 2d3c 5c0f 17bb 81f5 d3bb 93d3 30bc
000003c0: ac46 c23c 17f5 d6bc 13d1 a0bc ce2d 5fbc
000003d0: 8aed 44bc aa6e 76bc e54c 573c 056f 043c
000003e0: fea3 d93c eaec b9bc b5a5 03bd 6370 f53c
000003f0: 5aa3 f8bc 2a05 70bc 65b0 973b eed2 833b

model.layer_1.pb.parentModule.bias f4 [4]
-0.034511488 -0.010488583 -0.022460593 -0.020765224
00000000: eb5b 0dbd 4ed8 2bbc 47ff b7bc d51b aabc

model.layer_1.pb.pbValues.0.topPBCandidateAverage f4 [4]
0.0 0.0 0.0 0.0
00000000: 0000 0000 0000 0000 0000 0000 0000 0000

model.layer_1.pb.pbValues.0.PrevPBCandidateCorrelation f4 [4]
0.0 0.0 0.0 0.0
00000000: 0000 0000 0000 0000 0000 0000 0000 0000

model.layer_1.pb.pbValues.0.currentCorrelationsForParallel f4 [4]
0.0 0.0 0.0 0.0
00000000: 0000 0000 0000 0000 0000 0000 0000 0000

model.layer_1.pb.pbValues.0.bestScore f4 [4]
0.0 0.0 0.0 0.0
00000000: 0000 0000 0000 0000 0000 0000 0000 0000

model.layer_1.pb.pbValues.0.previousBestScore f4 [4]
0.0 0.0 0.0 0.0
00000000: 0000 0000 0000 0000 0000 0000 0000 0000

model.layer_1.pb.pbValues.0.PrevPBCandidateAverage f4 [4]
0.0 0.0 0.0 0.0
00000000: 0000 0000 0000 0000 0000 0000 0000 0000

model.layer_1.pb.pbValues.0.mainGradAverageForScaling f4 [4]
0.0 0.0 0.0 0.0
00000000: 0000 0000 0000 0000 0000 0000 0000 0000

model.layer_1.pb.pbValues.0.candidateGradAverageForScaling f4 [4]
0.0 0.0 0.0 0.0
00000000: 0000 0000 0000 0000 0000 0000 0000 0000

model.layer_1.pb.pbValues.0.indexesOfbest f4 [4]
0.0 0.0 0.0 0.0
00000000: 0000 0000 0000 0000 0000 0000 0000 0000

model.layer_1.pb.pbValues.0.nodesBestImprovedThisEpoch f4 [4]
0.0 0.0 0.0 0.0
00000000: 0000 0000 0000 0000 0000 0000 0000 0000

model.layer_1.pb.pbValues.0.parentsAverageDvector f4 [4]
0.0 0.0 0.0 0.0
00000000: 0000 0000 0000 0000 0000 0000 0000 0000

model.layer_1.pb.pbValues.0.normalPassAverageD f4 [4]
6.9494045e-06 2.5952525e-06 -2.6603166e-06 -2.8613035e-06
00000000: ee2e e936 192a 2e36 e487 32b6 d204 40b6

model.layer_2.mainModule.weight f4 [8, 4]
-0.24771132 -0.025794722 -0.2942509 0.68485814 0.4011158 -0.6716258 0.83271956 -0.14843856
1.005738 0.5789377 -0.015376115 0.034529768 -0.13098589 -0.34387812 0.0008469492 0.7672538
0.34017277 0.0465419 -0.11718896 0.68486816 -0.32452127 0.90958875 0.3962174 -0.03585484
-0.12373313 -0.24495725 0.33503115 0.21754861 -0.70713854 0.1824391 0.67678607 0.09603625
00000000: 09a8 7dbe 744f d3bc 0ea8 96be dd52 2f3f
00000010: 0d5f cd3e abef 2bbf 1c2d 553f 4700 18be
00000020: 06bc 803f 4335 143f 1aec 7bbc 166f 0d3d
00000030: 2a21 06be cb10 b0be cc05 5e3a bf6a 443f
00000040: 202b ae3e b8a2 3e3d c400 f0bd 8553 2f3f
00000050: a727 a6be cfda 683f 02dd ca3e 86dc 12bd
00000060: cc67 fdbd 13d6 7abe 3489 ab3e 10c5 5e3e
00000070: 0807 35bf 51d1 3a3e da41 2d3f a7ae c43d

model.layer_2.mainModule.bias f4 [8]
0.2850402 0.012063759 -0.29789957 -0.120373584 0.041850522 0.47053823 -0.5112936 -0.106669724
00000000: caf0 913e 13a7 453c 4b86 98be 6d86 f6bd
00000010: 746b 2b3d 63ea f03e 23e4 02bf a875 dabd

model.layer_2.pb.parentModule.weight f4 [8, 4]
-0.43293154 -0.27391464 -0.3812623 0.36602747 0.11321783 -0.37049216 0.4978791 -0.18956661
0.49656308 0.11368412 -0.11897689 -0.16288316 -0.090637624 -0.4274723 -0.27958137 0.28183967
0.3386383 -0.06532639 0.018756092 0.4578182 -0.15228915 0.12242472 0.20832306 -0.15320545
-0.14247131 -0.17412293 0.12958908 0.0020148754 -0.46315438 0.24353969 0.2513398 0.09486461
00000000: 34a9 ddbe 8a3e 8cbe d034 c3be f467 bb3e
00000010: c0de e73d 26b1 bdbe 02ea fe3e c01d 42be
00000020: 843d fe3e 38d3 e83d 28aa f3bd d8ca 26be
00000030: 38a0 b9bd a6dd dabe 4a25 8fbe 4a4d 903e
00000040: 0062 ad3e d8c9 85bd 60a6 993c 2667 ea3e
00000050: b0f1 1bbe d0b9 fa3d a452 553e e4e1 1cbe
00000060: 00e4 11be 484d 32be 00b3 043e 000c 043b
00000070: 9222 edbe 7862 793e 9caf 803e 6048 c23d

model.layer_2.pb.parentModule.bias f4 [8]
-0.20958722 -0.25468242 -0.13124281 -0.40238112 0.4187106 0.48358786 -0.30621654 -0.45049983
00000000: 089e 56be bc65 82be 8464 06be e604 cebe
00000010: 3c61 d63e d498 f73e 6ac8 9cbe eaa7 e6be

model.layer_2.pb.pbValues.0.topPBCandidateAverage f4 [8]
0.0 0.0 0.0 0.0 0.0 0.0 0.0 0.0
00000000: 0000 0000 0000 0000 0000 0000 0000 0000
00000010: 0000 0000 0000 0000 0000 0000 0000 0000

model.layer_2.pb.pbValues.0.PrevPBCandidateCorrelation f4 [8]
0.0 0.0 0.0 0.0 0.0 0.0 0.0 0.0
00000000: 0000 0000 0000 0000 0000 0000 0000 0000
00000010: 0000 0000 0000 0000 0000 0000 0000 0000

model.layer_2.pb.pbValues.0.currentCorrelationsForParallel f4 [8]
0.0 0.0 0.0 0.0 0.0 0.0 0.0 0.0
00000000: 0000 0000 0000 0000 0000 0000 0000 0000
00000010: 0000 0000 0000 0000 0000 0000 0000 0000

model.layer_2.pb.pbValues.0.bestScore f4 [8]
0.0 0.0 0.0 0.0 0.0 0.0 0.0 0.0
00000000: 0000 0000 0000 0000 0000 0000 0000 0000
00000010: 0000 0000 0000 0000 0000 0000 0000 0000

model.layer_2.pb.pbValues.0.previousBestScore f4 [8]
0.0 0.0 0.0 0.0 0.0 0.0 0.0 0.0
00000000: 0000 0000 0000 0000 0000 0000 0000 0000
00000010: 0000 0000 0000 0000 0000 0000 0000 0000

model.layer_2.pb.pbValues.0.PrevPBCandidateAverage f4 [8]
0.0 0.0 0.0 0.0 0.0 0.0 0.0 0.0
00000000: 0000 0000 0000 0000 0000 0000 0000 0000
00000010: 0000 0000 0000 0000 0000 0000 0000 0000

model.layer_2.pb.pbValues.0.mainGradAverageForScaling f4 [8]
0.0 0.0 0.0 0.0 0.0 0.0 0.0 0.0
00000000: 0000 0000 0000 0000 0000 0000 0000 0000
00000010: 0000 0000 0000 0000 0000 0000 0000 0000

model.layer_2.pb.pbValues.0.candidateGradAverageForScaling f4 [8]
0.0 0.0 0.0 0.0 0.0 0.0 0.0 0.0
00000000: 0000 0000 0000 0000 0000 0000 0000 0000
00000010: 0000 0000 0000 0000 0000 0000 0000 0000

model.layer_2.pb.pbValues.0.indexesOfbest f4 [8]
0.0 0.0 0.0 0.0 0.0 0.0 0.0 0.0
00000000: 0000 0000 0000 0000 0000 0000 0000 0000
00000010: 0000 0000 0000 0000 0000 0000 0000 0000

model.layer_2.pb.pbValues.0.nodesBestImprovedThisEpoch f4 [8]
0.0 0.0 0.0 0.0 0.0 0.0 0.0 0.0
00000000: 0000 0000 0000 0000 0000 0000 0000 0000
00000010: 0000 0000 0000 0000 0000 0000 0000 0000

model.layer_2.pb.pbValues.0.parentsAverageDvector f4 [8]
0.0 0.0 0.0 0.0 0.0 0.0 0.0 0.0
00000000: 0000 0000 0000 0000 0000 0000 0000 0000
00000010: 0000 0000 0000 0000 0000 0000 0000 0000

model.layer_2.pb.pbValues.0.normalPassAverageD f4 [8]
-9.8398905e-06 -4.894488e-06 6.946577e-06 1.5345747e-06 2.2782356e-06 2.893332e-06 2.2825027e-06 -3.823103e-06
00000000: 0216 25b7 553b a4b6 a416 e936 96f7 cd35
00000010: cae3 1836 112b 4236 192d 1936 3448 80b6

model.layer_3.mainModule.weight f4 [10, 8]
-0.06301988 0.4637101 -0.8443979 -0.49974427 -0.45696348 0.0741652 0.13447632 0.53829354
-0.12674047 -0.30135497 0.3457224 -0.33794785 0.4528876 -0.029289037 -0.5087412 -0.9159183
0.35132897 -0.077056415 0.20801459 0.20273796 0.30456457 -0.9199487 -0.31887022 -0.6389206
-1.2365941 0.48086283 0.57577944 -0.5184616 -0.21617936 -0.08184946 -0.50787014 -0.3305121
0.33593205 -0.65662783 -0.3702139 0.26060843 0.22240257 0.21228862 -0.11070446 -0.026105346
-0.4212884 0.3583551 -0.28348464 -0.31119347 0.03834991 0.10107004 0.4132725 0.07628422
0.47998235 0.16597441 -0.84917533 0.63478124 0.10419444 -0.5564075 -0.09717714 -0.025040185
-0.65191185 -0.67502695 0.29822606 -1.1085615 -0.12439494 0.6544596 -1.2189174 0.0004975882
-0.4066784 -0.15942824 0.08793658 0.17251648 0.17580183 0.119765095 0.18825902 -0.0044376026
0.32349053 -0.4519174 0.09250708 -0.39223123 0.019811008 0.4730554 -0.8054481 0.10600628
00000000: 9110 81bd 696b ed3e 762a 58bf 7bde ffbe
00000010: 1ef7 e9be ede3 973d 29b4 093e 9bcd 093f
00000020: 41c8 01be 334b 9abe 8702 b13e 8007 adbe
00000030: e2e0 e73e 90ef efbc dd3c 02bf 9f79 6abf
00000040: 64e1 b33e c1cf 9dbd c701 553e 8a9a 4f3e
00000050: e3ef 9b3e c281 6bbf f542 a3be 4d90 23bf
00000060: b748 9ebf a733 f63e 4866 133f e6b9 04bf
00000070: 1f5e 5dbe b1a0 a7bd c703 02bf e238 a9be
00000080: 49ff ab3e c318 28bf ad8c bdbe 786e 853e
00000090: 80bd 633e 3062 593e 05b9 e2bd e1da d5bc
000000a0: 1db3 d7be 527a b73e e624 91be c054 9fbe
000000b0: cc14 1d3d cffd ce3d 7498 d33e e73a 9c3d
000000c0: 3fc0 f53e 32f5 293e 8e63 59bf 0681 223f
000000d0: e563 d53d b970 0ebf cf04 c7bd 1321 cdbc
000000e0: b2e3 26bf 91ce 2cbf 16b1 983e 58e5 8dbf
000000f0: c6c2 febd aa8a 273f 7c05 9cbf 9470 023a
00000100: 2738 d0be 2841 23be 1818 b43d 29a8 303e
00000110: 6505 343e 6747 f53d f9c6 403e 4f69 91bb
00000120: 8da0 a53e b861 e7be 5a74 bd3d 88d2 c8be
00000130: b24a a23c 5134 f23e d931 4ebf d219 d93d

model.layer_3.mainModule.bias f4 [10]
0.6674762 0.02229916 0.10745611 0.08184079 0.8406359 -0.1533293 0.32516277 0.56203365
-0.9097595 -0.033619095
00000000: b8df 2a3f baac b63c f311 dc3d 259c a73d
00000010: ea33 573f 5b02 1dbe bc7b a63e 70e1 0f3f
00000020: 00e6 68bf 2db4 09bd

model.layer_3.pb.parentModule.weight f4 [10, 8]
-0.08993467 0.06792913 -0.085423864 -0.19314893 0.033329096 -0.057655074 -0.30857548 0.27030796
-0.051189117 0.098163635 0.269777 -0.30961505 0.3351907 0.25262728 -0.20435944 -0.26571274
0.30972013 -0.13191538 -0.09424849 0.07440558 0.10157513 -0.32729417 -0.08807431 -0.1533502
-0.11786754 0.3252115 0.32665825 -0.102183975 -0.28995737 0.08708458 -0.3439769 -0.07560137
-0.05490255 0.13966171 -0.116961464 0.02271066 0.07799641 -0.25674963 0.17760791 -0.19270079
0.34785855 0.19811328 -0.10144864 0.07001358 0.31546935 0.09384649 0.2343156 -0.02940577
-0.037240237 0.31919393 -0.060237158 0.21576315 -0.110274196 0.080763474 -0.29421997 0.108983405
-0.093636684 0.03603627 0.011405106 -0.14336866 0.09896404 0.13831824 -0.04656232 -0.26257393
-0.17752336 -0.060681347 0.1660705 0.2271672 0.14738373 0.15483221 0.23811468 -0.17225266
0.16529012 -0.24711607 0.050239675 -0.338368 -0.07587233 0.025107004 -0.20393881 -0.31535143
00000000: ab2f b8bd 6d1e 8b3d b5f2 aebd d5c8 45be
00000010: 1784 083d ba27 6cbd 9bfd 9dbe ce65 8a3e
00000020: aeab 51bd 040a c93d 3620 8a3e dd85 9ebe
00000030: 1e9e ab3e 5d58 813e 9a43 51be 800b 88be
00000040: a393 9e3e d314 07be 5a05 c1bd f461 983d
00000050: 9f06 d03d 1a93 a7be 4e60 b4bd d607 1dbe
00000060: 8964 f1bd 1f82 a63e c03f a73e d545 d1bd
00000070: 4b75 94be 6659 b23d be1d b0be e4d4 9abd
00000080: 7fe1 60bd 7b03 0f3e 7e89 efbd b50b ba3c
00000090: 95bc 9f3d b074 83be d9de 353e 5b53 45be
000000a0: 841a b23e 35de 4a3e 4ec4 cfbd 4863 8f3d
000000b0: 3385 a13e 9732 c03d 6ef0 6f3e 5fe4 f0bc
000000c0: 3889 18bd 636d a33e 3dbb 76bd 04f1 5c3e
000000d0: 70d7 e1bd 5267 a53d 00a4 96be b132 df3d
000000e0: 97c4 bfbd c59a 133d 7bdc 3a3c 3ccf 12be
000000f0: a9ad ca3d 4ca3 0d3e 22b8 3ebd 1770 86be
00000100: afc8 35be 018d 78bd 630e 2a3e 859e 683e
00000110: c3eb 163e 568c 1e3e 56d4 733e 0063 30be
00000120: d041 293e ff0b 7dbe 1ec8 4d3d 923e adbe
00000130: f462 9bbd 34ad cd3c 56d5 50be be75 a1be

model.layer_3.pb.parentModule.bias f4 [10]
0.16606873 0.23780276 0.010973184 0.150384 0.3145668 0.1405356 0.11030458 0.20243444
-0.24705859 -0.27841792
00000000: ec0d 2a3e 9182 733e dfc8 333c 43fe 193e
00000010: e60e a13e 90e8 0f3e 5ee7 e13d f94a 4f3e
00000020: edfc 7cbe cb8c 8ebe

model.layer_3.pb.pbValues.0.topPBCandidateAverage f4 [10]
0.0 0.0 0.0 0.0 0.0 0.0 0.0 0.0
0.0 0.0
00000000: 0000 0000 0000 0000 0000 0000 0000 0000
00000010: 0000 0000 0000 0000 0000 0000 0000 0000
00000020: 0000 0000 0000 0000

model.layer_3.pb.pbValues.0.PrevPBCandidateCorrelation f4 [10]
0.0 0.0 0.0 0.0 0.0 0.0 0.0 0.0
0.0 0.0
00000000: 0000 0000 0000 0000 0000 0000 0000 0000
00000010: 0000 0000 0000 0000 0000 0000 0000 0000
00000020: 0000 0000 0000 0000

model.layer_3.pb.pbValues.0.currentCorrelationsForParallel f4 [10]
0.0 0.0 0.0 0.0 0.0 0.0 0.0 0.0
0.0 0.0
00000000: 0000 0000 0000 0000 0000 0000 0000 0000
00000010: 0000 0000 0000 0000 0000 0000 0000 0000
00000020: 0000 0000 0000 0000

model.layer_3.pb.pbValues.0.bestScore f4 [10]
0.0 0.0 0.0 0.0 0.0 0.0 0.0 0.0
0.0 0.0
00000000: 0000 0000 0000 0000 0000 0000 0000 0000
00000010: 0000 0000 0000 0000 0000 0000 0000 0000
00000020: 0000 0000 0000 0000

model.layer_3.pb.pbValues.0.previousBestScore f4 [10]
0.0 0.0 0.0 0.0 0.0 0.0 0.0 0.0
0.0 0.0
00000000: 0000 0000 0000 0000 0000 0000 0000 0000
00000010: 0000 0000 0000 0000 0000 0000 0000 0000
00000020: 0000 0000 0000 0000

model.layer_3.pb.pbValues.0.PrevPBCandidateAverage f4 [10]
0.0 0.0 0.0 0.0 0.0 0.0 0.0 0.0
0.0 0.0
00000000: 0000 0000 0000 0000 0000 0000 0000 0000
00000010: 0000 0000 0000 0000 0000 0000 0000 0000
00000020: 0000 0000 0000 0000

model.layer_3.pb.pbValues.0.mainGradAverageForScaling f4 [10]
0.0 0.0 0.0 0.0 0.0 0.0 0.0 0.0
0.0 0.0
00000000: 0000 0000 0000 0000 0000 0000 0000 0000
00000010: 0000 0000 0000 0000 0000 0000 0000 0000
00000020: 0000 0000 0000 0000

model.layer_3.pb.pbValues.0.candidateGradAverageForScaling f4 [10]
0.0 0.0 0.0 0.0 0.0 0.0 0.0 0.0
0.0 0.0
00000000: 0000 0000 0000 0000 0000 0000 0000 0000
00000010: 0000 0000 0000 0000 0000 0000 0000 0000
00000020: 0000 0000 0000 0000

model.layer_3.pb.pbValues.0.indexesOfbest f4 [10]
0.0 0.0 0.0 0.0 0.0 0.0 0.0 0.0
0.0 0.0
00000000: 0000 0000 0000 0000 0000 0000 0000 0000
00000010: 0000 0000 0000 0000 0000 0000 0000 0000
00000020: 0000 0000 0000 0000

model.layer_3.pb.pbValues.0.nodesBestImprovedThisEpoch f4 [10]
0.0 0.0 0.0 0.0 0.0 0.0 0.0 0.0
0.0 0.0
00000000: 0000 0000 0000 0000 0000 0000 0000 0000
00000010: 0000 0000 0000 0000 0000 0000 0000 0000
00000020: 0000 0000 0000 0000

model.layer_3.pb.pbValues.0.parentsAverageDvector f4 [10]
0.0 0.0 0.0 0.0 0.0 0.0 0.0 0.0
0.0 0.0
00000000: 0000 0000 0000 0000 0000 0000 0000 0000
00000010: 0000 0000 0000 0000 0000 0000 0000 0000
00000020: 0000 0000 0000 0000

model.layer_3.pb.pbValues.0.normalPassAverageD f4 [10]
-3.039821e-06 1.4252445e-06 -5.870001e-06 2.1611897e-06 -9.1293475e-07 -7.7394825e-06 -2.339568e-06 -3.015551e-06
1.7265236e-05 2.0657337e-06
00000000: baff 4bb6 074b bf35 edf6 c4b6 f508 1136
00000010: 6610 75b5 d3d8 01b7 7901 1db6 c65e 4ab6
00000020: d0d4 9037 09a1 0a36

exp_avg f4 [4, 784]
-0.0009949473 -0.0009949473 -0.0009949473 -0.0009949473 -0.0009949473 -0.0009949473 -0.0009949473 -0.0009949473
-0.0009949473 -0.0009949473 -0.0009949473 -0.0009949473 -0.0009949473 -0.0009949473 -0.0009949473 -0.0009949473
-0.0009949473 -0.0009949473 -0.0009949473 -0.0009949473 -0.0009949473 -0.0009949473 -0.0009949473 -0.0009949473
-0.0009949473 -0.0009949473 -0.0009949473 -0.0009949473 -0.0009949473 -0.0009949473 -0.0009949473 -0.0009949473
-0.0009949473 -0.0009949473 -0.0009949473 -0.0009949473 -0.0009949461 -0.0009949463 -0.0009949564 -0.0009949825
-0.0009947051 -0.0009934206 -0.0009938101 -0.0009948746 -0.0009951501 -0.0009950224 -0.000994947 -0.0009949473
-0.0009949473 -0.0009949473 -0.0009949473 -0.0009949473 -0.0009949473 -0.0009949473 -0.0009949473 -0.0009949473
-0.0009949473 -0.0009949473 -0.0009949473 -0.0009949473 -0.0009945247 -0.0009948715 -0.0009949473 -0.0009949469
-0.0009949459 -0.0009948976 -0.000994664 -0.000992196 -0.0009778677 -0.00094476144 -0.0009422636 -0.0009774542
-0.0009877371 -0.000976174 -0.0009718445 -0.0009927383 -0.000994662 -0.000994931 -0.000994931 -0.0009949282
-0.0009949461 -0.0009949473 -0.0009949473 -0.0009949473 -0.0009949473 -0.0009949473 -0.0009949473 -0.0009949473
-0.0009948716 -0.0009949278 -0.0009949199 -0.0009948886 -0.0009947128 -0.0009610372 -0.0008965505 -0.00086318684
-0.0008536627 -0.0009462124 -0.0010204915 -0.0018671161 -0.0025885664 -0.0024633585 -0.0014628173 -0.0011872824
-0.0008807831 -0.00071308686 -0.0008687981 -0.0009468869 -0.0009371032 -0.0009926461 -0.0009949473 -0.0009949473
-0.0009949473 -0.0009949473 -0.0009949473 -0.0009949473 -0.0009949419 -0.0009935388 -0.0009964305 -0.0009092132
-0.0010620281 4.324592e-05 -0.00046658682 -3.432646e-05 0.0008573723 -3.709972e-05 -0.0007379331 -0.0013245575
-0.0015409221 -0.0027193318 -0.002235266 -0.0018196589 -0.0015462538 -0.0009254398 -0.0009887915 -0.0012116286
-0.0009469723 -0.0009915326 -0.0010192666 -0.0009949828 -0.0009949473 -0.0009949473 -0.0009949473 -0.0009952371
-0.0009957928 -0.0010344178 -0.0007645219 -9.0645e-05 0.00035129813 0.0013340047 0.0018963162 0.0023746244
0.0017770248 -0.00028274636 -0.0004810726 -0.0010947763 -0.00022069931 -6.767116e-05 0.000771586 2.0002955e-05
-0.002086316 -0.0017998648 -0.0013143244 -0.0010916534 -0.0015228427 -0.0010687443 -0.0010306056 -0.0009949473
-0.0009949473 -0.0009949481 -0.000994968 -0.0009944569 -0.000999532 -0.0010619453 -0.0002275873 0.0007226282
0.0014059986 0.001991721 0.0027909847 0.003040216 0.0013718469 0.0005049143 0.0012994386 0.0015983215
0.004288612 0.0029534276 0.00246662 0.0023574554 0.00047435574 -0.0007517869 0.0006958505 5.398378e-05
-0.0014105942 -0.0013009224 -0.0009976918 -0.0009959735 -0.0009949473 -0.0009949646 -0.0009952832 -0.001002697
-0.0010516281 -0.0009462042 0.00041656097 0.0013842087 0.0010074957 0.00194967 0.0031731615 0.0029281727
0.0019734344 0.0027227441 0.0027542366 0.004029215 0.005727603 0.0047436147 0.0031424572 0.0020454135
0.0015323337 0.00075605453 0.0012616832 0.00035178158 -0.0010040418 -0.0011976069 -0.0011141825 -0.0009952709
-0.0009949473 -0.0009949493 -0.0009950434 -0.0010027459 -0.0010423491 -0.0009741206 0.0011022377 0.00084848143
0.00043125148 0.0004855523 0.0014684672 0.0008242477 0.0012772855 0.002680994 0.0043027005 0.004812166
0.0069699055 0.005921354 0.0037173952 0.002586752 0.0010318195 0.00023290489 0.00019875428 0.0005842371
-0.0014896567 -0.0016668255 -0.0012941401 -0.0009949557 -0.0009949473 -0.0009949475 -0.000995019 -0.0009963011
00000000: e468 82ba e468 82ba e468 82ba e468 82ba
00000010: e468 82ba e468 82ba e468 82ba e468 82ba
00000020: e468 82ba e468 82ba e468 82ba e468 82ba
00000030: e468 82ba e468 82ba e468 82ba e468 82ba
00000040: e468 82ba e468 82ba e468 82ba e468 82ba
00000050: e468 82ba e468 82ba e468 82ba e468 82ba
00000060: e468 82ba e468 82ba e468 82ba e468 82ba
00000070: e468 82ba e468 82ba e468 82ba e468 82ba
00000080: e468 82ba e468 82ba e468 82ba e468 82ba
00000090: da68 82ba dc68 82ba 3269 82ba 136a 82ba
000000a0: c460 82ba aa35 82ba bc42 82ba 7466 82ba
000000b0: b26f 82ba 696b 82ba e268 82ba e468 82ba
000000c0: e468 82ba e468 82ba e468 82ba e468 82ba
000000d0: e468 82ba e468 82ba e468 82ba e468 82ba
000000e0: e468 82ba e468 82ba e468 82ba e468 82ba
000000f0: b65a 82ba 5966 82ba e468 82ba e168 82ba
00000100: d868 82ba 3967 82ba 635f 82ba 930c 82ba
00000110: cc2b 80ba dea9 77ba 3d02 77ba ec1d 80ba
00000120: f576 81ba eee5 7fba 61c3 7eba c51e 82ba
00000130: 525f 82ba 5868 82ba 5868 82ba 4068 82ba
00000140: da68 82ba e468 82ba e468 82ba e468 82ba
00000150: e468 82ba e468 82ba e468 82ba e468 82ba
00000160: 5a66 82ba 3d68 82ba f967 82ba ec66 82ba
00000170: 0661 82ba 1dee 7bba 7c06 6bba 7d47 62ba
00000180: 56c8 5fba 3d0b 78ba 03c2 85ba 05ba f4ba
00000190: f0a4 29bb 4c70 21bb 01bc bfba 969e 9bba
000001a0: 5ae4 66ba 73ee 3aba 0ec0 63ba 8138 78ba
000001b0: eea7 75ba ad1b 82ba e468 82ba e468 82ba
000001c0: e468 82ba e468 82ba e468 82ba e468 82ba
000001d0: b668 82ba a139 82ba a99a 82ba 4458 6eba
000001e0: c033 8bba f462 3538 39a0 f4b9 c1f9 0fb8
000001f0: 48c1 603a 859b 1bb8 da71 41ba c69c adba
00000200: c4f8 c9ba d136 32bb 8a7d 12bb 9f81 eeba
00000210: abab caba 3799 72ba 569a 81ba 82cf 9eba
00000220: 3c3e 78ba 50f6 81ba e998 85ba 156a 82ba
00000230: e468 82ba e468 82ba e468 82ba 9e72 82ba
00000240: 4385 82ba 4d95 87ba 326a 48ba aa18 beb8
00000250: 702e b839 c5d9 ae3a d08d f83a 969f 1b3b
00000260: 0feb e83a 933d 94b9 7938 fcb9 997e 8fba
00000270: 856b 67b9 adea 8db8 4344 4a3a 05cc a737
00000280: 93ba 08bb 71e9 ebba 6945 acba cf15 8fba
00000290: 1f9a c7ba 1c15 8cba 6315 87ba e468 82ba
000002a0: e468 82ba eb68 82ba 9669 82ba 7058 82ba
000002b0: bb02 83ba f930 8bba 80a4 6eb9 c26e 3d3a
000002c0: 7c49 b83a 8987 023b f4e8 363b 5c3e 473b
000002d0: 8bcf b33a 3a5c 043a ed51 aa3a c57e d13a
000002e0: 7c87 8c3b 4b8e 413b 04a7 213b 8a7f 1a3b
000002f0: f3b2 f839 9113 45ba bd69 363a a46c 6238
00000300: b0e3 b8ba b683 aaba fbc4 82ba 538b 82ba
00000310: e468 82ba 7969 82ba 2a74 82ba ee6c 83ba
00000320: c9d6 89ba b00a 78ba de65 da39 566e b53a
00000330: f20d 843a 128c ff3a d1f4 4f3b 96e6 3f3b
00000340: bc54 013b 1170 323b 6c80 343b 8107 843b
00000350: 9eae bb3b 5370 9b3b aff1 4d3b 580c 063b
00000360: 96d8 c83a f631 463a 105f a53a 536f b839
00000370: 0d9a 83ba 05f9 9cba c309 92ba c073 82ba
00000380: e468 82ba f568 82ba 1e6c 82ba 926e 83ba
00000390: 6f9f 88ba 205c 7fba f678 903a a06c 5e3a
000003a0: 9819 e239 ba91 fe39 9579 c03a 5412 583a
000003b0: 976a a73a 9eb3 2f3b abfd 8c3b 60af 9d3b
000003c0: ce63 e43b eb07 c23b 8b9f 733b 7f86 293b
000003d0: 1e3e 873a ee37 7439 b268 5039 7d27 193a
000003e0: 9640 c3ba 6279 daba 23a0 a9ba 2c69 82ba
000003f0: e468 82ba e668 82ba 4c6b 82ba 5196 82ba

exp_avg_sq f4 [4, 784]
7.2979424e-06 7.2979424e-06 7.2979424e-06 7.2979424e-06 7.2979424e-06 7.2979424e-06 7.2979424e-06 7.2979424e-06
7.2979424e-06 7.2979424e-06 7.2979424e-06 7.2979424e-06 7.3328347e-06 7.4720865e-06 7.3164533e-06 7.297045e-06
7.2979424e-06 7.2979424e-06 7.2979424e-06 7.2979424e-06 7.2979424e-06 7.2979424e-06 7.2979424e-06 7.2979424e-06
7.2979424e-06 7.2979424e-06 7.2979424e-06 7.2979424e-06 7.2979424e-06 7.2979424e-06 7.2979424e-06 7.2979424e-06
7.297948e-06 7.297955e-06 7.2979537e-06 7.298085e-06 7.3000365e-06 7.2968414e-06 7.301091e-06 7.3384413e-06
7.3576343e-06 7.377415e-06 7.284183e-06 7.318328e-06 7.547447e-06 7.450608e-06 7.3193737e-06 7.302825e-06
7.28838e-06 7.325368e-06 7.2994735e-06 7.2979424e-06 7.2979424e-06 7.2979424e-06 7.2979424e-06 7.2979424e-06
7.2979424e-06 7.2979424e-06 7.2979424e-06 7.2979424e-06 7.2976854e-06 7.2979624e-06 7.3020633e-06 7.3314554e-06
7.376679e-06 7.536669e-06 7.742772e-06 7.952787e-06 8.831656e-06 9.155809e-06 8.90149e-06 8.512273e-06
8.439632e-06 8.362392e-06 7.744314e-06 7.5543717e-06 7.4138234e-06 7.683589e-06 7.4893082e-06 7.391205e-06
7.4711024e-06 7.319364e-06 7.2979424e-06 7.2979424e-06 7.2979424e-06 7.2979424e-06 7.2979064e-06 7.297935e-06
7.297864e-06 7.303966e-06 7.3370597e-06 7.4332297e-06 7.700771e-06 8.559895e-06 9.671159e-06 1.0666116e-05
1.23091095e-05 1.3898136e-05 1.4269317e-05 1.3696615e-05 1.4524539e-05 1.5046934e-05 1.260371e-05 1.0836951e-05
9.3696235e-06 9.128586e-06 8.417137e-06 7.713999e-06 7.5746093e-06 7.3238953e-06 7.2897087e-06 7.2979424e-06
7.2979424e-06 7.2979587e-06 7.301188e-06 7.2927505e-06 7.2747334e-06 7.3602173e-06 7.74653e-06 8.761733e-06
1.0386197e-05 1.3681498e-05 1.9696317e-05 2.4897434e-05 3.103346e-05 3.6012185e-05 3.7638307e-05 4.034369e-05
3.91404e-05 3.4663393e-05 2.998905e-05 2.5021067e-05 1.8437218e-05 1.3920494e-05 1.1433279e-05 9.0187195e-06
7.827174e-06 7.381153e-06 7.30085e-06 7.2718876e-06 7.2979424e-06 7.2979424e-06 7.2980806e-06 7.378886e-06
7.647391e-06 7.962309e-06 9.536726e-06 1.282203e-05 1.8405768e-05 2.6271115e-05 3.7850943e-05 5.337134e-05
6.855669e-05 8.365997e-05 9.158812e-05 9.54476e-05 9.6760836e-05 8.88179e-05 7.1563816e-05 5.0154234e-05
3.3601613e-05 2.3483573e-05 1.6310503e-05 1.1680703e-05 8.490067e-06 7.879874e-06 7.257371e-06 7.298643e-06
7.2979424e-06 7.296943e-06 7.2840735e-06 7.4557206e-06 8.118488e-06 9.279933e-06 1.2460757e-05 1.876727e-05
2.750651e-05 4.1668154e-05 6.0311297e-05 7.828355e-05 0.0001021617 0.00011486958 0.00012470539 0.00013071904
0.00013463221 0.00012970754 0.00011702838 8.240231e-05 5.1786996e-05 3.610868e-05 2.3762397e-05 1.585528e-05
1.0347909e-05 8.6353575e-06 7.4449636e-06 7.28769e-06 7.2979424e-06 7.30046e-06 7.334235e-06 7.4871864e-06
8.644398e-06 1.1181423e-05 1.5363987e-05 2.4065084e-05 3.4435798e-05 5.1646475e-05 6.892702e-05 8.864099e-05
0.00010691923 0.000117278396 0.00012530554 0.0001289711 0.000127318 0.00012735362 0.00011728495 9.146231e-05
6.136786e-05 4.2925018e-05 2.9698862e-05 2.0487196e-05 1.2021766e-05 8.924873e-06 7.5912326e-06 7.284456e-06
7.297943e-06 7.290187e-06 7.319986e-06 7.625986e-06 9.581616e-06 1.2602068e-05 1.7879514e-05 2.7559854e-05
3.87387e-05 5.283004e-05 6.3684034e-05 7.9804144e-05 9.717471e-05 0.00010572629 0.00010992979 0.00011266324
0.00010890952 0.00010593204 0.000101662445 8.6690416e-05 5.9350372e-05 4.0560735e-05 2.953994e-05 1.9776468e-05
1.2959404e-05 9.47928e-06 7.775207e-06 7.3174915e-06 7.297731e-06 7.2969538e-06 7.2989997e-06 7.719728e-06
00000000: d9e0 f436 d9e0 f436 d9e0 f436 d9e0 f436
00000010: d9e0 f436 d9e0 f436 d9e0 f436 d9e0 f436
00000020: d9e0 f436 d9e0 f436 d9e0 f436 d9e0 f436
00000030: 920c f636 bcb8 fa36 db7f f536 24d9 f436
00000040: d9e0 f436 d9e0 f436 d9e0 f436 d9e0 f436
00000050: d9e0 f436 d9e0 f436 d9e0 f436 d9e0 f436
00000060: d9e0 f436 d9e0 f436 d9e0 f436 d9e0 f436
00000070: d9e0 f436 d9e0 f436 d9e0 f436 d9e0 f436
00000080: e5e0 f436 f5e0 f436 f2e0 f436 13e2 f436
00000090: d6f2 f436 64d7 f436 e5fb f436 bb3c f636
000000a0: 99e1 f636 838b f736 a86a f436 f58f f536
000000b0: 1340 fd36 3c00 fa36 f198 f536 ca0a f536
000000c0: b58e f436 6fcc f536 00ee f436 d9e0 f436
000000d0: d9e0 f436 d9e0 f436 d9e0 f436 d9e0 f436
000000e0: d9e0 f436 d9e0 f436 d9e0 f436 d9e0 f436
000000f0: a4de f436 05e1 f436 3f04 f536 b900 f636
00000100: 3185 f736 7ee3 fc36 f4e6 0137 f66c 0537
00000110: ac2b 1437 e69b 1937 9c57 1537 efcf 0e37
00000120: f297 0d37 334c 0c37 93ed 0137 8f7b fd36
00000130: 42c4 f836 c3e8 0037 ab4c fb36 f801 f836
00000140: 48b0 fa36 dc98 f536 d9e0 f436 d9e0 f436
00000150: d9e0 f436 d9e0 f436 8ae0 f436 c9e0 f436
00000160: 2de0 f436 9714 f536 dd30 f636 f56a f936
00000170: 8f32 0137 789c 0f37 5041 2237 9ff2 3237
00000180: 3983 4e37 0a2c 6937 4066 6f37 83ca 6537
00000190: 6cae 7337 1772 7c37 8674 5337 5ad0 3537
000001a0: 3a32 1d37 fa26 1937 5437 0d37 606b 0137
000001b0: 6629 fe36 c8bf f536 1f9a f436 d9e0 f436
000001c0: d9e0 f436 fde0 f436 bafc f436 40b4 f436
000001d0: 7c19 f436 c9f7 f636 18f7 0137 5bff 1237
000001e0: 6040 2e37 9689 6537 8539 a537 d5da d037
000001f0: ed29 0238 ca0b 1738 d3dd 1d38 b536 2938
00000200: af2a 2438 8963 1138 ff90 fb37 55e4 d137
00000210: a0a9 9a37 118c 6937 8fd1 3f37 1b4f 1737
00000220: 7551 0337 9fab f736 d3f9 f436 0a01 f436
00000230: d9e0 f436 d9e0 f436 09e2 f436 2698 f736
00000240: 4b4d 0037 db95 0537 edff 1f37 331e 5737
00000250: 1666 9a37 ca60 dc37 24c2 1e38 0adb 5f38
00000260: 18c6 8f38 9b72 af38 ff12 c038 0a2b c838
00000270: 14ec ca38 bf43 ba38 8814 9638 b35c 5238
00000280: 75ef 0c38 97fe c437 8ad2 8837 3df8 4337
00000290: 8f70 0e37 cd33 0437 5884 f336 dee6 f436
000002a0: d9e0 f436 43d8 f436 b769 f436 272c fa36
000002b0: a434 0837 02b1 1b37 8b0e 5137 686e 9d37
000002c0: c8bd e637 d7c4 2e38 c3f6 7c38 292c a438
000002d0: a53f d638 23e6 f038 59c3 0239 a011 0939
000002e0: 0f2c 0d39 1a02 0839 226d f538 67cf ac38
000002f0: dd35 5938 6673 1738 5c55 c737 f400 8537
00000300: ee9b 2d37 94e0 1037 c0cf f936 c888 f436
00000310: d9e0 f436 79f6 f436 9918 f636 713a fb36
00000320: 6807 1137 d997 3b37 e9e1 8037 60df c937
00000330: 286f 1038 fb9e 5838 e98c 9038 c5e4 b938
00000340: d339 e038 5cf3 f538 7364 0339 6b3c 0739
00000350: aa80 0539 3a8a 0539 e1f6 f538 74cf bf38
00000360: 9eb2 8038 630a 3438 d221 f937 ebdb ab37
00000370: 18b1 4937 0abc 1537 31b8 fe36 006d f436
00000380: dae0 f436 3b9e f436 339e f536 b9e2 ff36
00000390: bac0 2037 786d 5337 f7fb 9537 5630 e737
000003a0: 5d7b 2238 d395 5d38 1b8e 8538 865c a738
000003b0: 46ca cb38 5fb9 dd38 1b8a e638 9e45 ec38
000003c0: 5a66 e438 d527 de38 9c33 d538 90cd b538
000003d0: faee 7838 c21f 2a38 8acc f737 a4e5 a537
000003e0: 376c 5937 3309 1f37 4372 0237 c688 f536
000003f0: 08df f436 5bd8 f436 eee9 f436 fb83 0137

exp_avg f4 [4]
0.002345396 0.0005143506 -0.00076398137 -0.0015110781
00000000: 37b5 193b 7cd5 063a ec45 48ba 5e0f c6ba

exp_avg_sq f4 [4]
4.0553914e-05 3.0982024e-05 2.2702427e-05 5.014346e-05
00000000: 6f18 2a38 b2f2 0138 1771 be37 2151 5238

exp_avg f4 [8, 4]
0.003052606 -0.011170975 -0.022772105 -0.009207159 -0.0025377306 0.006556831 -0.010290891 -0.009817726
0.015377554 0.015632829 0.04102047 0.032360576 0.01396497 -0.008313392 0.0038201562 -0.0014005501
-0.004651083 -0.0034362113 -0.014350374 -0.0035025934 -0.019146832 -0.009046641 -0.019487195 -0.011739462
-0.022979269 -0.013668047 -0.048840057 -0.035300344 -0.016041853 -0.010487508 -0.016374119 -0.023849323
00000000: 3b0e 483b 7706 37bc 918c babc a0d9 16bc
00000010: 0e50 26bb afda d63b 209b 28bc 87da 20bc
00000020: 23f2 7b3c 6b10 803c 1505 283d 868c 043d
00000030: 54cd 643c e534 08bc 965b 7a3b aa92 b7ba
00000040: 1d68 98bb 0f32 61bb d51d 6bbc c48b 65bb
00000050: d1d9 9cbc 5d38 14bc 9ca3 9fbc df56 40bc
00000060: 053f bcbc f2ef 5fbc 830c 48bd 1897 10bd
00000070: 346a 83bc ccd3 2bbc 0423 86bc a85f c3bc

exp_avg_sq f4 [8, 4]
0.0053848415 0.007864062 0.010876218 0.0116130635 0.0023658278 0.0020946595 0.0067612166 0.0050204988
0.003235659 0.0031103152 0.014277223 0.009795729 0.0033267317 0.0067933956 0.0108211255 0.011511709
0.001359718 0.0011988902 0.0040328423 0.0023708388 0.002249952 0.0018637935 0.0034245562 0.0063054683
0.0043416834 0.007620992 0.017015604 0.0122087505 0.0020359142 0.0014992018 0.0054834452 0.004185231
00000000: 5373 b03b 44d8 003c 2a32 323c b844 3e3c
00000010: 010c 1b3b 8e46 093b 328d dd3b ff82 a43b
00000020: 5a0d 543b 6ed6 4b3b 03eb 693c 447e 203c
00000030: 4c05 5a3b 229b de3b 174b 313c 9b9b 3c3c
00000040: 9138 b23a 1424 9d3a ef25 843b 1360 1b3b
00000050: ee73 133b 884a f43a 856e 603b 1a9e ce3b
00000060: ae44 8e3b 84b9 f93b 4f64 8b3c 3607 483c
00000070: f96c 053b dd80 c43a 79ae b33b 4324 893b

exp_avg f4 [8]
-0.0014427006 -9.0477566e-05 0.0016560891 -9.235136e-05 -0.00032765884 -0.0002852029 -0.0010532264 -0.0008124236
00000000: 0019 bdba c6be bdb8 2111 d93a c2ac c1b8
00000010: a0c9 abb9 4987 95b9 6a0c 8aba d3f8 54ba

exp_avg_sq f4 [8]
2.2260452e-05 9.159964e-06 1.8974364e-05 2.1127285e-05 6.4939495e-06 1.000929e-05 2.3906852e-05 8.388416e-06
00000000: f5bb ba37 bfad 1937 232b 9f37 803a b137
00000010: 9ae6 d936 93ed 2737 938b c837 f9bb 0c37

exp_avg f4 [10, 8]
-0.00019033591 0.024103452 0.011707786 0.0010605444 0.0023250063 0.010633947 0.0075851507 0.012262399
0.00073250086 -0.0028371813 -0.0010188204 -0.0011715402 -0.0009945158 0.0030703086 -0.0011299513 0.0016156744
-0.0018579757 0.012401769 0.0147331245 0.0044824583 0.008815339 0.006135598 0.005744574 0.0041806055
0.0012028478 0.024287166 0.025915964 0.007927613 0.015987976 0.01734548 0.008946198 0.012569346
-0.00468488 0.0022346908 -0.0074418993 -0.004416522 -0.007104811 -0.019789413 -0.0033114871 -0.014304219
-0.0020960362 -0.08338598 -0.058378816 -0.02492259 -0.03808165 -0.03887902 -0.03195313 -0.040356103
0.0005860331 -0.006493061 0.0019108141 -0.0021436417 -6.510661e-05 -0.0025997884 -0.0035963359 -0.0063402215
0.0011110868 -0.0029071674 -0.010492187 0.0009560394 -0.0023286657 -0.005586385 0.0008295522 0.0004643285
-0.0016178458 0.033077873 0.014640773 0.010907376 0.012358036 0.019093353 0.014648498 0.023751605
0.006814607 -0.0004815221 0.008423322 0.0073202676 0.009088423 0.01057598 0.002236947 0.006156626
00000000: e894 47b9 9a74 c53c 03d2 3f3c f701 8b3a
00000010: 225f 183b 023a 2e3c db8c f83b 3be8 483c
00000020: 4d05 403a 01f0 39bb f189 85ba 5e8e 99ba
00000030: 6a5a 82ba 3b37 493b e01a 94ba 09c5 d33a
00000040: 5287 f3ba ca30 4b3c 3463 713c 96e1 923b
00000050: 366e 103c 200d c93b fb3c bc3b 76fd 883b
00000060: e0a8 9d3a e1f5 c63c b74d d43c d2e2 013c
00000070: 37f9 823c 1c18 8e3c 1393 123c a9ef 4d3c
00000080: 9f83 99bb e473 123b 2ddb f3bb 79b8 90bb
00000090: 79cf e8bb 681d a2bc 8905 59bb 3e5c 6abc
000000a0: a75d 09bb 45c6 aabd a01e 6fbd 762a ccbc
000000b0: 81fb 1bbd 9b3f 1fbd 49e1 02bd 714c 25bd
000000c0: 04a0 193a bec3 d4bb 4874 fa3a 577c 0cbb
000000d0: d889 88b8 3661 2abb 81b0 6bbb a2c1 cfbb
000000e0: e3a1 913a 2d86 3ebb 6ce7 2bbc b89e 7a3a
000000f0: 879c 18bb fe0d b7bb 4e76 593a 1e71 f339
00000100: e60d d4ba aa7c 073d dadf 6f3c dab4 323c
00000110: 5c79 4a3c aa69 9c3c 4100 703c ba92 c23c
00000120: 114d df3b cd74 fcb9 f901 0a3c dbde ef3b
00000130: 9ce7 143c e046 2d3c be99 123b 86bd c93b

exp_avg_sq f4 [10, 8]
3.7074948e-05 0.003910319 0.0006996852 0.00049089524 0.00051957264 0.0026692795 0.00084891584 0.0035752354
0.00034824375 0.00080017094 0.0064481916 0.0009441639 0.0041720853 0.0011853299 0.00012919014 7.067101e-05
0.0011306113 0.0016806658 0.004455484 0.002488158 0.0051561734 0.00029890175 0.00039383525 9.517667e-05
1.6230108e-05 0.007110898 0.008606274 0.00082428777 0.003911527 0.003410157 0.0008480778 0.0017571079
0.0028430661 0.00024913438 0.0040567075 0.0035019491 0.006745217 0.0073745665 0.0005719814 0.0032697911
0.00021294935 0.013990778 0.006815176 0.0027458994 0.0051699295 0.0069499738 0.0027702313 0.0077857524
0.0011915719 0.0014088834 0.00057737634 0.0024851288 0.002726994 0.00034317464 0.00061534916 0.0008801433
0.00013971279 0.00017949905 0.004271924 9.036766e-05 0.0015879484 0.0064320113 6.0554292e-05 0.0018474747
0.0008760332 0.0066729337 0.011355195 0.0038514044 0.00942238 0.007829793 0.0018684164 0.0049393466
0.0018748968 0.0003040078 0.008145505 0.0019995996 0.0065963394 0.014244209 0.0004227548 0.0049962276
00000000: ec80 1b38 2222 803b 146b 373a 6caf 003a
00000010: ee33 083a 14ef 2e3b c789 5e3a 7f4e 6a3b
00000020: 7c94 b639 90c2 513a 5a4b d33b c481 773a
00000030: fdb5 883b 125d 9b3a 3777 0739 3635 9438
00000040: 0531 943a c949 dc3a 4fff 913b 5d10 233b
00000050: 1ef5 a83b eab5 9c39 ac7b ce39 9699 c738
00000060: e425 8837 8902 e93b 5401 0d3c 0415 583a
00000070: 442c 803b f17c 5f3b 8a51 5e3a c24e e63a
00000080: bc52 3a3b 409e 8239 21ee 843b f580 653b
00000090: fb06 dd3b 59a6 f13b 06f1 153a fe49 563b
000000a0: 284b 5f39 9339 653c d751 df3b 8cf4 333b
000000b0: 8368 a93b 9bbc e33b c58c 353b a01f ff3b
000000c0: 852e 9c3a 48aa b83a 125b 173a 8bdd 223b
000000d0: 5eb7 323b 1fec b339 624f 213a 6bb9 663a
000000e0: de7f 1239 e937 3c39 7ffb 8b3b c583 bd38
000000f0: b522 d03a 9fc3 d23b adfb 7d38 f726 f23a
00000100: 98a5 653a a0a8 da3b 240b 3a3c d867 7c3b
00000110: 5360 1a3c 8848 003c a7e5 f43a 3eda a13b
00000120: 19bf f53a 3c63 9f39 b974 053c b70b 033b
00000130: 1b26 d83b 8b60 693c 30a5 dd39 65b7 a33b

exp_avg f4 [10]
0.0001626363 -0.00014183889 -5.552882e-05 0.0013860874 -0.00047014744 -0.0023810603 -0.00026894498 -0.0004743746
0.0016812636 0.00056191126
00000000: 5989 2a39 96ba 14b9 9ee7 68b8 60ad b53a
00000010: 1f7e f6b9 900b 1cbb 2f01 8db9 7bb5 f8b9
00000020: d85d dc3a 3a4d 133a

exp_avg_sq f4 [10]
1.0989306e-05 9.6281665e-06 1.1586648e-05 1.536676e-05 2.3360475e-05 2.9001116e-05 9.976e-06 1.2493678e-05
2.437376e-05 2.6790649e-05
00000000: b65e 3837 a988 2137 4664 4237 dee7 8037
00000010: 3df6 c337 6c47 f337 985e 2737 f09b 5137
00000020: 4076 cc37 7bbc e037
