libraryExamples/mnist_lightning/.mnist_{epoch}-{val_loss:.2f}/epoch=215-step=185760.ckpt (torch, 300332 bytes, 75 tensors)

model.layer_1.mainModule.weight f4 [4, 784]
0	0xbdf6b66b	-0.12046512
1	0xbda5e4b7	-0.081002645
2	0xbda14c90	-0.07875931
3	0xbe01adde	-0.12663981
4	0xbda09d61	-0.07842518
5	0xbdb199d9	-0.08671922
6	0xbd846957	-0.064654045
7	0xbdf68b0d	-0.120382406
8	0xbdce2351	-0.1006533
9	0xbdeddd77	-0.11614507
10	0xbe00482b	-0.1252753
11	0xbd9b6bdc	-0.07588932
12	0xbdf9907a	-0.1218576
13	0xbd9f3997	-0.07774656
14	0xbdbe59e4	-0.09294489
15	0xbda1dbda	-0.079032615
16	0xbd865bf8	-0.065605104
17	0xbdb0df85	-0.08636383
18	0xbd84eeeb	-0.064908825
19	0xbda85c85	-0.08220772
20	0xbdaf4a7a	-0.08559127
21	0xbdc4ed0b	-0.09615525
22	0xbd908343	-0.07056286
23	0xbe0115bb	-0.12605946
24	0xbdc93c1d	-0.09825919
25	0xbd81c3c6	-0.06336169
26	0xbdc81d7b	-0.09771248
27	0xbdde2f9f	-0.10848927
28	0xbe02cae1	-0.12772705
29	0xbdafb88a	-0.0858012
30	0xbdac7fdf	-0.08422827
31	0xbde0d258	-0.1097762
32	0xbdf781b4	-0.12085286
33	0xbdb75edd	-0.089536406
34	0xbdae99c8	-0.08525425
35	0xbe117a5c	-0.14206833
36	0xbe543272	-0.20722368
37	0xbda5005f	-0.080567114
38	0xbd87e350	-0.06635153
39	0x3e8f14fd	0.279457
40	0xbd437ae9	-0.047724638
41	0xbdb8fe26	-0.0903285
42	0x3cd1f603	0.025630003
43	0x3defff75	0.117186464
44	0xbef2778b	-0.4735683
45	0x3c84a934	0.016193964
46	0xbcec5419	-0.028848695
47	0xbd82a801	-0.063797005
48	0x3d45b844	0.048271433
49	0x3c385f3c	0.011253174
50	0xbe45a6c2	-0.19301894
51	0xbe939122	-0.28821665
52	0xbd906e4b	-0.07052287
53	0xbdee1898	-0.11625785
54	0xbda9c422	-0.082893625
55	0xbd8d3d76	-0.06896488
56	0xbdacc282	-0.08435537
57	0xbdf32432	-0.11872138
58	0xbe02c0a8	-0.12768805
59	0xbdb75212	-0.089512005
60	0xbdbbe4da	-0.09174509
61	0xbd7ecac0	-0.062205076
62	0xbd4512c5	-0.048113603
63	0x3d0b3b5c	0.033992156
64	0x3c0d2780	0.008615375
65	0xbdd7e39c	-0.1054146
66	0x3d3c3227	0.045946267
67	0x3e7c3d16	0.24632677
68	0x3d6b8f77	0.057509866
69	0x3df4bcf2	0.11950101
70	0x3ccf61e6	0.025315236
71	0xbcade32e	-0.021226492
72	0x3e5455d6	0.20735869
73	0xbf31869a	-0.6934601
74	0x3f189a8d	0.59610826
75	0x3f15912c	0.5842464
76	0x3f03102d	0.5119656
77	0x3ebab804	0.36468518
78	0x3bf9a444	0.007618459
79	0xbe5db64e	-0.21651575
80	0xbda08478	-0.078377664
81	0xbd903d0c	-0.07042894
82	0xbd99031d	-0.07471297
83	0xbdce28b0	-0.10066354
84	0xbdf35bf3	-0.11882772
85	0xbdd4af47	-0.10384994
86	0xbd80f47a	-0.0629663
87	0xbde144c0	-0.10999441
88	0xbde136e1	-0.109967954
89	0xbe0bec7d	-0.13664432
90	0xb9284833	-0.00016048625
91	0x3b6c4b97	0.0036055797
92	0x3e76bad7	0.24094711
93	0x3e79b96e	0.24387142
94	0x3e8e533e	0.27797884
95	0x3f14fea9	0.5820108
96	0x3e0a74c5	0.13521107
97	0x3d1c528c	0.03816466
98	0x3f73a111	0.9516764
99	0x3e8ed6d3	0.27898273
100	0x3f3c5a60	0.735754
101	0x3e1b2ad8	0.15153062
102	0x3f09f53c	0.5388982
103	0x3f289d4d	0.6586502
104	0x3d858e2d	0.065212585
105	0xbe19ab91	-0.15006854
106	0xbf620d3a	-0.8830143
107	0xbddbe841	-0.10737658
108	0xbe371a4c	-0.17881125
109	0xbd966732	-0.07343902
110	0xbd880208	-0.066410124
111	0xbdee2db0	-0.11629808
112	0xbd8765d0	-0.06611216
113	0xbdbdf233	-0.092747115
114	0xbdb0ef1f	-0.08639359
115	0xbcf80bc1	-0.030279042
116	0xbd7b6c73	-0.061382722
117	0xbe8af466	-0.27139586
118	0xbe974582	-0.29545218
119	0xbe3ddb02	-0.18540576
120	0xbd8c274f	-0.06843435
121	0xbec34290	-0.3813672
122	0xbf501129	-0.81276184
123	0x3e5e9e2e	0.21740028
124	0xbe230a44	-0.15921885
125	0xbefe8452	-0.49710327
126	0xbe9e3d78	-0.30906272
127	0x3cae8b23	0.02130658
128	0x3e7c6822	0.24649099
129	0x3e8f5e3a	0.28001577
130	0xbe24fa17	-0.16111027
131	0x3e2ba6db	0.16762869
132	0xbda9e1ce	-0.08295022
133	0x3e49cf64	0.1970802
134	0xbe978864	-0.29596245
135	0x3f62ff15	0.88670474
136	0x3da18a78	0.07887739
137	0x3c0b5c6f	0.008505925
138	0xbdb5d88e	-0.08879195
139	0xbddb92fb	-0.10721394
140	0xbdc887f2	-0.097915545
141	0xbdf34760	-0.11878848
142	0xbd83e46f	-0.064400546
143	0x3d988884	0.07447913
144	0xbd90f8d4	-0.0707871
145	0xbf1ab72a	-0.60435736
146	0xbf02edef	-0.5114431
147	0xbe2ec034	-0.17065507
148	0xbebdce2c	-0.3707136
149	0xbd6a4958	-0.057198852
150	0xbd9ed31f	-0.07755112
151	0x3d8c6ddf	0.06856894
152	0xbe0bdf3b	-0.13659374
153	0xbe56cbc4	-0.20976168
154	0x3df924ed	0.12165246
155	0xbf38cf39	-0.72191197
156	0x3eac68a0	0.33673573
157	0x3e803b5c	0.25045288
158	0x3d9cc088	0.0765391
159	0x3cc0a9b5	0.023518423
160	0x3eb227b6	0.34795922
161	0x3dc382ee	0.09546457
162	0x3e61ecfe	0.22063062
163	0x3e86b0cc	0.2630676
164	0x3da68ef0	0.08132732
165	0x3ee2a69c	0.44267738
166	0xbd09c87d	-0.033638466
167	0xbde72f74	-0.11288348
168	0xbdaf4610	-0.08558285
169	0xbdc19727	-0.09452658
170	0xbc407b41	-0.011748136
171	0xbec7d21e	-0.39027494
172	0x3dbd7598	0.09250945
173	0x3d88dae0	0.06682372
174	0xbbc1e6b6	-0.0059173955
175	0x3ea33f30	0.31884146
176	0xbf10c530	-0.56550884
177	0xbe18e6e6	-0.14931831
178	0x3d9c05f3	0.07618322
179	0xbe5a4c70	-0.21318221
180	0xbd9d8988	-0.07692248
181	0xbeb1ca6d	-0.3472475
182	0xbf605f53	-0.87645453
183	0xbe264ba6	-0.16239795
184	0xbed0e9cd	-0.40803376
185	0xbefc13d1	-0.4923387
186	0xbe78b610	-0.24288201
187	0x3dfbad78	0.12288946
188	0x3dd0be9e	0.10192607
189	0xbeac5aab	-0.33662924
190	0x3f1a5839	0.6029087
191	0x3f8c6c3e	1.0970533
192	0x3f4a6ae0	0.7906933
193	0x3e32332d	0.17402335
194	0xbd8ae6f7	-0.06782334
195	0xbde59760	-0.11210513
196	0xbdcf4e56	-0.10122363
197	0xbdbf56e6	-0.093427464
198	0xbde62a07	-0.11238485
199	0xbf9bd4ac	-1.2174277
200	0xbfb2a02e	-1.3955133
201	0xbe2f1cc5	-0.17100818
202	0x3e166230	0.14685893
203	0x3e0036a9	0.12520851
204	0xbe3c1b55	-0.18369801
205	0xbe7dc8f2	-0.24783686
206	0xbe9e2c14	-0.30893004
207	0xbd9ad260	-0.07559657
208	0xbe9aaef1	-0.30211595
209	0xbe75b89a	-0.23996201
210	0xbedba602	-0.4290009
211	0xbee0045c	-0.43753326
212	0xbef62fba	-0.48083287
213	0x3c0251ba	0.007954055
214	0xbcbf390a	-0.023342628
215	0x3ec86e41	0.39146617
216	0xbed49e4b	-0.41527018
217	0x3e5d4d30	0.21611476
218	0x3ec1be9d	0.3784074
219	0x3f2870d6	0.65797174
220	0x400ec4c4	2.2307596
221	0x3ec2fa08	0.38081384
222	0xbd6c3785	-0.057670135
223	0xbded247c	-0.115792245
224	0xbdd53f82	-0.10412504
225	0xbe5d1269	-0.21589054
226	0xbe2c2c05	-0.16813667
227	0xbf61da55	-0.88223773
228	0xbf82843f	-1.0196608
229	0xbe4d7880	-0.20065498
230	0x3e306894	0.17227393
231	0x3d39b416	0.04533776
232	0xbd54ef42	-0.051985987
233	0x3e2be225	0.16785486
234	0xbdaa59ba	-0.08317895
235	0x3db89690	0.090130925
236	0xbf1c2e14	-0.6100781
237	0xbe5d9fd9	-0.21643008
238	0xbefe0679	-0.49614313
239	0x3c58dfd2	0.013236957
240	0xbde45199	-0.11148376
241	0xbabfeff6	-0.0014643657
242	0xbf17e519	-0.5933395
243	0xbea90e38	-0.3301866
244	0x3e4ab6bd	0.19796272
245	0x3e230d57	0.15923057
246	0xbeb77fe4	-0.3583976
247	0x3f71dbc2	0.9447595
248	0x40298edc	2.6493444
249	0x3efd529b	0.49477085
250	0x3c923023	0.017845219
251	0xbde78dee	-0.11306368
252	0xbdca09f4	-0.0986518
253	0xbda2d53c	-0.079508275
254	0xbe9cde5d	-0.306384
255	0xbfccb92c	-1.599401

model.layer_1.mainModule.bias f4 [4]
0	0x3d8ee61f	0.06977486
1	0x3eb310ad	0.3497366
2	0x3d921926	0.07133703
3	0x3e9ef059	0.31042746

model.layer_1.PBtoTop.0 f4 [1, 4]
0	0x3cfc0291	0.030762943
1	0xbde1d12e	-0.11026226
2	0xbe5c0318	-0.21485555
3	0x3babe555	0.0052458444

model.layer_1.pb.layers.0.weight f4 [4, 784]
0	0xbcf0d771	-0.029399605
1	0xbba890c0	-0.0051442087
2	0xbb93cd65	-0.004510569
3	0xbccbdca5	-0.024885485
4	0xbcc692b0	-0.024239868
5	0xbc8b40cc	-0.016998671
6	0xbca95819	-0.020671891
7	0xbcb79fc4	-0.02241505
8	0xbc5614f2	-0.013066517
9	0xbd010273	-0.031496476
10	0xbc912d2a	-0.017721731
11	0xbc5a2bdf	-0.013316124
12	0xbc1b07be	-0.009462295
13	0xbcc243f3	-0.023714041
14	0xbc732dd9	-0.014842474
15	0xbaab4679	-0.0013067267
16	0xbc688206	-0.014191156
17	0xbbbd93cf	-0.0057854424
18	0xbbfb67d3	-0.007672289
19	0xbab45db4	-0.0013760836
20	0xbc08b9db	-0.008345093
21	0xbcaa2c4f	-0.020773081
22	0xbd021756	-0.031760536
23	0xbba0970c	-0.0049008187
24	0xbca8bd57	-0.020598097
25	0xbcb89811	-0.022533448
26	0xbc93c7ac	-0.018039547
27	0xbd042d5d	-0.032269824
28	0xbd090269	-0.033449564
29	0xbc9f6a2a	-0.019459803
30	0xbcbd492c	-0.02310618
31	0xbcdcab8b	-0.026937267
32	0xbd1528c7	-0.03641584
33	0xba39dc8f	-0.0007090056
34	0x3c18b0a8	0.009319462
35	0xbc8e5de6	-0.017378759
36	0xbc46f08a	-0.01214231
37	0xbcac7a92	-0.02105454
38	0x3aa998a1	0.0012939164
39	0xbcd9cb7d	-0.026586289
40	0xbc956136	-0.01823483
41	0xbca4a08f	-0.020096092
42	0xbc114749	-0.008867093
43	0xbbf0a7ee	-0.0073442375
44	0xbc8c9efe	-0.017165657
45	0xbcb2dbdf	-0.021833358
46	0xbb57e342	-0.0032941853
47	0xbae6381d	-0.001756433
48	0xbc62f027	-0.013851202
49	0xbc073668	-0.008252718
50	0xbc381626	-0.011235749
51	0xbcb11772	-0.021617625
52	0xbc934098	-0.017975137
53	0xbca186fd	-0.019717688
54	0xbcd034bb	-0.025415769
55	0xbc68b8fa	-0.014204258
56	0xbd17ab83	-0.0370288
57	0xbcb711bc	-0.022347324
58	0xbc63454b	-0.013871501
59	0xbd1eb927	-0.038750794
60	0xbc4ab512	-0.012372272
61	0xbc485a0f	-0.012228503
62	0xbc2ce84f	-0.010553434
63	0xbc49d685	-0.012319212
64	0xbb422d11	-0.0029628912
65	0xbca5756b	-0.02019759
66	0xbb98391f	-0.0046454812
67	0xbc5f812b	-0.013641636
68	0xbb8aaf99	-0.0042323587
69	0xbcee3ca6	-0.029081654
70	0x3aa7e7d1	0.0012810176
71	0x3b447f4b	0.00299831
72	0xbc8d4b03	-0.017247682
73	0xbd0d2f7b	-0.03446911
74	0xbcb8e9af	-0.022572367
75	0xbc16282e	-0.009164853
76	0xbce72e82	-0.028220419
77	0x3b45bc64	0.0030172104
78	0xbd22dc1f	-0.039760705
79	0xbc093fd1	-0.008377031
80	0xbbcd4737	-0.006264593
81	0xbd125522	-0.03572572
82	0xbc12e919	-0.008966708
83	0xbd06acf5	-0.03287979
84	0xbcdf967d	-0.027293438
85	0xbd22b774	-0.039725736
86	0xbc5a74d0	-0.013333514
87	0xbcb1f14b	-0.021721503
88	0xbccc374e	-0.024928715
89	0xbc902b15	-0.017598668
90	0xbc58b9e4	-0.0132279135
91	0xbc594b0f	-0.013262524
92	0xbc8cbf84	-0.017181166
93	0xbc99a32c	-0.018754564
94	0xbbf2114f	-0.0073873173
95	0xbb0e3314	-0.0021697925
96	0x3c8cd3fc	0.017190926
97	0x3d064654	0.032781914
98	0xbca578ef	-0.020199267
99	0xbd202a7f	-0.039103027
100	0xbbd74500	-0.0065695047
101	0xbd228cd1	-0.039685074
102	0xbd8591de	-0.065219626
103	0xbd5a92a2	-0.053362496
104	0xbd92ef29	-0.071745224
105	0xbd940589	-0.07227618
106	0xbd1e1d9a	-0.03860245
107	0xbc7acce5	-0.01530764
108	0xbc9d6149	-0.019211428
109	0xbcd5d5d6	-0.026102941
110	0xbd21a7c5	-0.039466638
111	0xbd0c8354	-0.03430493
112	0xbc38ca7a	-0.011278743
113	0xbcdcaa7d	-0.026936764
114	0xbd112272	-0.03543324
115	0xbca6a6d5	-0.020343224
116	0xbae207af	-0.0017244722
117	0xbc7fb2b5	-0.015606572
118	0xbcc11862	-0.023571197
119	0x3a7e56e9	0.00097022817
120	0x3ca55748	0.02018322
121	0x3c141373	0.00903784
122	0xba40f889	-0.00073612534
123	0x3c93b3e9	0.018030124
124	0x3cfe3903	0.031033045
125	0x3d9a5bb0	0.07537019
126	0x3cd658e2	0.02616543
127	0xbd76d79c	-0.060264215
128	0xbd58b8a3	-0.05291046
129	0xbd6db353	-0.058032345
130	0xbd7a0826	-0.061042927
131	0xbd8d5220	-0.0690043
132	0xbda388b1	-0.07985056
133	0xbde46278	-0.11151594
134	0xbe11f5a6	-0.14253864
135	0xbd9ed421	-0.07755304
136	0xba559bef	-0.0008148541
137	0xbc4c0537	-0.012452415
138	0xbc97ed50	-0.018545777
139	0xbca47bc7	-0.020078553
140	0xbce5c88b	-0.028049728
141	0xbcc77426	-0.024347376
142	0xbd18c8bd	-0.037300814
143	0xbd1939eb	-0.03740875
144	0x3a9e2d73	0.0012067988
145	0xbc070e80	-0.008243203
146	0x3cb4dde6	0.022078466
147	0x3cb71172	0.022347186
148	0x3c8b457d	0.017000908
149	0x3d10c8f4	0.035347894
150	0x3d0b2c15	0.033977587
151	0x3d142964	0.036172286
152	0x3d781ac1	0.06057239
153	0x3dc617c2	0.096725
154	0x3da37552	0.079813614
155	0x3bcca0d9	0.0062447605
156	0xbbdcbfe0	-0.0067367405
157	0xbcbe8adc	-0.023259573
158	0xbd2d1b5e	-0.042262428
159	0x3b1fff6d	0.002441372
160	0x3c013c54	0.0078879185
161	0xbdab958a	-0.08378132
162	0xbe0f11ce	-0.13971636
163	0xbe099045	-0.1343394
164	0xbc464592	-0.012101548
165	0xbbfbc3b6	-0.0076832427
166	0xbc3f1b11	-0.011664168
167	0xbc4a9e48	-0.012366839
168	0xbcf63f92	-0.03005961
169	0xbc90eda7	-0.017691446
170	0xbcfec8f7	-0.031101687
171	0xbab33328	-0.0013671862
172	0x3b4a8305	0.0030900848
173	0xbc19596c	-0.009359699
174	0x3cbe06c0	0.023196578
175	0x3d20b2c3	0.03923298
176	0x3d30e220	0.0431844
177	0x3d3e3f6e	0.04644721
178	0x3dd01f90	0.1016227
179	0x3db9f631	0.090801604
180	0x3dbc3ec0	0.09191656
181	0x3dd7584c	0.10514888
182	0x3da9e360	0.082953215
183	0x3dc6b7bf	0.097030155
184	0x3de78b91	0.11305917
185	0x3e10bd94	0.14134818
186	0x3e027d5c	0.12743133
187	0x3d7f9a9c	0.062403306
188	0x3c03549f	0.008015781
189	0xbc806867	-0.015674783
190	0xbda1ed0a	-0.0790654
191	0xbdfdbb65	-0.12389258
192	0xbd395134	-0.045243457
193	0xbb58c460	-0.0033076033
194	0xbca3a5f0	-0.019976586
195	0xbc2d6ab6	-0.010584524
196	0xbc91172b	-0.017711243
197	0xbb39bc2c	-0.002834092
198	0xbcefc82b	-0.029270252
199	0xbccda8c8	-0.025104895
200	0x3bde8d17	0.0067917216
201	0x3aec0295	0.0018006141
202	0x3cfde848	0.03099455
203	0x3d68c0b6	0.05682441
204	0x3d9b7c3e	0.07592057
205	0x3dbf2fbc	0.093352765
206	0x3df5228a	0.119694784
207	0x3e08cc49	0.13359179
208	0x3dc338ef	0.095323436
209	0x3da40d30	0.08010328
210	0x3dac8a2f	0.08424794
211	0x3e0319c1	0.12802793
212	0x3e19dc41	0.15025426
213	0x3dd2400e	0.10266124
214	0x3df2750b	0.118387304
215	0x3d23dd70	0.0400061
216	0xbccd7f47	-0.025085105
217	0xbb37b6a6	-0.002803245
218	0xbcc56039	-0.024093734
219	0xbd5a0553	-0.053227734
220	0xbc1aebd8	-0.009455644
221	0x3b89b964	0.0042030085
222	0xbb31170c	-0.0027021794
223	0xbc8db7ac	-0.017299496
224	0xbc73af30	-0.014873311
225	0xbc377bdd	-0.011198965
226	0xbcc21bcf	-0.0236949
227	0xbc816f43	-0.015800124
228	0xbc9b6a68	-0.018971637
229	0xbb87271c	-0.0041245352
230	0x3d5bb6ad	0.05364101
231	0x3de1db2e	0.11028133
232	0x3dcfda99	0.10149116
233	0x3de0589c	0.10954401
234	0x3dd47500	0.103738785
235	0x3d335d5b	0.043790203
236	0x3cf0fad8	0.029416487
237	0x3d985b6a	0.07439311
238	0x3e08c292	0.13355473
239	0x3e0538a5	0.1300989
240	0x3de4d857	0.11174076
241	0x3e0de54c	0.13857001
242	0x3dda66f0	0.10664165
243	0xbcc837ce	-0.024440672
244	0xbd6a5f0a	-0.057219543
245	0xbde19b46	-0.11015944
246	0xbe04e5d8	-0.12978303
247	0xbdd788e4	-0.10524157
248	0x3cc5b6ca	0.024135012
249	0x3b6ee4ff	0.003645241
250	0x3ace663e	0.0015747023
251	0xbc965dd2	-0.018355284
252	0xbbc78307	-0.0060886177
253	0xbcef698e	-0.029225137
254	0xbccb18b6	-0.024792057
255	0xbba68b84	-0.0050825495

model.layer_1.pb.layers.0.bias f4 [4]
0	0x3ce61e9f	0.028090773
1	0x3c108e1e	0.008822946
2	0x3d8b962b	0.06815752
3	0x3cea8b01	0.028630735

model.layer_1.pb.parentModule.weight f4 [4, 784]
0	0xbce04213	-0.027375257
1	0x3c460e93	0.012088436
2	0x3c6acfc1	0.014331759
3	0xbd096b9c	-0.03354989
4	0x3c70490e	0.014665855
5	0x3bd0c82e	0.0063715195
6	0x3ce8f6de	0.028438028
7	0xbcdf948c	-0.027292512
8	0xbbf7d34a	-0.0075630294
9	0xbcbcddfa	-0.023055065
10	0xbd03d42f	-0.032184776
11	0x3c8ceb13	0.017201936
12	0xbcf5d0a5	-0.030006716
13	0x3c53a28e	0.012917174
14	0x3a0443b7	0.00050454907
15	0x3c66942e	0.014073415
16	0x3ce12c65	0.02748699
17	0x3bdc6ce5	0.0067268484
18	0x3ce6e09a	0.02818327
19	0x3c325153	0.010883647
20	0x3bf5bf6e	0.007499627
21	0xbb48daca	-0.0030647987
22	0x3cb88e57	0.02252881
23	0xbd070aed	-0.032969404
24	0xbba95d13	-0.005168566
25	0x3cf38bb5	0.029729703
26	0xbb9773dc	-0.004621966
27	0xbc7c4d38	-0.01539927
28	0xbd0de085	-0.034637947
29	0x3beedce5	0.0072895163
30	0x3c11354e	0.0088628065
31	0xbc88b143	-0.016686087
32	0xbce4466e	-0.027865615
33	0x3b7b2e13	0.0038327023
34	0x3cc1c5b5	0.023653844
35	0xbb39f1ca	-0.0028372877
36	0xbc98e5de	-0.018664297
37	0xbb8bbbae	-0.0042643165
38	0x3ca8fc57	0.020628138
39	0x3c9867f5	0.018604258
40	0x3b7ac881	0.0038266482
41	0xbcbd2aca	-0.023091692
42	0x3bdf249c	0.006809784
43	0xbcede79e	-0.029041108
44	0x3c151f65	0.009101723
45	0x3cc09b6c	0.02351161
46	0x3d06cc62	0.03290976
47	0xbb7802a5	-0.0037843373
48	0xbd09d032	-0.033645816
49	0x3cae0217	0.02124123
50	0x3c55446e	0.013016803
51	0xbd0553e4	-0.032550707
52	0x3cb8e235	0.022568801
53	0xbcbdca7e	-0.023167845
54	0x3c271420	0.010197669
55	0x3cc5a5a1	0.02412683
56	0x3c0f2040	0.008735716
57	0xbcd1f8ea	-0.025631387
58	0xbd0db7c7	-0.03459909
59	0x3b725c13	0.003698115
60	0x3ab0b693	0.0013482146
61	0x3d049342	0.032367
62	0x3ce3dd0c	0.027815364
63	0x3c4357f3	0.011922824
64	0xbcfb7d7e	-0.030699488
65	0xbc861247	-0.016366137
66	0x3cf150ba	0.029457439
67	0x3c046a3c	0.008081969
68	0xbc3400a5	-0.010986482
69	0xbca1f165	-0.019768426
70	0xbcaa9800	-0.020824432
71	0x3caa4be3	0.020788139
72	0x3b18354a	0.0023225122
73	0xbba9b080	-0.005178511
74	0x3b437425	0.0029823866
75	0xbbe13b93	-0.006873557
76	0x3bfd94ca	0.0077386843
77	0x3c7fdcbc	0.015616592
78	0x3cfe29dc	0.03102582
79	0x3c292300	0.010323286
80	0x3c68a221	0.014198811
81	0x3cba4f65	0.022742936
82	0x3c968d9e	0.018378075
83	0xbbf82941	-0.007573277
84	0xbcd2d7f5	-0.025737742
85	0xbc3049d7	-0.010759792
86	0x3cf76678	0.030200228
87	0xbc85e4bc	-0.01634442
88	0xbc6fc613	-0.014634627
89	0xbcc8adf1	-0.024497004
90	0x3ceaa205	0.02864171
91	0xb9f656dc	-0.00046985492
92	0xbcaddeda	-0.021224428
93	0x3c911255	0.017708937
94	0x3cbdb197	0.02315597
95	0xbb6aea81	-0.0035845342
96	0xbcd721d5	-0.02626125
97	0xbcc2fc5e	-0.023801979
98	0x3b32ea5c	0.0027300334
99	0xbc5e090e	-0.0135519635
100	0x3c2a5af3	0.010397661
101	0xbd07ca1d	-0.033151735
102	0xbc9833c7	-0.018579377
103	0x3d0d77b2	0.03453798
104	0x3cdbfb48	0.026853219
105	0xbc03448a	-0.008011946
106	0xbccd1f9e	-0.02503949
107	0x3c286057	0.010276875
108	0xbc8d8633	-0.017275905
109	0x3d110af2	0.03541083
110	0x3d0a8e33	0.033827018
111	0xbcbe1ed7	-0.023208065
112	0x3cdd04d8	0.026979849
113	0x39ad7001	0.0003308058
114	0x3c3e4c2a	0.011614839
115	0x3c6f712e	0.0146143865
116	0xbd10ee0a	-0.03538326
117	0x3c1d92dc	0.009617534
118	0x3bdeb4d3	0.0067964583
119	0xbbd62853	-0.0065355687
120	0xbd01d748	-0.03169945
121	0xbccc41ae	-0.024933662
122	0xbcda73bc	-0.026666515
123	0x3c68a785	0.014200096
124	0x3cfea7b8	0.031085834
125	0x3c67b758	0.014142834
126	0xbceea44c	-0.029131077
127	0xb91d7c93	-0.00015019094
128	0xbd0c0303	-0.03418256
129	0x3c919a03	0.017773634
130	0x3cd27313	0.025689637
131	0x3cbdb60e	0.0231581
132	0xbce9275c	-0.02846115
133	0xbc58738e	-0.013211144
134	0x3b7db9ca	0.0038715475
135	0x3c987df5	0.018614748
136	0x3c493573	0.01228081
137	0x3c976a25	0.01848323
138	0xbc3211ca	-0.010868499
139	0xbc63aa6e	-0.013895614
140	0xbb9e1b00	-0.004824996
141	0xbcd285a7	-0.025698496
142	0x3cfb308c	0.030662797
143	0x3ca65545	0.020304332
144	0x3c918557	0.017763777
145	0xbc3fc0dc	-0.011703696
146	0xbc6904e1	-0.014222355
147	0x3c0fdf4a	0.008781264
148	0x3cb9df05	0.022689352
149	0xbba145b7	-0.0049216407
150	0x3cb7bfb5	0.02243028
151	0xbce7ed0e	-0.028311279
152	0xbbf7f5b8	-0.0075671338
153	0x3cf28653	0.029605066
154	0xbc83edd0	-0.016104609
155	0xbc4983a5	-0.012299453
156	0xbc80430a	-0.015656967
157	0xbc37d4ce	-0.01122017
158	0x3d0bf9dc	0.03417383
159	0x3c61b365	0.013775681
160	0xbab4dddc	-0.0013799029
161	0x3cfe1953	0.031017935
162	0x3c5e6f93	0.013576406
163	0x3cd70437	0.026247127
164	0xbc164485	-0.00917161
165	0xbd0a96c6	-0.033835195
166	0x3d029042	0.031875856
167	0xbc5f96dc	-0.0136468075
168	0x3bf6062e	0.007508061
169	0xb9b54d25	-0.00034580487
170	0x3cd6d263	0.026223367
171	0xba90dd6e	-0.0011052319
172	0xbca861be	-0.02055442
173	0xbb883665	-0.004156875
174	0xbc3ecd93	-0.011645692
175	0xbc72ab0a	-0.014811287
176	0x3b917b5c	0.0044397544
177	0xbced0191	-0.028931411
178	0x3b55e293	0.003263627
179	0x3cd21cae	0.025648441
180	0xbb7dcb5c	-0.0038725948
181	0xbc9ac8be	-0.01889455
182	0x3a2cfe93	0.0006599214
183	0x3c843b45	0.016141543
184	0x3cc03813	0.023464238
185	0xbcb57055	-0.02214829
186	0x3c06bd6e	0.0082238745
187	0xbc9534f7	-0.018213732
188	0x3d0eeaa6	0.034891747
189	0x3cc8cc25	0.024511406
190	0xbba41ad3	-0.0050080805
191	0xbc0848f3	-0.008318174
192	0x3b80131c	0.003908528
193	0xbc1d3a8e	-0.00959648
194	0xbc1737f3	-0.009229648
195	0x3bdaba77	0.0066750604
196	0xbc054105	-0.008133178
197	0x3cccc117	0.024994416
198	0x3c7ab8ae	0.01530282
199	0xbd08ceaf	-0.033400234
200	0xbc3d6c7c	-0.011561509
201	0x3ce6f8fe	0.0281949
202	0xbcb9bd6a	-0.022673327
203	0x3cb09f37	0.021560295
204	0xbd0799b5	-0.03310557
205	0x3b2abd4a	0.0026052766
206	0xbcb9d71c	-0.02268558
207	0xbbdfd90a	-0.006831293
208	0xbcfe4918	-0.031040713
209	0x3ccffbca	0.025388617
210	0x3d08f1c2	0.033433683
211	0xbc18bd17	-0.009322426
212	0x3c127f45	0.008941476
213	0x3d056352	0.032565422
214	0xbcf46275	-0.029832104
215	0x3cbac0dc	0.02279704
216	0xbd09e2af	-0.033663448
217	0xbc4298d7	-0.01187726
218	0x3c8adb93	0.016950404
219	0x3ce1661c	0.02751451
220	0x3cdf63ec	0.027269326
221	0xbc6dd42a	-0.014515916
222	0xba171000	-0.0005762577
223	0xbcd0da31	-0.025494667
224	0xbc4525e1	-0.012032957
225	0xbcd5f591	-0.026118072
226	0x3c9f9d6c	0.019484244
227	0xbcbe4fbe	-0.023231383
228	0xbca6133a	-0.02027284
229	0x3b88280a	0.0041551637
230	0xbc8e5b45	-0.017377505
231	0x3cd7eafc	0.026357166
232	0xbcd89a2a	-0.026440699
233	0x3c8fface	0.017575648
234	0x3ca853ac	0.02054771
235	0xbcef517e	-0.029213663
236	0xbc91ec33	-0.017812824
237	0x3cc4fb6a	0.024045665
238	0xbc3ae673	-0.011407482
239	0xbc0fb40e	-0.008770956
240	0xbc53a561	-0.012917847
241	0xbb80a9a5	-0.003926473
242	0xbce718c1	-0.028210046
243	0xbcf2d1b5	-0.029641012
244	0xbb965f8a	-0.004589026
245	0x3c1aac60	0.009440511
246	0xbbcad365	-0.006189751
247	0x3bd3102e	0.0064411378
248	0xbc89c0e7	-0.016815616
249	0x3d018756	0.031623207
250	0x3d0cedfd	0.03440665
251	0xbcf6bcc1	-0.030119302
252	0xbbb63af7	-0.0055612284
253	0x3d107d02	0.035275467
254	0xbcf4d935	-0.029888729
255	0x3c423265	0.011852835

model.layer_1.pb.parentModule.bias f4 [4]
0	0xbcbf03a5	-0.023317168
1	0x3cdc4bf1	0.02689168
2	0xbd04e2e8	-0.032442957
3	0xbc9b9a95	-0.018994609

model.layer_1.pb.pbValues.0.topPBCandidateAverage f4 [4]
0	0x3f7ff01e	0.99975765
1	0x3f409e76	0.7524179
2	0x3f6cd6fc	0.9251554
3	0x3f7ffff2	0.99999917

model.layer_1.pb.pbValues.0.PrevPBCandidateCorrelation f4 [4]
0	0xba25caf0	-0.00063244905
1	0xba14eedd	-0.00056813454
2	0x3a6e4692	0.0009089495
3	0x399b3c0c	0.00029608642

model.layer_1.pb.pbValues.0.currentCorrelationsForParallel f4 [4]
0	0x00000000	0.0
1	0x00000000	0.0
2	0x00000000	0.0
3	0x00000000	0.0

model.layer_1.pb.pbValues.0.bestScore f4 [4]
0	0x3ba51147	0.00503746
1	0x3abe5b34	0.001452303
2	0x3b02b984	0.0019947002
3	0x3b9b6655	0.0047424235

model.layer_1.pb.pbValues.0.previousBestScore f4 [4]
0	0x3ba51147	0.00503746
1	0x3abe5b34	0.001452303
2	0x3b00bc5d	0.0019643523
3	0x3b9b644e	0.004742182

model.layer_1.pb.pbValues.0.PrevPBCandidateAverage f4 [4]
0	0x3f7dd996	0.99160135
1	0x3f435906	0.76307714
2	0x3f6295c1	0.88509756
3	0x3f7fff31	0.99998766

model.layer_1.pb.pbValues.0.mainGradAverageForScaling f4 [4]
0	0x3907f8bc	0.00012967264
1	0x3847b2e6	4.761191e-05
2	0x38a3b9be	7.807043e-05
3	0x38d15373	9.98144e-05

model.layer_1.pb.pbValues.0.candidateGradAverageForScaling f4 [4]
0	0x38030534	3.123768e-05
1	0x3744ad34	1.1722837e-05
2	0x379f281c	1.8972954e-05
3	0x37cee329	2.4662893e-05

model.layer_1.pb.pbValues.0.indexesOfbest f4 [4]
0	0x00000000	0.0
1	0x00000000	0.0
2	0x00000000	0.0
3	0x00000000	0.0

model.layer_1.pb.pbValues.0.nodesBestImprovedThisEpoch f4 [4]
0	0x00000000	0.0
1	0x00000000	0.0
2	0x00000000	0.0
3	0x00000000	0.0

model.layer_1.pb.pbValues.0.parentsAverageDvector f4 [4]
0	0x3831ecfb	4.2420794e-05
1	0x35dea1d8	1.6587392e-06
2	0xb7060e4a	-7.990349e-06
3	0xb824a9c2	-3.9258746e-05

model.layer_1.pb.pbValues.0.normalPassAverageD f4 [4]
0	0xb5b6097a	-1.3562815e-06
1	0x36a9978a	5.054234e-06
2	0xb7305075	-1.050915e-05
3	0xb6b186ad	-5.2906894e-06

model.layer_2.mainModule.weight f4 [8, 4]
0	0x3f1bf6db	0.60923547
1	0xbeb5fd65	-0.35544887
2	0x3eea3997	0.45747063
3	0xbf59b213	-0.85037345
4	0x3ea02bcc	0.31283414
5	0xbe1066d5	-0.14101727
6	0x3f67349d	0.90314656
7	0x3f93ad1e	1.1537206
8	0xbf85d60e	-1.0455949
9	0x3f00816b	0.50197476
10	0x3f826205	1.0186163
11	0x3f37e258	0.7182975
12	0xbbb4a380	-0.005512655
13	0xbead355c	-0.33829772
14	0xbda09350	-0.07840598
15	0xbebc2930	-0.36750174
16	0xbf8e37f2	-1.1110823
17	0x3f609449	0.87726265
18	0xbf04fabd	-0.51945096
19	0x3f555d32	0.8334533
20	0xbefa61ed	-0.48902836
21	0x3bdc574c	0.006724274
22	0xbdbca176	-0.09210484
23	0xbf02ec8a	-0.5114218
24	0x3f624a7f	0.8839492
25	0x3fbf1f54	1.4931436
26	0x3f2e6e72	0.68137276
27	0xbf33140c	-0.69952464
28	0x3fa8c40f	1.3184832
29	0x3edaaf7c	0.4271201
30	0xbf4aa9b3	-0.7916519
31	0x3f1d909a	0.6154877

model.layer_2.mainModule.bias f4 [8]
0	0x40ac5c7d	5.38629
1	0xc0555cab	-3.333781
2	0x3f867a7f	1.0506133
3	0xbd793f30	-0.060851276
4	0x401bef70	2.436489
5	0xbeea7b6e	-0.45797294
6	0xc0170ed7	-2.3602808
7	0xbff9b330	-1.9507809

model.layer_2.PBtoTop.0 f4 [1, 8]
0	0x3e36a4c4	0.1783629
1	0xbd8a46e8	-0.067518055
2	0xbc3f9223	-0.011692557
3	0x00000000	0.0
4	0x3dd445ef	0.10364901
5	0xacabc580	-4.8820392e-12
6	0xbdbfd541	-0.09366847
7	0xbd1f0502	-0.038823135

model.layer_2.pb.layers.0.weight f4 [8, 4]
0	0x3e2fb1e4	0.17157704
1	0x3dcf5c62	0.101250425
2	0x3dde996c	0.10869107
3	0x3e1b40a6	0.1516138
4	0x3d63c662	0.055609114
5	0x3d7e1f41	0.062041525
6	0x3db4d094	0.088288456
7	0x3d8b16e1	0.06791473
8	0x3e083d5a	0.13304654
9	0x3e04832c	0.12940663
10	0x3d9905c2	0.07471801
11	0x3e001722	0.12508824
12	0xbbd53858	-0.006506961
13	0xbc63937c	-0.0138901435
14	0x3b8c1909	0.0042754454
15	0xbb9e14a0	-0.004824236
16	0x3de8e106	0.11371045
17	0x3dad0630	0.08448446
18	0x3dba8e47	0.091091685
19	0x3dc988c3	0.09840538
20	0x3c563b19	0.013075613
21	0xbc525dbe	-0.012839733
22	0xbb5e5c21	-0.0033929425
23	0xbcab0e98	-0.020880982
24	0x3dfd44a0	0.12366605
25	0x3dc80c3e	0.0976796
26	0x3e019071	0.12652756
27	0x3dbdf6a5	0.09275559
28	0x3d86093f	0.06544732
29	0x3d820047	0.06347709
30	0x3d93c01a	0.07214375
31	0x3d3fbf7b	0.04681347

model.layer_2.pb.layers.0.bias f4 [8]
0	0x3e1ebd5d	0.15501924
1	0x3d8d0ba4	0.06886986
2	0x3d1b08f1	0.037850324
3	0x3ab1ca2f	0.0013564284
4	0x3e3a8664	0.18215328
5	0x3bf77d4e	0.0075527793
6	0x3e5bf02b	0.21478336
7	0x3da5e824	0.08100918

model.layer_2.pb.parentModule.weight f4 [8, 4]
0	0xbd3c62c0	-0.045992613
1	0xbe5b9fec	-0.21447724
2	0xbec117c8	-0.37713456
3	0xbe28e2f4	-0.16492826
4	0x3e6fabc4	0.23405367
5	0x3e62f81c	0.22164959
6	0x3e8ccf5a	0.27501947
7	0x3eed5172	0.463512
8	0xbe8ac2c4	-0.2710172
9	0x3e8ac54c	0.2710365
10	0x3e2210d4	0.15826732
11	0x3e99e2c2	0.30055815
12	0xbbb4a380	-0.005512655
13	0xbead355c	-0.33829772
14	0xbda09350	-0.07840598
15	0xbebc2930	-0.36750174
16	0xbeed5cc4	-0.46359837
17	0x3ece07aa	0.40240222
18	0xbe2bb3f0	-0.1676786
19	0xbb15de00	-0.0022867918
20	0xbeeea440	-0.46609688
21	0x3d9fb428	0.07798034
22	0xbdb6bfe8	-0.08923322
23	0xbefbb1c8	-0.49159074
24	0x3eb6269a	0.35576326
25	0x3ee6a886	0.45050448
26	0x3d9bd260	0.07608485
27	0xbe9721b6	-0.29517907
28	0x3ee45d70	0.44602537
29	0x3e349f50	0.17638898
30	0xbed4274c	-0.4143623
31	0x3e97bac2	0.29634672

model.layer_2.pb.parentModule.bias f4 [8]
0	0x3e6390ac	0.22223157
1	0xbea1f9c6	-0.31635875
2	0xbe9dc8c6	-0.3081724
3	0xbd793f30	-0.060851276
4	0x3e90ec60	0.2830534
5	0xbecaf84a	-0.39642555
6	0xbef2aca8	-0.4739735
7	0x3d9de540	0.077097416

model.layer_2.pb.pbValues.0.topPBCandidateAverage f4 [8]
0	0x3f7b6ac2	0.98209774
1	0x3f771710	0.96519566
2	0x3f79d010	0.97583103
3	0x3ec1e638	0.37870955
4	0x3f7c549c	0.98566604
5	0x3ec29797	0.3800628
6	0x3f7bd85c	0.98377013
7	0x3f6fcf66	0.9367584

model.layer_2.pb.pbValues.0.PrevPBCandidateCorrelation f4 [8]
0	0x3880fefe	6.1510116e-05
1	0x391f530c	0.00015194359
2	0x398c5624	0.0002676706
3	0x00000000	0.0
4	0xb8fcd6e2	-0.000120563214
5	0x9b6049fd	-1.8552753e-22
6	0xb8d029d6	-9.9260054e-05
7	0xb91f2072	-0.00015175508

model.layer_2.pb.pbValues.0.currentCorrelationsForParallel f4 [8]
0	0x00000000	0.0
1	0x00000000	0.0
2	0x00000000	0.0
3	0x00000000	0.0
4	0x00000000	0.0
5	0x00000000	0.0
6	0x00000000	0.0
7	0x00000000	0.0

model.layer_2.pb.pbValues.0.bestScore f4 [8]
0	0x3aee5d2e	0.0018185729
1	0x3a7bf301	0.00096111005
2	0x3b066f18	0.0020512994
3	0x00000000	0.0
4	0x3ad5577c	0.0016276683
5	0x1dabe558	4.550046e-21
6	0x3aa3a34d	0.001248458
7	0x3a0a62df	0.0005279015

model.layer_2.pb.pbValues.0.previousBestScore f4 [8]
0	0x3ae834af	0.0017715896
1	0x3a718444	0.00092131295
2	0x3b052766	0.0020317673
3	0x00000000	0.0
4	0x3ac6766f	0.0015141497
5	0x1dabe53a	4.5500338e-21
6	0x3aa1d614	0.0012347125
7	0x3a062532	0.0005117237

model.layer_2.pb.pbValues.0.PrevPBCandidateAverage f4 [8]
0	0x3f7f412b	0.99708813
1	0x3f7c94a1	0.9866429
2	0x3f7dff93	0.992181
3	0x3ec3a80d	0.3821415
4	0x3f7f876d	0.9981602
5	0x3eb51d52	0.35373932
6	0x3f7f7662	0.9979001
7	0x3f77d2cd	0.9680603

model.layer_2.pb.pbValues.0.mainGradAverageForScaling f4 [8]
0	0x38176c6d	3.6102185e-05
1	0x37e14d1c	2.6857997e-05
2	0x3885f39f	6.387312e-05
3	0x00000000	0.0
4	0x382db69f	4.1416493e-05
5	0x1b91d3bf	2.4125075e-22
6	0x382ccaa8	4.1196734e-05
7	0x37c7451b	2.3754828e-05

model.layer_2.pb.pbValues.0.candidateGradAverageForScaling f4 [8]
0	0x370f6918	8.547933e-06
1	0x36d47a01	6.3322955e-06
2	0x376a4a96	1.3964853e-05
3	0x00000000	0.0
4	0x372351b8	9.734584e-06
5	0x1a739618	5.0372467e-23
6	0x372a8860	1.0164542e-05
7	0x36c2ba20	5.8033183e-06

model.layer_2.pb.pbValues.0.indexesOfbest f4 [8]
0	0x00000000	0.0
1	0x00000000	0.0
2	0x00000000	0.0
3	0x00000000	0.0
4	0x00000000	0.0
5	0x00000000	0.0
6	0x00000000	0.0
7	0x00000000	0.0

model.layer_2.pb.pbValues.0.nodesBestImprovedThisEpoch f4 [8]
0	0x00000000	0.0
1	0x00000000	0.0
2	0x00000000	0.0
3	0x00000000	0.0
4	0x00000000	0.0
5	0x00000000	0.0
6	0x00000000	0.0
7	0x00000000	0.0

model.layer_2.pb.pbValues.0.parentsAverageDvector f4 [8]
0	0x3742953b	1.15980465e-05
1	0xb68fe374	-4.288211e-06
2	0xb78f36c8	-1.7072438e-05
3	0x00000000	0.0
4	0xb70973c5	-8.192791e-06
5	0x1a577857	4.4558168e-23
6	0x373fdd5f	1.1436029e-05
7	0x36288758	2.5112731e-06

model.layer_2.pb.pbValues.0.normalPassAverageD f4 [8]
0	0x34e57f18	4.2747047e-07
1	0xb6aac292	-5.0890458e-06
2	0xb58a3a32	-1.0298738e-06
3	0x00000000	0.0
4	0x36a2d46e	4.8527063e-06
5	0x1b6ba010	1.9490463e-22
6	0x36183eb0	2.2686254e-06
7	0x3561f074	8.4168937e-07

model.layer_3.mainModule.weight f4 [10, 8]
0	0xc03e2b5a	-2.971396
1	0xbf4d0a91	-0.8009425
2	0xbf967443	-1.175423
3	0x3e61d5b9	0.22054185
4	0x3f1a409f	0.60254854
5	0x3cd427bc	0.025897853
6	0x3f1a63ee	0.6030873
7	0x3f6272bf	0.8845634
8	0xbf9c9e00	-1.2235718
9	0x3f0d30ac	0.5515239
10	0x3f420bdd	0.7579935
11	0x3e5f8de5	0.21831472
12	0xbeb67a06	-0.35639971
13	0xbdc07086	-0.09396462
14	0xbef42171	-0.47681764
15	0xbf2c3a67	-0.67276615
16	0xbfcc7241	-1.5972368
17	0xbe2b1a18	-0.16709173
18	0x3e1e0699	0.15432204
19	0x3e573add	0.21018548
20	0x3fa7a450	1.3097019
21	0xbd925585	-0.07145218
22	0xbfc06089	-1.502946
23	0x3ee8701b	0.4539803
24	0xc01af3cd	-2.4211304
25	0x3dee2bca	0.11629446
26	0x3f2cf470	0.6756048
27	0x3d8af55f	0.06785082
28	0x3e08f2fe	0.13373944
29	0xbbaf768d	-0.0053547085
30	0x3dff7065	0.124726094
31	0xbdf6af2a	-0.12045129
32	0x3fdc6792	1.7219107
33	0x3e04aab1	0.12955739
34	0xbfb88976	-1.441695
35	0xbe170bb7	-0.14750563
36	0xc012ef54	-2.2958574
37	0xbe4a81fa	-0.19776145
38	0xbe433cce	-0.19066164
39	0xbf1cc948	-0.6124463
40	0xbfffd4fe	-1.9986875
41	0x3dbd04cf	0.09229433
42	0xbe9e0256	-0.30861157
43	0x3e8df598	0.27726436
44	0xbf1067ba	-0.56408274
45	0x3e7298e5	0.23691137
46	0x3f2cc292	0.6748439
47	0x3e55545a	0.20832959
48	0xbfff051e	-1.9923437
49	0x3f3049b7	0.6886248
50	0xbf293e7a	-0.66110957
51	0x3ddf23ee	0.10895525
52	0xc018134c	-2.3761778
53	0x3e584570	0.21120238
54	0xbfbf3fc8	-1.494134
55	0x3f27f62f	0.6561002
56	0xbf22cad6	-0.63590753
57	0xc00bee58	-2.1864223
58	0xbd1ea0c6	-0.038727544
59	0x3e3ae31f	0.18250702
60	0x3de7bd8d	0.11315451
61	0xbe450050	-0.192384
62	0x3f8cb6a4	1.0993237
63	0xbe50f7c6	-0.20407018
64	0xc05e2d6d	-3.4715226
65	0xbe81fd3f	-0.25388524
66	0xbf1b3321	-0.6062489
67	0xbd61334c	-0.05498056
68	0xbf900dea	-1.1254246
69	0x3da76fd9	0.0817563
70	0xbe821988	-0.25410104
71	0xbf97a5f6	-1.1847522
72	0x3f09ed69	0.53877884
73	0xbf10fa3d	-0.56631833
74	0x3f9bef1f	1.2182349
75	0x3e0d3bf6	0.13792405
76	0xc0415402	-3.0207524
77	0xbea1a1bb	-0.31568703
78	0x3d58b580	0.052907467
79	0xbf79804d	-0.97461396

model.layer_3.mainModule.bias f4 [10]
0	0xbfd6ae44	-1.6771932
1	0x40191ba7	2.3923128
2	0x408390c8	4.1114235
3	0xc0bfe000	-5.9960938
4	0x3fa9a441	1.3253251
5	0xc035fdaa	-2.8436074
6	0xbf7d18e2	-0.98866093
7	0x4031573d	2.7709496
8	0xbfbb45ae	-1.463064
9	0x4064c976	3.5747962

model.layer_3.PBtoTop.0 f4 [1, 10]
0	0x3c75241c	0.014962222
1	0x3e197972	0.14987734
2	0x3dbe8a88	0.093037665
3	0xbe142567	-0.14467393
4	0x3dc572a3	0.09641006
5	0xbd9dccc8	-0.077050745
6	0xbe7c2e43	-0.24627022
7	0x3d85c969	0.065325566
8	0xb5d3e109	-1.5786219e-06
9	0x3d5c88e3	0.053841483

model.layer_3.pb.layers.0.weight f4 [10, 8]
0	0x3f0e6407	0.5562138
1	0x3de47b11	0.111562856
2	0x3e143657	0.14473854
3	0xbb3a3330	-0.0028411858
4	0x3de1ba8f	0.11021911
5	0x3c938099	0.018005656
6	0x3d84a5dc	0.06476948
7	0x3d82e6cb	0.063916765
8	0x3d2ea1d3	0.042634796
9	0x3de5c89d	0.112199046
10	0x3deb91b1	0.11502398
11	0xbab82858	-0.0014050109
12	0x3e0dddd1	0.13854147
13	0xbaf00aa8	-0.0018313723
14	0x3d29de75	0.041471917
15	0x3db70de8	0.08938199
16	0x3e44ecc9	0.19230951
17	0x3e445e05	0.1917649
18	0x3e26da33	0.16294174
19	0x3b1da03c	0.0024051806
20	0x3db2473b	0.087049924
21	0x3c5118a0	0.012762219
22	0x3e85dc8a	0.2614482
23	0x3e4115ea	0.18856016
24	0x3ee8956b	0.45426497
25	0x3db570e9	0.088594265
26	0x3de908bb	0.11378618
27	0x3b7ebcfc	0.0038869968
28	0x3e0c87b9	0.13723649
29	0x3bc19d0e	0.005908615
30	0x3da51da5	0.08062295
31	0x3dbec427	0.09314757
32	0x3c8ee4f7	0.017443163
33	0x3e5ce799	0.21572722
34	0xbde9c0cd	-0.11413727
35	0xbc85ff67	-0.016357137
36	0x3e2c26de	0.16811702
37	0x3c386015	0.0112533765
38	0x3e044d4e	0.12920114
39	0x3e97eda0	0.2967348
40	0xbccd53b1	-0.025064321
41	0x3da95f4e	0.08270131
42	0x3e44929e	0.19196555
43	0xbc400a0e	-0.011721147
44	0x3e57ce4c	0.2107479
45	0x3b707c6e	0.003669526
46	0xbd707b66	-0.058711432
47	0xbd40459e	-0.046941392
48	0x3e09ff6a	0.13476339
49	0xbd67eb07	-0.056620624
50	0xbd7bf620	-0.06151402
51	0xbc680574	-0.014161456
52	0xbd70b811	-0.05876929
53	0x3b45afcd	0.00301646
54	0xbdd47d2d	-0.10375438
55	0x3d22fc02	0.039791115
56	0x3cfcaa12	0.030842815
57	0x3e878d13	0.2647482
58	0x3d604521	0.054753426
59	0xbc456a4d	-0.01204927
60	0xbe023676	-0.12716088
61	0xbc08c337	-0.008347324
62	0x3c0b0eec	0.008487444
63	0xbdd5134d	-0.10404072
64	0xba682633	-0.000885579
65	0xbb9e6c8a	-0.004834716
66	0xbcb781d4	-0.022400774
67	0xbb737e05	-0.003715397
68	0xbbfd9add	-0.0077394084
69	0x3c107b4b	0.008818458
70	0x3ca93980	0.020657301
71	0xba67b6b6	-0.0008839177
72	0xbdee7817	-0.11643999
73	0xbd59f296	-0.053209864
74	0x3d89fc21	0.06737543
75	0xbc02321a	-0.007946515
76	0x3e959702	0.29216772
77	0xbc1d511a	-0.009601856
78	0x3d035fa1	0.03207362
79	0x3df9c1bc	0.12195155

model.layer_3.pb.layers.0.bias f4 [10]
0	0x3eb8e196	0.36109608
1	0x3e3df4ed	0.18550463
2	0x3e118fca	0.14215007
3	0x3e9dac1f	0.3079538
4	0x3ca0bd69	0.019621568
5	0xbc48f887	-0.012266285
6	0x3e9195c4	0.28434575
7	0xbd6ecc63	-0.058300387
8	0xbaeb25c9	-0.0017940338
9	0x3bfb5744	0.007670315

model.layer_3.pb.parentModule.weight f4 [10, 8]
0	0xbc309446	-0.010777539
1	0xbcd6069c	-0.026126198
2	0xbe242977	-0.16031443
3	0x3e61d5b9	0.22054185
4	0x3dd35a16	0.10319917
5	0x3d7c57d1	0.061607186
6	0x3bd91cb7	0.0066257375
7	0x3e887a88	0.26655984
8	0x3e9014e3	0.28140935
9	0x3ea9af25	0.33141437
10	0x3bb7e129	0.005611558
11	0x3e5f8de5	0.21831472
12	0xbde513e6	-0.11185436
13	0xbd3b8476	-0.04578062
14	0x3deb0bf5	0.1147689
15	0xba7e8ef6	-0.0009710634
16	0x3e497749	0.1967441
17	0xbea7eaec	-0.3279642
18	0x3def8c6e	0.11696707
19	0x3e573add	0.21018548
20	0x3ea7bcb2	0.3276115
21	0xbb92ad7e	-0.0044762483
22	0xbe99bff3	-0.30029258
23	0xbdab7a29	-0.083729096
24	0x3d8beb3f	0.06831979
25	0xbe8acaae	-0.27107757
26	0x3e835366	0.25649565
27	0x3d8af55f	0.06785082
28	0x3ca87c47	0.020567073
29	0xbd81e204	-0.06341937
30	0x3e1fb884	0.15597731
31	0x3e44e01b	0.19226114
32	0x3bd2cdae	0.0064332103
33	0xbe894e88	-0.26817727
34	0xbe94012f	-0.28907153
35	0xbe170bb7	-0.14750563
36	0xbd09bcda	-0.03362737
37	0xbe1df0dd	-0.15423913
38	0x3d0f6e99	0.035017584
39	0x3e0fc66f	0.1404054
40	0x3e26c3e7	0.16285668
41	0x3e80b46a	0.25137645
42	0x3e79bbad	0.24387999
43	0x3e8df598	0.27726436
44	0xbe7d8966	-0.24759445
45	0x3e91fe71	0.28514436
46	0x3e9c3678	0.30510306
47	0x3e257913	0.16159467
48	0xbe83868f	-0.25688598
49	0x3dc3f983	0.09569075
50	0xbe4551be	-0.19269463
51	0x3ddf23ee	0.10895525
52	0xbea01e81	-0.31273273
53	0x3e812112	0.25220543
54	0xbd3939d4	-0.045221165
55	0x3d8f2558	0.06989545
56	0xbe82ed3b	-0.25571617
57	0xbe688752	-0.2270787
58	0xbe57b222	-0.21064046
59	0x3e3ae31f	0.18250702
60	0x3e461917	0.19345509
61	0xbe17fe02	-0.1484299
62	0x3e345c45	0.17613323
63	0xbd8716b7	-0.065961294
64	0x3e8fd4de	0.28092092
65	0x3cfa9e18	0.030592963
66	0x3c66e067	0.014091588
67	0xbd61334c	-0.05498056
68	0x3cd7853e	0.026308652
69	0x3e049f5e	0.12951419
70	0xbe4f06e7	-0.20217477
71	0xbe3adb6e	-0.18247768
72	0xbe4db413	-0.20088224
73	0xbda736a1	-0.081647165
74	0x3eab07d0	0.33404398
75	0x3e0d3bf6	0.13792405
76	0xbe8b8451	-0.27249387
77	0xbe8b68bd	-0.27228346
78	0xbdbd6946	-0.09248595
79	0x3de0f2ff	0.10983848

model.layer_3.pb.parentModule.bias f4 [10]
0	0xbe49583a	-0.19662562
1	0xbe06f142	-0.1317797
2	0xbe9d81de	-0.30763143
3	0xbe86b5a6	-0.26310462
4	0x3eab5b45	0.3346807
5	0xbe65606f	-0.22400068
6	0x3e045af4	0.12925321
7	0xbea2b90d	-0.31781808
8	0xbe687834	-0.22702104
9	0x3e4d4230	0.2004478

model.layer_3.pb.pbValues.0.topPBCandidateAverage f4 [10]
0	0x3f7fee9a	0.9997345
1	0x3f7ce5df	0.98788255
2	0x3f7e01bb	0.9922139
3	0x3f7fe53f	0.99959177
4	0x3f7adae8	0.97990274
5	0x3f20ac76	0.62763155
6	0x3e5ceeaa	0.21575418
7	0x3f51e4c6	0.81989706
8	0x3efd2dfe	0.49449152
9	0x3f5d99db	0.8656289

model.layer_3.pb.pbValues.0.PrevPBCandidateCorrelation f4 [10]
0	0xb932e1ec	-0.00017059565
1	0xb395b4b0	-6.97122e-08
2	0xb4e64210	-4.2888905e-07
3	0x39333d62	0.00017093637
4	0x37ab4b25	2.041978e-05
5	0x38c44941	9.359653e-05
6	0xb70c3fa9	-8.359472e-06
7	0xb859bf2e	-5.191488e-05
8	0xa63b0dea	-6.4897515e-16
9	0x387deb03	6.0538772e-05

model.layer_3.pb.pbValues.0.currentCorrelationsForParallel f4 [10]
0	0x00000000	0.0
1	0x00000000	0.0
2	0x00000000	0.0
3	0x00000000	0.0
4	0x00000000	0.0
5	0x00000000	0.0
6	0x00000000	0.0
7	0x00000000	0.0
8	0x00000000	0.0
9	0x00000000	0.0

model.layer_3.pb.pbValues.0.bestScore f4 [10]
0	0x3a414a01	0.0007373393
1	0x396f4317	0.00022817809
2	0x3a3a2f83	0.0007102417
3	0x3a7189e1	0.0009213966
4	0x3a042b75	0.0005041876
5	0x39cfdec7	0.000396481
6	0x3893dd12	7.050684e-05
7	0x39a0bca8	0.00030658138
8	0x27956413	4.146431e-15
9	0x3972a9ef	0.00023142224

model.layer_3.pb.pbValues.0.previousBestScore f4 [10]
0	0x3a413dc9	0.00073715724
1	0x396ec8b8	0.00022772222
2	0x3a39f878	0.00070942147
3	0x3a71771c	0.0009211169
4	0x3a03411f	0.0005006957
5	0x39cfdec7	0.000396481
6	0x3893dd12	7.050684e-05
7	0x399d76be	0.00030033843
8	0x27956413	4.146431e-15
9	0x3961c637	0.00021531513

model.layer_3.pb.pbValues.0.PrevPBCandidateAverage f4 [10]
0	0x3f7ffd2f	0.999957
1	0x3f7f4016	0.9970716
2	0x3f7fce53	0.999242
3	0x3f7ffc79	0.9999462
4	0x3f7e3bdd	0.99310094
5	0x3f4a745a	0.7908379
6	0x3dbe0738	0.092787206
7	0x3f63974b	0.8890273
8	0x3ee9b786	0.4564783
9	0x3f623f76	0.88378084

model.layer_3.pb.pbValues.0.mainGradAverageForScaling f4 [10]
0	0x374b86af	1.2131101e-05
1	0x374685e9	1.1832898e-05
2	0x376f8234	1.4275825e-05
3	0x37fd9ed4	3.023391e-05
4	0x3770da61	1.435596e-05
5	0x378c1a18	1.6701451e-05
6	0x36a68993	4.9632013e-06
7	0x365f34a3	3.3260228e-06
8	0x254b0844	1.7610244e-16
9	0x37342aa4	1.0738764e-05

model.layer_3.pb.pbValues.0.candidateGradAverageForScaling f4 [10]
0	0x35f413a8	1.8185137e-06
1	0x3644d484	2.9329976e-06
2	0x3662adfc	3.3777897e-06
3	0x369fce8c	4.7626145e-06
4	0x365a2a43	3.250913e-06
5	0x35fb8fbb	1.8742788e-06
6	0x358d688e	1.0535748e-06
7	0x35557d6d	7.95312e-07
8	0x24324dbd	3.8663444e-17
9	0x3628710c	2.5099753e-06

model.layer_3.pb.pbValues.0.indexesOfbest f4 [10]
0	0x00000000	0.0
1	0x00000000	0.0
2	0x00000000	0.0
3	0x00000000	0.0
4	0x00000000	0.0
5	0x00000000	0.0
6	0x00000000	0.0
7	0x00000000	0.0
8	0x00000000	0.0
9	0x00000000	0.0

model.layer_3.pb.pbValues.0.nodesBestImprovedThisEpoch f4 [10]
0	0x00000000	0.0
1	0x00000000	0.0
2	0x00000000	0.0
3	0x00000000	0.0
4	0x00000000	0.0
5	0x00000000	0.0
6	0x00000000	0.0
7	0x00000000	0.0
8	0x00000000	0.0
9	0x00000000	0.0

model.layer_3.pb.pbValues.0.parentsAverageDvector f4 [10]
0	0x36df68c3	6.6581138e-06
1	0x351fc353	5.951635e-07
2	0xb6be16ef	-5.665111e-06
3	0xb6ee9a03	-7.110882e-06
4	0x364806ce	2.9806283e-06
5	0x35b7de01	1.3699174e-06
6	0x34cce3e7	3.8163782e-07
7	0x358f62ad	1.0683049e-06
8	0x2532ab7d	1.5497141e-16
9	0xb4951dd9	-2.777513e-07

model.layer_3.pb.pbValues.0.normalPassAverageD f4 [10]
0	0x363df57b	2.8306083e-06
1	0x34eee96a	4.4500786e-07
2	0xb529aa36	-6.3205096e-07
3	0xb62655df	-2.478591e-06
4	0xb5923ce2	-1.0895567e-06
5	0xb61a6e19	-2.3011874e-06
6	0x34c84445	3.7302576e-07
7	0x360ca541	2.0957816e-06
8	0x2435eb70	3.9447542e-17
9	0x354b334b	7.5698034e-07

exp_avg f4 [4, 784]
0	0xb97f67f4	-0.0002435742
1	0xb97f67f4	-0.0002435742
2	0xb97f67f4	-0.0002435742
3	0xb97f67f4	-0.0002435742
4	0xb97f67f4	-0.0002435742
5	0xb97f67f4	-0.0002435742
6	0xb97f67f4	-0.0002435742
7	0xb97f67f4	-0.0002435742
8	0xb97f67f4	-0.0002435742
9	0xb97f67f4	-0.0002435742
10	0xb97f67f4	-0.0002435742
11	0xb97f67f4	-0.0002435742
12	0xb97f67f4	-0.0002435742
13	0xb97f67f4	-0.0002435742
14	0xb97f67f4	-0.0002435742
15	0xb97f67f4	-0.0002435742
16	0xb97f67f4	-0.0002435742
17	0xb97f67f4	-0.0002435742
18	0xb97f67f4	-0.0002435742
19	0xb97f67f4	-0.0002435742
20	0xb97f67f4	-0.0002435742
21	0xb97f67f4	-0.0002435742
22	0xb97f67f4	-0.0002435742
23	0xb97f67f4	-0.0002435742
24	0xb97f67f4	-0.0002435742
25	0xb97f67f4	-0.0002435742
26	0xb97f67f4	-0.0002435742
27	0xb97f67f4	-0.0002435742
28	0xb97f67f4	-0.0002435742
29	0xb97f67f4	-0.0002435742
30	0xb97f67f4	-0.0002435742
31	0xb97f67f4	-0.0002435742
32	0xb97f67f4	-0.0002435742
33	0xb97f67f4	-0.0002435742
34	0xb97f67f4	-0.0002435742
35	0xb97f67f4	-0.0002435742
36	0xb97f67f4	-0.0002435742
37	0xb97f67f4	-0.0002435742
38	0xb97f67f4	-0.0002435742
39	0xb97f67f4	-0.0002435742
40	0xb97f67f4	-0.0002435742
41	0xb97f67f4	-0.0002435742
42	0xb97f67f4	-0.0002435742
43	0xb97f67f4	-0.0002435742
44	0xb97f67f5	-0.00024357422
45	0xb97f67f4	-0.0002435742
46	0xb97f67f4	-0.0002435742
47	0xb97f67f4	-0.0002435742
48	0xb97f67f4	-0.0002435742
49	0xb97f67f4	-0.0002435742
50	0xb97f67f4	-0.0002435742
51	0xb97f67f4	-0.0002435742
52	0xb97f67f4	-0.0002435742
53	0xb97f67f4	-0.0002435742
54	0xb97f67f4	-0.0002435742
55	0xb97f67f4	-0.0002435742
56	0xb97f67f4	-0.0002435742
57	0xb97f67f4	-0.0002435742
58	0xb97f67f4	-0.0002435742
59	0xb97f67f4	-0.0002435742
60	0xb97f67f4	-0.0002435742
61	0xb97f67f4	-0.0002435742
62	0xb97f67f4	-0.0002435742
63	0xb97f67f4	-0.0002435742
64	0xb97f67f4	-0.0002435742
65	0xb97c5560	-0.00024064397
66	0xb977f6b8	-0.00023647666
67	0xb97fb52c	-0.00024386187
68	0xb982d294	-0.00024952425
69	0xb990fcd4	-0.00027654192
70	0xb9871b88	-0.0002576972
71	0xb98210c3	-0.0002480802
72	0xb97f77d6	-0.00024363337
73	0xb97f9f57	-0.00024378054
74	0xb97f9295	-0.00024373301
75	0xb97fb62d	-0.00024386561
76	0xb98043bc	-0.00024464529
77	0xb97fcfaf	-0.00024396063
78	0xb97f67f4	-0.0002435742
79	0xb97f67f4	-0.0002435742
80	0xb97f67f4	-0.0002435742
81	0xb97f67f4	-0.0002435742
82	0xb97f67f4	-0.0002435742
83	0xb97f67f4	-0.0002435742
84	0xb97f67f4	-0.0002435742
85	0xb97f67f4	-0.0002435742
86	0xb97f67f4	-0.0002435742
87	0xb97f67f4	-0.0002435742
88	0xb97f67f4	-0.0002435742
89	0xb97f67f4	-0.0002435742
90	0xb97f67f4	-0.0002435742
91	0xb97f67ed	-0.0002435741
92	0xb993a7e5	-0.00028163116
93	0xb9eead82	-0.0004552417
94	0xb9fdb931	-0.000483939
95	0x3944417f	0.00018716416
96	0x3adcbd45	0.0016841075
97	0x3a13635b	0.000562241
98	0x3a85cbb6	0.0010207805
99	0x3a2e8783	0.0006657766
100	0x3a766fdf	0.00094008254
101	0x39893aa8	0.0002617438
102	0x38e6c1ea	0.00011003374
103	0xb9207fab	-0.00015306349
104	0xb97fff14	-0.00024413719
105	0xb9804c08	-0.0002447071
106	0xb97fd056	-0.00024396306
107	0xb97f67e8	-0.00024357403
108	0xb97f67f2	-0.00024357418
109	0xb97f67f4	-0.0002435742
110	0xb97f67f4	-0.0002435742
111	0xb97f67f4	-0.0002435742
112	0xb97f67f4	-0.0002435742
113	0xb97f67f4	-0.0002435742
114	0xb97f67f4	-0.0002435742
115	0xb97f67f4	-0.0002435742
116	0xb97f684a	-0.00024357546
117	0xb97f688a	-0.00024357639
118	0xb981a458	-0.00024727243
119	0xb98106ea	-0.0002460995
120	0xb9ae6942	-0.0003326629
121	0xb9d6aea4	-0.00040947378
122	0xb9fa2d58	-0.000477175
123	0x3a11ea0e	0.0005566188
124	0x3a28d437	0.0006440314
125	0x3a8e9d7e	0.0010880677
126	0x3af31a59	0.0018547281
127	0x3aaaffc5	0.0013046196
128	0x3a5ca058	0.0008416227
129	0x3970e3f8	0.00022973109
130	0x3a8fea26	0.0010979816
131	0x3ab05744	0.0013453742
132	0x3a4b97bf	0.00077664474
133	0xb90237b9	-0.00012418524
134	0xb92ac997	-0.00016287561
135	0xb9495e04	-0.00019203877
136	0xb97bef7e	-0.00024026443
137	0xb97f67e9	-0.00024357405
138	0xb97f67f4	-0.0002435742
139	0xb97f67f4	-0.0002435742
140	0xb97f67f4	-0.0002435742
141	0xb97f67f4	-0.0002435742
142	0xb97f67f4	-0.0002435742
143	0xb97f67f4	-0.0002435742
144	0xb9814998	-0.0002465963
145	0xb985f637	-0.0002555118
146	0xb98f7d6e	-0.00027368538
147	0xb9919935	-0.00027770703
148	0xb9b83bce	-0.00035139773
149	0xba2751fa	-0.000638276
150	0xba80b0a0	-0.0009818263
151	0xbab0de59	-0.0013493999
152	0xbade12b8	-0.0016942834
153	0xba9da67c	-0.0012027766
154	0xba45f3b2	-0.0007551267
155	0xb9bc9940	-0.00035972334
156	0x39889997	0.00026054375
157	0x382d1a94	4.1271167e-05
158	0x395bcc4f	0.00020961578
159	0x3a943371	0.0011306835
160	0x3ad42c14	0.0016187453
161	0x3a8347a1	0.0010015854
162	0xb95b8c58	-0.0002093775
163	0xb9353bce	-0.00017283784
164	0xb9743864	-0.0002329066
165	0xb97f682e	-0.00024357505
166	0xb97f680e	-0.00024357458
167	0xb97f67f4	-0.0002435742
168	0xb97f67f4	-0.0002435742
169	0xb97f67f4	-0.0002435742
170	0xb97f67e8	-0.00024357403
171	0xb97f5278	-0.00024349417
172	0xb9845769	-0.00025242128
173	0xb9882eff	-0.00025974956
174	0xb9a69f1d	-0.00031780536
175	0xb9f8b1b4	-0.00047434645
176	0xba48b9fe	-0.00076571095
177	0xba885ac0	-0.0010403022
178	0xbabeadee	-0.0014547685
179	0xbb0ec985	-0.0021787595
180	0xbb040518	-0.0020144638
181	0xbac9f219	-0.0015407234
182	0xba9ba25f	-0.0011873952
183	0xba819860	-0.000988733
184	0xba579d91	-0.00082250783
185	0xba9d404b	-0.001199731
186	0xbaa8bac7	-0.0012873047
187	0xb911e284	-0.00013912661
188	0x3adf148b	0.0017019672
189	0x3aee50d8	0.0018182052
190	0x38cccadc	9.7652635e-05
191	0xb8a73f49	-7.974968e-05
192	0xb9009a19	-0.00012264437
193	0xb97f6b86	-0.0002435875
194	0xb97f6830	-0.00024357508
195	0xb97f67f4	-0.0002435742
196	0xb97f67f4	-0.0002435742
197	0xb97f67f4	-0.0002435742
198	0xb97f68dd	-0.0002435776
199	0xb980e3b3	-0.00024583712
200	0xb9a74933	-0.0003190726
201	0xb9b11fa0	-0.00033783633
202	0xb9d1f13a	-0.00040043314
203	0xba45e08d	-0.0007548414
204	0xba9bfb8e	-0.0011900531
205	0xbad10284	-0.0015946184
206	0xbacadd8a	-0.0015477401
207	0xba9c09ab	-0.0011904737
208	0xbaa2eb1a	-0.0012429685
209	0xba7082eb	-0.0009174782
210	0xba4695f5	-0.0007575446
211	0xba74b664	-0.00093350396
212	0xba1efe20	-0.0006065089
213	0xba723a15	-0.0009240222
214	0xbaaf2fd6	-0.0013365697
215	0x39beeb1d	0.00036414797
216	0x3ad7359b	0.0016419174
217	0x3afe0481	0.0019380004
218	0x39e6d0d9	0.00044024622
219	0x37f84d21	2.959982e-05
220	0x375ccf0e	1.31612305e-05
221	0xb86f88dc	-5.71095e-05
222	0xb97f67f4	-0.0002435742
223	0xb97f67f3	-0.00024357419
224	0xb97f67f4	-0.0002435742
225	0xb97f6591	-0.00024356532
226	0xb9814157	-0.0002465348
227	0xb985a96b	-0.00025493963
228	0xb9c53a17	-0.00037618048
229	0xb9cffa1a	-0.00039668457
230	0xb9e902b9	-0.00044443252
231	0xba73dddd	-0.00093027746
232	0xbaa804cd	-0.0012818814
233	0xbabd58ee	-0.0014446059
234	0xba8c22ce	-0.0010691525
235	0xb996512a	-0.000286707
236	0xb9902e8e	-0.00027500506
237	0xb9cf8350	-0.00039579952
238	0xb9786161	-0.000236874
239	0xba36a7cf	-0.00069677545
240	0xba0ea403	-0.000544131
241	0xb910fab7	-0.00013826309
242	0x3a419f62	0.00073861156
243	0x3ac0a263	0.0014696833
244	0x3acce796	0.0015632983
245	0x3ab298c4	0.001362585
246	0x38557fdf	5.0902247e-05
247	0xb97da8c8	-0.00024190836
248	0xb9bc20f2	-0.000358827
249	0xb99202c6	-0.00027849356
250	0xb97ffd89	-0.00024413144
251	0xb97f67f4	-0.0002435742
252	0xb97f67f4	-0.0002435742
253	0xb97f67f4	-0.0002435742
254	0xb9805754	-0.00024479127
255	0xb9808052	-0.0002450967
