libraryExamples/mnist_lightning/.mnist_{epoch}-{val_loss:.2f}/epoch=57-step=49880.ckpt (torch, 147280 bytes, 60 tensors)

model.layer_1.mainModule.weight f4 [4, 784]
0	0x3f4532e2	0.77030766
1	0x3f460d78	0.773643
2	0x3f5422fe	0.82865894
3	0x3f476ee7	0.779036
4	0x3f52798d	0.8221672
5	0x3f497cda	0.78706133
6	0x3f4c9256	0.7991079
7	0x3f4f02e7	0.80863804
8	0x3f4ee3cc	0.8081634
9	0x3f53c9f3	0.82730025
10	0x3f492ace	0.7858094
11	0x3f4d4463	0.80182475
12	0x3f4742d6	0.7783636
13	0x3f4f8481	0.8106156
14	0x3f4d1fe1	0.8012677
15	0x3f480956	0.78139246
16	0x3f53644c	0.82574916
17	0x3f462f15	0.7741559
18	0x3f4b3c57	0.79388946
19	0x3f5347f8	0.8253169
20	0x3f520a20	0.820467
21	0x3f4ba9d2	0.79556
22	0x3f485746	0.7825817
23	0x3f47a920	0.7799244
24	0x3f4ea6b5	0.80723125
25	0x3f47e7b9	0.78087956
26	0x3f536d80	0.8258896
27	0x3f4b8b2c	0.79509234
28	0x3f45153d	0.7698553
29	0x3f4437b8	0.7664752
30	0x3f4f10c3	0.8088495
31	0x3f53426f	0.82523245
32	0x3f5262f2	0.8218223
33	0x3f50c149	0.8154493
34	0x3f43b744	0.76451516
35	0x3f52d5b6	0.82357347
36	0x3f539995	0.8265622
37	0x3f4852ca	0.78251326
38	0x3f494434	0.78619695
39	0x3f4f548d	0.8098839
40	0x3f4f39f6	0.80947816
41	0x3f4a0dea	0.7892748
42	0x3f52fa0d	0.824128
43	0x3f4ba4d8	0.79548407
44	0x3f528336	0.8223146
45	0x3f52aca7	0.82294697
46	0x3f549781	0.83043677
47	0x3f46a899	0.7760101
48	0x3f528c4d	0.8224533
49	0x3f5448cd	0.82923585
50	0x3f4b342e	0.79376495
51	0x3f45e1cb	0.7729766
52	0x3f47ed7f	0.78096765
53	0x3f52f024	0.82397676
54	0x3f4e8e93	0.806863
55	0x3f5391fb	0.82644624
56	0x3f46837d	0.77544385
57	0x3f50e614	0.8160107
58	0x3f466e3f	0.7751197
59	0x3f4d46d3	0.80186194
60	0x3f4d2320	0.8013172
61	0x3f5270c4	0.82203317
62	0x3f537ec1	0.82615286
63	0x3f4d68fa	0.80238307
64	0x3f5339e2	0.825102
65	0x3f43af11	0.76439005
66	0x3f4ef690	0.80844975
67	0x3f4d6165	0.8022674
68	0x3f53d15b	0.82741326
69	0x3f63d66e	0.8899907
70	0x3f979d22	1.1844828
71	0x3f624610	0.88388157
72	0x3f4b8868	0.79505014
73	0x3f4a2777	0.7896647
74	0x3f4c1e2c	0.7973354
75	0x3f4f1c1c	0.80902267
76	0x3f4d42e1	0.80180174
77	0x3f5375fa	0.8260189
78	0x3f47efab	0.7810008
79	0x3f4879da	0.7831093
80	0x3f47c331	0.78032213
81	0x3f44caa9	0.76871735
82	0x3f49db3e	0.7885016
83	0x3f50c2c2	0.81547177
84	0x3f4d378e	0.80162895
85	0x3f50584c	0.8138473
86	0x3f489ca7	0.7836403
87	0x3f4f418f	0.8095941
88	0x3f5347a7	0.8253121
89	0x3f485c34	0.7826569
90	0x3f4c77ea	0.79870474
91	0x3f532ecd	0.8249329
92	0x3f506322	0.81401265
93	0x3f45bb02	0.77238476
94	0x3f4e181c	0.8050554
95	0x3f47e498	0.7808318
96	0x3f5f7357	0.8728537
97	0x3f83d831	1.0300351
98	0x3f8ae2da	1.085048
99	0x3e1a3cd6	0.1506227
100	0xbe491a8f	-0.19639038
101	0xbecc2890	-0.39874697
102	0xbef21d33	-0.47287902
103	0xbe914359	-0.28371695
104	0x3f6945ea	0.91122305
105	0x3f4b99f6	0.795318
106	0x3f52f9d7	0.82412475
107	0x3f4b72df	0.79472154
108	0x3f42e66d	0.7613285
109	0x3f488b76	0.783378
110	0x3f463ee4	0.77439713
111	0x3f44e5d1	0.7691317
112	0x3f46117b	0.77370423
113	0x3f4e2200	0.8052063
114	0x3f496977	0.7867655
115	0x3f4fd896	0.8118986
116	0x3f49ad9c	0.7878053
117	0x3f4f4297	0.80960983
118	0x3f4f7778	0.8104167
119	0x3f48a6d4	0.7837956
120	0x3f2d4df9	0.676971
121	0x3ecfd436	0.40591592
122	0x3eec3aa2	0.46138483
123	0x3eab6ff6	0.33483857
124	0x3e599cd7	0.21251236
125	0x3d8e1dbd	0.06939266
126	0xbdef807c	-0.11694428
127	0xbed09a8b	-0.40742907
128	0xbf06e270	-0.52689266
129	0xbf06f0fa	-0.5271145
130	0xbeed40f1	-0.4633861
131	0x3f794516	0.9737104
132	0x3f309873	0.6898262
133	0x3f30dc31	0.69085985
134	0x3f3f2540	0.74666214
135	0x3f639b6e	0.8890904
136	0x3f4b9fff	0.7954101
137	0x3f4e43ff	0.80572504
138	0x3f53c8fd	0.8272856
139	0x3f43812f	0.76368994
140	0x3f434a9f	0.7628574
141	0x3f47a6ce	0.779889
142	0x3f4b2429	0.7935205
143	0x3f4e1600	0.8050232
144	0x3f46f488	0.77716875
145	0x3f4fdbb5	0.8119462
146	0x3f3db754	0.7410786
147	0x3f1467b0	0.57970715
148	0xbc268f5b	-0.010166015
149	0x3dd8c456	0.10584323
150	0x3e99c982	0.3003655
151	0x3eb3234a	0.3498786
152	0x3ea0c5ec	0.31401002
153	0xbe8f50ea	-0.2799142
154	0xbff2c8bc	-1.8967509
155	0x3dbb592d	0.09147868
156	0x3f1df3b0	0.6169996
157	0x3f36223d	0.71145993
158	0xbf06c312	-0.52641404
159	0xbeeec06f	-0.4663119
160	0x3f2cc699	0.67490536
161	0x3f3b7991	0.7323237
162	0x3de43819	0.11143512
163	0x3f31c8bd	0.6944693
164	0x3f487bd3	0.7831394
165	0x3f4d24ed	0.8013447
166	0x3f432955	0.7623494
167	0x3f549ce1	0.8305188
168	0x3f4e9569	0.8069673
169	0x3f454610	0.7706003
170	0x3f50bca7	0.8153786
171	0x3f4a16b2	0.7894088
172	0x3f436796	0.76329935
173	0x3f3a5a98	0.72794485
174	0x3ea41608	0.32048059
175	0x3c8d20a0	0.01722747
176	0xbe2f13ef	-0.17097448
177	0x3e911247	0.28334257
178	0x3ea81adb	0.3283299
179	0x3ef778b0	0.48334265
180	0xbd3be8c6	-0.045876287
181	0xbfa64c74	-1.2992082
182	0xbfa05f76	-1.2529132
183	0xbf79609c	-0.9741304
184	0xbf74ca8e	-0.95621574
185	0x3f823ef9	1.0175468
186	0xbf0843ab	-0.53228253
187	0xbf0f38a9	-0.5594583
188	0xbe97a01a	-0.29614335
189	0x3ffdc2b7	1.9825047
190	0xbebbdbd7	-0.36691162
191	0x3f320940	0.69545364
192	0x3f30cc90	0.6906214
193	0x3f528e0b	0.8224799
194	0x3f507eb9	0.81443363
195	0x3f4b46e4	0.79405046
196	0x3f526a64	0.8219359
197	0x3f5418aa	0.82850134
198	0x3f4473bc	0.76739097
199	0x3f53f85a	0.8280083
200	0x3f53154c	0.8245437
201	0x3ecb857c	0.39750278
202	0xbe3063f3	-0.17225628
203	0xbed06b06	-0.40706652
204	0xbec2229f	-0.3791704
205	0x3ea78194	0.32716048
206	0x3f12b711	0.5731059
207	0x3e485640	0.19564152
208	0xbf00f7e0	-0.5037823
209	0xbf1e4b3a	-0.61833537
210	0xbf56a517	-0.8384566
211	0xbf5772ca	-0.8415953
212	0xbf4c6b08	-0.79850817
213	0xbf0dcce2	-0.5539075
214	0xbf166a97	-0.58756393
215	0xbf0b304b	-0.54370564
216	0xbf09d10f	-0.53834623
217	0xbf02ec32	-0.51141655
218	0xbecf71eb	-0.405166
219	0x3f270d81	0.6525498
220	0x3f2eadf8	0.68234205
221	0x3f49c249	0.7881208
222	0x3f52d3a0	0.82354164
223	0x3f4d01db	0.80080956
224	0x3f478981	0.7794419
225	0x3f4a76d0	0.79087543
226	0x3f4d2194	0.8012936
227	0x3f4d035c	0.8008325
228	0x3f58c351	0.8467303
229	0x3e6e2e4d	0.2325985
230	0xbeccd376	-0.40005082
231	0xbfe7b2d9	-1.8101455
232	0x3c25c376	0.010117402
233	0x3f3ac111	0.72950846
234	0xbeb68244	-0.3564626
235	0xbefb8bef	-0.49130198
236	0xbf0b68e5	-0.5445693
237	0xbf186f07	-0.59544414
238	0xbf358735	-0.70909435
239	0xbf3f03f0	-0.74615383
240	0xbf35c4a0	-0.7100315
241	0xbf126174	-0.5717995
242	0xbf1a0d62	-0.6017667
243	0xbf15a833	-0.58459777
244	0xbf104673	-0.56357497
245	0xbf0a725a	-0.54080737
246	0x3b40207e	0.0029316242
247	0x3f2d239a	0.6763245
248	0x3f3e32ac	0.7429607
249	0x3f488600	0.7832947
250	0x3f466674	0.7750008
251	0x3f44396b	0.7665011
252	0x3f53a813	0.82678336
253	0x3f4c12d7	0.7971625
254	0x3f4cdfea	0.80029166
255	0x3f57f214	0.84353757

model.layer_1.mainModule.bias f4 [4]
0	0xbf4f2b04	-0.8092501
1	0xbf3e233d	-0.7427252
2	0xbfa86228	-1.3154955
3	0xbf11ae7e	-0.5690688

model.layer_1.pb.parentModule.weight f4 [4, 784]
0	0xbcd48cdc	-0.025946073
1	0xbcb93a37	-0.022610767
2	0x3d04bb43	0.03240515
3	0xbc8d0c45	-0.017217765
4	0x3cd44861	0.02591342
5	0xbc169b8a	-0.009192357
6	0x3b3b0d25	0.002854177
7	0x3c4ae797	0.012384317
8	0x3c4320a5	0.0119096385
9	0x3cfe5531	0.031046482
10	0xbc2b1e8a	-0.010444293
11	0x3bb68cf7	0.0055710035
12	0xbc928e67	-0.017890168
13	0x3c6b4e0a	0.014361868
14	0x3ba44bdc	0.005013926
15	0xbc737caa	-0.014861265
16	0x3cf1a051	0.02949539
17	0xbcb50695	-0.022097865
18	0xbb1af1dc	-0.0023642695
19	0x3cee15c8	0.02906312
20	0x3cc65acc	0.024213217
21	0xba35ddb7	-0.000693764
22	0xbc6000b3	-0.013672042
23	0xbc85c525	-0.016329357
24	0x3c33daf3	0.0109774945
25	0xbc7be413	-0.015374201
26	0x3cf2c6dc	0.02963584
27	0xba983a4a	-0.0011614051
28	0xbcd84183	-0.026398426
29	0xbcf3f22e	-0.029778566
30	0x3c4e5e8e	0.012595786
31	0x3ced64b8	0.02897869
32	0x3cd17513	0.02556852
33	0x3c9d400c	0.019195579
34	0xbd020055	-0.031738598
35	0x3cdfcd98	0.027319714
36	0x3cf8496e	0.030308452
37	0xbc611fca	-0.013740489
38	0xbc24c537	-0.010056785
39	0x3c5f5113	0.013630169
40	0x3c58ab25	0.013224398
41	0xbbe4afae	-0.0069789505
42	0x3ce4587a	0.02787422
43	0xba49c493	-0.00076968333
44	0x3cd57d85	0.026060829
45	0x3cdaabae	0.026693191
46	0x3d0c036a	0.034182943
47	0xbca5d61a	-0.020243693
48	0x3cd6a07a	0.026199568
49	0x3d071836	0.032982074
50	0xbb231b13	-0.0024887964
51	0xbcbeafd5	-0.023277203
52	0xbc7a7258	-0.015286051
53	0x3ce31b45	0.027722964
54	0x3c2dd25c	0.010609236
55	0x3cf75638	0.03019248
56	0xbcaa798a	-0.020809907
57	0x3ca1d94e	0.01975694
58	0xbcad214a	-0.021134038
59	0x3bb7c51c	0.005608214
60	0x3ba5eb93	0.005063483
61	0x3cd32f53	0.025779402
62	0x3cf4eef8	0.029899105
63	0x3bc8d8ae	0.006129346
64	0x3cec5318	0.028848216
65	0xbd028376	-0.031863652
66	0x3c47d1d3	0.012196022
67	0x3bc50de5	0.0060136192
68	0x3cff4225	0.03115947
69	0xbbcab601	-0.0061862473
70	0x3c3579d3	0.011076408
71	0xbb78fa38	-0.003799094
72	0xba9dc125	-0.0012035711
73	0xbbd7e937	-0.0065890807
74	0x3a8dc525	0.00108162
75	0x3c5134c5	0.012768929
76	0x3bb5cbc1	0.005547971
77	0x3cf3d611	0.02976516
78	0xbc79e773	-0.015252936
79	0xbc575ba5	-0.013144408
80	0xbc828307	-0.01593162
81	0xbce1940a	-0.02753641
82	0xbbfe0541	-0.007752091
83	0x3c9d6f1a	0.019218016
84	0x3bb02277	0.0053752023
85	0x3c902053	0.017593538
86	0xbc4ea861	-0.012613387
87	0x3c5a9193	0.013340372
88	0x3cee0bac	0.0290583
89	0xbc5ec54a	-0.013596842
90	0x3b20a0a5	0.0024509814
91	0x3ceaf073	0.028679108
92	0x3c917b0e	0.017758872
93	0xbcc388e5	-0.023868987
94	0x3c1034ce	0.008801652
95	0xbc3e98ca	-0.011633107
96	0x3cccec01	0.02501488
97	0x3c65bea5	0.014022504
98	0xbc5e32c1	-0.013561905
99	0xbcdc736c	-0.026910506
100	0xbcbaa35c	-0.022782974
101	0x3c889085	0.016670475
102	0xbbb033a5	-0.0053772503
103	0x3ccff5da	0.025385786
104	0x3c8a9760	0.016917884
105	0xba754e01	-0.0009357632
106	0x3ce451bc	0.027871005
107	0xbac8d46e	-0.0015322098
108	0xbd0f0dbf	-0.03492522
109	0xbc52f4aa	-0.012875715
110	0xbcb30cac	-0.021856628
111	0xbcde2f18	-0.027122065
112	0xbcb8b9cc	-0.022549532
113	0x3c12adc5	0.008952563
114	0xbc1b746a	-0.0094882045
115	0x3c8029a0	0.015644848
116	0xbc0a6b0e	-0.008448375
117	0x3c5ad393	0.013356107
118	0x3c680ba5	0.0141629325
119	0x3d0d1d4a	0.03445176
120	0xbc595a6e	-0.013266189
121	0xbc7ad8aa	-0.015310446
122	0x3ce56a98	0.02800493
123	0xbbfb0ee5	-0.0076616877
124	0xbc0d3f4e	-0.00862105
125	0xbb94650a	-0.0045286464
126	0xbcf73cd1	-0.030180367
127	0x3cc3010c	0.02380421
128	0xbcad35cc	-0.021143816
129	0x3c6dcfd8	0.014514886
130	0x3d0be8a6	0.034157418
131	0x3c350797	0.011049173
132	0x39d6824a	0.00040914334
133	0xbcbea7a3	-0.023273295
134	0x3ca11850	0.019664913
135	0x3cbbd66a	0.022929389
136	0xba5d2a01	-0.000843674
137	0x3c1b2d65	0.009471272
138	0x3cfe366a	0.031031806
139	0xbd056197	-0.032563772
140	0xbd08ca98	-0.033396333
141	0xbc860f6e	-0.01636478
142	0xbb331fee	-0.0027332264
143	0x3c0fadce	0.008769466
144	0xbc9c5820	-0.01908499
145	0x3c808d77	0.015692456
146	0x3bd986b7	0.0066383737
147	0x3bc3c09c	0.0059738886
148	0xbc9fe11e	-0.019516524
149	0x3d073940	0.033013582
150	0x3ca903e5	0.02063174
151	0x3c8f6577	0.017504437
152	0xbab355dc	-0.0013682204
153	0x3c2c4d25	0.01051644
154	0xbb089ddc	-0.0020846045
155	0xbbba6dee	-0.005689374
156	0x3ae0546e	0.0017115006
157	0x3b99348a	0.0046754526
158	0x3c16c2a0	0.009201676
159	0xbcfc67e5	-0.03081126
160	0xbbe44b81	-0.0069670086
161	0x3c7d275c	0.015451279
162	0x3c9a6010	0.018844634
163	0xbd071033	-0.032974433
164	0x3cc2b1ca	0.023766417
165	0x3ba6d1ca	0.005090927
166	0xbd0adf3b	-0.033904295
167	0x3d0c596f	0.034264978
168	0x3c2f87e1	0.010713548
169	0xbcd2272e	-0.025653448
170	0x3c9cabbc	0.019124858
171	0xbbe04b8a	-0.0068449425
172	0xbd06fb32	-0.032954402
173	0xbb8ef3d3	-0.004362562
174	0x3b925237	0.004465367
175	0x3c685bbc	0.014182027
176	0xbb534d81	-0.003224224
177	0xbc3415e5	-0.010991548
178	0xbcc59a51	-0.024121435
179	0x3d0f2d7d	0.03495549
180	0xbcc602a5	-0.024171183
181	0x3ccbf6e7	0.024898006
182	0x3ce81628	0.028330877
183	0x3d08f612	0.033437796
184	0x3cba95de	0.02277654
185	0x3d0f340b	0.03496174
186	0xbbf9e665	-0.007626342
187	0xbc52fdb3	-0.012877869
188	0x3cce94c7	0.025217427
189	0x3d01ff4e	0.03173762
190	0x3c0272dc	0.007961955
191	0x3ceae80c	0.028675102
192	0xbc0fbb13	-0.008772629
193	0x3cd6d82a	0.026226122
194	0x3c94ee0a	0.018179912
195	0xbb1064ee	-0.0022032815
196	0x3cd2635a	0.02568214
197	0x3d041603	0.032247555
198	0xbcec71ae	-0.0288628
199	0x3d0210fe	0.031754486
200	0x3ce7c045	0.028289923
201	0x3cee78c5	0.029110322
202	0xbcae699e	-0.021290597
203	0xbd0390f0	-0.032120645
204	0x3c145f0e	0.009055866
205	0xbce02113	-0.027359521
206	0xbc79cd1c	-0.015246656
207	0x3d003f2f	0.031310257
208	0xbbbda3ee	-0.005787364
209	0xbc4dc18a	-0.01255835
210	0xbb306cca	-0.0026920312
211	0xbc485397	-0.012226961
212	0xbcbd1cd3	-0.023085034
213	0x3c466561	0.012109132
214	0xbc70bef3	-0.014693963
215	0x3cfbaf85	0.030723343
216	0x3cd59475	0.026071766
217	0xbc11932e	-0.008885188
218	0x3b89e565	0.004208254
219	0xbb89fb13	-0.0042108386
220	0x3c2c6293	0.010521549
221	0xbc053fd7	-0.008132896
222	0x3cdf8ad8	0.027287886
223	0x3b9548f7	0.004555817
224	0xbc89b90c	-0.01681187
225	0xbbb03c4a	-0.0053782808
226	0x3ba52540	0.005039841
227	0x3b170b5c	0.0023047542
228	0xbcc1c947	-0.023655547
229	0x3c8438b5	0.016140321
230	0xbc3eea8a	-0.011652598
231	0x3ce8460c	0.028353713
232	0xbc5b1ebc	-0.013374027
233	0x3d072310	0.032992423
234	0x3d112770	0.035438
235	0x3c0e7fd7	0.008697472
236	0x3c988ea3	0.018622702
237	0xbc887167	-0.016655637
238	0xbcea4f08	-0.028602138
239	0xbc74bb6e	-0.014937265
240	0x3c702a38	0.014658503
241	0x3ca89e8e	0.020583417
242	0xbc91c60e	-0.017794635
243	0xba09284a	-0.0005232139
244	0x3c8ff8ec	0.01757475
245	0x3c6327aa	0.013864437
246	0x3ce26875	0.0276377
247	0x3c321481	0.010869146
248	0x3cc4026c	0.023926936
249	0xbc545225	-0.012959038
250	0xbcae1ab1	-0.021252962
251	0xbcf3bbd3	-0.029752648
252	0x3cfa1923	0.030529564
253	0x3a6e39b8	0.000908758
254	0x3b845093	0.0040379255
255	0x3c9bd2e7	0.019021465

model.layer_1.pb.parentModule.bias f4 [4]
0	0xbc53e14e	-0.012932135
1	0xbcb59fba	-0.02217089
2	0xbaaa73dc	-0.00130045
3	0x3d00e328	0.031466633

model.layer_1.pb.pbValues.0.topPBCandidateAverage f4 [4]
0	0x00000000	0.0
1	0x00000000	0.0
2	0x00000000	0.0
3	0x00000000	0.0

model.layer_1.pb.pbValues.0.PrevPBCandidateCorrelation f4 [4]
0	0x00000000	0.0
1	0x00000000	0.0
2	0x00000000	0.0
3	0x00000000	0.0

model.layer_1.pb.pbValues.0.currentCorrelationsForParallel f4 [4]
0	0x00000000	0.0
1	0x00000000	0.0
2	0x00000000	0.0
3	0x00000000	0.0

model.layer_1.pb.pbValues.0.bestScore f4 [4]
0	0x00000000	0.0
1	0x00000000	0.0
2	0x00000000	0.0
3	0x00000000	0.0

model.layer_1.pb.pbValues.0.previousBestScore f4 [4]
0	0x00000000	0.0
1	0x00000000	0.0
2	0x00000000	0.0
3	0x00000000	0.0

model.layer_1.pb.pbValues.0.PrevPBCandidateAverage f4 [4]
0	0x00000000	0.0
1	0x00000000	0.0
2	0x00000000	0.0
3	0x00000000	0.0

model.layer_1.pb.pbValues.0.mainGradAverageForScaling f4 [4]
0	0x00000000	0.0
1	0x00000000	0.0
2	0x00000000	0.0
3	0x00000000	0.0

model.layer_1.pb.pbValues.0.candidateGradAverageForScaling f4 [4]
0	0x00000000	0.0
1	0x00000000	0.0
2	0x00000000	0.0
3	0x00000000	0.0

model.layer_1.pb.pbValues.0.indexesOfbest f4 [4]
0	0x00000000	0.0
1	0x00000000	0.0
2	0x00000000	0.0
3	0x00000000	0.0

model.layer_1.pb.pbValues.0.nodesBestImprovedThisEpoch f4 [4]
0	0x00000000	0.0
1	0x00000000	0.0
2	0x00000000	0.0
3	0x00000000	0.0

model.layer_1.pb.pbValues.0.parentsAverageDvector f4 [4]
0	0x00000000	0.0
1	0x00000000	0.0
2	0x00000000	0.0
3	0x00000000	0.0

model.layer_1.pb.pbValues.0.normalPassAverageD f4 [4]
0	0x00000032	7e-44
1	0x00000032	7e-44
2	0x00000032	7e-44
3	0x00000032	7e-44

model.layer_2.mainModule.weight f4 [8, 4]
0	0x3e21335a	0.15742245
1	0xbec4447c	-0.383335
2	0xbf8a4559	-1.0802413
3	0x3ee6112b	0.44934973
4	0x3ff2c3af	1.8965968
5	0x3ec182aa	0.37795
6	0xbf680e43	-0.9064676
7	0x3e32eb7f	0.17472647
8	0xbe350c6b	-0.17680518
9	0xbeb5c060	-0.35498333
10	0xbead81cf	-0.338881
11	0xbf13dcdb	-0.57758874
12	0x3fcd7fd2	1.6054633
13	0xbec47094	-0.3836714
14	0xbed3c362	-0.41360003
15	0x3ce12e60	0.027487934
16	0xbf313fb7	-0.69237846
17	0x3e520f66	0.20513687
18	0xbeda7f78	-0.42675376
19	0xbe511258	-0.20417154
20	0xbf6b01da	-0.917997
21	0x3f5fa1b9	0.87356144
22	0xbf1b5796	-0.6068052
23	0xbf8197f7	-1.0124501
24	0xbf0dffa4	-0.554682
25	0x3f087408	0.5330205
26	0xbf245792	-0.6419612
27	0xbe8b1682	-0.2716561
28	0x3e522e8e	0.20525572
29	0xbdbc38e2	-0.09190537
30	0xbf004bf2	-0.50115883
31	0x3ecf566b	0.4049562

model.layer_2.mainModule.bias f4 [8]
0	0xbe4882e0	-0.19581175
1	0xbfabdd7f	-1.342697
2	0xbf6a147b	-0.914375
3	0xbf95735c	-1.167583
4	0xbf6e4395	-0.9307187
5	0xbe934f40	-0.287714
6	0xbf6744e2	-0.9033948
7	0xbf78d683	-0.9720232

model.layer_2.pb.parentModule.weight f4 [8, 4]
0	0xbddeed00	-0.10885048
1	0xbed8649a	-0.42264253
2	0xbef5a4a2	-0.47977167
3	0xbe1ab9a8	-0.15109885
4	0x3e4622e4	0.19349247
5	0x3d84d580	0.064860344
6	0x3ebc8f3a	0.36828023
7	0xbed9feb8	-0.42577147
8	0x3ed8f2d2	0.42372757
9	0x3ee2cd4a	0.44297248
10	0x3e85f550	0.2616372
11	0x3cbb61e0	0.022873819
12	0x3e194804	0.14968878
13	0xbec47094	-0.3836714
14	0xbed3c362	-0.41360003
15	0x3ce12e60	0.027487934
16	0x3d71e260	0.05905378
17	0xbeca637e	-0.39529032
18	0x3e31f370	0.1737802
19	0x3ecaeb08	0.3963244
20	0xbd7f6eb0	-0.06236142
21	0x3eb27ac0	0.34859276
22	0xbbcee380	-0.006313741
23	0xbed2e82c	-0.41192758
24	0x3d3ba510	0.045811713
25	0x3e28c990	0.1648314
26	0x3eeb3062	0.4593535
27	0x3ea85a96	0.32881612
28	0xbda3c278	-0.07996076
29	0x3ef864dc	0.4851445
30	0xbe0c70cc	-0.13714904
31	0xbe48453c	-0.19557661

model.layer_2.pb.parentModule.bias f4 [8]
0	0x3eb1be5c	0.34715545
1	0xbe938578	-0.28812766
2	0x3dbd2838	0.09236187
3	0xbe9ee4d4	-0.31033957
4	0x3e0c73e4	0.13716084
5	0x3ee024ce	0.4377808
6	0xbe3179d0	-0.17331624
7	0x3efcdec2	0.493887

model.layer_2.pb.pbValues.0.topPBCandidateAverage f4 [8]
0	0x00000000	0.0
1	0x00000000	0.0
2	0x00000000	0.0
3	0x00000000	0.0
4	0x00000000	0.0
5	0x00000000	0.0
6	0x00000000	0.0
7	0x00000000	0.0

model.layer_2.pb.pbValues.0.PrevPBCandidateCorrelation f4 [8]
0	0x00000000	0.0
1	0x00000000	0.0
2	0x00000000	0.0
3	0x00000000	0.0
4	0x00000000	0.0
5	0x00000000	0.0
6	0x00000000	0.0
7	0x00000000	0.0

model.layer_2.pb.pbValues.0.currentCorrelationsForParallel f4 [8]
0	0x00000000	0.0
1	0x00000000	0.0
2	0x00000000	0.0
3	0x00000000	0.0
4	0x00000000	0.0
5	0x00000000	0.0
6	0x00000000	0.0
7	0x00000000	0.0

model.layer_2.pb.pbValues.0.bestScore f4 [8]
0	0x00000000	0.0
1	0x00000000	0.0
2	0x00000000	0.0
3	0x00000000	0.0
4	0x00000000	0.0
5	0x00000000	0.0
6	0x00000000	0.0
7	0x00000000	0.0

model.layer_2.pb.pbValues.0.previousBestScore f4 [8]
0	0x00000000	0.0
1	0x00000000	0.0
2	0x00000000	0.0
3	0x00000000	0.0
4	0x00000000	0.0
5	0x00000000	0.0
6	0x00000000	0.0
7	0x00000000	0.0

model.layer_2.pb.pbValues.0.PrevPBCandidateAverage f4 [8]
0	0x00000000	0.0
1	0x00000000	0.0
2	0x00000000	0.0
3	0x00000000	0.0
4	0x00000000	0.0
5	0x00000000	0.0
6	0x00000000	0.0
7	0x00000000	0.0

model.layer_2.pb.pbValues.0.mainGradAverageForScaling f4 [8]
0	0x00000000	0.0
1	0x00000000	0.0
2	0x00000000	0.0
3	0x00000000	0.0
4	0x00000000	0.0
5	0x00000000	0.0
6	0x00000000	0.0
7	0x00000000	0.0

model.layer_2.pb.pbValues.0.candidateGradAverageForScaling f4 [8]
0	0x00000000	0.0
1	0x00000000	0.0
2	0x00000000	0.0
3	0x00000000	0.0
4	0x00000000	0.0
5	0x00000000	0.0
6	0x00000000	0.0
7	0x00000000	0.0

model.layer_2.pb.pbValues.0.indexesOfbest f4 [8]
0	0x00000000	0.0
1	0x00000000	0.0
2	0x00000000	0.0
3	0x00000000	0.0
4	0x00000000	0.0
5	0x00000000	0.0
6	0x00000000	0.0
7	0x00000000	0.0

model.layer_2.pb.pbValues.0.nodesBestImprovedThisEpoch f4 [8]
0	0x00000000	0.0
1	0x00000000	0.0
2	0x00000000	0.0
3	0x00000000	0.0
4	0x00000000	0.0
5	0x00000000	0.0
6	0x00000000	0.0
7	0x00000000	0.0

model.layer_2.pb.pbValues.0.parentsAverageDvector f4 [8]
0	0x00000000	0.0
1	0x00000000	0.0
2	0x00000000	0.0
3	0x00000000	0.0
4	0x00000000	0.0
5	0x00000000	0.0
6	0x00000000	0.0
7	0x00000000	0.0

model.layer_2.pb.pbValues.0.normalPassAverageD f4 [8]
0	0x00000032	7e-44
1	0x00000032	7e-44
2	0x00000032	7e-44
3	0x00000032	7e-44
4	0x00000032	7e-44
5	0x00000032	7e-44
6	0x00000032	7e-44
7	0x00000032	7e-44

model.layer_3.mainModule.weight f4 [10, 8]
0	0x3dd33acf	0.10313951
1	0xbeeebe1a	-0.4662941
2	0x3ee640db	0.44971356
3	0x3f459f69	0.77196366
4	0x3f3507e3	0.7071516
5	0x3dcb3c0e	0.09923564
6	0xbe6d0b5e	-0.23148867
7	0x3e59e69f	0.21279381
8	0x3f2528e0	0.64515495
9	0xbfad3762	-1.3532526
10	0xbe684133	-0.22681122
11	0x3f046be7	0.51727146
12	0xbf0b190d	-0.543351
13	0x3f2b601a	0.66943514
14	0xbf755ea3	-0.9584753
15	0xbd8aeccc	-0.06783447
16	0xbf738672	-0.9512702
17	0x3efe516f	0.49671504
18	0x3e893cc7	0.26804182
19	0xc014a884	-2.3227854
20	0x3f7a32b5	0.9773362
21	0x3eda15fd	0.425949
22	0x3eda301a	0.42614824
23	0x3f0f9aa8	0.5609536
24	0x3f377924	0.7166922
25	0xbed561af	-0.4167609
26	0xbefd481b	-0.49469075
27	0x4008caf1	2.1373866
28	0x3edd331d	0.4320306
29	0xbf093d82	-0.5360948
30	0xbf076d84	-0.5290148
31	0xbc66f4ca	-0.014096448
32	0x3f271e7b	0.65280885
33	0x3fc5154b	1.5397123
34	0xbe9aadb3	-0.30210647
35	0xbf818f0c	-1.012178
36	0xbe068b46	-0.13139066
37	0x3e47498e	0.19461653
38	0x3feb39a3	1.8376964
39	0x3d7976aa	0.060904182
40	0x3e907b87	0.28219244
41	0xbfde0557	-1.734538
42	0xbe4cad7d	-0.19988056
43	0xbf10b2ce	-0.56522834
44	0xbf0fca30	-0.5616789
45	0x3e0b21fe	0.13587186
46	0xbfc3b582	-1.5289767
47	0xbd16d243	-0.036821615
48	0x3e98d6a3	0.29851255
49	0xbfd336de	-1.6501119
50	0xbedeeae3	-0.4353858
51	0x3efc593a	0.49286824
52	0xbec406a5	-0.3828632
53	0x3d8d8b00	0.06911278
54	0x3e871fb9	0.2639139
55	0x3eee2168	0.46509862
56	0x3ed1b729	0.40960053
57	0xbea0ca20	-0.3140421
58	0x3eb4f008	0.3533938
59	0x3fc471f4	1.5347276
60	0xbdb18bce	-0.08669244
61	0x3fa06c15	1.2532984
62	0xbb0ddb5c	-0.002164564
63	0x3ec73862	0.38910204
64	0x3f5abb5b	0.8544213
65	0x3d456488	0.048191577
66	0x3f5ec641	0.8702126
67	0x3f8f7a09	1.1209117
68	0xbf66ca99	-0.9015289
69	0x3f568696	0.8379911
70	0xbcb1aadb	-0.021687916
71	0x3ee3efac	0.44518793
72	0xbf5c112a	-0.8596369
73	0x3d3bc5b4	0.04584284
74	0xbd95dddc	-0.07317707
75	0xc00ac90f	-2.1685216
76	0xbe9f35fd	-0.31095877
77	0x3efa8a38	0.48933578
78	0xbdbd9ad7	-0.09258049
79	0x3efb6d28	0.49106717

model.layer_3.mainModule.bias f4 [10]
0	0x3fcda212	1.6065085
1	0x401f62e0	2.4904099
2	0x3fced086	1.6157386
3	0x3ffbb25d	1.9663807
4	0x3fb9c531	1.4513303
5	0xc006c71b	-2.1059024
6	0x3fce5a76	1.6121356
7	0x40092aa1	2.1432269
8	0x3fc82e32	1.5639098
9	0x3fcf64c3	1.6202625

model.layer_3.pb.parentModule.weight f4 [10, 8]
0	0x3e5d7230	0.2162559
1	0xbe5baddf	-0.21453045
2	0xbe2b556f	-0.16731809
3	0xbeac65f3	-0.3367153
4	0xbc23f1cb	-0.010006378
5	0x3d9e9738	0.077436864
6	0xbe53c183	-0.20679288
7	0x3e6e5a63	0.23276667
8	0xbe4dde1b	-0.20104258
9	0xbe831462	-0.25601488
10	0x3e063b94	0.13108665
11	0x3c9be450	0.019029766
12	0x3d2d1152	0.042252846
13	0xbe2ba702	-0.16762927
14	0x3ccf4d56	0.025305431
15	0xbe1a31ce	-0.15058061
16	0x3dd30f1c	0.10305616
17	0x3ea865e0	0.32890224
18	0xbe2dd700	-0.16976547
19	0x3d04b0b4	0.03239508
20	0x3db729d2	0.089435235
21	0x3d57ff2d	0.05273359
22	0x3e8029b7	0.25031826
23	0x3e38b1be	0.18036553
24	0x3d79fbf2	0.06103129
25	0xbe03d3c9	-0.12873758
26	0xbe460ca1	-0.19340755
27	0xbd8ce35f	-0.06879305
28	0xbe3edb22	-0.1863828
29	0xbe83b890	-0.25726748
30	0xbe7c4fc3	-0.24639802
31	0x3e8e52a5	0.27797428
32	0xbe00dec0	-0.12584972
33	0xbe9d3075	-0.30701032
34	0x3dfd3d29	0.12365181
35	0x3ba7ea6f	0.005124382
36	0xbd943f75	-0.07238666
37	0x3e9febf2	0.312347
38	0x3e9a7da3	0.30173978
39	0xbe358879	-0.17727841
40	0xbe0cad20	-0.13737917
41	0x3e4b9e11	0.19884516
42	0x3e702834	0.23452836
43	0x3e497078	0.1967181
44	0x3d1e7821	0.038688783
45	0xbd62746a	-0.055286802
46	0xbe82b185	-0.25526062
47	0xbe492a63	-0.19645076
48	0x3eb3b5e7	0.35099718
49	0xbd24f84e	-0.040275864
50	0xbe92ef38	-0.28698134
51	0xbea37c9b	-0.31931004
52	0x3e5dd7e0	0.21664381
53	0xbe227bf4	-0.15867597
54	0x3c98b2a1	0.018639864
55	0xbe5fed5b	-0.21867888
56	0xbbeca724	-0.007222073
57	0xbe787444	-0.24263102
58	0xbe613b74	-0.21995336
59	0x3de35cc4	0.11101678
60	0x3d1ad501	0.037800793
61	0x3eaf19a0	0.34199238
62	0xbd4c132b	-0.049822967
63	0xbe2a17a5	-0.16610582
64	0x3d56c50b	0.05243401
65	0xbe37c726	-0.17947063
66	0x3da884df	0.08228468
67	0xbea66e8b	-0.32506213
68	0xbe021dc4	-0.12706667
69	0x3db1e02c	0.086853355
70	0xbe4b0711	-0.19826914
71	0xbe8e687f	-0.278141
72	0xbe86dc50	-0.2633996
73	0x3e94a1e5	0.29029766
74	0xbea93e74	-0.3305546
75	0xbe61d137	-0.22052465
76	0x3e707265	0.23481138
77	0x3dcae8e1	0.099076994
78	0xbe876f73	-0.26452217
79	0xbdd290ea	-0.102815464

model.layer_3.pb.parentModule.bias f4 [10]
0	0x3e9db3d9	0.30801275
1	0x3d387f60	0.04504335
2	0x3e9181c3	0.28419313
3	0x3e03bee2	0.12865785
4	0x3e82252a	0.2541898
5	0xbe04de36	-0.12975392
6	0xbe13f6ed	-0.14449663
7	0xbe6b6a67	-0.22989808
8	0xbe549edc	-0.20763725
9	0xbe10f32a	-0.1415526

model.layer_3.pb.pbValues.0.topPBCandidateAverage f4 [10]
0	0x00000000	0.0
1	0x00000000	0.0
2	0x00000000	0.0
3	0x00000000	0.0
4	0x00000000	0.0
5	0x00000000	0.0
6	0x00000000	0.0
7	0x00000000	0.0
8	0x00000000	0.0
9	0x00000000	0.0

model.layer_3.pb.pbValues.0.PrevPBCandidateCorrelation f4 [10]
0	0x00000000	0.0
1	0x00000000	0.0
2	0x00000000	0.0
3	0x00000000	0.0
4	0x00000000	0.0
5	0x00000000	0.0
6	0x00000000	0.0
7	0x00000000	0.0
8	0x00000000	0.0
9	0x00000000	0.0

model.layer_3.pb.pbValues.0.currentCorrelationsForParallel f4 [10]
0	0x00000000	0.0
1	0x00000000	0.0
2	0x00000000	0.0
3	0x00000000	0.0
4	0x00000000	0.0
5	0x00000000	0.0
6	0x00000000	0.0
7	0x00000000	0.0
8	0x00000000	0.0
9	0x00000000	0.0

model.layer_3.pb.pbValues.0.bestScore f4 [10]
0	0x00000000	0.0
1	0x00000000	0.0
2	0x00000000	0.0
3	0x00000000	0.0
4	0x00000000	0.0
5	0x00000000	0.0
6	0x00000000	0.0
7	0x00000000	0.0
8	0x00000000	0.0
9	0x00000000	0.0

model.layer_3.pb.pbValues.0.previousBestScore f4 [10]
0	0x00000000	0.0
1	0x00000000	0.0
2	0x00000000	0.0
3	0x00000000	0.0
4	0x00000000	0.0
5	0x00000000	0.0
6	0x00000000	0.0
7	0x00000000	0.0
8	0x00000000	0.0
9	0x00000000	0.0

model.layer_3.pb.pbValues.0.PrevPBCandidateAverage f4 [10]
0	0x00000000	0.0
1	0x00000000	0.0
2	0x00000000	0.0
3	0x00000000	0.0
4	0x00000000	0.0
5	0x00000000	0.0
6	0x00000000	0.0
7	0x00000000	0.0
8	0x00000000	0.0
9	0x00000000	0.0

model.layer_3.pb.pbValues.0.mainGradAverageForScaling f4 [10]
0	0x00000000	0.0
1	0x00000000	0.0
2	0x00000000	0.0
3	0x00000000	0.0
4	0x00000000	0.0
5	0x00000000	0.0
6	0x00000000	0.0
7	0x00000000	0.0
8	0x00000000	0.0
9	0x00000000	0.0

model.layer_3.pb.pbValues.0.candidateGradAverageForScaling f4 [10]
0	0x00000000	0.0
1	0x00000000	0.0
2	0x00000000	0.0
3	0x00000000	0.0
4	0x00000000	0.0
5	0x00000000	0.0
6	0x00000000	0.0
7	0x00000000	0.0
8	0x00000000	0.0
9	0x00000000	0.0

model.layer_3.pb.pbValues.0.indexesOfbest f4 [10]
0	0x00000000	0.0
1	0x00000000	0.0
2	0x00000000	0.0
3	0x00000000	0.0
4	0x00000000	0.0
5	0x00000000	0.0
6	0x00000000	0.0
7	0x00000000	0.0
8	0x00000000	0.0
9	0x00000000	0.0

model.layer_3.pb.pbValues.0.nodesBestImprovedThisEpoch f4 [10]
0	0x00000000	0.0
1	0x00000000	0.0
2	0x00000000	0.0
3	0x00000000	0.0
4	0x00000000	0.0
5	0x00000000	0.0
6	0x00000000	0.0
7	0x00000000	0.0
8	0x00000000	0.0
9	0x00000000	0.0

model.layer_3.pb.pbValues.0.parentsAverageDvector f4 [10]
0	0x00000000	0.0
1	0x00000000	0.0
2	0x00000000	0.0
3	0x00000000	0.0
4	0x00000000	0.0
5	0x00000000	0.0
6	0x00000000	0.0
7	0x00000000	0.0
8	0x00000000	0.0
9	0x00000000	0.0

model.layer_3.pb.pbValues.0.normalPassAverageD f4 [10]
0	0x36d29505	6.275836e-06
1	0xb604e268	-1.9801319e-06
2	0x366e6f1c	3.5529438e-06
3	0x357eb10c	9.488001e-07
4	0x36bcac80	5.6229183e-06
5	0xb3db404a	-1.0209676e-07
6	0xb6899d04	-4.101197e-06
7	0xb69591f0	-4.4575354e-06
8	0xb6f16be5	-7.1949203e-06
9	0x35c0a524	1.4353177e-06

exp_avg f4 [4, 784]
0	0x80000004	-6e-45
1	0x80000004	-6e-45
2	0x80000004	-6e-45
3	0x80000004	-6e-45
4	0x80000004	-6e-45
5	0x80000004	-6e-45
6	0x80000004	-6e-45
7	0x80000004	-6e-45
8	0x80000004	-6e-45
9	0x80000004	-6e-45
10	0x80000004	-6e-45
11	0x80000004	-6e-45
12	0x80000004	-6e-45
13	0x80000004	-6e-45
14	0x80000004	-6e-45
15	0x80000004	-6e-45
16	0x80000004	-6e-45
17	0x80000004	-6e-45
18	0x80000004	-6e-45
19	0x80000004	-6e-45
20	0x80000004	-6e-45
21	0x80000004	-6e-45
22	0x80000004	-6e-45
23	0x80000004	-6e-45
24	0x80000004	-6e-45
25	0x80000004	-6e-45
26	0x80000004	-6e-45
27	0x80000004	-6e-45
28	0x80000004	-6e-45
29	0x80000004	-6e-45
30	0x80000004	-6e-45
31	0x80000004	-6e-45
32	0x80000004	-6e-45
33	0x80000004	-6e-45
34	0x80000004	-6e-45
35	0x80000004	-6e-45
36	0x80000004	-6e-45
37	0x80000004	-6e-45
38	0x80000004	-6e-45
39	0x80000004	-6e-45
40	0x80000004	-6e-45
41	0x80000004	-6e-45
42	0x80000004	-6e-45
43	0x80000004	-6e-45
44	0x80000004	-6e-45
45	0x80000004	-6e-45
46	0x80000004	-6e-45
47	0x80000004	-6e-45
48	0x80000004	-6e-45
49	0x80000004	-6e-45
50	0x80000004	-6e-45
51	0x80000004	-6e-45
52	0x80000004	-6e-45
53	0x80000004	-6e-45
54	0x80000004	-6e-45
55	0x80000004	-6e-45
56	0x80000004	-6e-45
57	0x80000004	-6e-45
58	0x80000004	-6e-45
59	0x80000004	-6e-45
60	0x80000004	-6e-45
61	0x80000004	-6e-45
62	0x80000004	-6e-45
63	0x80000004	-6e-45
64	0x80000004	-6e-45
65	0x80000004	-6e-45
66	0x80000004	-6e-45
67	0x80000004	-6e-45
68	0x80000004	-6e-45
69	0x80000004	-6e-45
70	0x80000004	-6e-45
71	0x80000004	-6e-45
72	0x80000004	-6e-45
73	0x80000004	-6e-45
74	0x80000004	-6e-45
75	0x80000004	-6e-45
76	0x80000004	-6e-45
77	0x80000004	-6e-45
78	0x80000004	-6e-45
79	0x80000004	-6e-45
80	0x80000004	-6e-45
81	0x80000004	-6e-45
82	0x80000004	-6e-45
83	0x80000004	-6e-45
84	0x80000004	-6e-45
85	0x80000004	-6e-45
86	0x80000004	-6e-45
87	0x80000004	-6e-45
88	0x80000004	-6e-45
89	0x80000004	-6e-45
90	0x80000004	-6e-45
91	0x80000004	-6e-45
92	0x80000004	-6e-45
93	0x80000004	-6e-45
94	0x80000004	-6e-45
95	0x80000004	-6e-45
96	0x80000004	-6e-45
97	0x80000004	-6e-45
98	0x80000004	-6e-45
99	0x80000004	-6e-45
100	0x80000004	-6e-45
101	0x80000004	-6e-45
102	0x80000004	-6e-45
103	0x80000004	-6e-45
104	0x80000004	-6e-45
105	0x80000004	-6e-45
106	0x80000004	-6e-45
107	0x80000004	-6e-45
108	0x80000004	-6e-45
109	0x80000004	-6e-45
110	0x80000004	-6e-45
111	0x80000004	-6e-45
112	0x80000004	-6e-45
113	0x80000004	-6e-45
114	0x80000004	-6e-45
115	0x80000004	-6e-45
116	0x80000004	-6e-45
117	0x80000004	-6e-45
118	0x80000004	-6e-45
119	0x80000004	-6e-45
120	0x80000004	-6e-45
121	0x00000004	6e-45
122	0x00000004	6e-45
123	0x00000004	6e-45
124	0x00000004	6e-45
125	0x00000004	6e-45
126	0x00000004	6e-45
127	0x80000004	-6e-45
128	0x80000004	-6e-45
129	0x80000004	-6e-45
130	0x80000004	-6e-45
131	0x80000004	-6e-45
132	0x80000004	-6e-45
133	0x80000004	-6e-45
134	0x80000004	-6e-45
135	0x80000004	-6e-45
136	0x80000004	-6e-45
137	0x80000004	-6e-45
138	0x80000004	-6e-45
139	0x80000004	-6e-45
140	0x80000004	-6e-45
141	0x80000004	-6e-45
142	0x80000004	-6e-45
143	0x80000004	-6e-45
144	0x80000004	-6e-45
145	0x80000004	-6e-45
146	0x80000004	-6e-45
147	0x00000004	6e-45
148	0x00000004	6e-45
149	0x00000004	6e-45
150	0x00000004	6e-45
151	0x00000004	6e-45
152	0x00000004	6e-45
153	0x00000004	6e-45
154	0x00000004	6e-45
155	0x00000004	6e-45
156	0x80000004	-6e-45
157	0x80000004	-6e-45
158	0x80000004	-6e-45
159	0x80000004	-6e-45
160	0x80000004	-6e-45
161	0x80000004	-6e-45
162	0x80000004	-6e-45
163	0x80000004	-6e-45
164	0x80000004	-6e-45
165	0x80000004	-6e-45
166	0x80000004	-6e-45
167	0x80000004	-6e-45
168	0x80000004	-6e-45
169	0x80000004	-6e-45
170	0x80000004	-6e-45
171	0x80000004	-6e-45
172	0x80000004	-6e-45
173	0x80000004	-6e-45
174	0x00000004	6e-45
175	0x00000004	6e-45
176	0x00000004	6e-45
177	0x00000004	6e-45
178	0x00000004	6e-45
179	0x00000004	6e-45
180	0x00000004	6e-45
181	0x00000004	6e-45
182	0x00000004	6e-45
183	0x00000004	6e-45
184	0x00000004	6e-45
185	0x80000004	-6e-45
186	0x80000004	-6e-45
187	0x80000004	-6e-45
188	0x80000004	-6e-45
189	0x80000004	-6e-45
190	0x80000004	-6e-45
191	0x80000004	-6e-45
192	0x80000004	-6e-45
193	0x80000004	-6e-45
194	0x80000004	-6e-45
195	0x80000004	-6e-45
196	0x80000004	-6e-45
197	0x80000004	-6e-45
198	0x80000004	-6e-45
199	0x80000004	-6e-45
200	0x80000004	-6e-45
201	0x00000004	6e-45
202	0x00000004	6e-45
203	0x00000004	6e-45
204	0x00000004	6e-45
205	0x00000004	6e-45
206	0x00000004	6e-45
207	0x80000004	-6e-45
208	0x80000004	-6e-45
209	0x00000004	6e-45
210	0x00000004	6e-45
211	0x00000004	6e-45
212	0x00000004	6e-45
213	0x80000004	-6e-45
214	0x80000004	-6e-45
215	0x80000004	-6e-45
216	0x80000004	-6e-45
217	0x80000004	-6e-45
218	0x80000004	-6e-45
219	0x80000004	-6e-45
220	0x80000004	-6e-45
221	0x80000004	-6e-45
222	0x80000004	-6e-45
223	0x80000004	-6e-45
224	0x80000004	-6e-45
225	0x80000004	-6e-45
226	0x80000004	-6e-45
227	0x80000004	-6e-45
228	0x80000004	-6e-45
229	0x00000004	6e-45
230	0x00000004	6e-45
231	0x00000004	6e-45
232	0x00000004	6e-45
233	0x80000004	-6e-45
234	0x80000004	-6e-45
235	0x80000004	-6e-45
236	0x80000004	-6e-45
237	0x80000004	-6e-45
238	0x00000004	6e-45
239	0x00000004	6e-45
240	0x00000004	6e-45
241	0x80000004	-6e-45
242	0x80000004	-6e-45
243	0x80000004	-6e-45
244	0x80000004	-6e-45
245	0x80000004	-6e-45
246	0x80000004	-6e-45
247	0x80000004	-6e-45
248	0x80000004	-6e-45
249	0x80000004	-6e-45
250	0x80000004	-6e-45
251	0x80000004	-6e-45
252	0x80000004	-6e-45
253	0x80000004	-6e-45
254	0x80000004	-6e-45
255	0x80000004	-6e-45

exp_avg_sq f4 [4, 784]
0	0x0b4dbd47	3.962396e-32
1	0x0b4dbd47	3.962396e-32
2	0x0b4dbd47	3.962396e-32
3	0x0b4dbd47	3.962396e-32
4	0x0b4dbd47	3.962396e-32
5	0x0b4dbd47	3.962396e-32
6	0x0b4dbd47	3.962396e-32
7	0x0b4dbd47	3.962396e-32
8	0x0b4dbd47	3.962396e-32
9	0x0b4dbd47	3.962396e-32
10	0x0b4dbd47	3.962396e-32
11	0x0b4dbd47	3.962396e-32
12	0x0b4dbd47	3.962396e-32
13	0x0b4dbd47	3.962396e-32
14	0x0b4dbd47	3.962396e-32
15	0x0b4dbd47	3.962396e-32
16	0x0b4dbd47	3.962396e-32
17	0x0b4dbd47	3.962396e-32
18	0x0b4dbd47	3.962396e-32
19	0x0b4dbd47	3.962396e-32
20	0x0b4dbd47	3.962396e-32
21	0x0b4dbd47	3.962396e-32
22	0x0b4dbd47	3.962396e-32
23	0x0b4dbd47	3.962396e-32
24	0x0b4dbd47	3.962396e-32
25	0x0b4dbd47	3.962396e-32
26	0x0b4dbd47	3.962396e-32
27	0x0b4dbd47	3.962396e-32
28	0x0b4dbd47	3.962396e-32
29	0x0b4dbd47	3.962396e-32
30	0x0b4dbd47	3.962396e-32
31	0x0b4dbd47	3.962396e-32
32	0x0b4dbd47	3.962396e-32
33	0x0b4dbd47	3.962396e-32
34	0x0b4dbd47	3.962396e-32
35	0x0b4dbd47	3.962396e-32
36	0x0b4dbd47	3.962396e-32
37	0x0b4dbd47	3.962396e-32
38	0x0b4dbd47	3.962396e-32
39	0x0b4dbd47	3.962396e-32
40	0x0b4dbd47	3.962396e-32
41	0x0b4dbd47	3.962396e-32
42	0x0b4dbd47	3.962396e-32
43	0x0b4dbd47	3.962396e-32
44	0x0b4dbd47	3.962396e-32
45	0x0b4dbd47	3.962396e-32
46	0x0b4dbd47	3.962396e-32
47	0x0b4dbd47	3.962396e-32
48	0x0b4dbd47	3.962396e-32
49	0x0b4dbd47	3.962396e-32
50	0x0b4dbd47	3.962396e-32
51	0x0b4dbd47	3.962396e-32
52	0x0b4dbd47	3.962396e-32
53	0x0b4dbd47	3.962396e-32
54	0x0b4dbd47	3.962396e-32
55	0x0b4dbd47	3.962396e-32
56	0x0b4dbd47	3.962396e-32
57	0x0b4dbd47	3.962396e-32
58	0x0b4dbd47	3.962396e-32
59	0x0b4dbd47	3.962396e-32
60	0x0b4dbd47	3.962396e-32
61	0x0b4dbd47	3.962396e-32
62	0x0b4dbd47	3.962396e-32
63	0x0b4dbd47	3.962396e-32
64	0x0b4dbd47	3.962396e-32
65	0x0b4dbd47	3.962396e-32
66	0x0b4dbd47	3.962396e-32
67	0x0b4dbd47	3.962396e-32
68	0x0b4dbd47	3.962396e-32
69	0x0ab440c7	1.7357736e-32
70	0x09bfce4f	4.617559e-33
71	0x0abf15d2	1.8400839e-32
72	0x0b4dbd47	3.962396e-32
73	0x0b4dbd47	3.962396e-32
74	0x0b4dbd47	3.962396e-32
75	0x0b4dbd47	3.962396e-32
76	0x0b4dbd47	3.962396e-32
77	0x0b4dbd47	3.962396e-32
78	0x0b4dbd47	3.962396e-32
79	0x0b4dbd47	3.962396e-32
80	0x0b4dbd47	3.962396e-32
81	0x0b4dbd47	3.962396e-32
82	0x0b4dbd47	3.962396e-32
83	0x0b4dbd47	3.962396e-32
84	0x0b4dbd47	3.962396e-32
85	0x0b4dbd47	3.962396e-32
86	0x0b4dbd47	3.962396e-32
87	0x0b4dbd47	3.962396e-32
88	0x0b4dbd47	3.962396e-32
89	0x0b4dbd47	3.962396e-32
90	0x0b4dbd47	3.962396e-32
91	0x0b4dbd47	3.962396e-32
92	0x0b4dbd47	3.962396e-32
93	0x0b4dbd47	3.962396e-32
94	0x0b4dbd47	3.962396e-32
95	0x0b55f253	4.1204612e-32
96	0x0b00d40e	2.4811436e-32
97	0x0a367220	8.784446e-33
98	0x09fdd159	6.1104404e-33
99	0x094ff417	2.503149e-33
100	0x0a2ce49d	8.324496e-33
101	0x0b661693	4.4313372e-32
102	0x0bdec9e3	8.5815055e-32
103	0x0ab99b66	1.7873306e-32
104	0x0ab68f59	1.7579884e-32
105	0x0b4dbd47	3.962396e-32
106	0x0b4dbd47	3.962396e-32
107	0x0b4dbd47	3.962396e-32
108	0x0b4dbd47	3.962396e-32
109	0x0b4dbd47	3.962396e-32
110	0x0b4dbd47	3.962396e-32
111	0x0b4dbd47	3.962396e-32
112	0x0b4dbd47	3.962396e-32
113	0x0b4dbd47	3.962396e-32
114	0x0b4dbd47	3.962396e-32
115	0x0b4dbd47	3.962396e-32
116	0x0b4dbd47	3.962396e-32
117	0x0b4dbd47	3.962396e-32
118	0x0b4dbd47	3.962396e-32
119	0x0bb1fd65	6.8559186e-32
120	0x0c24b489	1.2688428e-31
121	0x0c91c559	2.2459562e-31
122	0x0d858667	8.229114e-31
123	0x0d9825aa	9.376791e-31
124	0x0d161f24	4.6259803e-31
125	0x0c9bd55f	2.400995e-31
126	0x0bb612d0	7.0132156e-32
127	0x091e844c	1.9080764e-33
128	0x0c5b7067	1.6904971e-31
129	0x0d0e099d	4.37687e-31
130	0x0c39de2f	1.4318743e-31
131	0x0a7037be	1.15660636e-32
132	0x0c798caf	1.9224598e-31
133	0x0c18bed9	1.1767085e-31
134	0x0bf67a57	9.493983e-32
135	0x0adf51d2	2.1504896e-32
136	0x0b4dbd47	3.962396e-32
137	0x0b4dbd47	3.962396e-32
138	0x0b4dbd47	3.962396e-32
139	0x0b4dbd47	3.962396e-32
140	0x0b4dbd47	3.962396e-32
141	0x0b4dbd47	3.962396e-32
142	0x0b4dbd47	3.962396e-32
143	0x0b4dbd47	3.962396e-32
144	0x0b4dbd47	3.962396e-32
145	0x0b4dbd47	3.962396e-32
146	0x0bdbd482	8.467548e-32
147	0x0c11773a	1.1206272e-31
148	0x0c2b4f54	1.3197233e-31
149	0x0c99c923	2.3694437e-31
150	0x0d51fa73	6.4704565e-31
151	0x0d94e5b0	9.1764995e-31
152	0x0d83ad1f	8.115176e-31
153	0x0bd7c14a	8.3105817e-32
154	0x0b4c7340	3.9375675e-32
155	0x0c69be12	1.8006864e-31
156	0x0bb45837	6.946621e-32
157	0x0c2e9d3a	1.3451786e-31
158	0x0ce9e3e4	3.603649e-31
159	0x0b90c144	5.5757576e-32
160	0x0c950125	2.2957774e-31
161	0x0c11a243	1.1219223e-31
162	0x09830fee	3.1552083e-33
163	0x0bf4bf2a	9.4273013e-32
164	0x0b9c36dc	6.017156e-32
165	0x0b4dbd47	3.962396e-32
166	0x0b4dbd47	3.962396e-32
167	0x0b4dbd47	3.962396e-32
168	0x0b4dbd47	3.962396e-32
169	0x0b4dbd47	3.962396e-32
170	0x0b4dbd47	3.962396e-32
171	0x0b4dbd47	3.962396e-32
172	0x0b4dbd47	3.962396e-32
173	0x0b4bb066	3.9229085e-32
174	0x0bf47a7c	9.4169675e-32
175	0x0c4a33ba	1.557708e-31
176	0x0c1116ac	1.1177216e-31
177	0x0d64661b	7.038083e-31
178	0x0d9e7e8c	9.767967e-31
179	0x0d3aa1af	5.7510295e-31
180	0x0b20d262	3.0973154e-32
181	0x0bdad2cb	8.428771e-32
182	0x0c38d2df	1.4238301e-31
183	0x0d026f1a	4.0193076e-31
184	0x0bbe7097	7.3354744e-32
185	0x0a57cc8d	1.0390345e-32
186	0x0cab3600	2.6379222e-31
187	0x0d294c4a	5.2168975e-31
188	0x0aca4544	1.9477947e-32
189	0x08899a47	8.281658e-34
190	0x0b1ad0d8	2.9816438e-32
191	0x0ce0acb3	3.4616604e-31
192	0x0c49b3f5	1.5538631e-31
193	0x0b4dbd47	3.962396e-32
194	0x0b4dbd47	3.962396e-32
195	0x0b4dbd47	3.962396e-32
196	0x0b4dbd47	3.962396e-32
197	0x0b4dbd47	3.962396e-32
198	0x0b4dbd47	3.962396e-32
199	0x0b4dbd47	3.962396e-32
200	0x0b4dbd47	3.962396e-32
201	0x0b4f49f5	3.992239e-32
202	0x0c17a4c0	1.1682195e-31
203	0x0bb3fb2a	6.93262e-32
204	0x0bac002f	6.6252266e-32
205	0x0d06f4db	4.158667e-31
206	0x0cc04519	2.962387e-31
207	0x09573429	2.590421e-33
208	0x0c3b8179	1.4444918e-31
209	0x0d5a3d6a	6.725036e-31
210	0x0db8d327	1.1390709e-30
211	0x0dce5f91	1.2718737e-30
212	0x0dce6d97	1.2722113e-30
213	0x0dab3679	1.05518025e-30
214	0x0e20e859	1.9833394e-30
215	0x0e34b11f	2.2271994e-30
216	0x0dbcddfe	1.1639837e-30
217	0x0c4d4461	1.5813203e-31
218	0x0b57c427	4.1555062e-32
219	0x0d1bf460	4.805722e-31
220	0x0cc2017f	2.9891333e-31
221	0x0b4dbd47	3.962396e-32
222	0x0b4dbd47	3.962396e-32
223	0x0b4dbd47	3.962396e-32
224	0x0b4dbd47	3.962396e-32
225	0x0b4dbd47	3.962396e-32
226	0x0b4dbd47	3.962396e-32
227	0x0b4909ae	3.8718474e-32
228	0x0ad86156	2.0836657e-32
229	0x0b7e1b23	4.8939036e-32
230	0x0baf1d4d	6.7451635e-32
231	0x0b5f6fd7	4.3032377e-32
232	0x0b6515e7	4.4120273e-32
233	0x0c55fcd1	1.6485002e-31
234	0x0b3520a9	3.4883903e-32
235	0x0c430f07	1.5026776e-31
236	0x0db0ac41	1.0888306e-30
237	0x0e822ad3	3.2088712e-30
238	0x0ebd4c39	4.6665497e-30
239	0x0e9e3939	3.900511e-30
240	0x0e8f8558	3.5380627e-30
241	0x0e31a64f	2.189701e-30
242	0x0ee04d01	5.5294415e-30
243	0x0ee31a82	5.5985347e-30
244	0x0ea3c8c5	4.0375936e-30
245	0x0d6a49ea	7.219579e-31
246	0x09bdfa11	4.5735256e-33
247	0x0ce9ed4d	3.6042154e-31
248	0x0c0c5e1e	1.081353e-31
249	0x0b4dbd47	3.962396e-32
250	0x0b4dbd47	3.962396e-32
251	0x0b4dbd47	3.962396e-32
252	0x0b4dbd47	3.962396e-32
253	0x0b4dbd47	3.962396e-32
254	0x0b4dbd47	3.962396e-32
255	0x0b1d128a	3.0251047e-32

exp_avg f4 [4]
0	0x00000004	6e-45
1	0x00000004	6e-45
2	0x00000004	6e-45
3	0x00000004	6e-45

exp_avg_sq f4 [4]
0	0x0c8ee84a	2.2018368e-31
1	0x0e03f01d	1.6262607e-30
2	0x10e3ff32	8.9928903e-29
3	0x0c97865e	2.3346103e-31

exp_avg f4 [8, 4]
0	0x00000004	6e-45
1	0x00000004	6e-45
2	0x00000004	6e-45
3	0x80000004	-6e-45
4	0x80000004	-6e-45
5	0x80000004	-6e-45
6	0x00000004	6e-45
7	0x80000004	-6e-45
8	0x00000004	6e-45
9	0x00000004	6e-45
10	0x00000004	6e-45
11	0x00000004	6e-45
12	0x80000004	-6e-45
13	0x00000000	0.0
14	0x00000000	0.0
15	0x00000000	0.0
16	0x00000004	6e-45
17	0x80000004	-6e-45
18	0x00000004	6e-45
19	0x00000004	6e-45
20	0x00000004	6e-45
21	0x80000004	-6e-45
22	0x00000004	6e-45
23	0x00000004	6e-45
24	0x00000004	6e-45
25	0x80000004	-6e-45
26	0x00000004	6e-45
27	0x00000004	6e-45
28	0x00000004	6e-45
29	0x00000004	6e-45
30	0x00000004	6e-45
31	0x80000004	-6e-45

exp_avg_sq f4 [8, 4]
0	0x0d9c9a32	9.651363e-31
1	0x0b9e3f03	6.0954196e-32
2	0x0a30cca2	8.512579e-33
3	0x09db2d8e	5.276517e-33
4	0x0cba92c8	2.8746178e-31
5	0x129f9ac4	1.0072463e-27
6	0x0fda97f4	2.155499e-29
7	0x0acbe561	1.9634472e-32
8	0x0c5d865d	1.7065654e-31
9	0x115b0714	1.7278235e-28
10	0x0b8841c2	5.2484236e-32
11	0x0a11eed5	7.026415e-33
12	0x0accd668	1.9725136e-32
13	0x00000000	0.0
14	0x00000000	0.0
15	0x00000000	0.0
16	0x0c6c245c	1.819172e-31
17	0x0994ea78	3.5850197e-33
18	0x0c808402	1.9800972e-31
19	0x0abcee83	1.819346e-32
20	0x0c0401e2	1.0169477e-31
21	0x121d077d	4.9549695e-28
22	0x0aa040cb	1.5431812e-32
23	0x0bb682e6	7.0300804e-32
24	0x0aae2a77	1.6771564e-32
25	0x129a3484	9.731712e-28
26	0x0f4eb3f3	1.0191241e-29
27	0x0a387463	8.881168e-33
28	0x0d307b9e	5.4382986e-31
29	0x12ab9c03	1.0830077e-27
30	0x1090b595	5.7077757e-29
31	0x0c614345	1.7353613e-31

exp_avg f4 [8]
0	0x00000004	6e-45
1	0x00000004	6e-45
2	0x00000004	6e-45
3	0x00000004	6e-45
4	0x00000004	6e-45
5	0x00000004	6e-45
6	0x00000004	6e-45
7	0x00000004	6e-45

exp_avg_sq f4 [8]
0	0x11c9cd83	3.1838865e-28
1	0x0fc758dd	1.9657144e-29
2	0x0e0c0d6b	1.7262793e-30
3	0x106ce761	4.672104e-29
4	0x0bc42acc	7.556085e-32
5	0x11221b74	1.2788006e-28
6	0x0fbecffa	1.8815556e-29
7	0x1010de1a	2.8570093e-29

exp_avg f4 [10, 8]
0	0x80000004	-6e-45
1	0x00000004	6e-45
2	0x80000004	-6e-45
3	0x80000004	-6e-45
4	0x80000004	-6e-45
5	0x80000004	-6e-45
6	0x80000004	-6e-45
7	0x80000004	-6e-45
8	0x80000004	-6e-45
9	0x00000004	6e-45
10	0x00000004	6e-45
11	0x80000004	-6e-45
12	0x80000004	-6e-45
13	0x80000004	-6e-45
14	0x80000004	-6e-45
15	0x80000004	-6e-45
16	0x80000004	-6e-45
17	0x80000004	-6e-45
18	0x80000004	-6e-45
19	0x00000004	6e-45
20	0x80000004	-6e-45
21	0x80000004	-6e-45
22	0x80000004	-6e-45
23	0x80000004	-6e-45
24	0x80000004	-6e-45
25	0x80000004	-6e-45
26	0x00000004	6e-45
27	0x80000004	-6e-45
28	0x80000004	-6e-45
29	0x80000004	-6e-45
30	0x80000004	-6e-45
31	0x80000004	-6e-45
32	0x80000004	-6e-45
33	0x00000004	6e-45
34	0x00000004	6e-45
35	0x00000004	6e-45
36	0x80000004	-6e-45
37	0x80000004	-6e-45
38	0x00000004	6e-45
39	0x80000004	-6e-45
40	0x80000004	-6e-45
41	0x80000004	-6e-45
42	0x00000004	6e-45
43	0x00000004	6e-45
44	0x80000004	-6e-45
45	0x80000004	-6e-45
46	0x80000004	-6e-45
47	0x80000004	-6e-45
48	0x80000004	-6e-45
49	0x00000004	6e-45
50	0x80000004	-6e-45
51	0x80000004	-6e-45
52	0x80000004	-6e-45
53	0x80000004	-6e-45
54	0x80000004	-6e-45
55	0x80000004	-6e-45
56	0x80000004	-6e-45
57	0x80000004	-6e-45
58	0x80000004	-6e-45
59	0x80000004	-6e-45
60	0x80000004	-6e-45
61	0x80000004	-6e-45
62	0x80000004	-6e-45
63	0x80000004	-6e-45
64	0x00000004	6e-45
65	0x80000004	-6e-45
66	0x80000004	-6e-45
67	0x80000004	-6e-45
68	0x00000004	6e-45
69	0x00000004	6e-45
70	0x80000004	-6e-45
71	0x00000004	6e-45
72	0x80000004	-6e-45
73	0x80000004	-6e-45
74	0x80000004	-6e-45
75	0x00000004	6e-45
76	0x80000004	-6e-45
77	0x80000004	-6e-45
78	0x80000004	-6e-45
79	0x80000004	-6e-45

exp_avg_sq f4 [10, 8]
0	0x112125e2	1.2712334e-28
1	0x0daf4160	1.0800946e-30
2	0x0f0a6a6f	6.824424e-30
3	0x0c9c0c48	2.4042997e-31
4	0x0b39543b	3.5693072e-32
5	0x0fe53b63	2.2604018e-29
6	0x0e91a5c4	3.5904886e-30
7	0x1056d344	4.2366812e-29
8	0x107e4756	5.0147623e-29
9	0x0e9ac148	3.8150054e-30
10	0x0d157ab6	4.606188e-31
11	0x0d52ca73	6.4954936e-31
12	0x0aa35c60	1.5731077e-32
13	0x0d17f929	4.6830383e-31
14	0x0ebde0f5	4.6808723e-30
15	0x0d3a170e	5.7343426e-31
16	0x0fb44da0	1.777927e-29
17	0x11684000	1.8321295e-28
18	0x124e388e	6.507185e-28
19	0x086057f5	6.751094e-34
20	0x0a864140	1.2928275e-32
21	0x12f279da	1.5302386e-27
22	0x122314d9	5.145943e-28
23	0x137718ff	3.1188107e-27
24	0x10911508	5.722482e-29
25	0x10a9387b	6.674577e-29
26	0x1285106b	8.397527e-28
27	0x0c51d2a1	1.6164158e-31
28	0x0d20c8dd	4.9545587e-31
29	0x131ed132	2.0045545e-27
30	0x1203a974	4.154518e-28
31	0x13a273c2	4.1008695e-27
32	0x0f1ba644	7.6741116e-30
33	0x10da980b	8.62201e-29
34	0x0d1fb2af	4.921074e-31
35	0x0d1eb4e8	4.8905267e-31
36	0x0c8a8559	2.1342522e-31
37	0x0e2fe233	2.1679326e-30
38	0x113b4a24	1.4774545e-28
39	0x0f334f63	8.840671e-30
40	0x100d42fc	2.785895e-29
41	0x0b139069	2.8419812e-32
42	0x0c684b65	1.7895318e-31
43	0x0b491ba8	3.8731998e-32
44	0x0b308c04	3.4001703e-32
45	0x0ddcb7e4	1.3602817e-30
46	0x0b94ce78	5.7318186e-32
47	0x0df119c0	1.4858971e-30
48	0x103b0003	3.6879256e-29
49	0x0a8a8f28	1.3342766e-32
50	0x0a6cf98d	1.1409922e-32
51	0x0c5619a5	1.6493677e-31
52	0x0b3278bb	3.437238e-32
53	0x0e3629e8	2.245341e-30
54	0x0b07a9a5	2.612768e-32
55	0x0e78c74a	3.0664314e-30
56	0x103e5e16	3.7543374e-29
57	0x0ef48a96	6.0284097e-30
58	0x0e160f02	1.8496153e-30
59	0x0c9b7e41	2.3957518e-31
60	0x09e1e0b9	5.4378108e-33
61	0x0fa3f421	1.6167076e-29
62	0x0f2865bd	8.3026336e-30
63	0x100ee9f8	2.8184805e-29
64	0x10e1b686	8.9028074e-29
65	0x0f5268f0	1.03740096e-29
66	0x0ecb7b8c	5.0162335e-30
67	0x0d321164	5.487142e-31
68	0x0bb1e75e	6.852604e-32
69	0x0fbb0300	1.8440779e-29
70	0x0f858b23	1.3168406e-29
71	0x103ea321	3.7596563e-29
72	0x0f8f1650	1.4109483e-29
73	0x0d1fdd9f	4.9262424e-31
74	0x0e93f8d9	3.647793e-30
75	0x0dc05ea1	1.1855695e-30
76	0x0a3ff861	9.24303e-33
77	0x0f4961fc	9.928936e-30
78	0x0e26dd3c	2.05676e-30
79	0x0fb83c58	1.8167044e-29

exp_avg f4 [10]
0	0x3a92cf79	0.0011200748
1	0xbb86e295	-0.004116366
2	0x3907324c	0.0001289334
3	0x3af1f698	0.0018460331
4	0x3ab80176	0.0014038521
5	0x372bcd67	1.0240218e-05
6	0xba458efd	-0.00075362605
7	0x3ac647cb	0.0015127597
8	0xbab66d79	-0.0013918123
9	0x397b9001	0.00023990871

exp_avg_sq f4 [10]
0	0x3743b0b1	1.1664045e-05
1	0x38755d1b	5.8499263e-05
2	0x373b6381	1.1169236e-05
3	0x37c02216	2.2904056e-05
4	0x370d4e6b	8.422513e-06
5	0x31fbe362	7.330912e-09
6	0x372f4a7b	1.0448154e-05
7	0x38074f5f	3.226043e-05
8	0x3723c0a0	9.760406e-06
9	0x3744d9ec	1.1733249e-05
