libraryExamples/mnist_lightning/.mnist_{epoch}-{val_loss:.2f}/epoch=0-step=860-v2.ckpt (torch, 102686 bytes, 60 tensors)

model.layer_1.mainModule.weight f4 [4, 784]
000000 f4 b5 49 bd 64 62 87 bd 75 c9 89 bd e9 ac 8d bc
       -0.04924579 -0.066105634 -0.06727878 -0.017294364
000010 68 3d de bc d1 90 52 bc bb 4f 38 bd 6f 67 85 bd
       -0.02712889 -0.01285191 -0.044997912 -0.06513869
000020 3a a5 56 bb f7 0b ca bc ce 73 da bc 9d 7b 5d bd
       -0.0032752291 -0.024663908 -0.026666548 -0.054072965
000030 de dc 47 bd fa 82 14 bd b7 76 35 39 cc 6c 6e bd
       -0.04879462 -0.03625772 0.0001730573 -0.058209226
000040 e5 9b 6f bd 6f 00 80 bd 9a ac d7 bc f3 a7 4a bd
       -0.058498282 -0.06250083 -0.02632742 -0.049476575
000050 6d 62 63 bd 43 87 d7 bc 04 aa 8b bb cb d2 06 bd
       -0.055513788 -0.026309615 -0.004262211 -0.03291587
000060 7f 0f e0 bb 10 57 ca bc 34 b4 82 bd 77 62 e0 bc
       -0.006837785 -0.024699718 -0.06382027 -0.027390702
000070 09 c7 12 bd 57 73 81 bd c8 72 61 bd e5 dc a5 bc
       -0.035834346 -0.063208275 -0.055041105 -0.020246932
000080 ce 18 87 bd 3c 04 22 bd 83 b3 86 bd 7b ec 34 bd
       -0.06596528 -0.03955482 -0.06577208 -0.044170838
000090 aa 27 fb bb f5 6e e1 bc c1 70 5a bd 28 ba 51 bd
       -0.0076646404 -0.027518729 -0.053330187 -0.051202923
0000a0 d7 d2 2d bd 84 e7 80 bd 3b 63 46 bd 5f 9d 5a bd
       -0.0424374 -0.06294158 -0.048434477 -0.053372737
0000b0 4a 4e 7d bc 5e 3d 85 bd 2e 14 d5 bc f3 be 80 bd
       -0.01546056 -0.065058455 -0.026010599 -0.06286421
0000c0 1f 67 85 bc 0a 4b 1d bd 4e db 67 bc 80 59 9c bb
       -0.016284524 -0.03840164 -0.014151407 -0.0047714114
0000d0 6a c8 6c bb bb ec 53 bc 16 82 81 bc 8f 76 e4 bc
       -0.0036130198 -0.012934859 -0.0158091 -0.027888564
0000e0 53 0e 26 bd 1b 34 66 bd b5 4f f9 bc ca f8 b8 3a
       -0.040541004 -0.056202035 -0.030433515 0.0014112231
0000f0 60 bb 45 bd 27 ea 8e bd ea eb 92 bd d4 fd 12 bd
       -0.048274398 -0.06978255 -0.07173903 -0.0358866
000100 14 65 f5 bc 59 d6 64 3b b9 15 20 bd 74 7b 97 bd
       -0.029955424 0.00349178 -0.039083216 -0.07396594
000110 46 bd a0 bd 1d 62 92 bd 54 69 4b bd 3c ff 9d bc
       -0.07848601 -0.0714762 -0.049660996 -0.019286744
000120 37 e6 85 bd ef 64 bd bc da c6 20 3a 80 45 7c bc
       -0.065380506 -0.023119418 0.0006133147 -0.0153974295
000130 ad 15 5e 3c 8e 6e bc 3a 6e de 3c bd d4 f9 80 bd
       0.013554973 0.001437621 -0.046110563 -0.06297651
000140 1e 0d 2f bd 3a 78 8e bd 0f 41 9a ba 56 c2 1c bc
       -0.04273712 -0.06956525 -0.0011768657 -0.009567818
000150 90 05 51 bd 99 39 1d bd 0b e0 5f bd 77 08 5b bd
       -0.051030695 -0.038385008 -0.054657023 -0.05347487
000160 05 1b 6c bd 63 39 34 bd ec c6 31 bb 5c 9c 83 bc
       -0.057642955 -0.04400004 -0.0027126623 -0.016065769
000170 2a 24 a5 3c 0f c4 0c 3d cf 8a 5d 3d da 9f dd 3d
       0.020158846 0.034366664 0.054087456 0.10821505
000180 16 6c 3d 3d 6b bf 97 3d 7e c6 e6 3d dc dd 1a 3e
       0.046245657 0.07409557 0.11268328 0.15123695
000190 3a f4 fd 3d 78 f1 ac 3d c2 23 b7 3d df 6d f3 3d
       0.12400098 0.08444494 0.08942367 0.118861906
0001a0 c4 da 78 3d f4 c8 89 3c 25 1d a9 3c 53 11 00 bd
       0.060755506 0.016819455 0.02064378 -0.03126652
0001b0 b3 b6 80 bd 42 c6 27 bb a2 46 53 bd de a8 82 bc
       -0.06284847 -0.0025600349 -0.051581033 -0.015949663
0001c0 35 4a 92 bb 6e 1c 1e bd ec bf 8c bd a3 36 81 bd
       -0.0044644126 -0.03860133 -0.06872544 -0.06309249
0001d0 9f 80 f9 bc 67 35 34 bd db b1 01 3c 31 71 c9 3c
       -0.03045684 -0.04399624 0.007915939 0.024590107
0001e0 c3 fa b3 3c 6e 22 a4 3d 6d ba d5 3c 9d 8d c5 3d
       0.021970158 0.080143794 0.026089871 0.09646151
0001f0 df 49 87 3d d1 44 d4 3d 3d 01 0b 3e 70 0b f2 3d
       0.06605887 0.10364688 0.13574691 0.11818588
000200 61 2a 30 3e 2e ac 1f 3e 03 9b e2 3d 5d 63 9a 3d
       0.17203666 0.15593025 0.110647224 0.07538483
000210 5e 71 95 3d f1 82 16 3d 0e 1e 55 3d 54 ab f1 3c
       0.07297014 0.03674597 0.052030616 0.02950064
000220 9d 43 24 bd c1 c3 50 bd 0f 2f cb bc f2 c5 86 3a
       -0.040103544 -0.050967935 -0.024802713 0.0010282381
000230 74 98 ed bc 15 03 f8 bb 4c c5 01 bd 78 0c b2 bc
       -0.02900336 -0.007568727 -0.031682298 -0.021734461
000240 9f 48 1f bc 56 1a ff bb 96 97 17 ba 6e f2 dd 3a
       -0.009721904 -0.007785122 -0.0005782781 0.0016933212
000250 27 11 63 bc 87 aa 1a 3c 5c b4 62 3b 80 b3 38 bd
       -0.01385907 0.009440071 0.0034592366 -0.04509306
000260 aa 17 d8 bc 21 a3 97 bd 14 f2 80 bd 62 19 8c bc
       -0.026378471 -0.07404161 -0.06296173 -0.017101947
000270 d1 b8 8a bd df eb 15 bc d9 61 e4 bc 28 d6 5c 3c
       -0.06773532 -0.009150474 -0.027878689 0.013478793
000280 a1 8d 2c bc b7 bc ae bc 77 a9 c1 bc 0a 5a 95 3c
       -0.010531814 -0.02133022 -0.023640377 0.01823141
000290 98 72 25 bd 06 0b a5 bd f7 36 97 bd 13 50 7c bb
       -0.04039249 -0.08058743 -0.073835306 -0.0038499876
0002a0 79 62 9a bc 56 68 0a 3a 6c df f2 b9 47 af dd bc
       -0.018845784 0.00052798295 -0.000463243 -0.027061118
0002b0 90 38 0e bd 39 72 02 bd 8c cf 76 bd c5 4c df bd
       -0.03472191 -0.031847212 -0.060256526 -0.109033145
0002c0 6b 42 96 bd 30 88 8d bd f6 dc bf bc d3 de 52 bd
       -0.07336887 -0.06910741 -0.023420792 -0.051482033
0002d0 70 93 a6 bd 84 20 98 bc c5 1d 63 bb f7 d0 5a 3d
       -0.0813359 -0.018570192 -0.0034655195 0.05342194
0002e0 21 f9 0f 3d 35 bf ef 3c da de 7e 3c f5 47 cc bb
       0.035149697 0.02926598 0.015556062 -0.006234164
0002f0 23 12 26 bb 1f 16 f6 bc e3 95 49 bd 66 3d 89 bd
       -0.00253404 -0.030039845 -0.04921521 -0.06701164
000300 aa 46 9f bd c3 39 ba bd 7c 02 b4 bd 2e 1a 2f bd
       -0.0777715 -0.090930484 -0.08789536 -0.042749576
000310 74 0e 10 bd a4 95 a9 39 7d e8 3b bd 2f fb 17 bd
       -0.035170034 0.00032345683 -0.045876015 -0.03710478
000320 b8 2b c5 bd 08 1a ed bd bb 83 36 be 8c 23 46 be
       -0.09627479 -0.11577231 -0.17823689 -0.19349498
000330 79 ac e8 bd ff e2 a4 bd f4 8b 5d bd 27 78 9c bd
       -0.113610215 -0.080511086 -0.054088548 -0.07640105
000340 9b ab 9d bc 8a a1 ef 3b 83 a0 a3 3d 2b e0 cb 3d
       -0.019246867 0.007312958 0.079895996 0.09954866
000350 ff cd 90 3d fa 41 18 3d cb 2d a6 bc 4b d7 0d bd
       0.07070541 0.037172295 -0.020285508 -0.034629147
000360 eb e0 f7 bc 80 eb 8e bd b2 2e 18 bd 9b c7 b8 bd
       -0.030258616 -0.06978512 -0.037153907 -0.09022447
000370 8d cf 3e be 1c b1 16 be 13 a0 78 bd 9a 98 45 bd
       -0.18633862 -0.14716 -0.060699534 -0.048241235
000380 1d 73 51 bd e8 98 85 bd 13 a0 3f bd 0e 11 95 bd
       -0.05113517 -0.06523305 -0.046783518 -0.072786435
000390 a9 91 15 be 6f 2a 45 be b4 fd 2b be 33 f3 29 be
       -0.14606346 -0.19254468 -0.16795999 -0.1659668
0003a0 4f 1e 0b be 3c f5 3a bd 0b 53 75 bd 84 b5 44 bd
       -0.1358578 -0.04564403 -0.05989365 -0.04802467
0003b0 dc 0e 8b bd 71 ad 28 bb 88 8f 94 bc 8c 15 85 bc
       -0.067899436 -0.0025738145 -0.018134847 -0.016245626
0003c0 fc cf b4 bd 7c 76 b8 bd be 68 db bd 8b b5 cb bd
       -0.08828732 -0.09006974 -0.10713337 -0.09946736
0003d0 2d c3 82 bd 4e 85 85 bd ef ae a2 bd 6c e6 26 be
       -0.06384883 -0.065195665 -0.07943522 -0.16298836
0003e0 bd 51 42 be 48 8c 14 be 84 d6 dd bd 1d ae 1b bd
       -0.18976493 -0.14506638 -0.10831931 -0.038007844
0003f0 fb 67 78 bd 58 5d 88 bd 9f 3c b4 bc fa 71 c5 bd
       -0.06064604 -0.06658429 -0.022001563 -0.0964088

model.layer_1.mainModule.bias f4 [4]
000000 37 bd 52 3d c9 ae 7a bc 5d 11 94 3d d8 62 a6 3c
       0.05144998 -0.015300461 0.07229874 0.020310804

model.layer_1.pb.parentModule.weight f4 [4, 784]
000000 e1 2e 7d bc 7f 5a 04 bd 9d 28 09 bd 87 27 87 3c
       -0.015453071 -0.032312866 -0.033485997 0.01649834
000010 25 5c da 3b 0c 8c ab 3c 0a 96 37 bc 95 64 00 bd
       0.0066638165 0.020940803 -0.011205206 -0.031345922
000020 ce ff f9 3c ee 90 15 3c 81 82 e9 3b be 22 a6 bc
       0.030517485 0.009128792 0.007126153 -0.020280238
000030 33 25 6c bc dc a4 b3 ba 08 4b 0a 3d cc 16 c8 bc
       -0.014413166 -0.0013705748 0.03376296 -0.024424933
000040 55 63 ca bc 43 2d eb bc 53 9f f4 3b 70 7b 80 bc
       -0.024705568 -0.028708106 0.007465282 -0.01568386
000050 65 f0 b1 bc ae 34 f5 3b f8 e9 f1 3c 25 db 65 3a
       -0.021721074 0.0074830865 0.02953051 0.0008768312
000060 9a d0 dc 3c bc fa 14 3c 4a fc f5 bc e5 c7 d1 3b
       0.026954938 0.009092983 -0.030027527 0.006402003
000070 25 cd 05 bb da f8 f0 bc 1a 11 ae bc 13 ef 5d 3c
       -0.0020416465 -0.029415537 -0.021248389 0.013545769
000080 f8 c9 03 bd c1 78 bb bb cc 7a e7 bc ee 2b 24 bb
       -0.032175034 -0.005721182 -0.028256796 -0.0025050598
000090 3c 5e ed 3c 85 5d 1d 3c 1c 92 5a bc d8 c6 65 bc
       0.028975599 0.009604816 -0.013340499 -0.014024459
0000a0 8e cc 04 3c ae 9f 76 bc 73 3b 24 bc ce 0e 79 bc
       0.00810541 -0.015052719 -0.010023939 -0.015201284
0000b0 15 89 ae 3c 1a 3b e3 bc 7c b5 58 3c a3 f9 ba bc
       0.0213056 -0.027738143 0.013226863 -0.022824114
0000c0 35 18 c7 3c 4a e6 c8 b9 ee 17 ac 3c 43 9d ee 3c
       0.024303535 -0.0003831855 0.021007504 0.029127723
0000d0 6e 3b f7 3c 17 de aa 3c 5c 52 93 3c 81 77 c1 3b
       0.030179705 0.020857854 0.017983608 0.0059041386
0000e0 e5 20 dd bb c1 93 b7 bc 38 b0 5c 3b cd 9a 0f 3d
       -0.006748306 -0.022409322 0.003367437 0.03505974
0000f0 ce fe 6a bc 9a 22 12 bd d5 15 09 bd 4a ed fc 3b
       -0.014342977 -0.03567753 -0.033468086 0.0077187167
000100 4a 0a e0 3b 70 f8 0f 3d f7 27 18 3c 1c e4 e9 bc
       0.006837164 0.035149038 0.009286872 -0.028551154
000110 4a f5 9f bc 5e 97 83 bc e5 60 a9 bb 13 73 a4 3c
       -0.019526143 -0.016063388 -0.0051690214 0.020074403
000120 03 1e 9e bc 0c 6c b0 3c 75 0e e8 3c 81 3c fb 3b
       -0.01930142 0.021535896 0.028327206 0.0076671247
000130 ef bd 06 3d 40 38 0b 3d dc 5c f6 bb 5e 80 b2 bc
       0.03289598 0.03398919 -0.007518394 -0.021789726
000140 81 76 cd bb d2 26 0f bd 32 98 05 3d 4a 73 c6 3c
       -0.0062702303 -0.03494913 0.032615848 0.024224896
000150 9e 36 8d bc 0a 7b 96 bb ba d4 aa bc fe e3 a8 bc
       -0.017237958 -0.004592304 -0.020853389 -0.020616528
000160 37 21 d0 bc ee 90 25 bc 6e 19 0a 3d e5 ce 0e 3c
       -0.025406463 -0.010105355 0.033715658 0.00871632
000170 31 01 d7 3c 93 9c 24 39 05 20 48 3c a7 62 8d 3c
       0.026245685 0.00015698587 0.012214665 0.017258955
000180 5e a5 ea bc 0e 47 89 bc c1 58 77 bc 1c bc 8d bb
       -0.028643306 -0.016757514 -0.015096844 -0.004325403
000190 6e 67 b0 3b 27 24 c0 bc 85 64 2e bc d3 5f 99 3c
       0.0053834235 -0.023454739 -0.010644083 0.01872245
0001a0 d1 f5 c5 bc 3b fa 05 bd a1 34 b0 bc ac b0 d7 bc
       -0.024165066 -0.03270934 -0.02150947 -0.02632936
0001b0 d6 8e 0b bd 53 bf e9 3c 63 94 8a bc 93 2b 92 3c
       -0.034071766 0.028533613 -0.01691646 0.017843043
0001c0 ea 41 f0 3c ae 91 9d bb ac d8 0e bd 4a a7 ea bc
       0.029328305 -0.004808626 -0.034874603 -0.028644223
0001d0 5c b0 58 3b ac a0 9b bc 6a fb 92 3c 80 54 8a 3c
       0.0033064103 -0.018997513 0.01794215 0.016885996
0001e0 b7 dc 2b bc 43 62 ef 3c 8b a0 11 bd b0 18 99 3c
       -0.010489634 0.02922166 -0.035553496 0.01868853
0001f0 ca db 93 3b 5c 0b c4 3b 2a 5c 37 bc e6 68 0e bd
       0.004512285 0.0059827995 -0.011191407 -0.034768008
000200 c0 45 9d 3c e5 64 67 3c a5 ed 71 3c 8a 2b 88 3b
       0.019198298 0.014123176 0.0147661315 0.004155581
000210 93 e4 88 39 6e 3c 30 bb 5a af fc 3c c4 12 04 3d
       0.00026110242 -0.0026891488 0.030845333 0.03224446
000220 87 a8 b9 bc 3c 75 15 bc ce a3 4e 3c 74 d7 0e 3d
       -0.022663368 -0.009122189 0.012612296 0.03487344
000230 f7 ef 9c 3b b5 d3 d6 3c 93 e1 c2 3a c1 61 7a 3c
       0.004789348 0.026223997 0.0014868252 0.015282095
000240 ca 75 d5 3c e0 2a 8d 3c ea e7 c6 3c 00 be 24 3b
       0.026057143 0.017232358 0.024280507 0.0025137663
000250 de 45 8e bc 7c 6a 2f bc 77 9a 58 bc 05 ec 92 bc
       -0.0173673 -0.01070654 -0.013220421 -0.017934809
000260 e3 ed d4 3c a3 45 f6 bc bc 50 0e bd a0 81 a2 3c
       0.02599234 -0.030062502 -0.034744963 0.0198372
000270 13 0f 8a bc 13 fa d9 3b 81 66 42 bc 45 85 f3 3c
       -0.016852891 0.0066521256 -0.011865259 0.029726634
000280 b7 53 04 3a b7 36 8c bb b7 81 88 bc 7e b3 02 3d
       0.0005047875 -0.0042789835 -0.016663415 0.03190946
000290 c1 bf b5 3b f5 52 c4 bc a5 bf e5 bc 08 71 f5 3c
       0.0055465405 -0.023965338 -0.028045485 0.029961124
0002a0 ee e3 74 3c dc 93 0c 3d 1b 1f 0e 3d 21 56 d6 3c
       0.014946921 0.034320697 0.034697633 0.026164116
0002b0 eb 67 06 3d 4a 58 e3 3c c3 9b b4 3c 65 b6 54 bc
       0.032813948 0.02775206 0.02204693 -0.012982939
0002c0 f3 dc fb 3c 5e 85 d8 bc 5c 88 53 3b f7 e1 d1 bb
       0.030745005 -0.026430782 0.0032277321 -0.006405111
0002d0 ce e8 bc bc 3a 03 98 3c 0a 9a 36 bc 3c ad 63 3c
       -0.023060229 0.018556226 -0.011145124 0.013896283
0002e0 b7 0b 9c ba 77 73 3e bc dc ec 9f 3b 25 55 e1 bb
       -0.0011905347 -0.011624209 0.0048805308 -0.006876605
0002f0 b7 28 c3 3a 6e e7 31 bc 3c c9 55 bc 25 c1 dd b9
       0.0014889453 -0.0108584 -0.013048466 -0.0004229631
000300 a3 17 ad 3c 93 5b c0 bb 10 2b 07 bd f7 4d bd bb
       0.021129435 -0.0058702915 -0.033000052 -0.0057771164
000310 00 ca 9e ba 74 0a 12 3d 73 49 01 bc d8 ea ed 3c
       -0.0012114644 0.0356545 -0.007891047 0.029042646
000320 4a 38 00 bb dc a0 3a 3a c3 91 c2 bc 77 d5 93 bc
       -0.00195648 0.0007119307 -0.023751145 -0.018046124
000330 c1 21 f2 3c 31 a2 e3 3c 81 c0 2f 3b 1c 39 e4 bc
       0.02955711 0.0277873 0.0026817622 -0.027859263
000340 18 af fc 3c 1a c4 94 3c 2a b6 10 3d b4 ae 07 3d
       0.03084521 0.018159915 0.035329975 0.033125594
000350 53 28 ce 3c 27 0e 9a 3c 8e c7 23 bc 4a 32 c8 b8
       0.025165712 0.018805576 -0.009996308 -9.54611e-05
000360 25 6f 21 3c f5 de e3 bc 51 2d f7 3c 6e d3 f0 3c
       0.009853159 -0.027816275 0.030172976 0.029397693
000370 81 7d e8 bc ae 75 41 bc a5 ca 10 3c b3 9f 04 bc
       -0.028380157 -0.011807842 0.008837377 -0.008094716
000380 65 92 88 bc 1e 84 da bc 93 95 79 bb b7 47 24 3a
       -0.016671369 -0.026674327 -0.0038083538 0.000626679
000390 ee d1 83 bc ac cf c1 bc c0 fc 99 3b e1 14 fb 3c
       -0.016091313 -0.023658596 0.0046993196 0.030649604
0003a0 e5 b6 9c 3b b7 ed a5 3c e6 0b 02 bd 8a 5d 60 bc
       0.004782545 0.020254953 -0.03174963 -0.013694176
0003b0 77 8c da bc 65 84 93 3c ae ee 9f 3b 0c 25 e7 3c
       -0.026678307 0.018007467 0.0048807478 0.028215908
0003c0 9a d8 d3 bc aa 83 21 3c 93 0c 40 3a 37 f2 45 bc
       -0.02586012 0.009858051 0.00073260925 -0.012081674
0003d0 fe d6 8b 3c 9a 66 fb bc ca b6 ec bb 77 4b ab bb
       0.01707029 -0.030688573 -0.0072239386 -0.005227502
0003e0 78 c6 ea 3b 37 41 d0 3c aa 71 f6 bc 4a 11 94 ba
       0.0071647726 0.025421722 -0.030083496 -0.0011296656
0003f0 43 17 ce bc 61 1c c3 bc aa 73 ad 3c 9c 74 9f bc
       -0.025157576 -0.023817243 0.021173317 -0.019464783

model.layer_1.pb.parentModule.bias f4 [4]
000000 ae a5 90 3c ce 3f f4 bc 75 0d ff 3c bc 91 9d bc
       0.017657127 -0.02981558 0.031134347 -0.01923453

model.layer_1.pb.pbValues.0.topPBCandidateAverage f4 [4]
000000 00 00 00 00 00 00 00 00 00 00 00 00 00 00 00 00
       0.0 0.0 0.0 0.0

model.layer_1.pb.pbValues.0.PrevPBCandidateCorrelation f4 [4]
000000 00 00 00 00 00 00 00 00 00 00 00 00 00 00 00 00
       0.0 0.0 0.0 0.0

model.layer_1.pb.pbValues.0.currentCorrelationsForParallel f4 [4]
000000 00 00 00 00 00 00 00 00 00 00 00 00 00 00 00 00
       0.0 0.0 0.0 0.0

model.layer_1.pb.pbValues.0.bestScore f4 [4]
000000 00 00 00 00 00 00 00 00 00 00 00 00 00 00 00 00
       0.0 0.0 0.0 0.0

model.layer_1.pb.pbValues.0.previousBestScore f4 [4]
000000 00 00 00 00 00 00 00 00 00 00 00 00 00 00 00 00
       0.0 0.0 0.0 0.0

model.layer_1.pb.pbValues.0.PrevPBCandidateAverage f4 [4]
000000 00 00 00 00 00 00 00 00 00 00 00 00 00 00 00 00
       0.0 0.0 0.0 0.0

model.layer_1.pb.pbValues.0.mainGradAverageForScaling f4 [4]
000000 00 00 00 00 00 00 00 00 00 00 00 00 00 00 00 00
       0.0 0.0 0.0 0.0

model.layer_1.pb.pbValues.0.candidateGradAverageForScaling f4 [4]
000000 00 00 00 00 00 00 00 00 00 00 00 00 00 00 00 00
       0.0 0.0 0.0 0.0

model.layer_1.pb.pbValues.0.indexesOfbest f4 [4]
000000 00 00 00 00 00 00 00 00 00 00 00 00 00 00 00 00
       0.0 0.0 0.0 0.0

model.layer_1.pb.pbValues.0.nodesBestImprovedThisEpoch f4 [4]
000000 00 00 00 00 00 00 00 00 00 00 00 00 00 00 00 00
       0.0 0.0 0.0 0.0

model.layer_1.pb.pbValues.0.parentsAverageDvector f4 [4]
000000 82 12 cd b5 79 81 aa b6 b3 68 90 35 60 c6 44 34
       -1.5279077e-06 -5.0814674e-06 1.0759308e-06 1.8326091e-07

model.layer_1.pb.pbValues.0.normalPassAverageD f4 [4]
000000 82 12 cd b5 79 81 aa b6 b3 68 90 35 60 c6 44 34
       -1.5279077e-06 -5.0814674e-06 1.0759308e-06 1.8326091e-07

model.layer_1.pb.candidateLayer.0.weight f4 [4, 784]
000000 b0 aa 28 bc 02 29 00 3c 4a f6 ae 3b 93 34 57 bc
       -0.010294601 0.007822277 0.0053394185 -0.013135093
000010 17 8b a8 3a e6 4f be bb 20 e0 83 ba 00 cf 52 3b
       0.0012858835 -0.0058078645 -0.0010061301 0.0032166839
000020 00 14 f0 38 ca 2a 48 3a 5d 0e f8 bb 33 3d 2d bc
       0.00011447817 0.00076357706 -0.0075700716 -0.010573673
000030 f2 7b 22 3c 42 30 73 bc a6 9b 3a 3a 72 0c 1a bb
       0.009917246 -0.0148430485 0.00071185303 -0.0023505953
000040 89 6e 7e bc fb d5 d0 bb 8c 02 5a bb 19 81 ff 3b
       -0.015529283 -0.0063731647 -0.0033265678 0.007797372
000050 0e 92 30 3c 66 e0 99 bb c2 66 52 bc c1 c6 31 3c
       0.01077701 -0.00469594 -0.012841882 0.010850609
000060 0e a9 b3 ba 01 74 e7 bb 98 e2 89 bc 44 09 ae 3b
       -0.0013706998 -0.0070633893 -0.016831681 0.005311163
000070 b7 c0 b7 3b 0d 4d 28 3c d3 c8 58 b9 00 c0 09 bc
       0.00560769 0.010272277 -0.00020674178 -0.008407593
000080 d9 66 0d bc 01 4e 2b 3b 9d 2d a8 3c 90 a9 03 3c
       -0.008630478 0.0026139023 0.020529563 0.008036032
000090 f4 fe 35 bb af 99 a7 b9 aa 7e 86 3a 18 7b 92 bc
       -0.0027770372 -0.00031967225 0.0010261138 -0.017880961
0000a0 e2 a3 00 bb 5a f5 22 3c 8f b8 30 3b 0a 07 f3 bb
       -0.0019628932 0.009946192 0.0026965474 -0.0074166106
0000b0 4a 83 6a 3b 67 9b 13 3a 37 f7 37 bc 6a 26 7b 3b
       0.003578382 0.0005630762 -0.011228374 0.0038322457
0000c0 1b 50 14 bc e1 95 04 b9 c4 88 a2 3b c4 ed 03 3c
       -0.009052302 -0.00012644335 0.0049601514 0.008052293
0000d0 2b 96 cd bb 34 ad 0f 3c 0f 9c 07 3b b4 07 94 3b
       -0.006274005 0.008769322 0.0020692383 0.00451752
0000e0 9c 11 a2 bc 40 51 cf 3b a2 61 19 bc a9 0b 5f 3c
       -0.019783787 0.0063268244 -0.009361656 0.01361362
0000f0 5e af 3f bc 7c d6 7f 3b 22 b6 37 ba 4e 82 23 3c
       -0.011699526 0.0039037755 -0.0007008036 0.0099797975
000100 f7 ff e5 ba aa 65 a2 3b 22 d3 24 bc 12 c6 83 3b
       -0.0017547597 0.004955967 -0.010060104 0.0040214146
000110 05 17 f0 bc 63 91 68 bc ac 4f 8b 3c f0 f7 24 3c
       -0.029307852 -0.014194819 0.017005764 0.0100688785
000120 18 94 26 bc d7 8f 90 3c 27 eb 36 3c 60 8c fb b9
       -0.010167144 0.017646713 0.011164463 -0.00047979038
000130 19 64 1f 3c 46 1c e1 3c a1 d3 51 bb 09 62 82 3c
       0.009728455 0.027479302 -0.003201701 0.015915887
000140 cb 05 ae bc 08 96 1b 3c a4 b0 0c 3b fd 62 8d 3b
       -0.021242997 0.009496219 0.002146759 0.004314779
000150 cc 4e 52 bc 6a e6 4b 3c b6 e6 84 3c 2a 0e 3b 3c
       -0.012836169 0.012445072 0.016223293 0.011416951
000160 5b cc d0 3b 97 9a e7 ba e2 69 69 3b 9c ce 34 bc
       0.0063720173 -0.0017669973 0.003561609 -0.011035588
000170 e8 98 a0 3b 04 6f 15 bb cc fe 8c bb e2 95 22 bc
       0.0049010403 -0.0022801766 -0.004302835 -0.00992343
000180 f8 b9 ec 3a 0c 7d 07 3b d5 ce c0 bb a5 f3 9e bb
       0.0018060794 0.00206739 -0.0058840313 -0.004850822
000190 d5 b4 3f ba 1c db dc bb 06 50 04 bb 26 89 d1 ba
       -0.0007313018 -0.006739987 -0.00201893 -0.0015986308
0001a0 15 f1 13 bc d6 b5 30 bc a6 d5 7f b5 0f 0b 67 3c
       -0.009029646 -0.010785541 -9.53058e-07 0.014101758
0001b0 a6 ac b1 bc 78 ad 15 bc 9e f5 ca 3b 56 3b 86 3c
       -0.02168877 -0.009135596 0.0061938306 0.016385715
0001c0 12 8a ae bb f7 ff 73 bc 47 94 27 3c cd 8d 30 bb
       -0.005326518 -0.01489257 0.010228223 -0.0026939989
0001d0 2d 35 95 bc 27 22 89 bc fd a5 e0 39 b2 26 5c ba
       -0.018213833 -0.016739918 0.0004284828 -0.00083981
0001e0 0b a5 dd bb 10 40 7b 3b 13 31 b4 bc 7f 2d 01 bc
       -0.0067640594 0.0038337745 -0.021996057 -0.007884382
0001f0 c3 45 17 3c 96 09 a7 bb dc 4d 00 bc 2e 38 f4 3a
       0.009232941 -0.0050975783 -0.007831063 0.0018632466
000200 af 6a 46 3c 6a 04 53 3c 7b b7 87 3b c0 b3 d5 ba
       0.012110396 0.01287947 0.0041417456 -0.001630418
000210 d2 03 2f bc 07 1c dd bb 7c 48 e7 3b fc 2e c3 3b
       -0.010682063 -0.006747726 0.0070582014 0.0059565287
000220 77 90 ac 3b b0 9f 57 3b f0 89 bd 3b db 16 5a bb
       0.005266245 0.0032901578 0.0057842657 -0.0033277783
000230 77 2a 27 bb 90 77 44 3c d4 96 77 3c 46 45 c6 3a
       -0.0025507489 0.011991397 0.015111644 0.0015126846
000240 4f da 5e bc d7 6e 2a bb 5a 79 89 bc 2a 9e 7f 3c
       -0.0136018535 -0.0026006007 -0.016781498 0.015601674
000250 07 7b de bb 26 ef 21 bb 1b 43 2a 3c 79 ca dd bb
       -0.0067895683 -0.0024709194 0.010391976 -0.0067685214
000260 c6 4b ba 3c 51 60 96 3a 2b c1 2d bc 87 1c ca 3a
       0.02274121 0.0011472796 -0.010605137 0.0015419879
000270 16 6b a8 3c 92 d0 92 bc b4 47 cc 3b c2 3a b7 bb
       0.020558875 -0.01792172 0.0062341336 -0.0055917213
000280 b2 18 3e bb aa da cf bc 12 dc 89 3c 9c ab 1a 3b
       -0.0029006419 -0.025372822 0.01682857 0.0023600822
000290 82 9a ae bc 89 eb 87 3c a2 19 6b 3c 52 c8 1f 3b
       -0.02131391 0.016591804 0.014349373 0.0024380875
0002a0 b0 6a 05 3c 7d cd a8 3b b8 7a 3f bc cb f2 80 3c
       0.008143112 0.0051514492 -0.011686973 0.015740773
0002b0 42 d0 2e bb b0 81 70 bc 7b 7d cc bb 84 e1 25 3b
       -0.0026674424 -0.014679357 -0.0062405444 0.002531142
0002c0 51 72 18 bc e0 a8 46 bc a7 7b 30 bc 36 ef 88 bb
       -0.009304599 -0.012125224 -0.0107716685 -0.004178907
0002d0 27 47 30 3c 7b a2 bb bb 61 a9 5e bc 34 96 be bc
       0.010759152 -0.0057261563 -0.013590188 -0.023264982
0002e0 8b 9e 12 3c 9e c9 c1 3b f5 b0 17 3b 01 1e e3 b9
       0.008948932 0.005913927 0.0023146246 -0.0004331917
0002f0 94 58 92 bc bd 27 cd 3c 84 da 47 3c 08 32 97 bb
       -0.017864503 0.025043363 0.012198094 -0.0046141185
000300 98 a6 42 bc ae 01 ba 3c 7b 96 f5 3b 3c db 46 bc
       -0.011880539 0.022705879 0.0074947453 -0.0121372305
000310 7e 7c 78 bc 3d ee 11 3c dd 8a 4f b9 a6 ce f3 3b
       -0.0151664 0.008906898 -0.00019792789 0.007440406
000320 1b b1 b1 3b bb ea b3 3b b7 c0 a2 bb e2 03 7c 3b
       0.005422724 0.0054906285 -0.004966821 0.0038454463
000330 49 92 94 bc a7 71 56 3c 24 66 61 bc d9 74 68 3c
       -0.01813616 0.01308862 -0.013757262 0.014188015
000340 57 ec 99 bb 97 f8 04 bc 03 e5 1a 3c fc 62 46 bb
       -0.0046973634 -0.008115909 0.009454015 -0.0030271402
000350 9b d8 70 bb bb 71 ee 3b 34 73 6a bb 9e 64 80 bc
       -0.00367502 0.0072767413 -0.0035774233 -0.015672978
000360 35 3e d6 b9 e2 83 92 39 72 96 77 bc e9 d6 01 bb
       -0.0004086361 0.0002794555 -0.015111553 -0.0019811934
000370 f6 b8 01 3c 66 f6 18 bb 00 e9 e6 3b 90 c1 d4 bb
       0.007917633 -0.0023340224 0.0070468187 -0.006492801
000380 13 32 f0 ba 3c 64 10 bc bc ae 69 bc bf 7f 8a 3c
       -0.001832547 -0.00881296 -0.014262851 0.016906617
000390 f7 cc 46 3c 6d 76 a6 3b ab 8a 4a bc 9c 7e fa 3b
       0.012133828 0.0050800354 -0.012362163 0.0076444875
0003a0 2b e0 27 3c dd 3a 12 3c e1 ff 09 bc f0 4c 62 3b
       0.010246317 0.008925167 -0.008422823 0.0034530722
0003b0 d5 51 ba 3a 93 51 82 3b 59 3e 03 3b e2 e5 1e 3c
       0.0014215062 0.0039770096 0.0020026176 0.009698363
0003c0 73 c4 b7 bb fc 6b 37 3b 34 b7 6d 3c a1 7c 40 bc
       -0.0056081354 0.0027987948 0.014509011 -0.011748464
0003d0 9e ec 32 3b d0 93 c4 3c 0f 5a 44 bc c3 bb f8 3b
       0.002730168 0.023996264 -0.011984362 0.0075907423
0003e0 f2 a5 32 bc 07 0a 83 3c e7 81 b7 3b 4a 35 c1 bb
       -0.010903822 0.015995992 0.0056002024 -0.005896245
0003f0 bd d2 23 bb 6b e0 35 3c cb 67 42 3b 51 9e 87 bb
       -0.0024997436 0.011100869 0.0029663916 -0.004138746

model.layer_1.pb.candidateLayer.0.bias f4 [4]
000000 06 0e 4e 3c 0b 5c e6 ba 58 43 74 3b 0e 69 c0 bb
       0.012576586 -0.0017575038 0.0037271585 -0.0058718985

model.layer_1.pb.candidateBestLayer.0.weight f4 [4, 784]
000000 b0 aa 28 bc 02 29 00 3c 4a f6 ae 3b 93 34 57 bc
       -0.010294601 0.007822277 0.0053394185 -0.013135093
000010 17 8b a8 3a e6 4f be bb 20 e0 83 ba 00 cf 52 3b
       0.0012858835 -0.0058078645 -0.0010061301 0.0032166839
000020 00 14 f0 38 ca 2a 48 3a 5d 0e f8 bb 33 3d 2d bc
       0.00011447817 0.00076357706 -0.0075700716 -0.010573673
000030 f2 7b 22 3c 42 30 73 bc a6 9b 3a 3a 72 0c 1a bb
       0.009917246 -0.0148430485 0.00071185303 -0.0023505953
000040 89 6e 7e bc fb d5 d0 bb 8c 02 5a bb 19 81 ff 3b
       -0.015529283 -0.0063731647 -0.0033265678 0.007797372
000050 0e 92 30 3c 66 e0 99 bb c2 66 52 bc c1 c6 31 3c
       0.01077701 -0.00469594 -0.012841882 0.010850609
000060 0e a9 b3 ba 01 74 e7 bb 98 e2 89 bc 44 09 ae 3b
       -0.0013706998 -0.0070633893 -0.016831681 0.005311163
000070 b7 c0 b7 3b 0d 4d 28 3c d3 c8 58 b9 00 c0 09 bc
       0.00560769 0.010272277 -0.00020674178 -0.008407593
000080 d9 66 0d bc 01 4e 2b 3b 9d 2d a8 3c 90 a9 03 3c
       -0.008630478 0.0026139023 0.020529563 0.008036032
000090 f4 fe 35 bb af 99 a7 b9 aa 7e 86 3a 18 7b 92 bc
       -0.0027770372 -0.00031967225 0.0010261138 -0.017880961
0000a0 e2 a3 00 bb 5a f5 22 3c 8f b8 30 3b 0a 07 f3 bb
       -0.0019628932 0.009946192 0.0026965474 -0.0074166106
0000b0 4a 83 6a 3b 67 9b 13 3a 37 f7 37 bc 6a 26 7b 3b
       0.003578382 0.0005630762 -0.011228374 0.0038322457
0000c0 1b 50 14 bc e1 95 04 b9 c4 88 a2 3b c4 ed 03 3c
       -0.009052302 -0.00012644335 0.0049601514 0.008052293
0000d0 2b 96 cd bb 34 ad 0f 3c 0f 9c 07 3b b4 07 94 3b
       -0.006274005 0.008769322 0.0020692383 0.00451752
0000e0 9c 11 a2 bc 40 51 cf 3b a2 61 19 bc a9 0b 5f 3c
       -0.019783787 0.0063268244 -0.009361656 0.01361362
0000f0 5e af 3f bc 7c d6 7f 3b 22 b6 37 ba 4e 82 23 3c
       -0.011699526 0.0039037755 -0.0007008036 0.0099797975
000100 f7 ff e5 ba aa 65 a2 3b 22 d3 24 bc 12 c6 83 3b
       -0.0017547597 0.004955967 -0.010060104 0.0040214146
000110 05 17 f0 bc 63 91 68 bc ac 4f 8b 3c f0 f7 24 3c
       -0.029307852 -0.014194819 0.017005764 0.0100688785
000120 18 94 26 bc d7 8f 90 3c 27 eb 36 3c 60 8c fb b9
       -0.010167144 0.017646713 0.011164463 -0.00047979038
000130 19 64 1f 3c 46 1c e1 3c a1 d3 51 bb 09 62 82 3c
       0.009728455 0.027479302 -0.003201701 0.015915887
000140 cb 05 ae bc 08 96 1b 3c a4 b0 0c 3b fd 62 8d 3b
       -0.021242997 0.009496219 0.002146759 0.004314779
000150 cc 4e 52 bc 6a e6 4b 3c b6 e6 84 3c 2a 0e 3b 3c
       -0.012836169 0.012445072 0.016223293 0.011416951
000160 5b cc d0 3b 97 9a e7 ba e2 69 69 3b 9c ce 34 bc
       0.0063720173 -0.0017669973 0.003561609 -0.011035588
000170 e8 98 a0 3b 04 6f 15 bb cc fe 8c bb e2 95 22 bc
       0.0049010403 -0.0022801766 -0.004302835 -0.00992343
000180 f8 b9 ec 3a 0c 7d 07 3b d5 ce c0 bb a5 f3 9e bb
       0.0018060794 0.00206739 -0.0058840313 -0.004850822
000190 d5 b4 3f ba 1c db dc bb 06 50 04 bb 26 89 d1 ba
       -0.0007313018 -0.006739987 -0.00201893 -0.0015986308
0001a0 15 f1 13 bc d6 b5 30 bc a6 d5 7f b5 0f 0b 67 3c
       -0.009029646 -0.010785541 -9.53058e-07 0.014101758
0001b0 a6 ac b1 bc 78 ad 15 bc 9e f5 ca 3b 56 3b 86 3c
       -0.02168877 -0.009135596 0.0061938306 0.016385715
0001c0 12 8a ae bb f7 ff 73 bc 47 94 27 3c cd 8d 30 bb
       -0.005326518 -0.01489257 0.010228223 -0.0026939989
0001d0 2d 35 95 bc 27 22 89 bc fd a5 e0 39 b2 26 5c ba
       -0.018213833 -0.016739918 0.0004284828 -0.00083981
0001e0 0b a5 dd bb 10 40 7b 3b 13 31 b4 bc 7f 2d 01 bc
       -0.0067640594 0.0038337745 -0.021996057 -0.007884382
0001f0 c3 45 17 3c 96 09 a7 bb dc 4d 00 bc 2e 38 f4 3a
       0.009232941 -0.0050975783 -0.007831063 0.0018632466
000200 af 6a 46 3c 6a 04 53 3c 7b b7 87 3b c0 b3 d5 ba
       0.012110396 0.01287947 0.0041417456 -0.001630418
000210 d2 03 2f bc 07 1c dd bb 7c 48 e7 3b fc 2e c3 3b
       -0.010682063 -0.006747726 0.0070582014 0.0059565287
000220 77 90 ac 3b b0 9f 57 3b f0 89 bd 3b db 16 5a bb
       0.005266245 0.0032901578 0.0057842657 -0.0033277783
000230 77 2a 27 bb 90 77 44 3c d4 96 77 3c 46 45 c6 3a
       -0.0025507489 0.011991397 0.015111644 0.0015126846
000240 4f da 5e bc d7 6e 2a bb 5a 79 89 bc 2a 9e 7f 3c
       -0.0136018535 -0.0026006007 -0.016781498 0.015601674
000250 07 7b de bb 26 ef 21 bb 1b 43 2a 3c 79 ca dd bb
       -0.0067895683 -0.0024709194 0.010391976 -0.0067685214
000260 c6 4b ba 3c 51 60 96 3a 2b c1 2d bc 87 1c ca 3a
       0.02274121 0.0011472796 -0.010605137 0.0015419879
000270 16 6b a8 3c 92 d0 92 bc b4 47 cc 3b c2 3a b7 bb
       0.020558875 -0.01792172 0.0062341336 -0.0055917213
000280 b2 18 3e bb aa da cf bc 12 dc 89 3c 9c ab 1a 3b
       -0.0029006419 -0.025372822 0.01682857 0.0023600822
000290 82 9a ae bc 89 eb 87 3c a2 19 6b 3c 52 c8 1f 3b
       -0.02131391 0.016591804 0.014349373 0.0024380875
0002a0 b0 6a 05 3c 7d cd a8 3b b8 7a 3f bc cb f2 80 3c
       0.008143112 0.0051514492 -0.011686973 0.015740773
0002b0 42 d0 2e bb b0 81 70 bc 7b 7d cc bb 84 e1 25 3b
       -0.0026674424 -0.014679357 -0.0062405444 0.002531142
0002c0 51 72 18 bc e0 a8 46 bc a7 7b 30 bc 36 ef 88 bb
       -0.009304599 -0.012125224 -0.0107716685 -0.004178907
0002d0 27 47 30 3c 7b a2 bb bb 61 a9 5e bc 34 96 be bc
       0.010759152 -0.0057261563 -0.013590188 -0.023264982
0002e0 8b 9e 12 3c 9e c9 c1 3b f5 b0 17 3b 01 1e e3 b9
       0.008948932 0.005913927 0.0023146246 -0.0004331917
0002f0 94 58 92 bc bd 27 cd 3c 84 da 47 3c 08 32 97 bb
       -0.017864503 0.025043363 0.012198094 -0.0046141185
000300 98 a6 42 bc ae 01 ba 3c 7b 96 f5 3b 3c db 46 bc
       -0.011880539 0.022705879 0.0074947453 -0.0121372305
000310 7e 7c 78 bc 3d ee 11 3c dd 8a 4f b9 a6 ce f3 3b
       -0.0151664 0.008906898 -0.00019792789 0.007440406
000320 1b b1 b1 3b bb ea b3 3b b7 c0 a2 bb e2 03 7c 3b
       0.005422724 0.0054906285 -0.004966821 0.0038454463
000330 49 92 94 bc a7 71 56 3c 24 66 61 bc d9 74 68 3c
       -0.01813616 0.01308862 -0.013757262 0.014188015
000340 57 ec 99 bb 97 f8 04 bc 03 e5 1a 3c fc 62 46 bb
       -0.0046973634 -0.008115909 0.009454015 -0.0030271402
000350 9b d8 70 bb bb 71 ee 3b 34 73 6a bb 9e 64 80 bc
       -0.00367502 0.0072767413 -0.0035774233 -0.015672978
000360 35 3e d6 b9 e2 83 92 39 72 96 77 bc e9 d6 01 bb
       -0.0004086361 0.0002794555 -0.015111553 -0.0019811934
000370 f6 b8 01 3c 66 f6 18 bb 00 e9 e6 3b 90 c1 d4 bb
       0.007917633 -0.0023340224 0.0070468187 -0.006492801
000380 13 32 f0 ba 3c 64 10 bc bc ae 69 bc bf 7f 8a 3c
       -0.001832547 -0.00881296 -0.014262851 0.016906617
000390 f7 cc 46 3c 6d 76 a6 3b ab 8a 4a bc 9c 7e fa 3b
       0.012133828 0.0050800354 -0.012362163 0.0076444875
0003a0 2b e0 27 3c dd 3a 12 3c e1 ff 09 bc f0 4c 62 3b
       0.010246317 0.008925167 -0.008422823 0.0034530722
0003b0 d5 51 ba 3a 93 51 82 3b 59 3e 03 3b e2 e5 1e 3c
       0.0014215062 0.0039770096 0.0020026176 0.009698363
0003c0 73 c4 b7 bb fc 6b 37 3b 34 b7 6d 3c a1 7c 40 bc
       -0.0056081354 0.0027987948 0.014509011 -0.011748464
0003d0 9e ec 32 3b d0 93 c4 3c 0f 5a 44 bc c3 bb f8 3b
       0.002730168 0.023996264 -0.011984362 0.0075907423
0003e0 f2 a5 32 bc 07 0a 83 3c e7 81 b7 3b 4a 35 c1 bb
       -0.010903822 0.015995992 0.0056002024 -0.005896245
0003f0 bd d2 23 bb 6b e0 35 3c cb 67 42 3b 51 9e 87 bb
       -0.0024997436 0.011100869 0.0029663916 -0.004138746

model.layer_1.pb.candidateBestLayer.0.bias f4 [4]
000000 06 0e 4e 3c 0b 5c e6 ba 58 43 74 3b 0e 69 c0 bb
       0.012576586 -0.0017575038 0.0037271585 -0.0058718985

model.layer_2.mainModule.weight f4 [8, 4]
000000 72 60 9e be ff e1 66 3f 5c 3a 5f 3f da 06 61 3e
       -0.30932957 0.9018859 0.87198424 0.2197527
000010 d5 13 b7 3d a7 ff d2 3e d0 fa 85 3e 88 e4 84 3d
       0.089393295 0.41210672 0.26167917 0.064889014
000020 cd 4b 15 3f e9 46 1d 3f ce 6e c0 bd f1 1b de 3e
       0.5831879 0.61436325 -0.09396134 0.43380693
000030 4d 38 da be 15 a3 eb 3e d4 84 f6 3e d5 29 8b 3d
       -0.4262108 0.4602286 0.48148215 0.06795088
000040 91 61 8a be 4b a1 19 3f aa eb f2 3e b2 a2 f5 be
       -0.27027562 0.6001174 0.47445422 -0.4797569
000050 87 fc 10 3f da cd 30 bf fb 64 1b 3f 2d d6 f1 be
       0.56635326 -0.69064105 0.6070096 -0.47233716
000060 d9 12 63 be 2c 35 f2 bd cc f0 15 3e 93 c4 29 3f
       -0.22175159 -0.11826548 0.14642638 0.66315573
000070 ad 86 d8 3e 06 b2 7e 3e 90 3b ef 3e 0d 4e 9a be
       0.4229025 0.24872598 0.4672513 -0.30137673

model.layer_2.mainModule.bias f4 [8]
000000 55 e6 de be 11 49 c4 be f5 88 d9 be 53 36 55 3f
       -0.43535104 -0.38336995 -0.42487302 0.8328602
000010 4c fb 50 3f 64 61 92 3e 55 88 8a 3f d2 73 dd 3e
       0.8163345 0.28589928 1.0822855 0.43252426

model.layer_2.pb.parentModule.weight f4 [8, 4]
000000 e6 d6 88 be 3e e5 d7 3e d6 89 e9 3e 24 55 22 3e
       -0.26726454 0.42167085 0.45612973 0.15852791
000010 18 fc 6a 3e f8 fd bd 3d f8 14 52 3e 48 25 b0 3d
       0.22947729 0.09276956 0.20515811 0.08600861
000020 cc 45 7d 3e 02 5b ba 3e c0 f7 da 3d 50 58 a1 3e
       0.24733657 0.36397558 0.10691786 0.3151269
000030 52 28 93 be a6 0b 8b 3e 4e 0a 9d 3e d0 7f 27 be
       -0.287417 0.27157325 0.30671924 -0.1635735
000040 a0 1e a7 be 1e 4b 8e 3e f0 79 78 3e d0 e6 e9 be
       -0.32640553 0.27791685 0.24265265 -0.45683908
000050 24 bf 8a 3e 18 0c e3 be 9c 50 ad 3e 60 fe ff be
       0.27098954 -0.44345164 0.33850563 -0.4999876
000060 d6 f4 e7 be 48 a9 bb 3d b0 21 24 be 68 e9 9c 3d
       -0.45303982 0.09163147 -0.16028476 0.07661706
000070 00 28 08 3b 3e e2 83 3e 5e c1 a3 3e e0 58 11 bd
       0.0020775795 0.25758547 0.31983465 -0.03548515

model.layer_2.pb.parentModule.bias f4 [8]
000000 fc c5 08 3e c4 42 12 3e 74 06 b0 be 48 76 36 3e
       0.13356775 0.14283282 -0.34379923 0.17818558
000010 58 da 8a 3d 78 5b e2 bd f0 c1 55 3e 20 97 12 bd
       0.06779927 -0.110526025 0.20874763 -0.035788655

model.layer_2.pb.pbValues.0.topPBCandidateAverage f4 [8]
000000 00 00 00 00 00 00 00 00 00 00 00 00 00 00 00 00
       0.0 0.0 0.0 0.0
000010 00 00 00 00 00 00 00 00 00 00 00 00 00 00 00 00
       0.0 0.0 0.0 0.0

model.layer_2.pb.pbValues.0.PrevPBCandidateCorrelation f4 [8]
000000 00 00 00 00 00 00 00 00 00 00 00 00 00 00 00 00
       0.0 0.0 0.0 0.0
000010 00 00 00 00 00 00 00 00 00 00 00 00 00 00 00 00
       0.0 0.0 0.0 0.0

model.layer_2.pb.pbValues.0.currentCorrelationsForParallel f4 [8]
000000 00 00 00 00 00 00 00 00 00 00 00 00 00 00 00 00
       0.0 0.0 0.0 0.0
000010 00 00 00 00 00 00 00 00 00 00 00 00 00 00 00 00
       0.0 0.0 0.0 0.0

model.layer_2.pb.pbValues.0.bestScore f4 [8]
000000 00 00 00 00 00 00 00 00 00 00 00 00 00 00 00 00
       0.0 0.0 0.0 0.0
000010 00 00 00 00 00 00 00 00 00 00 00 00 00 00 00 00
       0.0 0.0 0.0 0.0

model.layer_2.pb.pbValues.0.previousBestScore f4 [8]
000000 00 00 00 00 00 00 00 00 00 00 00 00 00 00 00 00
       0.0 0.0 0.0 0.0
000010 00 00 00 00 00 00 00 00 00 00 00 00 00 00 00 00
       0.0 0.0 0.0 0.0

model.layer_2.pb.pbValues.0.PrevPBCandidateAverage f4 [8]
000000 00 00 00 00 00 00 00 00 00 00 00 00 00 00 00 00
       0.0 0.0 0.0 0.0
000010 00 00 00 00 00 00 00 00 00 00 00 00 00 00 00 00
       0.0 0.0 0.0 0.0

model.layer_2.pb.pbValues.0.mainGradAverageForScaling f4 [8]
000000 00 00 00 00 00 00 00 00 00 00 00 00 00 00 00 00
       0.0 0.0 0.0 0.0
000010 00 00 00 00 00 00 00 00 00 00 00 00 00 00 00 00
       0.0 0.0 0.0 0.0

model.layer_2.pb.pbValues.0.candidateGradAverageForScaling f4 [8]
000000 00 00 00 00 00 00 00 00 00 00 00 00 00 00 00 00
       0.0 0.0 0.0 0.0
000010 00 00 00 00 00 00 00 00 00 00 00 00 00 00 00 00
       0.0 0.0 0.0 0.0

model.layer_2.pb.pbValues.0.indexesOfbest f4 [8]
000000 00 00 00 00 00 00 00 00 00 00 00 00 00 00 00 00
       0.0 0.0 0.0 0.0
000010 00 00 00 00 00 00 00 00 00 00 00 00 00 00 00 00
       0.0 0.0 0.0 0.0

model.layer_2.pb.pbValues.0.nodesBestImprovedThisEpoch f4 [8]
000000 00 00 00 00 00 00 00 00 00 00 00 00 00 00 00 00
       0.0 0.0 0.0 0.0
000010 00 00 00 00 00 00 00 00 00 00 00 00 00 00 00 00
       0.0 0.0 0.0 0.0

model.layer_2.pb.pbValues.0.parentsAverageDvector f4 [8]
000000 29 c5 94 38 f2 51 5c 38 85 14 bd 37 4e fa cc b8
       7.093914e-05 5.2528405e-05 2.254011e-05 -9.774101e-05
000010 c8 77 b0 b8 7f 5e 77 b8 3e 7e 1b b9 01 7f 9b b8
       -8.414645e-05 -5.8977395e-05 -0.00014828981 -7.414632e-05

model.layer_2.pb.pbValues.0.normalPassAverageD f4 [8]
000000 29 c5 94 38 f2 51 5c 38 85 14 bd 37 4e fa cc b8
       7.093914e-05 5.2528405e-05 2.254011e-05 -9.774101e-05
000010 c8 77 b0 b8 7f 5e 77 b8 3e 7e 1b b9 01 7f 9b b8
       -8.414645e-05 -5.8977395e-05 -0.00014828981 -7.414632e-05

model.layer_2.pb.candidateLayer.0.weight f4 [8, 4]
000000 77 58 9a 3c 54 1a 60 bc 1c 72 b6 3a 93 34 1b 3b
       0.018841011 -0.013678152 0.0013919505 0.002368246
000010 7d 30 c9 3c ab 0f e8 3b 74 5d ee bb 85 b7 31 3c
       0.024559254 0.007081946 -0.007274324 0.010846977
000020 db 35 43 3b d8 97 25 3c 9c 7c ee bb 66 11 c9 bb
       0.002978674 0.010107003 -0.007278038 -0.0061361073
000030 40 c1 4d 3c 50 36 b7 bb 79 eb 67 3c 52 f5 83 3c
       0.012558281 -0.0055911914 0.014155262 0.016108189
000040 0a f8 af 3c aa 39 25 bc 83 e1 15 3c c7 bb 5b 3c
       0.021480579 -0.010084549 0.009148004 0.013411469
000050 66 78 ae 3b bb 10 3e bc 33 b3 a0 bb 13 49 aa bb
       0.005324411 -0.011600669 -0.0049041747 -0.0051966994
000060 56 e0 9f bc 16 bd aa ba 05 13 78 b9 7f 9c 88 bb
       -0.019516151 -0.0013026323 -0.00023658208 -0.0041690464
000070 ce d1 c6 3b dc 3b 3c 3b 75 48 51 3c 3d 3b 49 bb
       0.006067491 0.0028722202 0.012773623 -0.0030705475

model.layer_2.pb.candidateLayer.0.bias f4 [8]
000000 0a 83 c8 bb fc 9a b0 bb 03 b6 79 bb 37 5b 81 3c
       -0.0061191367 -0.0053895693 -0.0038102872 0.015790565
000010 89 1a 9b 3c 49 a5 8f 3b c7 cc 51 3b 54 69 68 3b
       0.018933551 0.004383717 0.0032012926 0.003546317

model.layer_2.pb.candidateBestLayer.0.weight f4 [8, 4]
000000 77 58 9a 3c 54 1a 60 bc 1c 72 b6 3a 93 34 1b 3b
       0.018841011 -0.013678152 0.0013919505 0.002368246
000010 7d 30 c9 3c ab 0f e8 3b 74 5d ee bb 85 b7 31 3c
       0.024559254 0.007081946 -0.007274324 0.010846977
000020 db 35 43 3b d8 97 25 3c 9c 7c ee bb 66 11 c9 bb
       0.002978674 0.010107003 -0.007278038 -0.0061361073
000030 40 c1 4d 3c 50 36 b7 bb 79 eb 67 3c 52 f5 83 3c
       0.012558281 -0.0055911914 0.014155262 0.016108189
000040 0a f8 af 3c aa 39 25 bc 83 e1 15 3c c7 bb 5b 3c
       0.021480579 -0.010084549 0.009148004 0.013411469
000050 66 78 ae 3b bb 10 3e bc 33 b3 a0 bb 13 49 aa bb
       0.005324411 -0.011600669 -0.0049041747 -0.0051966994
000060 56 e0 9f bc 16 bd aa ba 05 13 78 b9 7f 9c 88 bb
       -0.019516151 -0.0013026323 -0.00023658208 -0.0041690464
000070 ce d1 c6 3b dc 3b 3c 3b 75 48 51 3c 3d 3b 49 bb
       0.006067491 0.0028722202 0.012773623 -0.0030705475

model.layer_2.pb.candidateBestLayer.0.bias f4 [8]
000000 0a 83 c8 bb fc 9a b0 bb 03 b6 79 bb 37 5b 81 3c
       -0.0061191367 -0.0053895693 -0.0038102872 0.015790565
000010 89 1a 9b 3c 49 a5 8f 3b c7 cc 51 3b 54 69 68 3b
       0.018933551 0.004383717 0.0032012926 0.003546317

model.layer_3.mainModule.weight f4 [10, 8]
000000 be 0e 07 3f 5e 8a c0 bd de 00 bd be 77 8a 4d 3d
       0.5275687 -0.094013914 -0.36914724 0.05018088
000010 19 1f b4 be 47 5c ae be f6 8e 0a 3f 72 9b 0d bf
       -0.35179976 -0.34054777 0.5412439 -0.55315316
000020 13 36 95 be 07 41 d5 bb 37 60 a0 3e e0 75 81 bf
       -0.29142818 -0.006507996 0.31323406 -1.0114098
000030 29 5a ff be 7b 85 2a bf 45 b9 2f 3f 1b 47 51 bf
       -0.49873474 -0.66609925 0.68642074 -0.81749123
000040 04 b3 88 3e ac 4b 93 3e 29 de a4 3e a4 4b 1b bf
       0.26699078 0.2876867 0.32200745 -0.60662293
000050 5c 5d 1d bf 8e d5 71 be 53 f4 73 bd 15 3c 42 be
       -0.6147058 -0.23616621 -0.059559178 -0.18968232
000060 64 82 81 be 1a 33 bc be b7 e1 cd be 9a 42 b8 3e
       -0.25294793 -0.36757737 -0.4021127 0.35988313
000070 d6 1d 20 3f 93 e7 a1 bd 2e d6 84 3f f3 46 50 be
       0.62545526 -0.079054974 1.0377862 -0.20339565
000080 58 28 ab 3e c7 8a e4 3e 05 cc 85 be eb 31 1f bf
       0.33429217 0.4463713 -0.26132217 -0.62185544
000090 e7 15 b9 be a3 74 e7 3e 47 72 21 bf ab dd 9f 3e
       -0.36149523 0.45206174 -0.63065 0.31223807
0000a0 2b 1f 8a 3e c5 7e bd be 5b 03 14 bf db d2 d6 3e
       0.26976904 -0.3701078 -0.5781762 0.41957745
0000b0 72 51 26 3f 94 70 34 3d fb 9f 87 3d 37 3d 43 3e
       0.64968026 0.044052675 0.06622311 0.1906632
0000c0 ab 6a ab 3e 8a 6d 59 3e 3b e2 e6 3d 05 b0 8c 3d
       0.3347982 0.21233192 0.11273619 0.068695106
0000d0 40 22 3c bb 6b 0b c0 be eb 32 c2 be aa a9 e7 bd
       -0.0028706938 -0.3750871 -0.37929472 -0.11311658
0000e0 77 33 84 bf 63 52 c7 be ac 5d 7e bd ec 13 f7 3e
       -1.0328206 -0.38930044 -0.06210105 0.48257387
0000f0 9e 1d 17 3f 12 f7 bf 3e 03 6d 05 3f 1f 36 da 3e
       0.5902957 0.37493187 0.52119464 0.42619416
000100 fa 64 54 bc a6 43 3e bc c8 0d d7 bb a6 bf 91 3e
       -0.012963528 -0.011612808 -0.006562922 0.2846653
000110 63 fb 14 bf 3c 8d 27 3e e4 6f 97 3e 5e 57 03 3e
       -0.58196086 0.1636247 0.29577553 0.12826297
000120 08 7d 58 bf 80 dc 12 be 15 14 f5 3e 87 da b4 be
       -0.8456578 -0.14341927 0.47866884 -0.35322973
000130 c0 9c 30 bf a8 ef bb 3e 1b 38 2c bf d1 0e d4 3e
       -0.6898918 0.3670628 -0.6727311 0.41417554

model.layer_3.mainModule.bias f4 [10]
000000 24 55 74 be 98 bd cd 3d b5 24 41 be b0 e3 bf 3e
       -0.23860604 0.10045928 -0.18861659 0.374784
000010 1d f8 0f bf 85 9d e3 bd 13 6b c2 be 11 47 36 3f
       -0.56237966 -0.11114029 -0.37972316 0.7120219
000020 b9 87 37 3d 45 26 4e be
       0.04480717 -0.20131786

model.layer_3.pb.parentModule.weight f4 [10, 8]
000000 b1 ff f7 3d cf cd 1a be 08 e2 89 be 78 4a 5f be
       0.12109316 -0.15117572 -0.2693026 -0.21805751
000010 17 65 21 be 75 24 64 bd f2 ee 68 3e 4d 4c a8 be
       -0.15761219 -0.05569883 0.227474 -0.32870713
000020 26 40 f4 bd 49 8b 07 be 37 6f ce bd 07 f8 2f be
       -0.11926298 -0.13236727 -0.10079806 -0.17184459
000030 a3 40 15 3e 8c 3b 66 be 44 c0 a1 3e fa 9d 5c be
       0.14575438 -0.22483653 0.31592 -0.21544638
000040 c4 04 aa 3d 11 dc d2 3d 75 c5 f9 bc b8 5c 8f be
       0.0830169 0.102958806 -0.030489663 -0.28000426
000050 53 64 82 3e 7f aa 79 3d e1 d4 a8 be 37 db f6 bd
       0.25467166 0.060953613 -0.32974914 -0.12053531
000060 a9 9d a9 bd 20 ad 0c bc dc 25 7d be 77 f1 76 bd
       -0.082820244 -0.008586198 -0.24721473 -0.060288873
000070 8e 16 71 3e 8a 32 94 3e 23 2a b3 3e f1 82 d8 3d
       0.2354376 0.28944808 0.34993085 0.1057185
000080 23 05 31 3e f4 0e b0 3e 01 b4 26 be 08 97 a0 be
       0.17287116 0.34386408 -0.16279604 -0.31365228
000090 3c 0c 47 3c a7 23 a4 3e fd c5 86 be 8c 41 68 3e
       0.012148913 0.3205845 -0.26322928 0.22681254
0000a0 ce e2 7a 3e 48 3a 9d be 30 5c 68 be eb b7 60 3e
       0.24500582 -0.30708528 -0.22691417 0.21945159
0000b0 b7 b6 91 3e d9 67 d4 bd 55 0a 1b 3e 4b a0 00 3e
       0.28459713 -0.1037137 0.1514066 0.12561147
0000c0 d4 c1 9f 3e f9 5a a5 3e 55 75 40 3e 3a 3a ac bb
       0.31202567 0.3229597 0.18794759 -0.0052559646
0000d0 16 18 df 3d a7 eb 8d 3d 8a 79 5e 3e 39 e5 0d bd
       0.10893266 0.06929713 0.21726051 -0.034642432
0000e0 15 3b 71 be ce 17 d1 bd 1b c4 71 be 8a 3b 8c 3e
       -0.23557694 -0.102096185 -0.23609965 0.27389175
0000f0 d3 a6 d4 3c 9f 27 a6 be e4 d4 a3 3e 0a 04 3a be
       0.025958454 -0.32452103 0.3199836 -0.18165603
000100 4a 72 ef bd 04 f8 8b bd dd 39 5a 3e f7 89 7c 3e
       -0.11691721 -0.068344146 0.21311136 0.24662004
000110 f5 ad 94 be cb 53 91 be 25 9b ab 3e 25 06 d6 bd
       -0.2903897 -0.2838424 0.33516803 -0.10450391
000120 83 17 8f be b3 fb 90 be cd 8d a0 3e 65 bf 5b 3e
       -0.27947626 -0.2831703 0.31358185 0.2145973
000130 98 7b 34 bd c7 26 31 3d cc 53 92 3d ca 31 90 3e
       -0.04406318 0.04324987 0.07144889 0.28162986

model.layer_3.pb.parentModule.bias f4 [10]
000000 b2 d4 e1 bb 47 f9 2a be 0d 80 5d be 8e d6 a8 be
       -0.0068918103 -0.16696654 -0.21630879 -0.32976192
000010 b7 f8 52 be 9e 39 85 3d e8 e0 8f 3d 7f 10 11 be
       -0.2060269 0.0650513 0.07025319 -0.14166449
000020 15 b4 15 bd 6c 5e aa be
       -0.036548693 -0.33275163

model.layer_3.pb.pbValues.0.topPBCandidateAverage f4 [10]
000000 00 00 00 00 00 00 00 00 00 00 00 00 00 00 00 00
       0.0 0.0 0.0 0.0
000010 00 00 00 00 00 00 00 00 00 00 00 00 00 00 00 00
       0.0 0.0 0.0 0.0
000020 00 00 00 00 00 00 00 00
       0.0 0.0

model.layer_3.pb.pbValues.0.PrevPBCandidateCorrelation f4 [10]
000000 00 00 00 00 00 00 00 00 00 00 00 00 00 00 00 00
       0.0 0.0 0.0 0.0
000010 00 00 00 00 00 00 00 00 00 00 00 00 00 00 00 00
       0.0 0.0 0.0 0.0
000020 00 00 00 00 00 00 00 00
       0.0 0.0

model.layer_3.pb.pbValues.0.currentCorrelationsForParallel f4 [10]
000000 00 00 00 00 00 00 00 00 00 00 00 00 00 00 00 00
       0.0 0.0 0.0 0.0
000010 00 00 00 00 00 00 00 00 00 00 00 00 00 00 00 00
       0.0 0.0 0.0 0.0
000020 00 00 00 00 00 00 00 00
       0.0 0.0

model.layer_3.pb.pbValues.0.bestScore f4 [10]
000000 00 00 00 00 00 00 00 00 00 00 00 00 00 00 00 00
       0.0 0.0 0.0 0.0
000010 00 00 00 00 00 00 00 00 00 00 00 00 00 00 00 00
       0.0 0.0 0.0 0.0
000020 00 00 00 00 00 00 00 00
       0.0 0.0

model.layer_3.pb.pbValues.0.previousBestScore f4 [10]
000000 00 00 00 00 00 00 00 00 00 00 00 00 00 00 00 00
       0.0 0.0 0.0 0.0
000010 00 00 00 00 00 00 00 00 00 00 00 00 00 00 00 00
       0.0 0.0 0.0 0.0
000020 00 00 00 00 00 00 00 00
       0.0 0.0

model.layer_3.pb.pbValues.0.PrevPBCandidateAverage f4 [10]
000000 00 00 00 00 00 00 00 00 00 00 00 00 00 00 00 00
       0.0 0.0 0.0 0.0
000010 00 00 00 00 00 00 00 00 00 00 00 00 00 00 00 00
       0.0 0.0 0.0 0.0
000020 00 00 00 00 00 00 00 00
       0.0 0.0

model.layer_3.pb.pbValues.0.mainGradAverageForScaling f4 [10]
000000 00 00 00 00 00 00 00 00 00 00 00 00 00 00 00 00
       0.0 0.0 0.0 0.0
000010 00 00 00 00 00 00 00 00 00 00 00 00 00 00 00 00
       0.0 0.0 0.0 0.0
000020 00 00 00 00 00 00 00 00
       0.0 0.0

model.layer_3.pb.pbValues.0.candidateGradAverageForScaling f4 [10]
000000 00 00 00 00 00 00 00 00 00 00 00 00 00 00 00 00
       0.0 0.0 0.0 0.0
000010 00 00 00 00 00 00 00 00 00 00 00 00 00 00 00 00
       0.0 0.0 0.0 0.0
000020 00 00 00 00 00 00 00 00
       0.0 0.0

model.layer_3.pb.pbValues.0.indexesOfbest f4 [10]
000000 00 00 00 00 00 00 00 00 00 00 00 00 00 00 00 00
       0.0 0.0 0.0 0.0
000010 00 00 00 00 00 00 00 00 00 00 00 00 00 00 00 00
       0.0 0.0 0.0 0.0
000020 00 00 00 00 00 00 00 00
       0.0 0.0

model.layer_3.pb.pbValues.0.nodesBestImprovedThisEpoch f4 [10]
000000 00 00 00 00 00 00 00 00 00 00 00 00 00 00 00 00
       0.0 0.0 0.0 0.0
000010 00 00 00 00 00 00 00 00 00 00 00 00 00 00 00 00
       0.0 0.0 0.0 0.0
000020 00 00 00 00 00 00 00 00
       0.0 0.0

model.layer_3.pb.pbValues.0.parentsAverageDvector f4 [10]
000000 69 40 a6 38 30 bc 86 37 07 52 69 37 83 d9 aa b8
       7.927494e-05 1.6061676e-05 1.3906981e-05 -8.1467464e-05
000010 13 40 18 38 e2 b9 19 38 38 a7 0b 38 56 5c 26 b9
       3.6299298e-05 3.665116e-05 3.3295917e-05 -0.00015865391
000020 1d 4b fa 36 15 0d 90 37
       7.459325e-06 1.717223e-05

model.layer_3.pb.pbValues.0.normalPassAverageD f4 [10]
000000 69 40 a6 38 30 bc 86 37 07 52 69 37 83 d9 aa b8
       7.927494e-05 1.6061676e-05 1.3906981e-05 -8.1467464e-05
000010 13 40 18 38 e2 b9 19 38 38 a7 0b 38 56 5c 26 b9
       3.6299298e-05 3.665116e-05 3.3295917e-05 -0.00015865391
000020 1d 4b fa 36 15 0d 90 37
       7.459325e-06 1.717223e-05

model.layer_3.pb.candidateLayer.0.weight f4 [10, 8]
000000 62 47 3e 3b ff c7 87 bb 3e 20 fa bb c2 c1 1a bc
       0.0029034247 -0.0041437144 -0.007633238 -0.0094456095
000010 7d e0 63 3b 44 95 cc bb 55 a0 60 3b 73 25 4f ba
       0.0034771257 -0.00624338 0.0034275253 -0.00079020037
000020 ec a3 ea 3b 94 59 1f b9 71 43 8a 3b e4 ae a5 3b
       0.0071606543 -0.00015196792 0.0042194654 0.005056249
000030 25 64 00 bc 1e a0 2c 3c 57 97 f8 3b 17 ce c1 3b
       -0.007836376 0.010536222 0.0075864005 0.0059144604
000040 1d 36 08 bc 54 a5 e8 3a 18 6d 06 3c ae 49 c0 38
       -0.008313683 0.0017749467 0.008204721 9.168997e-05
000050 9c f8 51 bb cb ab a4 bb fe 7d f0 3b 23 9f ee ba
       -0.0032039052 -0.005025362 0.007339238 -0.0018205385
000060 89 13 99 bc bb 38 8f bb 46 10 91 3b 7f 84 13 3c
       -0.018686073 -0.0043707765 0.004426989 0.0090037575
000070 c0 17 1a 3c dd 5d 28 bc d5 51 d4 3b 4f 6f 46 bb
       0.0094050765 -0.010276285 0.0064794817 -0.0030278747
000080 ca 6d f1 3a 42 b2 a9 3c b6 e9 10 bc 34 1a cb bb
       0.001841956 0.020714883 -0.0088447835 -0.006198192
000090 f2 79 ed 3b 15 e7 fc 3b 21 e8 00 39 84 7a 2f bc
       0.007247203 0.007717977 0.00012293506 -0.010710362
0000a0 2f 2a 5b bb 8d 64 2d 3b 5b e4 82 bb ce 4c cd bb
       -0.0033441891 0.0026457638 -0.0039945072 -0.0062652593
0000b0 4e f5 2f bc 1a da 16 3c 00 c0 f7 bb c4 68 24 3b
       -0.010739638 0.009207273 -0.00756073 0.002508686
0000c0 34 af cc 3b 10 8d f8 bb e6 08 65 ba 97 20 4d bb
       0.006246472 -0.0075851753 -0.00087369827 -0.0031299943
0000d0 d9 bd a3 3c 0f ac 89 3b a7 92 05 3c 55 27 db bb
       0.019987987 0.004201419 0.00815264 -0.0066880384
0000e0 b2 6a 17 3b 47 1d f6 bb 6b cc e3 bb fb 53 31 bc
       0.0023104367 -0.0075108144 -0.0069518588 -0.010823245
0000f0 8d 65 1e 3b 41 46 bc 37 3e 9b 84 3b ab a8 31 3c
       0.0024169416 2.2444061e-05 0.0040468266 0.010843436
000100 ed 9f 09 bc 5c 6b 6d bb 10 77 8a bb 74 5d a6 3a
       -0.008399946 -0.0036227321 -0.004225619 0.0012692646
000110 67 12 a8 3c 8e da f7 3b a3 1c 72 3c 27 d2 1a bc
       0.020516587 0.0075638955 0.014777335 -0.009449518
000120 be 5e 40 3a 5d 10 0e 3c 7e 8e 73 3c f7 c0 06 bc
       0.00073383364 0.0086708935 0.014865516 -0.008224717
000130 60 da 8d 3b 37 34 4e 3c 59 27 2c bc 89 fe a9 bb
       0.004329011 0.012585691 -0.010507428 -0.0051878137

model.layer_3.pb.candidateLayer.0.bias f4 [10]
000000 b7 91 3f bb 1d 96 8a 3c 30 e9 4d 3c c4 5b 8a bb
       -0.002923114 0.016917283 0.012567803 -0.004222365
000010 c4 7c a0 3c 9e 8d 50 3c 33 18 8a 3b 9b c4 f7 ba
       0.019590743 0.012729077 0.0042143106 -0.0018903197
000020 91 71 0e 38 db f0 ac bb
       3.3961205e-05 -0.0052777356

model.layer_3.pb.candidateBestLayer.0.weight f4 [10, 8]
000000 62 47 3e 3b ff c7 87 bb 3e 20 fa bb c2 c1 1a bc
       0.0029034247 -0.0041437144 -0.007633238 -0.0094456095
000010 7d e0 63 3b 44 95 cc bb 55 a0 60 3b 73 25 4f ba
       0.0034771257 -0.00624338 0.0034275253 -0.00079020037
000020 ec a3 ea 3b 94 59 1f b9 71 43 8a 3b e4 ae a5 3b
       0.0071606543 -0.00015196792 0.0042194654 0.005056249
000030 25 64 00 bc 1e a0 2c 3c 57 97 f8 3b 17 ce c1 3b
       -0.007836376 0.010536222 0.0075864005 0.0059144604
000040 1d 36 08 bc 54 a5 e8 3a 18 6d 06 3c ae 49 c0 38
       -0.008313683 0.0017749467 0.008204721 9.168997e-05
000050 9c f8 51 bb cb ab a4 bb fe 7d f0 3b 23 9f ee ba
       -0.0032039052 -0.005025362 0.007339238 -0.0018205385
000060 89 13 99 bc bb 38 8f bb 46 10 91 3b 7f 84 13 3c
       -0.018686073 -0.0043707765 0.004426989 0.0090037575
000070 c0 17 1a 3c dd 5d 28 bc d5 51 d4 3b 4f 6f 46 bb
       0.0094050765 -0.010276285 0.0064794817 -0.0030278747
000080 ca 6d f1 3a 42 b2 a9 3c b6 e9 10 bc 34 1a cb bb
       0.001841956 0.020714883 -0.0088447835 -0.006198192
000090 f2 79 ed 3b 15 e7 fc 3b 21 e8 00 39 84 7a 2f bc
       0.007247203 0.007717977 0.00012293506 -0.010710362
0000a0 2f 2a 5b bb 8d 64 2d 3b 5b e4 82 bb ce 4c cd bb
       -0.0033441891 0.0026457638 -0.0039945072 -0.0062652593
0000b0 4e f5 2f bc 1a da 16 3c 00 c0 f7 bb c4 68 24 3b
       -0.010739638 0.009207273 -0.00756073 0.002508686
0000c0 34 af cc 3b 10 8d f8 bb e6 08 65 ba 97 20 4d bb
       0.006246472 -0.0075851753 -0.00087369827 -0.0031299943
0000d0 d9 bd a3 3c 0f ac 89 3b a7 92 05 3c 55 27 db bb
       0.019987987 0.004201419 0.00815264 -0.0066880384
0000e0 b2 6a 17 3b 47 1d f6 bb 6b cc e3 bb fb 53 31 bc
       0.0023104367 -0.0075108144 -0.0069518588 -0.010823245
0000f0 8d 65 1e 3b 41 46 bc 37 3e 9b 84 3b ab a8 31 3c
       0.0024169416 2.2444061e-05 0.0040468266 0.010843436
000100 ed 9f 09 bc 5c 6b 6d bb 10 77 8a bb 74 5d a6 3a
       -0.008399946 -0.0036227321 -0.004225619 0.0012692646
000110 67 12 a8 3c 8e da f7 3b a3 1c 72 3c 27 d2 1a bc
       0.020516587 0.0075638955 0.014777335 -0.009449518
000120 be 5e 40 3a 5d 10 0e 3c 7e 8e 73 3c f7 c0 06 bc
       0.00073383364 0.0086708935 0.014865516 -0.008224717
000130 60 da 8d 3b 37 34 4e 3c 59 27 2c bc 89 fe a9 bb
       0.004329011 0.012585691 -0.010507428 -0.0051878137

model.layer_3.pb.candidateBestLayer.0.bias f4 [10]
000000 b7 91 3f bb 1d 96 8a 3c 30 e9 4d 3c c4 5b 8a bb
       -0.002923114 0.016917283 0.012567803 -0.004222365
000010 c4 7c a0 3c 9e 8d 50 3c 33 18 8a 3b 9b c4 f7 ba
       0.019590743 0.012729077 0.0042143106 -0.0018903197
000020 91 71 0e 38 db f0 ac bb
       3.3961205e-05 -0.0052777356
