libraryExamples/mnist_lightning/.mnist_{epoch}-{val_loss:.2f}/epoch=0-step=860-v3.ckpt (torch, 102686 bytes, 60 tensors)

model.layer_1.mainModule.weight f4 [4, 784]
00000000: df01 3bbc a91e 1c3d 2755 3ebc f279 aa3c
00000010: 184d 943c 1ea6 b0bc 8b3d 85bc 4f28 273d
00000020: b807 f23c 1fa1 8e3c 3165 b13c b39c 0a3d
00000030: 797d a13c 4f94 d53c c897 0c3d 0df9 213c
00000040: 0f20 d7bc b2e8 6cbb 2427 b6bb 847e 233c
00000050: 42ae 213d d06f a13c ec42 06bc 42ba 343c
00000060: e91d fd3a 7165 3abc c17c f73c 4847 c53c
00000070: 3bd5 1d3b 1e44 233d 82ca 6cbc 7695 083d
00000080: 92fc a43c 92f9 2a3d 847d ce3c 5660 a53c
00000090: ddd2 523b a4e3 813c 3b5f abbc 592c 333d
000000a0: d7ca 9ebc 1ee7 073c 08a8 1b3d 678a 803c
000000b0: 8bb3 9fbc 582a f33c f4ef b8bc 01ba e83c
000000c0: 2bbe 383c 4a99 033b 8bf1 813c 92fc cdbb
000000d0: 6030 29bc b9e0 543a d425 0bbc 6c34 313d
000000e0: 5808 7fbc 1ff3 b33c 5cb4 2c3d a62f eeba
000000f0: 975d 84bc cb88 f53c bcaf 98bb 2abc 003d
00000100: dfbc 1c3d ec89 b7bb d713 08bb f16a 6f3c
00000110: 5a6f 2b3c edf2 293c b264 72bb 9569 253d
00000120: ace9 cfbb c2a2 49bb a275 053c ae0b a6bc
00000130: 4c05 463c 9853 c73c 0ca3 d9bc 8d7c d73c
00000140: 3ad8 6f3b 5ff6 1f3c 9ad1 1a3c cb21 9bbc
00000150: 6fb5 943c 7178 d53c 2d5c c5bc 8fc0 273d
00000160: ad28 d43c 5bbc c5bc e893 143c 5a3d 293d
00000170: a5d2 c5bc 6616 d73c 6cc9 0fbb a57b ac3b
00000180: eea1 163d 97cd 1c3b f547 2c3d b8cb 113d
00000190: f9dd 67bb 2f5a 56bb b3cb c3bc a7cb 443c
000001a0: 36f4 37bc da96 03bc 2fef 6d38 da72 06bc
000001b0: e02c 173b e6b3 973c 9d31 8b3c d69c c93c
000001c0: 5d5c 89bc 3c3c 143d 4eb4 343d 6c42 65bc
000001d0: 5f94 7f3c 92d0 9ebc 4159 c53c 98f3 c73c
000001e0: b019 373c 63ab 503c b078 ce3a 0a6e c8bc
000001f0: 5747 aebc 9456 033c e60b 17ba e3c1 ae3c
00000200: b2a5 16bd a5e9 f03b 4db9 e63c d366 32bc
00000210: e4ce 19bc cde8 cf3c f839 abbc 97e8 ac3b
00000220: a9e6 053d b6cc f53c fa8c 2d3c 58bd df3c
00000230: bfc1 143c 8bfc a63c 9ef8 f23b 2a4a 323d
00000240: caed ddbb 2a5e 1f3d a3ba efbb 7ade 0e3c
00000250: 0a28 11bc dc31 58bc ce22 293a 1c21 823b
00000260: 7aaf b83b 0e27 c6bc c466 43bc 3223 fcbc
00000270: 5daf 4aba b187 88bb 27b9 bfbc 83c0 ac3b
00000280: cbee 9639 bc4f 64bb b938 513c 92c1 b93c
00000290: 012f 9e3c 092d b2bc 332a 0d3d 0044 b5bb
000002a0: 75d9 4b3c 7bf9 793c 5d93 d03c dc5f 0f3c
000002b0: 8695 253d b427 8fbb 5457 103c a6e0 0dbc
000002c0: 944d 0f3c 13f7 82bc 77fa 6d3c cdce d83c
000002d0: 820a 19bd 7385 d53c 7e80 08bd a9ec a73c
000002e0: 886f e63c 69d4 11bd 810f 89bb e809 193c
000002f0: 7b2a ab3b c7d9 553c a7be bf3c 6de8 dbba
00000300: 6cfd 74bb 6263 97bb 8901 223d e499 2ebc
00000310: b45a 91bc 9049 babc 5b80 153c e7fe 183d
00000320: 06dd d7bb 110e bc3c aba8 8f3c de49 9bbc
00000330: ae8f a8bc 915f d13b 17d9 e6bb 5e2a 7b3c
00000340: 50f3 88bc a946 b5bc 70d8 cbbc c604 e0bc
00000350: 5495 aabb e317 02bd 3768 fd3b 7066 97bb
00000360: 80d2 aebc 9297 aebc 32c6 0abd 71c4 b2bc
00000370: ec3a c8bb 08d6 293d 0695 97bb fe1c 5bbc
00000380: 22a9 393c 950e f439 1536 3ebc 299f ebbc
00000390: 11d1 c33c c31b a53c 83f7 a4bc 0ce2 523c
000003a0: 5cb3 203d a43b 3a3c f3b4 c13b 57a9 a13a
000003b0: 8af1 d6bc fddf 343c 1deb 463a c4d7 813b
000003c0: 72fb d4bc 89fa 193a 3bcd bf3c 6032 ad3c
000003d0: c727 b03c 838a f5bc 94b0 dfbc 8b6d 9eba
000003e0: eeb8 b3bc d411 f83c 7fa2 68bc ef03 303d
000003f0: 48d3 8c3c 517e cbbc 13d4 933b 2495 103d
-0.01141402 0.038115177 -0.011616982 0.020810101 0.018103167 -0.021563586 -0.016264698 0.040809926
0.029544696 0.017410813 0.021654697 0.033840846 0.01971315 0.026071696 0.034324437 0.0098860385
-0.026260404 -0.003614944 -0.005558865 0.009978894 0.039472826 0.019706637 -0.008194666 0.011030735
0.0019311282 -0.011376725 0.030210854 0.024081841 0.0024083394 0.039859883 -0.0144525785 0.033345662
0.020139966 0.041741915 0.025206335 0.020187538 0.0032169141 0.015855618 -0.020919433 0.043743465
-0.019383831 0.008294849 0.038002044 0.015690995 -0.019494792 0.029683277 -0.022575356 0.028409006
0.011275808 0.002008038 0.015862247 -0.0062862122 -0.010326475 0.00081206445 -0.008492906 0.043262884
-0.015565954 0.021966515 0.04216419 -0.0018172159 -0.016157908 0.029972455 -0.004659621 0.031429447
0.03826606 -0.0056011584 -0.0020763779 0.014612899 0.01046356 0.010372859 -0.0036986289 0.040383894
-0.0063449945 -0.0030767177 0.008145722 -0.020269241 0.012086224 0.024331853 -0.026567005 0.026304508
0.0036597387 0.009763329 0.009449387 -0.018937012 0.01815292 0.026058408 -0.024091804 0.040955123
0.025898302 -0.024137666 0.009068467 0.041318275 -0.024148295 0.026255798 -0.0021940125 0.005263763
0.036775522 0.0023926252 0.04206081 0.035594672 -0.0035380109 -0.0032707562 -0.023900842 0.012011445
-0.011227658 -0.008031571 5.672796e-05 -0.008206094 0.002306752 0.0185184 0.01699143 0.024610918
-0.016767675 0.036190256 0.044117264 -0.013992887 0.015599339 -0.019386563 0.024090411 0.024408147
0.011175558 0.012736174 0.001575252 -0.024466533 -0.021274252 0.008016247 -0.0005761966 0.021332687
-0.036779113 0.0073520713 0.02816453 -0.010888773 -0.0093877055 0.025379563 -0.020901665 0.0052767503
0.032690678 0.03000484 0.010592693 0.027311966 0.009079396 0.020384094 0.0074148914 0.04352776
-0.0067727314 0.03890816 -0.00731595 0.008720035 -0.008859644 -0.013195481 0.00064520247 0.003971232
0.005636153 -0.024188545 -0.011926357 -0.030778501 -0.00077318196 -0.0041665663 -0.023403717 0.0052719726
0.00028788144 -0.0034837564 0.012769871 0.02267531 0.019309523 -0.02174999 0.034464072 -0.005531788
0.0124419825 0.015257235 0.025460893 0.008750882 0.0404258 -0.0043687467 0.008809883 -0.008659517
0.008746523 -0.015986955 0.0145250475 0.026465798 -0.037363537 0.02606461 -0.033325665 0.02049859
0.028129354 -0.03560296 -0.0041827564 0.009340741 0.00522357 0.01305241 0.02340634 -0.0016777642
-0.0037382497 -0.0046200017 0.039552245 -0.010656808 -0.017743446 -0.022740155 0.009124841 0.03735247
-0.0065876273 0.022955926 0.017536482 -0.018956121 -0.020576324 0.006389566 -0.007044922 0.015329925
-0.016717583 -0.02212842 -0.024883479 -0.027346026 -0.0052057896 -0.03176106 0.0077333706 -0.004620366
-0.021340609 -0.021312509 -0.03388042 -0.021822186 -0.0061105397 0.04146388 -0.0046259193 -0.0133736115
0.011331828 0.0004655017 -0.011609574 -0.028762417 0.023903402 0.02015484 -0.020137554 0.012871277
0.03923355 0.0113667585 0.0059114634 0.0012333792 -0.026238222 0.011039731 0.0007588135 0.003962489
-0.025998805 0.00058738195 0.023413291 0.021142185 0.021503342 -0.029973274 -0.027305879 -0.001208709
-0.021938767 0.030281939 -0.014198898 0.0429725 0.01719059 -0.024840506 0.004511365 0.03529848

model.layer_1.mainModule.bias f4 [4]
00000000: 62c9 51bb 2c7d ed3b b2ac 0e3d bbe9 c8bb
-0.0032010903 0.0072475877 0.034832664 -0.0061313785

model.layer_1.pb.parentModule.weight f4 [4, 784]
00000000: fcee a4bc 4ecf f03c a098 a6bc ce17 463c
00000010: 1cbe 193c 2814 f8bc 95ab ccbc 4d71 033d
00000020: ae99 aa3c 2a66 0e3c 4eee 533c 63cb cd3c
00000030: dc1e 343c 4526 8e3c 8cc1 d13c 93e7 983a
00000040: 0d47 0fbd 4516 4abc aaef 69bc 4a13 a53a
00000050: 81ee fb3c 8a03 343c 838f 8abc a578 173b
00000060: b870 debb c5a0 a4bc b70e b03c 7cb2 7b3c
00000070: 93cd cebb 381a ff3c 4ed3 bdbc e7bc c93c
00000080: 0e1d 3b3c 9042 073d 7a0f 873c 97e4 3b3c
00000090: c14e b4bb 65d6 e93b 45cd f2bc 5775 0f3d
000000a0: e138 e6bc 6e9f deb9 0ce2 ef3c 6e71 e43b
000000b0: 9521 e7bc 4ebc ab3c ff2e 00bd f74b a13c
000000c0: 4a88 273b 8aeb dbbb 010e ea3b 61da 75bc
000000d0: 3c06 9cbc 0e8e 01bc f700 8dbc 6a7d 0d3d
000000e0: 37f2 c6bc 2a0a 593c 5afd 083d 0ea2 2cbc
000000f0: a1cb cbbc c11a ae3c f733 5bbc 530a ba3c
00000100: ba0b f23c 0ea1 6abc 0ee1 30bc ae1d c13b
00000110: 019a e43a 93b6 d83a 4575 4bbc 93b2 013d
00000120: eed0 76bc ca44 41bc 6e67 16ba b879 edbc
00000130: caa4 5c3b 1ccb 7f3c 8b88 10bd 830e 903c
00000140: 13cc a5bb 25d2 883a 0158 3f3a d58f e2bc
00000150: ca8e 1a3c 670a 8e3c 1c65 06bd 8d09 043d
00000160: a3ba 8c3c 3395 06bd b7f9 b639 5886 053d
00000170: 58a0 06bd 5ca8 8f3c 73ce 32bc 1379 62bb
00000180: d8d5 e53c 6551 cfbb f390 083d 6c29 dc3c
00000190: 97d3 48bc a572 44bc df9c 05bd 37be 573b
000001a0: 2768 a3bc 7a39 89bc 2aee 0dbc 7aa7 8abc
000001b0: c121 d2bb b78b 203c 2587 073c cc2e 823c
000001c0: 67ca d0bc 750a e13c 4cfd 103d 430f babc
000001d0: 8a70 e13b 9c3e e6bc 6ed6 7b3c 8e85 803c
000001e0: 5cf6 203b 0aae 823b 01fd d7bb 72c8 04bd
000001f0: 154e eebc ee2c 703b 8193 543b 6361 ee3c
00000200: d895 edbc b8f7 6e3c d6c9 0d3d 5758 2fbc
00000210: f720 c0bb 9290 083d 0a15 84bc 5ccf b93b
00000220: 85f5 c43c ac5e ae3c 0187 f53a 4e4f 983c
00000230: 93b4 bc39 011d 3f3c 4afe aaba 2893 0e3d
00000240: fcd2 7dbc 514e f73c b55c 83bc 0000 1835
00000250: c09e 82bc c0c4 1abc 9393 42bb 6eab 553a
00000260: aeb3 ec3b 6700 82bc 1cf7 85bb 1ace c0bc
00000270: 659f cf3b a5d2 6c3b 5cd0 76bc 6ea6 5f3c
00000280: aa11 113c 936e 913b 9079 973c 418c d03c
00000290: 65ae 2e3c 139b f9bc 61e6 d23c 187e 69bc
000002a0: 6ef5 733b c13a d63b 5325 893c ee88 0c3b
000002b0: 3e7c 0a3d 0ef9 33bc 01e2 473a 605e 8ebc
000002c0: dc93 a53a 3cfe 02bc 15bc b93c 7fb6 0d3d
000002d0: f3ed edbc a4bc 0a3d 6371 d2bc 2162 e63c
000002e0: 4b16 123d 8c41 e2bc ae84 863b fea5 8f3c
000002f0: ce0c 623c 9ab3 ac3c 8574 ee3c 4a04 afba
00000300: 731b 4cbc ca8d 5abc 0e95 fc3c feba 9ebc
00000310: bec8 d8bc cddb 00bd 0188 d439 51f0 fd3c
00000320: 5330 54bc 2ced 873c 4ad9 1c3c e8b7 e2bc
00000330: b8fd efbc 20cc 0e3c dc96 4338 8afd ce3b
00000340: 8e65 cebc bc08 f8bc 3ffe 09bd 2363 ffbc
00000350: dc1c 0f3b 9183 c2bc 9a30 853c 93e1 7d3b
00000360: 73be 5dbc bc7c 72bc 3caa e6bc 2ebf c9bc
00000370: 8ef9 72bc 061f 063d 9ca6 5abc 8cfc b4bc
00000380: 2534 2b3b a53b 07bc 1789 a6bc 53d6 0fbd
00000390: 2cb0 8f3c bcf5 613c 8a33 e6bc e50b 883b
000003a0: a11d ff3c 5c59 393b 25ed 80ba 9c18 e5bb
000003b0: 50c1 0ebd dc2d 863b 801b 123c e18d 493c
000003c0: 3a63 99bc 534e 103c e5e7 023d 28e2 f13c
000003d0: 2318 ec3c 27ed c1bc ce9d b4bc caa9 22bc
000003e0: f826 fbbc caa3 b03c 4cbf bbbc ed4c 0c3d
000003f0: 7cca 0a3c 2e76 09bd 1ce4 89bb cc1c ed3c
-0.020133488 0.029395726 -0.02033645 0.012090636 0.0093837045 -0.030283049 -0.02498416 0.032090474
0.020825233 0.00869135 0.012935234 0.025121396 0.010993686 0.017352233 0.025604986 0.0011665694
-0.03497987 -0.012334411 -0.014278332 0.001259425 0.030753376 0.010987172 -0.016914135 0.0023112681
-0.0067883395 -0.020096192 0.021491392 0.015362378 -0.0063111275 0.031140432 -0.023172047 0.024626208
0.011420501 0.033022463 0.016486872 0.011468074 -0.0055025523 0.0071361535 -0.029638896 0.035024013
-0.028103294 -0.00042461924 0.029282592 0.0069715297 -0.028214255 0.020963814 -0.03129482 0.019689543
0.0025563412 -0.006711428 0.0071427827 -0.015005679 -0.019045942 -0.007907404 -0.017212374 0.034543432
-0.024285419 0.013247052 0.03344474 -0.010536684 -0.024877371 0.021252992 -0.013379089 0.022710001
0.029546607 -0.014320625 -0.010795845 0.0058934307 0.0017440916 0.0016533904 -0.012418096 0.031664442
-0.015064461 -0.011796186 -0.0005737458 -0.028988704 0.0033667558 0.01561239 -0.035286468 0.017585045
-0.005059728 0.0010438605 0.00072991854 -0.027656475 0.009433458 0.017338945 -0.03281127 0.03223567
0.01717884 -0.03285713 0.00034899797 0.032598823 -0.03286776 0.017536335 -0.010913479 -0.003455703
0.02805607 -0.0063268417 0.03334136 0.02687522 -0.012257478 -0.011990224 -0.032620307 0.0032919773
-0.019947125 -0.01675104 -0.00866274 -0.016925562 -0.006412715 0.009798936 0.008271967 0.015891455
-0.025487138 0.027470807 0.035397813 -0.022712355 0.006879871 -0.028106026 0.015370948 0.015688684
0.0024560904 0.003988032 -0.0065914397 -0.032417722 -0.029089967 0.0036647874 0.0032436552 0.029099172
-0.029002115 0.014585428 0.034616314 -0.010702214 -0.0058633047 0.033340998 -0.016123313 0.005670471
0.024042854 0.021285377 0.0018732251 0.018592503 0.00035992693 0.01166463 -0.0013045755 0.034808308
-0.015492197 0.030188711 -0.016035417 5.662441e-07 -0.015944839 -0.009446323 -0.0029690012 0.000815085
0.007223568 -0.015869332 -0.0040882956 -0.023535777 0.00633614 0.0036136296 -0.015064325 0.01365052
0.008854309 0.0044382303 0.018490583 0.025457503 0.010661696 -0.030469453 0.025744619 -0.0142512545
0.0037225145 0.0065377657 0.01674143 0.002144392 0.033809893 -0.010984672 0.0007624925 -0.017378986
0.0012632567 -0.0079951845 0.022672692 0.03459787 -0.029044127 0.033871308 -0.025688833 0.028122963
0.03566579 -0.027619146 0.004105172 0.017535206 0.013796998 0.021081734 0.029108295 -0.0013352719
-0.012457716 -0.013339469 0.030832794 -0.019376274 -0.026462909 -0.03145962 0.00040537122 0.03099838
-0.0129509745 0.016592585 0.00957329 -0.027675584 -0.029295787 0.008715659 4.663212e-05 0.0063168453
-0.02519491 -0.030277602 -0.033689734 -0.031175202 0.002183727 -0.023744376 0.016258527 0.003873919
-0.013534176 -0.014800247 -0.028157346 -0.024627294 -0.014830006 0.03274443 -0.013345387 -0.02209308
0.002612361 -0.008253966 -0.020329041 -0.035116505 0.01754006 0.013791498 -0.028100748 0.0041518086
0.031142058 0.0028282022 -0.00098363 -0.006991459 -0.034852326 0.0040948223 0.008917689 0.012301893
-0.018724073 0.008807736 0.031959433 0.029526785 0.028820103 -0.023672653 -0.022047903 -0.009928176
-0.03065823 0.021562476 -0.022918366 0.03425305 0.008471128 -0.03355997 -0.004208101 0.028944395

model.layer_1.pb.parentModule.bias f4 [4]
00000000: a5d7 b43b 0a18 a03b 575e 943c dc78 703b
0.005518871 0.004885678 0.018111391 0.0036693132

model.layer_1.pb.pbValues.0.topPBCandidateAverage f4 [4]
00000000: 0000 0000 0000 0000 0000 0000 0000 0000
0.0 0.0 0.0 0.0

model.layer_1.pb.pbValues.0.PrevPBCandidateCorrelation f4 [4]
00000000: 0000 0000 0000 0000 0000 0000 0000 0000
0.0 0.0 0.0 0.0

model.layer_1.pb.pbValues.0.currentCorrelationsForParallel f4 [4]
00000000: 0000 0000 0000 0000 0000 0000 0000 0000
0.0 0.0 0.0 0.0

model.layer_1.pb.pbValues.0.bestScore f4 [4]
00000000: 0000 0000 0000 0000 0000 0000 0000 0000
0.0 0.0 0.0 0.0

model.layer_1.pb.pbValues.0.previousBestScore f4 [4]
00000000: 0000 0000 0000 0000 0000 0000 0000 0000
0.0 0.0 0.0 0.0

model.layer_1.pb.pbValues.0.PrevPBCandidateAverage f4 [4]
00000000: 0000 0000 0000 0000 0000 0000 0000 0000
0.0 0.0 0.0 0.0

model.layer_1.pb.pbValues.0.mainGradAverageForScaling f4 [4]
00000000: 0000 0000 0000 0000 0000 0000 0000 0000
0.0 0.0 0.0 0.0

model.layer_1.pb.pbValues.0.candidateGradAverageForScaling f4 [4]
00000000: 0000 0000 0000 0000 0000 0000 0000 0000
0.0 0.0 0.0 0.0

model.layer_1.pb.pbValues.0.indexesOfbest f4 [4]
00000000: 0000 0000 0000 0000 0000 0000 0000 0000
0.0 0.0 0.0 0.0

model.layer_1.pb.pbValues.0.nodesBestImprovedThisEpoch f4 [4]
00000000: 0000 0000 0000 0000 0000 0000 0000 0000
0.0 0.0 0.0 0.0

model.layer_1.pb.pbValues.0.parentsAverageDvector f4 [4]
00000000: 1970 f72d e558 adb6 dae4 fdb5 24f5 d52e
2.813043e-11 -5.1661505e-06 -1.8916573e-06 9.729664e-11

model.layer_1.pb.pbValues.0.normalPassAverageD f4 [4]
00000000: 1970 f72d e558 adb6 dae4 fdb5 24f5 d52e
2.813043e-11 -5.1661505e-06 -1.8916573e-06 9.729664e-11

model.layer_1.pb.candidateLayer.0.weight f4 [4, 784]
00000000: 4a08 1c3c a753 943b 97f4 053c dbac b53b
00000010: c61c 4dbb 4bc3 2ebc a640 0b3c 5e88 6fba
00000020: 267c e2bb ce13 3abb 2b8b 9cbc 95f3 70ba
00000030: b71f 923c b7a6 7f3c 653a b6bc d435 f63b
00000040: 3da3 74bc 448a 36bc d9f7 f4ba deb1 20bb
00000050: efa8 6b3c caef 45bc 276c 89bb 7ee9 3e3b
00000060: f404 b93b d441 03bb 6de8 093c c2f1 6c3c
00000070: ab31 3f3a 96d6 83bb f356 60bc 8085 663c
00000080: 944d 5d3c 2e8d 723b 609a 1abb 944b 2a3b
00000090: 44d0 9a3c 44bb babb a9ae 08bc 749e a9bc
000000a0: ac24 0ebc 3866 223b ccfe 19bd 1820 97ba
000000b0: ce68 483c 7457 e1bb 6573 903b 2709 41bc
000000c0: ceb0 503c d272 58bb 206e edbb d831 c7bb
000000d0: 005e e2bb 1558 d13b 9978 cd3b 813a bc3b
000000e0: 7dd7 dbba 589c d43b 6f40 163c 7e1e 5abc
000000f0: 24bc 34bc f593 f73b b742 6b3b 3bcf 0e3c
00000100: 180c c03a 30e5 64bb 90b3 be3a 30a4 5d3c
00000110: 99a4 c13a 225f 5cbc 35e9 b83b 79ac bb3b
00000120: b2be b33c 47bf 243c 508b 133c e9db a53b
00000130: 1d89 9dbc 2fa7 293b fd6f 66bb ec67 7db8
00000140: d94f 443c 2b6d dd3b 5121 9c3b 52f0 1bbb
00000150: 5db4 e13b 3520 54bb 5dfe 4bbc 32c8 70bc
00000160: 5b80 30bc 4633 05bc 3366 35bc 5978 213c
00000170: 15ce ff3b 4f68 14bb d960 87bb 7210 f43b
00000180: 3718 d13b 271e da39 3d90 1e3c 9bf5 3a3c
00000190: 18d4 8e3c 5b78 41bb d7b2 ccbb c728 993b
000001a0: 469e 36bc 65df f43b 4f9b f23b c69c 61ba
000001b0: 434d 05bc 39e4 a6bb eb6f e73b bbcd 52bc
000001c0: 7571 32bb b1d0 0f3b fafe 1dbc 19e4 333c
000001d0: 1dde 183c 2ab3 28ba 7de4 30bc 1201 863b
000001e0: 97cb 3f3a 2cbe d4bb fcf1 55bc 729f b4bc
000001f0: 21b9 cc3b abce b93c cf99 85ba d67a a13b
00000200: f8e1 0abc 65c8 2a3c a0e8 6d3b 8e4f e8bc
00000210: 61a7 003c 5db8 343c 7ec6 2c3b c668 63bc
00000220: ca04 27bc 7dd2 f63b 192d 6e3b 6144 eb3b
00000230: 6981 393b c544 45bc b071 fb3b c3a2 eeb9
00000240: 0ad5 af3a 787e 91ba a20c c93b 135f 413b
00000250: 65ab b4bb f9cb 213c c064 cebb 15f6 bf3b
00000260: f289 033c 92f6 edbb c25c d7bb 0c47 183c
00000270: c511 9b3c c0c3 053c 8766 0a3c 6411 403c
00000280: 7c27 323c 23fe 1c3c 0c5c dd3b 1324 db3b
00000290: 099a 6a3c a4fd 9cbb dc80 303c 1110 103c
000002a0: aaf3 babb 2538 413c 629a f5ba 80e4 8e3b
000002b0: f1c8 98bb 5da7 0e3c c05b 133c e9e1 21bc
000002c0: edd5 2fbc bd44 d0bb 1450 87bc ff46 803b
000002d0: bd0b c43b 22bd 243b 2987 e8bb 7477 24bb
000002e0: 27cd d9bb bc97 a9ba f5d9 9ebb 183e b2bb
000002f0: 7da9 cb3a a224 873b a78b 1abc 85bd 44bc
00000300: c461 e33a 7023 5ebc 6ef0 03bc 1224 0bbb
00000310: 90ee 153c d529 3bba ef6f 6aba 611a 9a3b
00000320: 9c79 613c 0cad f13b 0b5c 3c3b fd55 3bbc
00000330: 60fb 27bc 1b6e 343c 6faf 0c3c e1bb b83a
00000340: 8141 d6bb 8bab 4ebc a046 68bc 3459 a23b
00000350: 56ed 143c e3e4 77bc 7d8b 883c 2578 833b
00000360: 9785 013c cf7c 4ebc 2ae0 f2ba bef5 983b
00000370: 9770 30bc f02b 46bc 2b10 b2b9 821b 8b3c
00000380: cdd9 03ba e531 6cbb 1b3f d0bb 1b91 433b
00000390: 94ed b53b 0970 efbb 3753 cc3b 9018 fb3a
000003a0: 2828 083c 75b9 17bb 1ce1 b13b 5fe9 0b3c
000003b0: 524b 85bc 3b96 55bc c3dd 723b f807 9cbc
000003c0: 57aa 91bc 3bec 93bb 6d7c 033c 5db3 803c
000003d0: 2268 59bc 9576 7dbc bf93 05bd ef44 843c
000003e0: 72fc 0d3b 199a b63b b810 f73b 052b 853c
000003f0: 1379 ec3a 3353 9b3b ea7b 66ba 7be7 aebb
0.009523461 0.0045265737 0.008175991 0.0055442876 -0.0031297668 -0.010666679 0.0084993 -0.0009137447
-0.0069117723 -0.0028393152 -0.01910933 -0.000919157 0.017837388 0.015603713 -0.022244642 0.007513741
-0.014931497 -0.0111413635 -0.0018689587 -0.002452008 0.014383539 -0.012081096 -0.004193801 0.0029130871
0.0056463424 -0.002002825 0.008417231 0.014461936 0.0007293473 -0.0040233834 -0.013692605 0.014069915
0.013507266 0.003701042 -0.002359055 0.002598499 0.018898137 -0.0056985933 -0.0083424235 -0.02070544
-0.008675735 0.0024780165 -0.03759651 -0.001152995 0.012232019 -0.0068768803 0.0044082874 -0.011781967
0.012737466 -0.0033027423 -0.007245794 -0.00607894 -0.0069081783 0.006388674 0.00627048 0.005744279
-0.0016772595 0.006488364 0.009170636 -0.013312934 -0.011031184 0.0075554796 0.003589792 0.0087164
0.0014652042 -0.0034926645 0.0014549363 0.013527915 0.0014773785 -0.013450416 0.005643035 0.0057273475
0.021941517 0.01005537 0.009005383 0.0050616157 -0.01923042 0.0025887003 -0.0035161965 -6.0416685e-05
0.011981928 0.0067573986 0.004764714 -0.0023794365 0.006887956 -0.003236783 -0.012450782 -0.014696168
-0.01077279 -0.0081299 -0.0110717295 0.009855353 0.0078065493 -0.002264518 -0.004131418 0.0074482495
0.0063810605 0.00041602665 0.009677944 0.011411096 0.017435119 -0.00295212 -0.0062469053 0.0046740505
-0.011146134 0.0074729198 0.007403768 -0.000860643 -0.008136096 -0.005093124 0.007062902 -0.012866433
-0.002722827 0.0021944458 -0.009643311 0.010979676 0.0093303 -0.0006435389 -0.010796663 0.004089483
0.0007316409 -0.006492397 -0.013058182 -0.022048686 0.006247655 0.022681555 -0.0010192933 0.0049279733
-0.008476727 0.010423754 0.0036301985 -0.028358247 0.007852406 0.011030284 0.0026363428 -0.01387996
-0.010194013 0.0075324164 0.0036342798 0.0071797823 0.0028305894 -0.012040322 0.0076734647 -0.00045516164
0.0013414931 -0.0011100313 0.006135539 0.0029506132 -0.005513596 0.009875291 -0.0062986314 0.0058581927
0.008028494 -0.0072620595 -0.006572337 0.009294283 0.018929372 0.008164346 0.008447296 0.011722896
0.010873672 0.009582075 0.0067553576 0.00668765 0.014318951 -0.0047909785 0.01077291 0.008792893
-0.0057053166 0.011793171 -0.0018738026 0.0043607354 -0.004662626 0.008706895 0.008994043 -0.009880521
-0.010732156 -0.0063558505 -0.016517676 0.0039147134 0.0059828446 0.0025137146 -0.0070961905 -0.0025095614
-0.0066467705 -0.0012938897 -0.00484776 -0.005439531 0.0015538182 0.00412424 -0.00943271 -0.012008076
0.0017347862 -0.013558254 -0.008052928 -0.0021231216 0.009151116 -0.00071397173 -0.0008943071 0.0047028516
0.013761904 0.007375365 0.0028741385 -0.011434075 -0.010252804 0.011012579 0.0085867485 0.0014094078
-0.0065385704 -0.012614141 -0.014176995 0.0049544815 0.009089788 -0.015130254 0.016668076 0.004012125
0.007905385 -0.012602999 -0.0018529941 0.0046679666 -0.010769031 -0.012095436 -0.00033962852 0.01698089
-0.0005029708 -0.0036040482 -0.006355179 0.0029841128 0.005552003 -0.007307057 0.006235506 0.00191571
0.008310355 -0.0023151312 0.0054284465 0.008539527 -0.016271267 -0.013036306 0.003705845 -0.019046769
-0.01778142 -0.004514245 0.008025271 0.015710527 -0.013269456 -0.015470167 -0.032611605 0.016146151
0.0021665362 0.005572569 0.007539835 0.016255865 0.0018041454 0.0047401427 -0.00087922683 -0.005337653

model.layer_1.pb.candidateLayer.0.bias f4 [4]
00000000: 7eeb 453c 5b65 ab3b b54d 3f3a 2b32 14bb
0.0120800715 0.0052305884 0.0007297651 -0.002261291

model.layer_1.pb.candidateBestLayer.0.weight f4 [4, 784]
00000000: 4a08 1c3c a753 943b 97f4 053c dbac b53b
00000010: c61c 4dbb 4bc3 2ebc a640 0b3c 5e88 6fba
00000020: 267c e2bb ce13 3abb 2b8b 9cbc 95f3 70ba
00000030: b71f 923c b7a6 7f3c 653a b6bc d435 f63b
00000040: 3da3 74bc 448a 36bc d9f7 f4ba deb1 20bb
00000050: efa8 6b3c caef 45bc 276c 89bb 7ee9 3e3b
00000060: f404 b93b d441 03bb 6de8 093c c2f1 6c3c
00000070: ab31 3f3a 96d6 83bb f356 60bc 8085 663c
00000080: 944d 5d3c 2e8d 723b 609a 1abb 944b 2a3b
00000090: 44d0 9a3c 44bb babb a9ae 08bc 749e a9bc
000000a0: ac24 0ebc 3866 223b ccfe 19bd 1820 97ba
000000b0: ce68 483c 7457 e1bb 6573 903b 2709 41bc
000000c0: ceb0 503c d272 58bb 206e edbb d831 c7bb
000000d0: 005e e2bb 1558 d13b 9978 cd3b 813a bc3b
000000e0: 7dd7 dbba 589c d43b 6f40 163c 7e1e 5abc
000000f0: 24bc 34bc f593 f73b b742 6b3b 3bcf 0e3c
00000100: 180c c03a 30e5 64bb 90b3 be3a 30a4 5d3c
00000110: 99a4 c13a 225f 5cbc 35e9 b83b 79ac bb3b
00000120: b2be b33c 47bf 243c 508b 133c e9db a53b
00000130: 1d89 9dbc 2fa7 293b fd6f 66bb ec67 7db8
00000140: d94f 443c 2b6d dd3b 5121 9c3b 52f0 1bbb
00000150: 5db4 e13b 3520 54bb 5dfe 4bbc 32c8 70bc
00000160: 5b80 30bc 4633 05bc 3366 35bc 5978 213c
00000170: 15ce ff3b 4f68 14bb d960 87bb 7210 f43b
00000180: 3718 d13b 271e da39 3d90 1e3c 9bf5 3a3c
00000190: 18d4 8e3c 5b78 41bb d7b2 ccbb c728 993b
000001a0: 469e 36bc 65df f43b 4f9b f23b c69c 61ba
000001b0: 434d 05bc 39e4 a6bb eb6f e73b bbcd 52bc
000001c0: 7571 32bb b1d0 0f3b fafe 1dbc 19e4 333c
000001d0: 1dde 183c 2ab3 28ba 7de4 30bc 1201 863b
000001e0: 97cb 3f3a 2cbe d4bb fcf1 55bc 729f b4bc
000001f0: 21b9 cc3b abce b93c cf99 85ba d67a a13b
00000200: f8e1 0abc 65c8 2a3c a0e8 6d3b 8e4f e8bc
00000210: 61a7 003c 5db8 343c 7ec6 2c3b c668 63bc
00000220: ca04 27bc 7dd2 f63b 192d 6e3b 6144 eb3b
00000230: 6981 393b c544 45bc b071 fb3b c3a2 eeb9
00000240: 0ad5 af3a 787e 91ba a20c c93b 135f 413b
00000250: 65ab b4bb f9cb 213c c064 cebb 15f6 bf3b
00000260: f289 033c 92f6 edbb c25c d7bb 0c47 183c
00000270: c511 9b3c c0c3 053c 8766 0a3c 6411 403c
00000280: 7c27 323c 23fe 1c3c 0c5c dd3b 1324 db3b
00000290: 099a 6a3c a4fd 9cbb dc80 303c 1110 103c
000002a0: aaf3 babb 2538 413c 629a f5ba 80e4 8e3b
000002b0: f1c8 98bb 5da7 0e3c c05b 133c e9e1 21bc
000002c0: edd5 2fbc bd44 d0bb 1450 87bc ff46 803b
000002d0: bd0b c43b 22bd 243b 2987 e8bb 7477 24bb
000002e0: 27cd d9bb bc97 a9ba f5d9 9ebb 183e b2bb
000002f0: 7da9 cb3a a224 873b a78b 1abc 85bd 44bc
00000300: c461 e33a 7023 5ebc 6ef0 03bc 1224 0bbb
00000310: 90ee 153c d529 3bba ef6f 6aba 611a 9a3b
00000320: 9c79 613c 0cad f13b 0b5c 3c3b fd55 3bbc
00000330: 60fb 27bc 1b6e 343c 6faf 0c3c e1bb b83a
00000340: 8141 d6bb 8bab 4ebc a046 68bc 3459 a23b
00000350: 56ed 143c e3e4 77bc 7d8b 883c 2578 833b
00000360: 9785 013c cf7c 4ebc 2ae0 f2ba bef5 983b
00000370: 9770 30bc f02b 46bc 2b10 b2b9 821b 8b3c
00000380: cdd9 03ba e531 6cbb 1b3f d0bb 1b91 433b
00000390: 94ed b53b 0970 efbb 3753 cc3b 9018 fb3a
000003a0: 2828 083c 75b9 17bb 1ce1 b13b 5fe9 0b3c
000003b0: 524b 85bc 3b96 55bc c3dd 723b f807 9cbc
000003c0: 57aa 91bc 3bec 93bb 6d7c 033c 5db3 803c
000003d0: 2268 59bc 9576 7dbc bf93 05bd ef44 843c
000003e0: 72fc 0d3b 199a b63b b810 f73b 052b 853c
000003f0: 1379 ec3a 3353 9b3b ea7b 66ba 7be7 aebb
0.009523461 0.0045265737 0.008175991 0.0055442876 -0.0031297668 -0.010666679 0.0084993 -0.0009137447
-0.0069117723 -0.0028393152 -0.01910933 -0.000919157 0.017837388 0.015603713 -0.022244642 0.007513741
-0.014931497 -0.0111413635 -0.0018689587 -0.002452008 0.014383539 -0.012081096 -0.004193801 0.0029130871
0.0056463424 -0.002002825 0.008417231 0.014461936 0.0007293473 -0.0040233834 -0.013692605 0.014069915
0.013507266 0.003701042 -0.002359055 0.002598499 0.018898137 -0.0056985933 -0.0083424235 -0.02070544
-0.008675735 0.0024780165 -0.03759651 -0.001152995 0.012232019 -0.0068768803 0.0044082874 -0.011781967
0.012737466 -0.0033027423 -0.007245794 -0.00607894 -0.0069081783 0.006388674 0.00627048 0.005744279
-0.0016772595 0.006488364 0.009170636 -0.013312934 -0.011031184 0.0075554796 0.003589792 0.0087164
0.0014652042 -0.0034926645 0.0014549363 0.013527915 0.0014773785 -0.013450416 0.005643035 0.0057273475
0.021941517 0.01005537 0.009005383 0.0050616157 -0.01923042 0.0025887003 -0.0035161965 -6.0416685e-05
0.011981928 0.0067573986 0.004764714 -0.0023794365 0.006887956 -0.003236783 -0.012450782 -0.014696168
-0.01077279 -0.0081299 -0.0110717295 0.009855353 0.0078065493 -0.002264518 -0.004131418 0.0074482495
0.0063810605 0.00041602665 0.009677944 0.011411096 0.017435119 -0.00295212 -0.0062469053 0.0046740505
-0.011146134 0.0074729198 0.007403768 -0.000860643 -0.008136096 -0.005093124 0.007062902 -0.012866433
-0.002722827 0.0021944458 -0.009643311 0.010979676 0.0093303 -0.0006435389 -0.010796663 0.004089483
0.0007316409 -0.006492397 -0.013058182 -0.022048686 0.006247655 0.022681555 -0.0010192933 0.0049279733
-0.008476727 0.010423754 0.0036301985 -0.028358247 0.007852406 0.011030284 0.0026363428 -0.01387996
-0.010194013 0.0075324164 0.0036342798 0.0071797823 0.0028305894 -0.012040322 0.0076734647 -0.00045516164
0.0013414931 -0.0011100313 0.006135539 0.0029506132 -0.005513596 0.009875291 -0.0062986314 0.0058581927
0.008028494 -0.0072620595 -0.006572337 0.009294283 0.018929372 0.008164346 0.008447296 0.011722896
0.010873672 0.009582075 0.0067553576 0.00668765 0.014318951 -0.0047909785 0.01077291 0.008792893
-0.0057053166 0.011793171 -0.0018738026 0.0043607354 -0.004662626 0.008706895 0.008994043 -0.009880521
-0.010732156 -0.0063558505 -0.016517676 0.0039147134 0.0059828446 0.0025137146 -0.0070961905 -0.0025095614
-0.0066467705 -0.0012938897 -0.00484776 -0.005439531 0.0015538182 0.00412424 -0.00943271 -0.012008076
0.0017347862 -0.013558254 -0.008052928 -0.0021231216 0.009151116 -0.00071397173 -0.0008943071 0.0047028516
0.013761904 0.007375365 0.0028741385 -0.011434075 -0.010252804 0.011012579 0.0085867485 0.0014094078
-0.0065385704 -0.012614141 -0.014176995 0.0049544815 0.009089788 -0.015130254 0.016668076 0.004012125
0.007905385 -0.012602999 -0.0018529941 0.0046679666 -0.010769031 -0.012095436 -0.00033962852 0.01698089
-0.0005029708 -0.0036040482 -0.006355179 0.0029841128 0.005552003 -0.007307057 0.006235506 0.00191571
0.008310355 -0.0023151312 0.0054284465 0.008539527 -0.016271267 -0.013036306 0.003705845 -0.019046769
-0.01778142 -0.004514245 0.008025271 0.015710527 -0.013269456 -0.015470167 -0.032611605 0.016146151
0.0021665362 0.005572569 0.007539835 0.016255865 0.0018041454 0.0047401427 -0.00087922683 -0.005337653

model.layer_1.pb.candidateBestLayer.0.bias f4 [4]
00000000: 7eeb 453c 5b65 ab3b b54d 3f3a 2b32 14bb
0.0120800715 0.0052305884 0.0007297651 -0.002261291

model.layer_2.mainModule.weight f4 [8, 4]
00000000: f0ca 183d 4f54 8c3c 730e a2be 284e 28be
00000010: 8c22 63be cc9d 043d ae7a cc3e 303b a13d
00000020: f110 f5be d1f9 dc3e a42e 59be 7a18 05be
00000030: 0eb4 b4be bdf1 2d3f e09c ccbe 81f8 51bd
00000040: fc6c 923e a1bb 353f 7444 773c 1a8c b03e
00000050: 0b38 c83e 9f47 c53e c663 0a3f 4051 af3d
00000060: 3c00 d33e 646c 60be 382e bbbe 2ca2 b9be
00000070: 27b4 f33e 99ef 2d3e 3d85 543f eec5 eb3e
0.03730291 0.017130045 -0.3165165 -0.16436064 -0.22181147 0.03237705 0.39937347 0.07872617
-0.47864488 0.43159345 -0.21209198 -0.12997618 -0.3529362 0.6794699 -0.39963436 -0.051262382
0.28598773 0.70989424 0.015092004 0.3448189 0.39105257 0.38531205 0.5405849 0.08560419
0.41211116 -0.21916348 -0.365587 -0.3625654 0.47598383 0.1698593 0.83015805 0.46049446

model.layer_2.mainModule.bias f4 [8]
00000000: 98fb 88be 5ad1 fabe cbec 02bf 7a0e c13e
00000010: 150b 00be e7a5 18bf b49f 76be f29a 63be
-0.2675445 -0.48987848 -0.5114257 0.37706357 -0.12504227 -0.59628147 -0.2408436 -0.22227076

model.layer_2.pb.parentModule.weight f4 [8, 4]
00000000: f0ca 183d 008b 1c3d 8cb3 9ebe 284e 28be
00000010: 8c22 63be 18f3 933d 48ad 1b3e 303b a13d
00000020: d621 f1be 8e43 b53e 4024 ecbc 2ce4 08be
00000030: ca41 b8be 5876 f63e d2e1 81be 00e1 53bd
00000040: 8653 963e 68ac e33e 70c1 733d 4491 b43e
00000050: 0e05 cc3e e804 f33e 7829 a93e 782e a73d
00000060: 3c00 d33e 646c 60be 382e bbbe 2ca2 b9be
00000070: 3c12 f43e 1a03 8a3e ac72 ea3e 745b f03e
0.03730291 0.0382185 -0.30996358 -0.16436064 -0.22181147 0.07224101 0.1520282 0.07872617
-0.47096127 0.35403103 -0.02882588 -0.1336829 -0.35987693 0.48137164 -0.253676 -0.05172825
0.29360598 0.44467473 0.05951065 0.3526708 0.39847606 0.4746468 0.3303945 0.0816316
0.41211116 -0.21916348 -0.365587 -0.3625654 0.47670162 0.2695549 0.45790613 0.46944773

model.layer_2.pb.parentModule.bias f4 [8]
00000000: dc49 7dbe f2de c1be d8c0 7abe 1889 783e
00000010: 007f de3e 6c17 8abe b49f 76be 8ae4 d5be
-0.24735206 -0.37865406 -0.24487627 0.24271047 0.43456268 -0.26970994 -0.2408436 -0.41775924

model.layer_2.pb.pbValues.0.topPBCandidateAverage f4 [8]
00000000: 0000 0000 0000 0000 0000 0000 0000 0000
00000010: 0000 0000 0000 0000 0000 0000 0000 0000
0.0 0.0 0.0 0.0 0.0 0.0 0.0 0.0

model.layer_2.pb.pbValues.0.PrevPBCandidateCorrelation f4 [8]
00000000: 0000 0000 0000 0000 0000 0000 0000 0000
00000010: 0000 0000 0000 0000 0000 0000 0000 0000
0.0 0.0 0.0 0.0 0.0 0.0 0.0 0.0

model.layer_2.pb.pbValues.0.currentCorrelationsForParallel f4 [8]
00000000: 0000 0000 0000 0000 0000 0000 0000 0000
00000010: 0000 0000 0000 0000 0000 0000 0000 0000
0.0 0.0 0.0 0.0 0.0 0.0 0.0 0.0

model.layer_2.pb.pbValues.0.bestScore f4 [8]
00000000: 0000 0000 0000 0000 0000 0000 0000 0000
00000010: 0000 0000 0000 0000 0000 0000 0000 0000
0.0 0.0 0.0 0.0 0.0 0.0 0.0 0.0

model.layer_2.pb.pbValues.0.previousBestScore f4 [8]
00000000: 0000 0000 0000 0000 0000 0000 0000 0000
00000010: 0000 0000 0000 0000 0000 0000 0000 0000
0.0 0.0 0.0 0.0 0.0 0.0 0.0 0.0

model.layer_2.pb.pbValues.0.PrevPBCandidateAverage f4 [8]
00000000: 0000 0000 0000 0000 0000 0000 0000 0000
00000010: 0000 0000 0000 0000 0000 0000 0000 0000
0.0 0.0 0.0 0.0 0.0 0.0 0.0 0.0

model.layer_2.pb.pbValues.0.mainGradAverageForScaling f4 [8]
00000000: 0000 0000 0000 0000 0000 0000 0000 0000
00000010: 0000 0000 0000 0000 0000 0000 0000 0000
0.0 0.0 0.0 0.0 0.0 0.0 0.0 0.0

model.layer_2.pb.pbValues.0.candidateGradAverageForScaling f4 [8]
00000000: 0000 0000 0000 0000 0000 0000 0000 0000
00000010: 0000 0000 0000 0000 0000 0000 0000 0000
0.0 0.0 0.0 0.0 0.0 0.0 0.0 0.0

model.layer_2.pb.pbValues.0.indexesOfbest f4 [8]
00000000: 0000 0000 0000 0000 0000 0000 0000 0000
00000010: 0000 0000 0000 0000 0000 0000 0000 0000
0.0 0.0 0.0 0.0 0.0 0.0 0.0 0.0

model.layer_2.pb.pbValues.0.nodesBestImprovedThisEpoch f4 [8]
00000000: 0000 0000 0000 0000 0000 0000 0000 0000
00000010: 0000 0000 0000 0000 0000 0000 0000 0000
0.0 0.0 0.0 0.0 0.0 0.0 0.0 0.0

model.layer_2.pb.pbValues.0.parentsAverageDvector f4 [8]
00000000: dcc6 9830 b91f 6e37 f9a1 4f37 75d0 1fb8
00000010: da24 0d38 850f 3f37 0000 0000 be9d afb7
1.1115975e-09 1.41932915e-05 1.2375874e-05 -3.8102695e-05 3.365134e-05 1.1388101e-05 0.0 -2.093508e-05

model.layer_2.pb.pbValues.0.normalPassAverageD f4 [8]
00000000: dcc6 9830 b91f 6e37 f9a1 4f37 75d0 1fb8
00000010: da24 0d38 850f 3f37 0000 0000 be9d afb7
1.1115975e-09 1.41932915e-05 1.2375874e-05 -3.8102695e-05 3.365134e-05 1.1388101e-05 0.0 -2.093508e-05

model.layer_2.pb.candidateLayer.0.weight f4 [8, 4]
00000000: 566e a13c 2b10 4c3a 6621 013b fc5c 8fbb
00000010: 022f d0ba 178f 3a39 122c 85bb 4542 b739
00000020: 57e5 ad3b f106 883c 1579 4f3c b32f 13bb
00000030: f5bb f7ba 235e 6e3c 5b97 c4bc 8f8e 6f3c
00000040: 574a dcbb 6c03 6f3c 5b16 3d3a 6e7f adbb
00000050: cd56 b23b d525 fdbb 3dd2 9dbc 3e79 6139
00000060: 4b4e 843c e12f 8fbb 18ce 1a3b ecb8 8cbc
00000070: a551 62bc f9ee 98bb 87e7 ba3b 94f0 c13b
0.019705933 0.00077843916 0.0019703745 -0.0043750983 -0.001588315 0.00017791647 -0.0040640915 0.00034953855
0.0053068805 0.016604872 0.012663146 -0.002245885 -0.001890062 0.014548811 -0.023997953 0.014621391
-0.006722729 0.014588218 0.0007213109 -0.005294732 0.0054424764 -0.007725457 -0.019265288 0.00021502838
0.016150614 -0.0043697213 0.0023621377 -0.017178021 -0.013813411 -0.0046671596 0.0057038697 0.0059185717

model.layer_2.pb.candidateLayer.0.bias f4 [8]
00000000: e957 3f3c b25a adbc 52dc fbbb c931 573b
00000010: cc7f 81bb 8626 aa3b 78d1 d93b 40cd 33bb
0.011678674 -0.021161411 -0.0076861763 0.003283607 -0.003952002 0.0051925806 0.006647285 -0.002743557

model.layer_2.pb.candidateBestLayer.0.weight f4 [8, 4]
00000000: 566e a13c 2b10 4c3a 6621 013b fc5c 8fbb
00000010: 022f d0ba 178f 3a39 122c 85bb 4542 b739
00000020: 57e5 ad3b f106 883c 1579 4f3c b32f 13bb
00000030: f5bb f7ba 235e 6e3c 5b97 c4bc 8f8e 6f3c
00000040: 574a dcbb 6c03 6f3c 5b16 3d3a 6e7f adbb
00000050: cd56 b23b d525 fdbb 3dd2 9dbc 3e79 6139
00000060: 4b4e 843c e12f 8fbb 18ce 1a3b ecb8 8cbc
00000070: a551 62bc f9ee 98bb 87e7 ba3b 94f0 c13b
0.019705933 0.00077843916 0.0019703745 -0.0043750983 -0.001588315 0.00017791647 -0.0040640915 0.00034953855
0.0053068805 0.016604872 0.012663146 -0.002245885 -0.001890062 0.014548811 -0.023997953 0.014621391
-0.006722729 0.014588218 0.0007213109 -0.005294732 0.0054424764 -0.007725457 -0.019265288 0.00021502838
0.016150614 -0.0043697213 0.0023621377 -0.017178021 -0.013813411 -0.0046671596 0.0057038697 0.0059185717

model.layer_2.pb.candidateBestLayer.0.bias f4 [8]
00000000: e957 3f3c b25a adbc 52dc fbbb c931 573b
00000010: cc7f 81bb 8626 aa3b 78d1 d93b 40cd 33bb
0.011678674 -0.021161411 -0.0076861763 0.003283607 -0.003952002 0.0051925806 0.006647285 -0.002743557

model.layer_3.mainModule.weight f4 [10, 8]
00000000: de4e 1bbe 7288 86be af5d a9bc 985a e5bc
00000010: de45 ebbe ab54 bcbe f5f0 a03e a87d cebe
00000020: 9c1d 0bbd 19bd a1be 3225 963e a4a0 c63e
00000030: 39e8 bf3e 189c afbd 05b6 12be 4656 a9be
00000040: db2c 9d3e 04ab e73e e2e9 93be 2524 12bf
00000050: b316 9a3e b8f1 043e 6ebd afbe e5c4 863e
00000060: f834 b7bc 2152 323e de4c aabe 602e a4be
00000070: da18 873d a0df 8ebe bc41 f1bd fd2b 953e
00000080: 3b82 aa3e 6b52 3fbe 9d10 1f3e 54bf d1bd
00000090: dbb8 2bbe d3e5 38bd b29a 7e3e af9d 12bf
000000a0: 6404 963e 1b1c 1abf 76a9 83be e16b 373d
000000b0: 0bc0 533e 1a9b 09bf 9d72 25be 9d1c 1fbe
000000c0: e383 4c3e e3d0 9b3e 0f52 9cbe 2009 1dbf
000000d0: 5c29 a6be a142 143e 8bec 993e 3f14 bc3e
000000e0: 6f20 e3bd 381f 18bf 67e0 353e 0519 0e3d
000000f0: acba d4be a45d 27be 9bfa 9e3e 0923 7bbc
00000100: cdd6 6b3d ca54 7cbe 72bd 6dbe f117 a23e
00000110: 8683 4a3e 32e1 e4be a266 0abe 48b5 c03c
00000120: 96a7 a1be 5f5b ddbe d93b 4bbe 460c 0bbc
00000130: c79e 613d ca1a 17bf 3ac7 b13d b8be a5be
-0.15166804 -0.26275975 -0.020674555 -0.0279973 -0.45951742 -0.36783347 0.31433836 -0.40330243
-0.033963785 -0.31589583 0.29325253 0.38794434 0.3748186 -0.085746944 -0.14327247 -0.33073634
0.30698285 0.45247662 -0.28889376 -0.570864 0.30095443 0.12982833 -0.3432421 0.26322094
-0.022364125 0.17414142 -0.3326177 -0.3206663 0.06596537 -0.27904987 -0.11780116 0.29135123
0.33302483 -0.18683784 0.15533681 -0.10241571 -0.16769736 -0.045141052 0.24863699 -0.57271856
0.29300225 -0.60199136 -0.25715226 0.044780616 0.20678727 -0.5375229 -0.16157003 -0.15538259
0.19972186 0.30432805 -0.30531356 -0.6134205 -0.3245343 0.14478542 0.3006328 0.36734197
-0.110901706 -0.59422636 0.17761384 0.03469183 -0.4154867 -0.16344315 0.31050572 -0.015328177
0.057577897 -0.2464172 -0.23216799 0.3165889 0.19776735 -0.4470306 -0.13515714 0.023523942
-0.3157317 -0.43233773 -0.19847049 -0.008486813 0.055083062 -0.5902525 0.086805776 -0.3237207

model.layer_3.mainModule.bias f4 [10]
00000000: 5f58 2b3f 852c 24bf 66e4 22bf 1fd0 9a3e
00000010: 5586 943e 7a38 ab3d 69d2 113e 5101 d63e
00000020: 1c71 6e3c f85e f43e
0.6693172 -0.6413043 -0.6362976 0.3023691 0.29008737 0.083603814 0.14240421 0.4179788
0.014553335 0.47728705

model.layer_3.pb.parentModule.weight f4 [10, 8]
00000000: d5de 08be 0011 1a3d e7b8 4b3e 102c 3dbd
00000010: 474c 9bbe b9f3 aabd f5f0 a03e 1fc7 25be
00000020: 013d 58bd 647c fbbd daa4 e23d 15d9 803e
00000030: 32a3 813e 6b97 40be 05b6 12be e202 9ebe
00000040: deb3 a63e 9558 933e 2b2a 40be 695a a7be
00000050: c98a 6f3e 7d20 da3c 6ebd afbe 61aa 4a3e
00000060: 9210 83bb 8061 7f3d bce2 10be 7c00 87bd
00000070: 5c52 f33d 08b1 a2be bc41 f1bd bcc0 0a3e
00000080: 0e31 b43e d6c2 533e 00f0 a03e 5362 80ba
00000090: 90d1 25bc 02a4 343e b29a 7e3e f7aa 8abe
000000a0: 565e 9f3e bd11 58be 8b60 63be c228 d0bd
000000b0: f9c2 633e 89a0 9bbe 9d72 25be d38e 463e
000000c0: e7fb 5e3e e3b3 91be 09a2 ad3d bb6b 92bd
000000d0: c550 c5bd 5ec6 76be 8bec 993e e414 9abe
000000e0: f88f bcbd c3d2 8cbe aedb a23e fbee c63d
000000f0: b0fd a5be 9f76 063d 9bfa 9e3e 8632 723e
00000100: 5c98 9c3d 2289 873d 72da 1fbe cacb 973e
00000110: bba5 413e c54e aebe a266 0abe d317 523e
00000120: d477 98be f403 d33c 2540 01be 4634 b1be
00000130: e56c ce3d 4a4e 88be 3ac7 b13d 7c8b f73d
-0.13366254 0.03761387 0.19894753 -0.0461846 -0.30331632 -0.08347268 0.31433836 -0.1618924
-0.052792553 -0.12279585 0.11066599 0.2516562 0.2531982 -0.18807761 -0.14327247 -0.30861574
0.32559103 0.2877852 -0.18766086 -0.32686165 0.23392786 0.02662682 -0.3432421 0.19791557
-0.003999778 0.062348843 -0.14148992 -0.06591889 0.11880943 -0.3177569 -0.11780116 0.13550085
0.35193676 0.20679793 0.31433105 -0.0009794928 -0.010120764 0.17640689 0.24863699 -0.2708356
0.3112666 -0.21100517 -0.22204797 -0.10164024 0.22242345 -0.30395916 -0.16157003 0.1939042
0.2177578 -0.28457555 0.084781714 -0.07149454 -0.09634546 -0.24099109 0.3006328 -0.30094063
-0.09207147 -0.27504548 0.31808227 0.09713551 -0.3242011 0.03282797 0.31050572 0.23652086
0.07646248 0.06617953 -0.15610674 0.29647666 0.18910877 -0.3404447 -0.13515714 0.205169
-0.29778922 0.025758721 -0.12622125 -0.34610194 0.10079364 -0.2662223 0.086805776 0.120871514

model.layer_3.pb.parentModule.bias f4 [10]
00000000: 2e71 373e bd9e bfbd b46e ec3d 00f1 423e
00000010: e77e 31bd d624 f4bd 6cc6 8ebe f284 013e
00000020: 17d3 ecbd 9983 4cbc
0.17914268 -0.09356449 0.115445524 0.19037247 -0.043333914 -0.119210884 -0.2788576 0.12648371
-0.115637 -0.012482547

model.layer_3.pb.pbValues.0.topPBCandidateAverage f4 [10]
00000000: 0000 0000 0000 0000 0000 0000 0000 0000
00000010: 0000 0000 0000 0000 0000 0000 0000 0000
00000020: 0000 0000 0000 0000
0.0 0.0 0.0 0.0 0.0 0.0 0.0 0.0
0.0 0.0

model.layer_3.pb.pbValues.0.PrevPBCandidateCorrelation f4 [10]
00000000: 0000 0000 0000 0000 0000 0000 0000 0000
00000010: 0000 0000 0000 0000 0000 0000 0000 0000
00000020: 0000 0000 0000 0000
0.0 0.0 0.0 0.0 0.0 0.0 0.0 0.0
0.0 0.0

model.layer_3.pb.pbValues.0.currentCorrelationsForParallel f4 [10]
00000000: 0000 0000 0000 0000 0000 0000 0000 0000
00000010: 0000 0000 0000 0000 0000 0000 0000 0000
00000020: 0000 0000 0000 0000
0.0 0.0 0.0 0.0 0.0 0.0 0.0 0.0
0.0 0.0

model.layer_3.pb.pbValues.0.bestScore f4 [10]
00000000: 0000 0000 0000 0000 0000 0000 0000 0000
00000010: 0000 0000 0000 0000 0000 0000 0000 0000
00000020: 0000 0000 0000 0000
0.0 0.0 0.0 0.0 0.0 0.0 0.0 0.0
0.0 0.0

model.layer_3.pb.pbValues.0.previousBestScore f4 [10]
00000000: 0000 0000 0000 0000 0000 0000 0000 0000
00000010: 0000 0000 0000 0000 0000 0000 0000 0000
00000020: 0000 0000 0000 0000
0.0 0.0 0.0 0.0 0.0 0.0 0.0 0.0
0.0 0.0

model.layer_3.pb.pbValues.0.PrevPBCandidateAverage f4 [10]
00000000: 0000 0000 0000 0000 0000 0000 0000 0000
00000010: 0000 0000 0000 0000 0000 0000 0000 0000
00000020: 0000 0000 0000 0000
0.0 0.0 0.0 0.0 0.0 0.0 0.0 0.0
0.0 0.0

model.layer_3.pb.pbValues.0.mainGradAverageForScaling f4 [10]
00000000: 0000 0000 0000 0000 0000 0000 0000 0000
00000010: 0000 0000 0000 0000 0000 0000 0000 0000
00000020: 0000 0000 0000 0000
0.0 0.0 0.0 0.0 0.0 0.0 0.0 0.0
0.0 0.0

model.layer_3.pb.pbValues.0.candidateGradAverageForScaling f4 [10]
00000000: 0000 0000 0000 0000 0000 0000 0000 0000
00000010: 0000 0000 0000 0000 0000 0000 0000 0000
00000020: 0000 0000 0000 0000
0.0 0.0 0.0 0.0 0.0 0.0 0.0 0.0
0.0 0.0

model.layer_3.pb.pbValues.0.indexesOfbest f4 [10]
00000000: 0000 0000 0000 0000 0000 0000 0000 0000
00000010: 0000 0000 0000 0000 0000 0000 0000 0000
00000020: 0000 0000 0000 0000
0.0 0.0 0.0 0.0 0.0 0.0 0.0 0.0
0.0 0.0

model.layer_3.pb.pbValues.0.nodesBestImprovedThisEpoch f4 [10]
00000000: 0000 0000 0000 0000 0000 0000 0000 0000
00000010: 0000 0000 0000 0000 0000 0000 0000 0000
00000020: 0000 0000 0000 0000
0.0 0.0 0.0 0.0 0.0 0.0 0.0 0.0
0.0 0.0

model.layer_3.pb.pbValues.0.parentsAverageDvector f4 [10]
00000000: 04cd 39b8 5064 9e38 2334 3439 1664 3d37
00000010: 5e05 ebb7 cb2d 53b7 7c1e 8fb8 7782 f3b7
00000020: 3bac a1b7 b802 70b8
-4.4298373e-05 7.552712e-05 0.0001718556 1.1288581e-05 -2.8016682e-05 -1.2587242e-05 -6.8244495e-05 -2.902861e-05
-1.9272897e-05 -5.722299e-05

model.layer_3.pb.pbValues.0.normalPassAverageD f4 [10]
00000000: 04cd 39b8 5064 9e38 2334 3439 1664 3d37
00000010: 5e05 ebb7 cb2d 53b7 7c1e 8fb8 7782 f3b7
00000020: 3bac a1b7 b802 70b8
-4.4298373e-05 7.552712e-05 0.0001718556 1.1288581e-05 -2.8016682e-05 -1.2587242e-05 -6.8244495e-05 -2.902861e-05
-1.9272897e-05 -5.722299e-05

model.layer_3.pb.candidateLayer.0.weight f4 [10, 8]
00000000: 1c65 97bb 8ad5 bbba 0fa3 03bc 97a2 5f3c
00000010: 84f6 bd3a 94ea ffbb 4953 c339 ce95 c2ba
00000020: b241 c639 1593 4bbc 21ae 2fbc 4751 3c3a
00000030: 977b 7d3c 36d1 853b 277c 143c 2487 a9bc
00000040: daa6 1abc e003 17bc 14be 093c 3204 b13b
00000050: 1327 7dbc 49aa 19bc 9c44 52bc ef0d dabb
00000060: b0ef 963c ca57 57bc 85ce 763c a419 5d3b
00000070: 25a1 52bb 45ea 37bb 0299 ce3b 699a b1bc
00000080: 46fc b5bb d81d 303c 129e ecba 58eb 2b3c
00000090: 00f6 21bc dc40 c13b 55b0 83ba ab63 7abc
000000a0: 0ef1 9ebc 549f 0ebb a5b5 c6bb 70d3 9e3b
000000b0: e02a 5a3c 1c89 463b 74f7 203c 0f7a 57bc
000000c0: 4c7c d23b 9d26 783b 1c74 b63c c5c4 32bb
000000d0: d0d7 20bc 8216 6dba d53d e5bb b894 eebb
000000e0: 124c 393b 9fd5 0d3c 9715 9ebc 02f4 c739
000000f0: 75b4 49bb 4f84 dabb aa2f aabc 1240 4fbc
00000100: 5c26 1d3b f834 343c 26a7 2abc a2fe 8e3c
00000110: 935a 7dbc b0d8 b239 7000 763b 8d09 003b
00000120: 52dc 68bb 42e3 e83a cd33 90bc a459 22ba
00000130: 150d 683b fe61 8bbc d94c e83a a5f8 4f3a
-0.0046202075 -0.0014330607 -0.008034482 0.013649604 0.0014493023 -0.0078099463 0.0003725535 -0.0014845671
0.0003781445 -0.012425204 -0.010722668 0.0007183742 0.015471361 0.004083778 0.009062803 -0.020694323
-0.009439195 -0.0092172325 0.008407135 0.0054021114 -0.015451211 -0.009378978 -0.012833741 -0.006654493
0.018424839 -0.013143489 0.0150638865 0.0033737207 -0.0032139507 -0.002806322 0.006304861 -0.021680074
-0.005553755 0.010749303 -0.001805248 0.010493122 -0.009885311 0.0058976244 -0.0010047058 -0.015282552
-0.019402053 -0.0021762447 -0.006064134 0.0048469827 0.013315886 0.0030294126 0.009824622 -0.01315166
0.0064235087 0.0037864812 0.022272162 -0.0027277928 -0.009817079 -0.00090441864 -0.0069958963 -0.0072809123
0.0028274101 0.008656888 -0.019297404 0.00038138038 -0.0030777727 -0.0066686044 -0.020774681 -0.012649553
0.0023979163 0.010998957 -0.010415828 0.017455403 -0.015463489 0.0003411225 0.0037536882 0.0019536943
-0.0035531712 0.0017767923 -0.017602826 -0.0006193167 0.0035408188 -0.0170145 0.0017723098 0.0007933474

model.layer_3.pb.candidateLayer.0.bias f4 [10]
00000000: effd afba f45d 943c 8a98 69bc 6083 a53c
00000010: 9969 403b b6dc 8fbb 9227 96bc 2d7e 8a3b
00000020: e3ba fdb9 05e4 d93c
-0.0013427119 0.018111207 -0.01425756 0.020204246 0.0029359816 -0.0043903245 -0.018329415 0.004226467
-0.00048395162 0.026597986

model.layer_3.pb.candidateBestLayer.0.weight f4 [10, 8]
00000000: 1c65 97bb 8ad5 bbba 0fa3 03bc 97a2 5f3c
00000010: 84f6 bd3a 94ea ffbb 4953 c339 ce95 c2ba
00000020: b241 c639 1593 4bbc 21ae 2fbc 4751 3c3a
00000030: 977b 7d3c 36d1 853b 277c 143c 2487 a9bc
00000040: daa6 1abc e003 17bc 14be 093c 3204 b13b
00000050: 1327 7dbc 49aa 19bc 9c44 52bc ef0d dabb
00000060: b0ef 963c ca57 57bc 85ce 763c a419 5d3b
00000070: 25a1 52bb 45ea 37bb 0299 ce3b 699a b1bc
00000080: 46fc b5bb d81d 303c 129e ecba 58eb 2b3c
00000090: 00f6 21bc dc40 c13b 55b0 83ba ab63 7abc
000000a0: 0ef1 9ebc 549f 0ebb a5b5 c6bb 70d3 9e3b
000000b0: e02a 5a3c 1c89 463b 74f7 203c 0f7a 57bc
000000c0: 4c7c d23b 9d26 783b 1c74 b63c c5c4 32bb
000000d0: d0d7 20bc 8216 6dba d53d e5bb b894 eebb
000000e0: 124c 393b 9fd5 0d3c 9715 9ebc 02f4 c739
000000f0: 75b4 49bb 4f84 dabb aa2f aabc 1240 4fbc
00000100: 5c26 1d3b f834 343c 26a7 2abc a2fe 8e3c
00000110: 935a 7dbc b0d8 b239 7000 763b 8d09 003b
00000120: 52dc 68bb 42e3 e83a cd33 90bc a459 22ba
00000130: 150d 683b fe61 8bbc d94c e83a a5f8 4f3a
-0.0046202075 -0.0014330607 -0.008034482 0.013649604 0.0014493023 -0.0078099463 0.0003725535 -0.0014845671
0.0003781445 -0.012425204 -0.010722668 0.0007183742 0.015471361 0.004083778 0.009062803 -0.020694323
-0.009439195 -0.0092172325 0.008407135 0.0054021114 -0.015451211 -0.009378978 -0.012833741 -0.006654493
0.018424839 -0.013143489 0.0150638865 0.0033737207 -0.0032139507 -0.002806322 0.006304861 -0.021680074
-0.005553755 0.010749303 -0.001805248 0.010493122 -0.009885311 0.0058976244 -0.0010047058 -0.015282552
-0.019402053 -0.0021762447 -0.006064134 0.0048469827 0.013315886 0.0030294126 0.009824622 -0.01315166
0.0064235087 0.0037864812 0.022272162 -0.0027277928 -0.009817079 -0.00090441864 -0.0069958963 -0.0072809123
0.0028274101 0.008656888 -0.019297404 0.00038138038 -0.0030777727 -0.0066686044 -0.020774681 -0.012649553
0.0023979163 0.010998957 -0.010415828 0.017455403 -0.015463489 0.0003411225 0.0037536882 0.0019536943
-0.0035531712 0.0017767923 -0.017602826 -0.0006193167 0.0035408188 -0.0170145 0.0017723098 0.0007933474

model.layer_3.pb.candidateBestLayer.0.bias f4 [10]
00000000: effd afba f45d 943c 8a98 69bc 6083 a53c
00000010: 9969 403b b6dc 8fbb 9227 96bc 2d7e 8a3b
00000020: e3ba fdb9 05e4 d93c
-0.0013427119 0.018111207 -0.01425756 0.020204246 0.0029359816 -0.0043903245 -0.018329415 0.004226467
-0.00048395162 0.026597986
