libraryExamples/mnist_lightning/.mnist_{epoch}-{val_loss:.2f}/epoch=1-step=1720.ckpt (torch, 104400 bytes, 60 tensors)

model.layer_1.mainModule.weight f4 [4, 784]
00000000: 4bc4 26bd c902 4dbd 1b76 7cbd 7ab5 98bc
00000010: f753 1abd 8eee 23bd 5cd7 2b3a 9799 e9bc
00000020: 95e7 973b 7694 e53b 01c9 11bc 4a91 f8bc
00000030: dc32 adbc d1b1 0cbd 2fc4 11bb 3476 e6bc
00000040: 0edd d73a 92e3 ddbc 2ed3 7ebb 405d 79bc
00000050: 9404 80bd d3d8 1dbd 2754 97bc f588 26bd
00000060: 1fbd 76bd 404f 723b 8cd5 3ebd d329 94bc
00000070: 2288 60bc 7a7b 6dbd 61cb dc3b 3cbe fdbb
00000080: ddc9 af3b af7f ffbb a01d 8cbb 8923 40bd
00000090: 8bc9 2ebb 649c 48bd 6c72 11bc 5318 8bbd
000000a0: 3557 eebc 8fd0 aabc fde7 e1bc 4c32 b6bc
000000b0: 58a0 9fbc 0c1a 99bc d369 33bc e173 18bd
000000c0: 9003 1cbc 4ad0 49bd 72e1 a33a be4f 47bd
000000d0: a12c ef3b b2ce d9bc 43ce 20bb 90d4 14bd
000000e0: 3ef4 e9bb bade ccbc 7dfa 7bbd af4b ddbc
000000f0: e16b 7ebd ecbd f2bc 70ff 6cbd 9547 0fbd
00000100: 4ca0 b8bc 8aa5 0cbd d339 c7bd af9d e7bd
00000110: e101 0ebe d802 53be e921 34be 3c4b 01be
00000120: 775b 19be d563 13be 8697 13be 6a34 56be
00000130: 7dd3 36be 4dce 0cbe edaf 2dbd 0429 e5bc
00000140: 4eeb 80bd 11fd 0fbd c79a c1b9 622f 2abd
00000150: e54b 9abb a99a 23bd eaac 72bd e7c0 07bd
00000160: 6e4b 76bc 17f4 15bd 84b5 2cbd 31cc f4bc
00000170: 4090 caba bc27 62bd 6202 1a3b 6e70 833c
00000180: 9988 edbb 3b0d d53c 84ce 533c 9983 a63c
00000190: 347e 9fbd b4ff debd ca48 6abe 35f8 7cbe
000001a0: 46d9 80be 7b41 5fbe 6028 15be cc3c cfbd
000001b0: 6311 bcbc 9893 11bd be6c 0fbc 9f13 403b
000001c0: bfab 55bd db37 d7bc 1415 73bd 65e8 26bb
000001d0: 9708 7cbc fb0d 5a3c bb6b b0b9 4beb 293d
000001e0: 9712 0b3e 585a f43d 21a9 203e b98c 473e
000001f0: 9a0a 5d3e f2a6 113e adb5 123e eb28 d03d
00000200: 05f1 5d3d dadf c83b 0735 8d3c 8941 04bd
00000210: c63d 91bc 6a29 56bd 5587 a2bc bcf4 87bd
00000220: ae06 88bd 3aaa 9dbc b445 82bc 5049 20bd
00000230: 8134 17bd e1d6 34bd 5d4c 7dbc d51b bf3b
00000240: a761 363c 3995 9e3d e80d df3d 346c 0a3e
00000250: 99fc e33d dee1 013e 9092 103e 76c6 483e
00000260: c576 483e 4d5b 643e 0950 243e b047 0c3e
00000270: 8e60 b33d b470 173c 1f8d b5bb d5d9 833d
00000280: 3d53 803d 93e4 2b3d dc8d d13c 41b9 fabb
00000290: 7dba d53c 16e6 943c e8dd 10bd 11db e1bc
000002a0: 80bf 1cbc f166 cdbc 920a 52bd 50c1 423c
000002b0: 0956 553d ddf8 df3d b40a f03d d6c4 be3d
000002c0: 8555 fd3d c78d bd3d b319 d23d d0cf 153e
000002d0: 84d7 4f3e deb0 623e a1ef 3a3e 3f7c e83d
000002e0: a238 ac3d e982 223d 769d 903d 55d7 b63d
000002f0: 9169 c43d 464c a63d 6b50 563d c145 3c3d
00000300: 1e3e cf3d a470 f03d 5127 523c 6ece 5fbb
00000310: 276f a9b9 1a5b b23b 968c 37bd 2613 233d
00000320: cd09 b53d 6232 e03d d72d 193e 0961 b83d
00000330: 0d85 0d3d 1eaf 5b3d 82f5 a63d 0cc1 8c3d
00000340: 16ff 153e 7316 373e 2022 d83d 920b 013d
00000350: 7031 313c 93b4 a13b 8120 dd3c a478 ea3d
00000360: 1393 063e d8f8 1d3e d4d6 0f3e a20a c23d
00000370: 79d4 313e d041 3e3e 71be 343d 895e debc
00000380: a197 28bd b173 30bd 51bb 77bc fcc5 2a3c
00000390: 7e37 073e cca0 f73d ebda ce3d c8ac 263d
000003a0: 3d73 b53d 03ef 8f3d fc16 473d 73c5 163d
000003b0: a7cc c13d a6a5 a53d b4cf dd3d af63 8d3d
000003c0: 9c5e 4f3d 2772 ad3c c94f cb3d de90 ed3d
000003d0: a997 bf3d deac 0c3e 3bbb 003e bcbb 8f3d
000003e0: bee9 5a3e 943b 2b3e 06d6 133c 0f3b 1b3c
000003f0: 1f4d 70bd 914b 2ebd 29d7 92bc f8b0 b73c
-0.040714543 -0.050051484 -0.06163607 -0.018641222 -0.03767773 -0.040022425 0.00065552234 -0.02851562
0.004635761 0.0070062233 -0.008898021 -0.030342717 -0.021142416 -0.034349266 -0.0022242179 -0.028132536
0.0016469078 -0.027086053 -0.0038883197 -0.015219986 -0.06250873 -0.038536858 -0.018472744 -0.040657956
-0.060238954 0.0036973506 -0.046590373 -0.01808635 -0.013704332 -0.057979085 0.006738112 -0.007743625
0.00536464 -0.0077972035 -0.0042759925 -0.04690889 -0.0026670422 -0.04897727 -0.008877378 -0.06791749
-0.029094318 -0.020851402 -0.027576441 -0.02224078 -0.019485638 -0.018689178 -0.010950523 -0.037219886
-0.009522334 -0.049270906 0.0012503101 -0.048660032 0.0072990214 -0.026587818 -0.0024537004 -0.036335528
-0.0071397116 -0.025008548 -0.06151818 -0.027013628 -0.0621146 -0.029631577 -0.05786079 -0.034980375
-0.022537373 -0.034337558 -0.09727826 -0.11309373 -0.13867904 -0.20606554 -0.1759106 -0.12626356
-0.14976297 -0.14393552 -0.1441327 -0.20918432 -0.17854114 -0.13750573 -0.042404104 -0.02797366
-0.06294881 -0.035153452 -0.00036927147 -0.041549094 -0.0047087544 -0.039942417 -0.059246935 -0.03314295
-0.015032632 -0.036609735 -0.042165294 -0.029882522 -0.0015454367 -0.055213675 0.0023499955 0.016044822
-0.0072489497 0.026007285 0.012927655 0.020326423 -0.07787743 -0.10888615 -0.2287933 -0.24704058
-0.25165766 -0.21802323 -0.14566183 -0.10119018 -0.02295751 -0.035541147 -0.0087539535 0.002930857
-0.052165743 -0.026271751 -0.059346274 -0.0025468108 -0.015382907 0.013308997 -0.000336496 0.04148416
0.1358131 0.11931294 0.15689518 0.19487275 0.21586075 0.14223841 0.14327116 0.101640545
0.054184932 0.006130201 0.0172372 -0.03228906 -0.017729651 -0.05228559 -0.019839922 -0.06638476
-0.06641899 -0.01924621 -0.015902378 -0.039132416 -0.036915306 -0.044150237 -0.015460101 0.0058321753
0.011131681 0.07743306 0.10891324 0.13517839 0.111321636 0.12683818 0.14118409 0.19606957
0.19576557 0.22300453 0.16046156 0.13699222 0.08758651 0.009243179 -0.0055405046 0.064380325
0.062658764 0.041966032 0.02558034 -0.0076514785 0.026089901 0.01817612 -0.035367876 -0.02757028
-0.0095671415 -0.0250735 -0.051279612 0.01188691 0.052084003 0.10936139 0.117207915 0.09314887
0.12369827 0.092555575 0.10258808 0.14630055 0.20297056 0.22137782 0.18255474 0.11351823
0.08409239 0.039675627 0.07061283 0.0892779 0.09590448 0.08120017 0.052322786 0.04596496
0.1011927 0.117402345 0.012826757 -0.0034150141 -0.00032317007 0.005442989 -0.044811808 0.039813183
0.0883976 0.1094711 0.14958893 0.09002883 0.034550715 0.0536338 0.08152296 0.06872758
0.14648089 0.17879657 0.10553384 0.031505175 0.0108150095 0.004934856 0.026993038 0.114487916
0.13142042 0.15426958 0.14046794 0.09474684 0.17366208 0.18579793 0.04412693 -0.027144687
-0.04116023 -0.043079082 -0.015120343 0.01042318 0.13204762 0.120912164 0.10100349 0.04069212
0.088598706 0.0702801 0.048605904 0.036809396 0.094628625 0.080882356 0.10830632 0.06903779
0.050627336 0.021172596 0.09927327 0.11599897 0.09355099 0.13737819 0.12571423 0.07018229
0.21378228 0.16721946 0.009023195 0.00947453 -0.0586673 -0.042552534 -0.017924862 0.022423252

model.layer_1.mainModule.bias f4 [4]
00000000: bc93 d9bb 36ff 323c b8ee 923d e2ad 303d
-0.0066399258 0.010925105 0.07174438 0.043134578

model.layer_1.pb.parentModule.weight f4 [4, 784]
00000000: fc6b 52bc fcb2 b5bc bc4c 0abd 253a 173c
00000010: b7aa 20bc 0515 47bc 48b1 e93c dcde 28ba
00000020: 3b26 053d d6db 0e3d fe6d 9b3c eef5 21bb
00000030: 6a56 113c b8b6 6fbb 0765 c13c 6e37 b5b9
00000040: 63d0 f13c 4ae2 4d3a 2578 c43c d747 4f3c
00000050: d0df 0dbd 21be 2ebc cefc 193c a17e 51bc
00000060: d793 04bd 3c4e 013d 7c58 99bc 7351 203c
00000070: fc1c 683c 63a4 f6bc b4c2 0d3d fee2 a43c
00000080: 4628 083d 7594 a43c fc4d c13c b739 9bbc
00000090: 282c e03c f07c 8cbc de84 eb3c bc46 e0bc
000000a0: 6509 af3b 2ee8 a03c f716 853b 9c84 0d3c
000000b0: dcbd ad3b 6e71 1a3c 2108 ab3c dc45 cdba
000000c0: 2ac0 d23c 6ed5 82bc eaa4 f43c e74c aabc
000000d0: dd0e 103d 003f a83a ca38 d03c 0ead 0abc
000000e0: 80d5 a93c 5c9f 3b3b 1fd1 09bd 93de 603a
000000f0: f83e 0cbd 4a1a e3ba d1f7 e9bc dca0 61bb
00000100: 1c35 503c caf8 ce3c 013b 2dbb bea8 86bc
00000110: 3c19 273c ea2c 46bc 5cde de3b a534 d23b
00000120: d7ef 0bbd 7c68 b3bc 955a b73c b118 d1bc
00000130: bee8 07bd 3fb3 08bd 271a db3c bc61 733c
00000140: bfa9 05bd aab7 0cbc 2a4c e13c 5318 60bc
00000150: 93bf bd3c 73c5 45bc 63c5 01bd cad5 aebb
00000160: d388 513c 6555 31bc 8720 9fbc 4e2b 4abc
00000170: 8006 0c3d ea84 3ebc 2340 fa3c a595 483b
00000180: 4542 01bc 81ed 733b f390 d1bc 2ce3 d93c
00000190: da6f b8bc 45dd 283c 7bc6 07bd 3085 923c
000001a0: 138b e43b 6e01 86bc 8a7f 5ebc a5ae 74bc
000001b0: 4e93 f43c ca2d 29bc 15d7 953c 0355 fc3c
000001c0: ea04 c7bc 4a42 ce3a 7227 08bd a3ff cd3c
000001d0: 77ac 133c f3cf d93c 873c d6bc d024 03bd
000001e0: 984a 083d c3e5 b6bc 7f2a 09bd 25ef ea3a
000001f0: 4342 a03c 5ade cabc a160 4c3c 2e1f 453c
00000200: 659b ab3b f371 60bc 913b fb3c 9334 03bc
00000210: 3c92 20bc ceab a6bc 37ab 273b 9185 c8bc
00000220: 31fa e8bc 25e9 4db9 0140 adb9 ee19 40bc
00000230: d72c 14bc 275b 85bc e1ab 423c 0c42 963c
00000240: dcfe 5eba 0788 8d3c a5ab 1abb 6a74 3c3c
00000250: 3ae0 e7bc d31e c23b 2522 bb3a 954d d03c
00000260: 6e4d 78ba c08f 883c de06 e3bc 85f7 dcbc
00000270: aa0f 063c fe3a a2bc 3584 e5bc 41af 6d3c
00000280: 37b1 383b a51f 2a3b 7723 053c 209d a73c
00000290: b7c2 9ebb 6166 353c 5711 c3bc 9354 6a3a
000002a0: c0f2 953c 2569 293b 5e35 b1bc 6e15 9d3a
000002b0: 6e65 10bc 6e33 0c39 0e49 45bc 81b8 debb
000002c0: dc11 92bb e58e f33b 659f f53b 2581 f5ba
000002d0: 358f b53c 333c 373c 6a7b 073c 6e39 393b
000002e0: 31e5 ed3c 0067 823b aeed 0d3c afe9 093d
000002f0: ea58 2b3c 830e 81bc 4a3e 943c c19a b13c
00000300: 9c7d c8bc 5ccc 6e3c 6ef6 5c3b 7526 b53c
00000310: acac e13c cae8 e53c 6551 8fbc 9ecd 843c
00000320: a75f aebc 8c23 88bc ae15 9c3c 8e43 6f3c
00000330: 6fc8 0fbd b7db 333a deb3 bb3c 6eab c938
00000340: 0ad5 dd3b 9349 983c 7c49 14bc 5566 9bbc
00000350: 6e94 fa3b 576e 45bc 3a3c f7bc 25e2 3dbc
00000360: ba23 9dbc dcef bcbb 7e01 ce3c 2a8f 16bc
00000370: 1c51 fbbc 4505 35bc 931e 7a3c 774c aebb
00000380: aeba 59bc 9c82 8abc a5d4 6e3c fcb3 71bc
00000390: b33b b4bc e541 d8bc 4ea6 8fbc 577d bdbc
000003a0: 75ea fc3c f541 053d 3bb1 023d 17da ce3c
000003b0: 576b 2d3c 5c0f 17bb 81f5 d3bb 93d3 30bc
000003c0: ac46 c23c 17f5 d6bc 13d1 a0bc ce2d 5fbc
000003d0: 8aed 44bc aa6e 76bc e54c 573c 056f 043c
000003e0: fea3 d93c eaec b9bc b5a5 03bd 6370 f53c
000003f0: 5aa3 f8bc 2a05 70bc 65b0 973b eed2 833b
-0.012843128 -0.022180073 -0.033764586 0.009230171 -0.009806327 -0.012151008 0.028526917 -0.00064419
0.032507163 0.03487762 0.018973347 -0.0024713236 0.0088707 -0.0036577415 0.023607744 -0.0003456431
0.029518312 0.0007853849 0.02398307 0.012651405 -0.034637272 -0.010665447 0.009398652 -0.012786538
-0.032367554 0.03156875 -0.01871895 0.009785044 0.014167067 -0.030107683 0.03460951 0.02012777
0.033241533 0.020090321 0.023596756 -0.018948419 0.027364805 -0.017149419 0.02874988 -0.027377479
0.005341696 0.019641962 0.0040615755 0.008637574 0.005302174 0.009426458 0.0208779 -0.0015661079
0.025726397 -0.015970912 0.029863793 -0.020788623 0.035170425 0.0012836158 0.025417704 -0.008464111
0.020731688 0.002862892 -0.0336467 0.0008578088 -0.03423974 -0.001732656 -0.02856055 -0.0034428155
0.012707975 0.025265116 -0.0026432874 -0.016437884 0.010198887 -0.012095669 0.0068014096 0.006414967
-0.034164276 -0.021900408 0.02238206 -0.02552447 -0.033180945 -0.033374067 0.026745869 0.014854845
-0.032632586 -0.008588711 0.027502138 -0.013677674 0.023162639 -0.012071001 -0.031682383 -0.0053355442
0.012788969 -0.010823582 -0.01942469 -0.012339426 0.034185886 -0.011628369 0.03054816 0.0030606773
-0.007889335 0.003722042 -0.025581812 0.026597582 -0.022514272 0.010306661 -0.03314827 0.017885774
0.0069745868 -0.016358104 -0.013580212 -0.014934217 0.029855397 -0.010325858 0.018291036 0.030802255
-0.024294335 0.0015736308 -0.033240743 0.025146311 0.009013287 0.026588416 -0.026151909 -0.03201753
0.033274263 -0.022326356 -0.033487793 0.0017924054 0.019562846 -0.024764229 0.01247421 0.01203136
0.0052370303 -0.013699043 0.030668052 -0.00800814 -0.00980049 -0.020345595 0.002558423 -0.024477752
-0.028439613 -0.00019637177 -0.00033044818 -0.011724932 -0.009043894 -0.016278816 0.011881799 0.01834204
-0.0008506605 0.017276777 -0.0023600843 0.011502365 -0.028305162 0.0059240847 0.0014277144 0.025427619
-0.0009471987 0.016670108 -0.027713235 -0.026973495 0.008182446 -0.01980352 -0.028017143 0.014507116
0.00281818 0.0025958803 0.008126131 0.020460665 -0.004844989 0.011071772 -0.02381198 0.0008938994
0.018304229 0.0025850025 -0.021631893 0.0011984536 -0.008813245 0.000133706 -0.012041343 -0.006796897
-0.0044576954 0.007432806 0.007495808 -0.0018730505 0.022163013 0.011183786 0.00826917 0.002826299
0.029039951 0.0039795637 0.008662624 0.033670124 0.0104582105 -0.01575399 0.018096108 0.021680238
-0.024473958 0.01457509 0.003371622 0.022113064 0.027548157 0.028065104 -0.017494867 0.016211327
-0.021285845 -0.016618513 0.019053306 0.014603509 -0.035103258 0.0006861048 0.022912916 9.616358e-05
0.006769781 0.01858977 -0.009050723 -0.018969694 0.0076470887 -0.012050233 -0.030180085 -0.011589562
-0.019182075 -0.005765898 0.025147196 -0.009189406 -0.030678324 -0.01104862 0.0152660785 -0.005319174
-0.013289137 -0.016907983 0.014577066 -0.014752384 -0.022001123 -0.026398608 -0.017535355 -0.023131056
0.030873517 0.032533605 0.0319073 0.025250478 0.010584674 -0.0023049926 -0.0064684753 -0.010792631
0.02371534 -0.026239915 -0.019630944 -0.0136217605 -0.012019524 -0.015041033 0.013140892 0.00808311
0.026567455 -0.022695977 -0.032140452 0.029960817 -0.03035133 -0.014649669 0.004629182 0.0040229475

model.layer_1.pb.parentModule.bias f4 [4]
00000000: eb5b 0dbd 4ed8 2bbc 47ff b7bc d51b aabc
-0.034511488 -0.010488583 -0.022460593 -0.020765224

model.layer_1.pb.pbValues.0.topPBCandidateAverage f4 [4]
00000000: 0000 0000 0000 0000 0000 0000 0000 0000
0.0 0.0 0.0 0.0

model.layer_1.pb.pbValues.0.PrevPBCandidateCorrelation f4 [4]
00000000: 0000 0000 0000 0000 0000 0000 0000 0000
0.0 0.0 0.0 0.0

model.layer_1.pb.pbValues.0.currentCorrelationsForParallel f4 [4]
00000000: 0000 0000 0000 0000 0000 0000 0000 0000
0.0 0.0 0.0 0.0

model.layer_1.pb.pbValues.0.bestScore f4 [4]
00000000: 0000 0000 0000 0000 0000 0000 0000 0000
0.0 0.0 0.0 0.0

model.layer_1.pb.pbValues.0.previousBestScore f4 [4]
00000000: 0000 0000 0000 0000 0000 0000 0000 0000
0.0 0.0 0.0 0.0

model.layer_1.pb.pbValues.0.PrevPBCandidateAverage f4 [4]
00000000: 0000 0000 0000 0000 0000 0000 0000 0000
0.0 0.0 0.0 0.0

model.layer_1.pb.pbValues.0.mainGradAverageForScaling f4 [4]
00000000: 0000 0000 0000 0000 0000 0000 0000 0000
0.0 0.0 0.0 0.0

model.layer_1.pb.pbValues.0.candidateGradAverageForScaling f4 [4]
00000000: 0000 0000 0000 0000 0000 0000 0000 0000
0.0 0.0 0.0 0.0

model.layer_1.pb.pbValues.0.indexesOfbest f4 [4]
00000000: 0000 0000 0000 0000 0000 0000 0000 0000
0.0 0.0 0.0 0.0

model.layer_1.pb.pbValues.0.nodesBestImprovedThisEpoch f4 [4]
00000000: 0000 0000 0000 0000 0000 0000 0000 0000
0.0 0.0 0.0 0.0

model.layer_1.pb.pbValues.0.parentsAverageDvector f4 [4]
00000000: 0000 0000 0000 0000 0000 0000 0000 0000
0.0 0.0 0.0 0.0

model.layer_1.pb.pbValues.0.normalPassAverageD f4 [4]
00000000: 681a f036 2ff0 9236 40cd 1332 b798 a6b6
7.1556315e-06 4.3791e-06 8.603195e-09 -4.964964e-06

model.layer_2.mainModule.weight f4 [8, 4]
00000000: a466 82be 853c 51bd 3c59 9bbe b623 293f
00000010: aa22 c23e 772b 1ebf a14d 4d3f 7683 1cbe
00000020: a242 773f c5b3 053f 4049 53bc baed d83c
00000030: f7a8 0fbe f631 b3be 7a7d 0dbc 1697 3c3f
00000040: 9538 ad3e 083a a43c e29e d8bd 70a2 283f
00000050: 1873 9dbe 4e01 573f d95c bb3e d688 53bd
00000060: 7183 08be 7d48 76be c132 9f3e 3319 4b3e
00000070: 206a 31bf e9f5 323e 60c3 273f 465a 9d3d
-0.25468934 -0.051083107 -0.30341518 0.66070116 0.37917072 -0.6178507 0.8019658 -0.15284523
0.9658605 0.5222743 -0.012895882 0.026480544 -0.14029299 -0.34999055 -0.008635873 0.7366804
0.3383223 0.020047203 -0.105771795 0.6587286 -0.30751872 0.83986366 0.36594275 -0.05164417
-0.13331391 -0.2405109 0.3109341 0.19833831 -0.6930256 0.1747662 0.65532494 0.07683234

model.layer_2.mainModule.bias f4 [8]
00000000: b164 463e 8bfe 8ebd 1842 86be 4882 b6bd
00000010: e19a dd3d 41df 073f 91f0 edbe 05a2 febd
0.19374348 -0.06982144 -0.262223 -0.08911568 0.108205564 0.53075033 -0.464726 -0.124332465

model.layer_2.pb.parentModule.weight f4 [8, 4]
00000000: 34a9 ddbe 8a3e 8cbe d034 c3be f467 bb3e
00000010: c0de e73d 26b1 bdbe 02ea fe3e c01d 42be
00000020: 843d fe3e 38d3 e83d 28aa f3bd d8ca 26be
00000030: 38a0 b9bd a6dd dabe 4a25 8fbe 4a4d 903e
00000040: 0062 ad3e d8c9 85bd 60a6 993c 2667 ea3e
00000050: b0f1 1bbe d0b9 fa3d a452 553e e4e1 1cbe
00000060: 00e4 11be 484d 32be 00b3 043e 000c 043b
00000070: 9222 edbe 7862 793e 9caf 803e 6048 c23d
-0.43293154 -0.27391464 -0.3812623 0.36602747 0.11321783 -0.37049216 0.4978791 -0.18956661
0.49656308 0.11368412 -0.11897689 -0.16288316 -0.090637624 -0.4274723 -0.27958137 0.28183967
0.3386383 -0.06532639 0.018756092 0.4578182 -0.15228915 0.12242472 0.20832306 -0.15320545
-0.14247131 -0.17412293 0.12958908 0.0020148754 -0.46315438 0.24353969 0.2513398 0.09486461

model.layer_2.pb.parentModule.bias f4 [8]
00000000: 089e 56be bc65 82be 8464 06be e604 cebe
00000010: 3c61 d63e d498 f73e 6ac8 9cbe eaa7 e6be
-0.20958722 -0.25468242 -0.13124281 -0.40238112 0.4187106 0.48358786 -0.30621654 -0.45049983

model.layer_2.pb.pbValues.0.topPBCandidateAverage f4 [8]
00000000: 0000 0000 0000 0000 0000 0000 0000 0000
00000010: 0000 0000 0000 0000 0000 0000 0000 0000
0.0 0.0 0.0 0.0 0.0 0.0 0.0 0.0

model.layer_2.pb.pbValues.0.PrevPBCandidateCorrelation f4 [8]
00000000: 0000 0000 0000 0000 0000 0000 0000 0000
00000010: 0000 0000 0000 0000 0000 0000 0000 0000
0.0 0.0 0.0 0.0 0.0 0.0 0.0 0.0

model.layer_2.pb.pbValues.0.currentCorrelationsForParallel f4 [8]
00000000: 0000 0000 0000 0000 0000 0000 0000 0000
00000010: 0000 0000 0000 0000 0000 0000 0000 0000
0.0 0.0 0.0 0.0 0.0 0.0 0.0 0.0

model.layer_2.pb.pbValues.0.bestScore f4 [8]
00000000: 0000 0000 0000 0000 0000 0000 0000 0000
00000010: 0000 0000 0000 0000 0000 0000 0000 0000
0.0 0.0 0.0 0.0 0.0 0.0 0.0 0.0

model.layer_2.pb.pbValues.0.previousBestScore f4 [8]
00000000: 0000 0000 0000 0000 0000 0000 0000 0000
00000010: 0000 0000 0000 0000 0000 0000 0000 0000
0.0 0.0 0.0 0.0 0.0 0.0 0.0 0.0

model.layer_2.pb.pbValues.0.PrevPBCandidateAverage f4 [8]
00000000: 0000 0000 0000 0000 0000 0000 0000 0000
00000010: 0000 0000 0000 0000 0000 0000 0000 0000
0.0 0.0 0.0 0.0 0.0 0.0 0.0 0.0

model.layer_2.pb.pbValues.0.mainGradAverageForScaling f4 [8]
00000000: 0000 0000 0000 0000 0000 0000 0000 0000
00000010: 0000 0000 0000 0000 0000 0000 0000 0000
0.0 0.0 0.0 0.0 0.0 0.0 0.0 0.0

model.layer_2.pb.pbValues.0.candidateGradAverageForScaling f4 [8]
00000000: 0000 0000 0000 0000 0000 0000 0000 0000
00000010: 0000 0000 0000 0000 0000 0000 0000 0000
0.0 0.0 0.0 0.0 0.0 0.0 0.0 0.0

model.layer_2.pb.pbValues.0.indexesOfbest f4 [8]
00000000: 0000 0000 0000 0000 0000 0000 0000 0000
00000010: 0000 0000 0000 0000 0000 0000 0000 0000
0.0 0.0 0.0 0.0 0.0 0.0 0.0 0.0

model.layer_2.pb.pbValues.0.nodesBestImprovedThisEpoch f4 [8]
00000000: 0000 0000 0000 0000 0000 0000 0000 0000
00000010: 0000 0000 0000 0000 0000 0000 0000 0000
0.0 0.0 0.0 0.0 0.0 0.0 0.0 0.0

model.layer_2.pb.pbValues.0.parentsAverageDvector f4 [8]
00000000: 0000 0000 0000 0000 0000 0000 0000 0000
00000010: 0000 0000 0000 0000 0000 0000 0000 0000
0.0 0.0 0.0 0.0 0.0 0.0 0.0 0.0

model.layer_2.pb.pbValues.0.normalPassAverageD f4 [8]
00000000: 9014 59b7 0e9f b4b6 12a4 0537 206e 0f35
00000010: 18d7 4936 c68c b136 9cef 2736 fedf 37b6
-1.29389955e-05 -5.3829344e-06 7.965618e-06 5.3431904e-07 3.0076535e-06 5.2913992e-06 2.502441e-06 -2.7399506e-06

model.layer_3.mainModule.weight f4 [10, 8]
00000000: 9ae7 abbd fdba cf3e 96b1 47bf 6aa0 f8be
00000010: 6134 cabe a551 d83d 7447 d83d 0c44 073f
00000020: 1e74 32be 0150 8ebe 6de9 b53e 0b91 bebe
00000030: 0386 e43e 5bad 2abd 21b4 11bf 6389 5fbf
00000040: 0038 ba3e b813 e9bd 016a 263e a592 5a3e
00000050: 4f8d 933e 8814 54bf abf1 82be 3f54 08bf
00000060: 5bba 95bf 8128 ef3e 55ef 103f 03ba 07bf
00000070: 4267 68be c9cf 90bd c12b 04bf 6a40 9dbe
00000080: 4bd5 a53e 904b 11bf 0be5 b0be e642 813e
00000090: 6261 673e ef14 4b3e 4b18 00be b5ac 60bd
000000a0: b28b b6be 8f71 b93e b654 8dbe 3f03 9ebe
000000b0: 201a 303d a426 a13d c4da d13e baff 673d
000000c0: c1db e03e b524 443e 300b 4dbf 4f64 1a3f
000000d0: 672d b53d 0b4c f7be 08ad eabd b9a5 28bc
000000e0: 2cba 20bf 2583 12bf e355 903e 41dd 80bf
000000f0: 2bf3 e3bd fae6 233f 5f54 85bf bd8a be3c
00000100: d1b6 c6be e22d 21be a9d1 8a3d f25f 323e
00000110: 805e 2c3e 3f05 003e 1ce1 3f3e 8089 1c3c
00000120: a475 ad3e f898 c4be 14e2 d83d 80df b9be
00000130: c077 0d3d c48a ec3e 26cc 4bbf 00a7 bb3d
-0.08393784 0.40572348 -0.7800535 -0.48559886 -0.39493087 0.105624475 0.105605036 0.52838206
-0.17427108 -0.27795413 0.35529652 -0.37220034 0.44633493 -0.04166923 -0.5691548 -0.8731901
0.3637085 -0.11380714 0.16251375 0.21345003 0.28818747 -0.8284383 -0.25575003 -0.5325355
-1.1697496 0.4671059 0.5661519 -0.53018206 -0.2269564 -0.07070882 -0.51629263 -0.30713207
0.32389292 -0.56755924 -0.34549746 0.25246352 0.22595742 0.19832204 -0.12509267 -0.054852206
-0.35653454 0.3621945 -0.27603692 -0.30861852 0.042993665 0.07868698 0.40987217 0.056640364
0.4391766 0.19154628 -0.80095196 0.6030931 0.088465504 -0.48300204 -0.11458784 -0.010293418
-0.62784076 -0.5723136 0.28190526 -1.0067521 -0.11130365 0.6402432 -1.0416373 0.023259515
-0.38811353 -0.15740159 0.06778271 0.17419413 0.16832924 0.12502001 0.18738216 0.009554267
0.33878815 -0.38397956 0.10589996 -0.3630333 0.03453803 0.4619962 -0.7960838 0.09162712

model.layer_3.mainModule.bias f4 [10]
00000000: 5c66 173f 5ff1 033d 7651 b53b 3f42 5f3d
00000010: 7e16 4f3f 2c0c 26be c36b a33e c163 093f
00000020: abd3 3bbf e2b8 b7bb
0.59140563 0.03221261 0.0055333925 0.054506537 0.80893695 -0.1621558 0.31918153 0.5366784
-0.73369855 -0.0056067565

model.layer_3.pb.parentModule.weight f4 [10, 8]
00000000: ab2f b8bd 6d1e 8b3d b5f2 aebd d5c8 45be
00000010: 1784 083d ba27 6cbd 9bfd 9dbe ce65 8a3e
00000020: aeab 51bd 040a c93d 3620 8a3e dd85 9ebe
00000030: 1e9e ab3e 5d58 813e 9a43 51be 800b 88be
00000040: a393 9e3e d314 07be 5a05 c1bd f461 983d
00000050: 9f06 d03d 1a93 a7be 4e60 b4bd d607 1dbe
00000060: 8964 f1bd 1f82 a63e c03f a73e d545 d1bd
00000070: 4b75 94be 6659 b23d be1d b0be e4d4 9abd
00000080: 7fe1 60bd 7b03 0f3e 7e89 efbd b50b ba3c
00000090: 95bc 9f3d b074 83be d9de 353e 5b53 45be
000000a0: 841a b23e 35de 4a3e 4ec4 cfbd 4863 8f3d
000000b0: 3385 a13e 9732 c03d 6ef0 6f3e 5fe4 f0bc
000000c0: 3889 18bd 636d a33e 3dbb 76bd 04f1 5c3e
000000d0: 70d7 e1bd 5267 a53d 00a4 96be b132 df3d
000000e0: 97c4 bfbd c59a 133d 7bdc 3a3c 3ccf 12be
000000f0: a9ad ca3d 4ca3 0d3e 22b8 3ebd 1770 86be
00000100: afc8 35be 018d 78bd 630e 2a3e 859e 683e
00000110: c3eb 163e 568c 1e3e 56d4 733e 0063 30be
00000120: d041 293e ff0b 7dbe 1ec8 4d3d 923e adbe
00000130: f462 9bbd 34ad cd3c 56d5 50be be75 a1be
-0.08993467 0.06792913 -0.085423864 -0.19314893 0.033329096 -0.057655074 -0.30857548 0.27030796
-0.051189117 0.098163635 0.269777 -0.30961505 0.3351907 0.25262728 -0.20435944 -0.26571274
0.30972013 -0.13191538 -0.09424849 0.07440558 0.10157513 -0.32729417 -0.08807431 -0.1533502
-0.11786754 0.3252115 0.32665825 -0.102183975 -0.28995737 0.08708458 -0.3439769 -0.07560137
-0.05490255 0.13966171 -0.116961464 0.02271066 0.07799641 -0.25674963 0.17760791 -0.19270079
0.34785855 0.19811328 -0.10144864 0.07001358 0.31546935 0.09384649 0.2343156 -0.02940577
-0.037240237 0.31919393 -0.060237158 0.21576315 -0.110274196 0.080763474 -0.29421997 0.108983405
-0.093636684 0.03603627 0.011405106 -0.14336866 0.09896404 0.13831824 -0.04656232 -0.26257393
-0.17752336 -0.060681347 0.1660705 0.2271672 0.14738373 0.15483221 0.23811468 -0.17225266
0.16529012 -0.24711607 0.050239675 -0.338368 -0.07587233 0.025107004 -0.20393881 -0.31535143

model.layer_3.pb.parentModule.bias f4 [10]
00000000: ec0d 2a3e 9182 733e dfc8 333c 43fe 193e
00000010: e60e a13e 90e8 0f3e 5ee7 e13d f94a 4f3e
00000020: edfc 7cbe cb8c 8ebe
0.16606873 0.23780276 0.010973184 0.150384 0.3145668 0.1405356 0.11030458 0.20243444
-0.24705859 -0.27841792

model.layer_3.pb.pbValues.0.topPBCandidateAverage f4 [10]
00000000: 0000 0000 0000 0000 0000 0000 0000 0000
00000010: 0000 0000 0000 0000 0000 0000 0000 0000
00000020: 0000 0000 0000 0000
0.0 0.0 0.0 0.0 0.0 0.0 0.0 0.0
0.0 0.0

model.layer_3.pb.pbValues.0.PrevPBCandidateCorrelation f4 [10]
00000000: 0000 0000 0000 0000 0000 0000 0000 0000
00000010: 0000 0000 0000 0000 0000 0000 0000 0000
00000020: 0000 0000 0000 0000
0.0 0.0 0.0 0.0 0.0 0.0 0.0 0.0
0.0 0.0

model.layer_3.pb.pbValues.0.currentCorrelationsForParallel f4 [10]
00000000: 0000 0000 0000 0000 0000 0000 0000 0000
00000010: 0000 0000 0000 0000 0000 0000 0000 0000
00000020: 0000 0000 0000 0000
0.0 0.0 0.0 0.0 0.0 0.0 0.0 0.0
0.0 0.0

model.layer_3.pb.pbValues.0.bestScore f4 [10]
00000000: 0000 0000 0000 0000 0000 0000 0000 0000
00000010: 0000 0000 0000 0000 0000 0000 0000 0000
00000020: 0000 0000 0000 0000
0.0 0.0 0.0 0.0 0.0 0.0 0.0 0.0
0.0 0.0

model.layer_3.pb.pbValues.0.previousBestScore f4 [10]
00000000: 0000 0000 0000 0000 0000 0000 0000 0000
00000010: 0000 0000 0000 0000 0000 0000 0000 0000
00000020: 0000 0000 0000 0000
0.0 0.0 0.0 0.0 0.0 0.0 0.0 0.0
0.0 0.0

model.layer_3.pb.pbValues.0.PrevPBCandidateAverage f4 [10]
00000000: 0000 0000 0000 0000 0000 0000 0000 0000
00000010: 0000 0000 0000 0000 0000 0000 0000 0000
00000020: 0000 0000 0000 0000
0.0 0.0 0.0 0.0 0.0 0.0 0.0 0.0
0.0 0.0

model.layer_3.pb.pbValues.0.mainGradAverageForScaling f4 [10]
00000000: 0000 0000 0000 0000 0000 0000 0000 0000
00000010: 0000 0000 0000 0000 0000 0000 0000 0000
00000020: 0000 0000 0000 0000
0.0 0.0 0.0 0.0 0.0 0.0 0.0 0.0
0.0 0.0

model.layer_3.pb.pbValues.0.candidateGradAverageForScaling f4 [10]
00000000: 0000 0000 0000 0000 0000 0000 0000 0000
00000010: 0000 0000 0000 0000 0000 0000 0000 0000
00000020: 0000 0000 0000 0000
0.0 0.0 0.0 0.0 0.0 0.0 0.0 0.0
0.0 0.0

model.layer_3.pb.pbValues.0.indexesOfbest f4 [10]
00000000: 0000 0000 0000 0000 0000 0000 0000 0000
00000010: 0000 0000 0000 0000 0000 0000 0000 0000
00000020: 0000 0000 0000 0000
0.0 0.0 0.0 0.0 0.0 0.0 0.0 0.0
0.0 0.0

model.layer_3.pb.pbValues.0.nodesBestImprovedThisEpoch f4 [10]
00000000: 0000 0000 0000 0000 0000 0000 0000 0000
00000010: 0000 0000 0000 0000 0000 0000 0000 0000
00000020: 0000 0000 0000 0000
0.0 0.0 0.0 0.0 0.0 0.0 0.0 0.0
0.0 0.0

model.layer_3.pb.pbValues.0.parentsAverageDvector f4 [10]
00000000: 0000 0000 0000 0000 0000 0000 0000 0000
00000010: 0000 0000 0000 0000 0000 0000 0000 0000
00000020: 0000 0000 0000 0000
0.0 0.0 0.0 0.0 0.0 0.0 0.0 0.0
0.0 0.0

model.layer_3.pb.pbValues.0.normalPassAverageD f4 [10]
00000000: 1624 30b6 6269 b535 c4bc fcb6 5e4d 0a36
00000010: 40f3 4733 3de3 12b7 7417 bcb6 c6f7 94b6
00000020: 100f b937 bcaf 6636
-2.6247048e-06 1.3516221e-06 -7.5321605e-06 2.0608636e-06 4.6554533e-08 -8.755186e-06 -5.605567e-06 -4.4395883e-06
2.2060733e-05 3.4374962e-06

exp_avg f4 [4, 784]
00000000: 0216 74ba 0216 74ba 0216 74ba 0216 74ba
00000010: 0216 74ba 0216 74ba 0216 74ba 0216 74ba
00000020: 0216 74ba 0216 74ba 0216 74ba 0216 74ba
00000030: 0216 74ba 0216 74ba 0216 74ba 0216 74ba
00000040: 0216 74ba 0216 74ba 0216 74ba 0216 74ba
00000050: 0216 74ba 0216 74ba 0216 74ba 0216 74ba
00000060: 0216 74ba 0216 74ba 0216 74ba 0216 74ba
00000070: 0216 74ba 0216 74ba 0216 74ba 0216 74ba
00000080: 0216 74ba 0216 74ba 0216 74ba 0016 74ba
00000090: d215 74ba dc15 74ba 3217 74ba b11a 74ba
000000a0: 7917 74ba c20f 74ba ab17 74ba 9818 74ba
000000b0: 2a2e 74ba 5719 74ba c915 74ba 0116 74ba
000000c0: 0116 74ba 0216 74ba 0216 74ba 0216 74ba
000000d0: 0216 74ba 0216 74ba 0216 74ba 0216 74ba
000000e0: 0216 74ba 0216 74ba 0216 74ba 0216 74ba
000000f0: 0216 74ba 0216 74ba 0216 74ba ec15 74ba
00000100: c315 74ba 7915 74ba 4c18 74ba 3dae 72ba
00000110: 68c1 6dba f032 64ba 0c7e 69ba 9067 76ba
00000120: c3b4 78ba d0c6 6fba 4a39 6cba a423 73ba
00000130: d29e 73ba fc0d 74ba 800e 74ba 6415 74ba
00000140: 0116 74ba 0216 74ba 0216 74ba 0216 74ba
00000150: 0216 74ba 0216 74ba 0216 74ba 0216 74ba
00000160: 0d16 74ba 1b16 74ba 4012 74ba 9b09 74ba
00000170: 38dc 73ba 7645 6bba 5e47 5cba 2a2d 53ba
00000180: 65fb 4cba 1cf3 98ba df20 a2ba 9d76 d0ba
00000190: 411b 0bbb 7a4f 0cbb a8ae abba 1f89 62ba
000001a0: 1697 d7b9 4ace 1cba b2b6 66ba 5e23 5fba
000001b0: 303e 5aba 94b5 73ba 0216 74ba 0216 74ba
000001c0: 0216 74ba 0216 74ba 0216 74ba 0216 74ba
000001d0: 1a16 74ba aabc 5bba 4d8c 65ba 7f03 4cba
000001e0: 2af2 63ba 61a8 40ba 8c31 8dba c559 1fba
000001f0: 2e36 373a b1c4 8837 c468 4bba ff8f 55ba
00000200: ddf2 83ba fcd8 17bb d36c fdba d6cb c8ba
00000210: 1b2e a3ba 70d2 57ba 3a3a 80ba 5a5e 85ba
00000220: e3aa 4fba e0c7 6cba 7733 76ba e717 74ba
00000230: 0216 74ba 0216 74ba 0216 74ba 37b0 75ba
00000240: 8635 75ba 766a 63ba 7c40 46ba c3ba b6b9
00000250: 188e 8537 35e7 1f39 095f 3e3a 1baf ef3a
00000260: 19e7 c63a 90d5 97ba 9a87 bfba 40e6 11bb
00000270: 1855 92ba 9570 0eba 45c6 233a 9304 7eb9
00000280: 6181 21bb e404 08bb aa54 cdba 63d0 a6ba
00000290: 1ade c3ba cd47 78ba e636 79ba 0216 74ba
000002a0: 0216 74ba 0b16 74ba ae16 74ba 10c7 74ba
000002b0: 92ae 87ba 63e4 93ba 45d1 2dba 6afc ffb8
000002c0: d610 31b8 78b4 5a39 389d 173b db21 613b
000002d0: 1f43 fe3a fbb2 313a 9947 b93a c7f4 923a
000002e0: 7d8a 683b 07df 2a3b 5f69 253b 9da7 353b
000002f0: c83f f439 c8da 4cba ed50 713a 13f6 273a
00000300: 5ed7 9eba 4a78 9fba c824 75ba 7c26 74ba
00000310: 0216 74ba c616 74ba be34 74ba 2843 7bba
00000320: 790f 96ba 6762 a3ba 0c2e d1b9 994c 2a3a
00000330: 4210 c139 6e9e dd3a f592 4b3b 58aa 493b
00000340: 9b2e fb3a 03fc 3d3b c491 5a3b 9842 823b
00000350: dc0c b43b 5af9 973b 0b4d 3a3b 6ffc f23a
00000360: 9827 ad3a 74e6 00b8 8f47 2f39 25f7 6339
00000370: c83b 60ba 2658 96ba 843a 81ba 2f1b 74ba
00000380: 0216 74ba 2316 74ba 681e 74ba 512f 7cba
00000390: e61e 82ba 0ff9 88ba 7241 653a 8093 a63a
000003a0: 50d6 06ba 303e 74b9 0433 173a cd4f 0eba
000003b0: c5bc 4d39 a577 c63a a8a2 463b 0c82 713b
000003c0: 6961 e23b 9b68 e73b 8d04 873b 32ef 1a3b
000003d0: 2771 d638 ab86 9fba b119 65ba 8f48 37b9
000003e0: c3e7 85ba 6b1a b5ba 4c38 84ba b01b 74ba
000003f0: 0216 74ba 0716 74ba bb20 74ba 714f 76ba
-0.0009311141 -0.0009311141 -0.0009311141 -0.0009311141 -0.0009311141 -0.0009311141 -0.0009311141 -0.0009311141
-0.0009311141 -0.0009311141 -0.0009311141 -0.0009311141 -0.0009311141 -0.0009311141 -0.0009311141 -0.0009311141
-0.0009311141 -0.0009311141 -0.0009311141 -0.0009311141 -0.0009311141 -0.0009311141 -0.0009311141 -0.0009311141
-0.0009311141 -0.0009311141 -0.0009311141 -0.0009311141 -0.0009311141 -0.0009311141 -0.0009311141 -0.0009311141
-0.0009311141 -0.0009311141 -0.0009311141 -0.00093111396 -0.0009311113 -0.00093111186 -0.00093113177 -0.00093118387
-0.0009311359 -0.00093102094 -0.0009311388 -0.0009311526 -0.00093147403 -0.0009311637 -0.00093111076 -0.000931114
-0.000931114 -0.0009311141 -0.0009311141 -0.0009311141 -0.0009311141 -0.0009311141 -0.0009311141 -0.0009311141
-0.0009311141 -0.0009311141 -0.0009311141 -0.0009311141 -0.0009311141 -0.0009311141 -0.0009311141 -0.0009311128
-0.0009311104 -0.0009311061 -0.0009311482 -0.0009257531 -0.00090696523 -0.00087051 -0.0008907027 -0.0009399587
-0.0009487385 -0.0009146752 -0.0009011222 -0.0009275025 -0.00092933804 -0.0009309945 -0.0009310022 -0.0009311049
-0.000931114 -0.0009311141 -0.0009311141 -0.0009311141 -0.0009311141 -0.0009311141 -0.0009311141 -0.0009311141
-0.0009311147 -0.00093111553 -0.0009310581 -0.00093092927 -0.00093025295 -0.0008974889 -0.00084029685 -0.0008055741
-0.0007819443 -0.0011669132 -0.0012369415 -0.001590449 -0.0021225961 -0.0021409676 -0.0013098316 -0.00086416485
-0.00041120563 -0.0005981667 -0.00088010274 -0.0008512045 -0.00083253067 -0.00092967716 -0.0009311141 -0.0009311141
-0.0009311141 -0.0009311141 -0.0009311141 -0.0009311141 -0.0009311155 -0.00083823 -0.0008756563 -0.00077825034
-0.0008695448 -0.0007349309 -0.0010772212 -0.00060787454 0.00069889694 1.6304055e-05 -0.0007759447 -0.0008146762
-0.0010066886 -0.0023170104 -0.00193348 -0.0015319537 -0.0012449654 -0.0008232957 -0.0009782978 -0.0010175214
-0.00079218874 -0.0009032469 -0.0009391824 -0.0009311423 -0.0009311141 -0.0009311141 -0.0009311141 -0.00093722664
-0.0009353984 -0.00086752267 -0.00075627095 -0.00034852893 1.5921003e-05 0.00015249553 0.0007262086 0.0018286438
0.0015175074 -0.0011584032 -0.0014612556 -0.0022262484 -0.0011164276 -0.0005433646 0.0006247501 -0.00024225032
-0.0024643766 -0.0020754868 -0.0015665491 -0.0012726899 -0.0014943511 -0.00094711484 -0.00095067767 -0.0009311141
-0.0009311141 -0.0009311146 -0.0009311241 -0.0009337524 -0.0010351709 -0.0011283275 -0.000663061 -0.00012206363
-4.221577e-05 0.0002085733 0.002313448 0.0034352455 0.0019398666 0.00067786843 0.0014135718 0.0011211865
0.0035482936 0.0026072876 0.0025239808 0.0027718314 0.00046586827 -0.00078145834 0.00092054793 0.00064072123
-0.0012118628 -0.0012166586 -0.0009351489 -0.0009313596 -0.0009311141 -0.0009311255 -0.00093157205 -0.0009584897
-0.0011448703 -0.0012465239 -0.00039897894 0.00064963993 0.00036823942 0.0016908178 0.0031062935 0.0030771699
0.001916367 0.0028989322 0.0033351043 0.0039752237 0.005494697 0.0046378793 0.002842727 0.0018538366
0.0013210652 -3.0732204e-05 0.00016715958 0.00021740475 -0.000855383 -0.0011470362 -0.0009859358 -0.0009311912
-0.0009311141 -0.000931116 -0.0009312392 -0.0009620088 -0.0009927421 -0.0010450202 0.0008745409 0.0012708753
-0.00051436294 -0.0002329282 0.0005767795 -0.00054287614 0.00019620646 0.0015141858 0.0030309353 0.0036851196
0.006908585 0.0070620305 0.0041204155 0.0023641107 0.000102253915 -0.0012170871 -0.0008739485 -0.0001747927
-0.0010216165 -0.0013817077 -0.0010087579 -0.0009311987 -0.0009311141 -0.00093111437 -0.00093127385 -0.0009395993

exp_avg_sq f4 [4, 784]
00000000: 0b48 cb36 0b48 cb36 0b48 cb36 0b48 cb36
00000010: 0b48 cb36 0b48 cb36 0b48 cb36 0b48 cb36
00000020: 0b48 cb36 0b48 cb36 0b48 cb36 0b48 cb36
00000030: fde6 cb36 fb0f ce36 973f cb36 0944 cb36
00000040: 0b48 cb36 0b48 cb36 0b48 cb36 0b48 cb36
00000050: 0b48 cb36 0b48 cb36 0b48 cb36 0b48 cb36
00000060: 0b48 cb36 0b48 cb36 0b48 cb36 0b48 cb36
00000070: 0b48 cb36 0b48 cb36 0b48 cb36 0b48 cb36
00000080: 1f48 cb36 4048 cb36 2048 cb36 8d49 cb36
00000090: eb65 cb36 6c42 cb36 8383 cb36 54ab cd36
000000a0: 9a9e cc36 a21a cc36 3344 ca36 7a6b cc36
000000b0: 2af0 ce36 79b0 cf36 0dee cb36 a4be cb36
000000c0: 3bd8 ca36 00e8 cc36 a75c cb36 0b48 cb36
000000d0: 0b48 cb36 0b48 cb36 0b48 cb36 0b48 cb36
000000e0: 0b48 cb36 0b48 cb36 0b48 cb36 0b48 cb36
000000f0: 1948 cb36 be48 cb36 9092 cb36 2b6d cd36
00000100: c2a2 ce36 754f cf36 eb31 d436 0020 d836
00000110: b712 ea36 a1e8 ef36 d49c ee36 a604 e936
00000120: 315d e636 e6bb e736 688b dc36 fcb7 d836
00000130: fdcc d436 e025 d836 3f00 d136 207f ca36
00000140: 2ea5 cb36 c5e9 ca36 0b48 cb36 0b48 cb36
00000150: 0b48 cb36 0b48 cb36 4747 cb36 dc47 cb36
00000160: 5947 cb36 379d cb36 d771 cd36 b8cc d136
00000170: c4ec d536 ccd6 e336 a698 0037 82be 1337
00000180: ca5d 2537 0230 3937 8b28 3c37 74fb 4037
00000190: e383 4f37 117b 5637 cc02 3237 b983 2037
000001a0: 496e 0d37 bf35 0237 0a58 ee36 af93 d136
000001b0: 3344 cc36 b4f9 c936 1df9 ca36 0b48 cb36
000001c0: 0b48 cb36 4a48 cb36 aa46 cb36 de45 cb36
000001d0: 6019 cb36 c9f5 cf36 8b5b d736 ed63 f136
000001e0: cacc 0b37 4c7c 3e37 4eff 8a37 2496 aa37
000001f0: cef0 dd37 0f07 0238 e8a9 0b38 53c4 0f38
00000200: b334 0a38 e5d3 f137 38ba cd37 6f9e b037
00000210: 61c6 8237 8ec0 3937 6b0e 1937 8fb1 f836
00000220: a753 d436 4e7a ca36 ff06 cb36 5bd2 ca36
00000230: 0b48 cb36 0b48 cb36 4149 cb36 8633 ce36
00000240: a249 d536 9b8d e136 12c8 0437 732c 2f37
00000250: 2803 7e37 3ddf b337 038e 0338 18f2 3738
00000260: db8b 6938 aea2 8b38 bca4 9c38 45eb 9f38
00000270: bb4e a238 d8e3 9a38 f28c 7f38 68cf 3538
00000280: 4538 f237 ba08 ae37 b167 7137 5b6a 2937
00000290: 02ef eb36 767f d336 0c29 ca36 d96c cb36
000002a0: 0b48 cb36 9640 cb36 c27b ca36 50bf d136
000002b0: ea33 e636 a241 0337 a999 2e37 fbeb 8537
000002c0: df20 bf37 4551 1438 f5f7 5c38 de4b 8e38
000002d0: 5d8c ae38 20f2 c138 aa92 d338 b00d db38
000002e0: 7b79 e538 fd6d de38 b228 c938 7b15 9338
000002f0: 561e 3c38 8f26 0738 da29 b137 72f1 6037
00000300: e1b1 0d37 b9a5 e536 e5f9 d036 9018 cb36
00000310: 0b48 cb36 f557 cb36 11d8 ca36 c0eb d236
00000320: 5b5f f636 8790 1d37 c5c7 5137 47af a537
00000330: d001 e837 b554 3238 aed6 7038 6e74 9b38
00000340: 6d56 bc38 06c2 c938 5150 ce38 4878 d238
00000350: b94d d638 4a9b d438 01cf be38 594e 9c38
00000360: a6c6 5f38 ba03 1d38 9c21 d837 ef68 8d37
00000370: e313 2a37 2815 f636 458d d336 92f4 ca36
00000380: 0a48 cb36 6b24 cb36 17fb cb36 f0bc d636
00000390: 3cbf 0a37 1e10 2637 299d 6037 86a0 b037
000003a0: dec0 0038 6319 2f38 5628 5438 58bd 8738
000003b0: 2ae3 a638 4e52 b738 3c99 bc38 55cc c038
000003c0: 0cde bd38 891a b438 b950 a938 def8 9038
000003d0: 1dab 4f38 6d67 1638 4058 d437 bcec 8737
000003e0: 5a76 2d37 2d4d ff36 4412 d436 c985 cb36
000003f0: cf43 cb36 9b3f cb36 a197 cb36 4f99 d236
6.0582584e-06 6.0582584e-06 6.0582584e-06 6.0582584e-06 6.0582584e-06 6.0582584e-06 6.0582584e-06 6.0582584e-06
6.0582584e-06 6.0582584e-06 6.0582584e-06 6.0582584e-06 6.076762e-06 6.141139e-06 6.0572743e-06 6.057792e-06
6.0582584e-06 6.0582584e-06 6.0582584e-06 6.0582584e-06 6.0582584e-06 6.0582584e-06 6.0582584e-06 6.0582584e-06
6.0582584e-06 6.0582584e-06 6.0582584e-06 6.0582584e-06 6.0582584e-06 6.0582584e-06 6.0582584e-06 6.0582584e-06
6.0582674e-06 6.0582825e-06 6.058268e-06 6.058434e-06 6.0617363e-06 6.057604e-06 6.0651814e-06 6.1294213e-06
6.0981374e-06 6.0827742e-06 6.0280086e-06 6.0921857e-06 6.167237e-06 6.189625e-06 6.077584e-06 6.072065e-06
6.0452417e-06 6.106682e-06 6.0606576e-06 6.0582584e-06 6.0582584e-06 6.0582584e-06 6.0582584e-06 6.0582584e-06
6.0582584e-06 6.0582584e-06 6.0582584e-06 6.0582584e-06 6.0582647e-06 6.0583397e-06 6.0669336e-06 6.122185e-06
6.158226e-06 6.1783308e-06 6.3239036e-06 6.441027e-06 6.975922e-06 7.1498366e-06 7.11121e-06 6.9444823e-06
6.865383e-06 6.9062107e-06 6.57274e-06 6.4587202e-06 6.341956e-06 6.441711e-06 6.228714e-06 6.0348684e-06
6.069101e-06 6.0472835e-06 6.0582584e-06 6.0582584e-06 6.0582584e-06 6.0582584e-06 6.058169e-06 6.058237e-06
6.0581774e-06 6.0681737e-06 6.122729e-06 6.252518e-06 6.375458e-06 6.790133e-06 7.664936e-06 8.806239e-06
9.856603e-06 1.1038037e-05 1.1215113e-05 1.1502638e-05 1.2368869e-05 1.2784048e-05 1.0610278e-05 9.567412e-06
8.429933e-06 7.761118e-06 7.103202e-06 6.245878e-06 6.087613e-06 6.019336e-06 6.0490697e-06 6.0582584e-06
6.0582584e-06 6.058287e-06 6.058098e-06 6.058005e-06 6.0528255e-06 6.197694e-06 6.4181563e-06 7.1939926e-06
8.332727e-06 1.1353823e-05 1.6569767e-05 2.0335494e-05 2.6457386e-05 3.100099e-05 3.329842e-05 3.4276698e-05
3.2950844e-05 2.882811e-05 2.452462e-05 2.1054611e-05 1.5589585e-05 1.1071692e-05 9.122868e-06 7.4116465e-06
6.3278308e-06 6.0343073e-06 6.050686e-06 6.0445577e-06 6.0582584e-06 6.0582584e-06 6.0583993e-06 6.1452765e-06
6.3564667e-06 6.7220076e-06 7.914396e-06 1.0441162e-05 1.5140315e-05 2.1442416e-05 3.1365093e-05 4.3856067e-05
5.568178e-05 6.658338e-05 7.469344e-05 7.625533e-05 7.739427e-05 7.3857314e-05 6.0928003e-05 4.3346925e-05
2.887485e-05 2.074648e-05 1.4388862e-05 1.0097948e-05 7.03137e-06 6.3031284e-06 6.0248476e-06 6.062543e-06
6.0582584e-06 6.0573902e-06 6.0344764e-06 6.250957e-06 6.8605777e-06 7.82349e-06 1.0406985e-05 1.5964722e-05
2.2784281e-05 3.5361638e-05 5.2683015e-05 6.785219e-05 8.323111e-05 9.2480564e-05 0.00010088582 0.00010445283
0.000109421984 0.00010606272 9.592007e-05 7.013507e-05 4.4850945e-05 3.222242e-05 2.1119533e-05 1.3407656e-05
8.445671e-06 6.8440245e-06 6.2279746e-06 6.052731e-06 6.0582584e-06 6.060111e-06 6.0452226e-06 6.2859326e-06
7.342472e-06 9.39158e-06 1.2503883e-05 1.9751153e-05 2.76574e-05 4.2517397e-05 5.7420395e-05 7.412663e-05
8.9806366e-05 9.6205666e-05 9.8378056e-05 0.000100359845 0.00010218792 0.000101378726 9.0984635e-05 7.453253e-05
5.335235e-05 3.7435188e-05 2.5764857e-05 1.6857373e-05 1.013742e-05 7.333834e-06 6.304736e-06 6.048541e-06
6.058258e-06 6.054111e-06 6.079102e-06 6.399692e-06 8.269966e-06 9.898124e-06 1.3388032e-05 2.1055585e-05
3.06972e-05 4.1746895e-05 5.0582305e-05 6.47257e-05 7.9578094e-05 8.7414504e-05 8.993081e-05 9.193333e-05
9.053582e-05 8.5880114e-05 8.073584e-05 6.91281e-05 4.9512008e-05 3.585911e-05 2.5313464e-05 1.6203492e-05
1.0339159e-05 7.6085767e-06 6.3202187e-06 6.065446e-06 6.0577654e-06 6.057276e-06 6.0675234e-06 6.276335e-06

exp_avg f4 [4]
00000000: acd8 0f3b 1c8b 723a 2d76 d638 a2aa 1fbb
0.0021949215 0.00092522963 0.00010226327 -0.002436318

exp_avg_sq f4 [4]
00000000: a633 0d38 10dd e437 0865 a737 973d 2838
3.366512e-05 2.7282658e-05 1.9954998e-05 4.011168e-05

exp_avg f4 [8, 4]
00000000: e2a1 3cbb 7a80 d5bc c441 24bd 76bd e6bc
00000010: a81b 53bb d827 843c 23ce 2aba 3b59 98bb
00000020: c160 803c 93cf 333c ee07 083d 4170 163d
00000030: bdcd 933b edc2 73bc 0f65 e8bb 9342 89bc
00000040: 4bd2 9cbb f54c b1bb db2a 91bc ab8e 8ebb
00000050: 955f 4bbc b97e 14bc 21fe 8dbc 18b3 923b
00000060: 5af1 f1bc f97f c2bb 7a4a 2abd 5f98 09bd
00000070: 22e1 8cbc db38 25bc 2c6b 49bc 27c0 c6bc
-0.0028783013 -0.026062239 -0.04010178 -0.028166514 -0.003221253 0.01613228 -0.0006515702 -0.004649309
0.015671136 0.0109747825 0.033210687 0.036728147 0.00451061 -0.014878017 -0.0070921252 -0.016755378
-0.004785811 -0.0054107853 -0.01772063 -0.0043505034 -0.012412925 -0.009063416 -0.017333092 0.004476916
-0.02953403 -0.0059356657 -0.041574933 -0.033592578 -0.017197195 -0.010084356 -0.012293618 -0.024261547

exp_avg_sq f4 [8, 4]
00000000: 0559 803b 5418 dd3b d05d 0e3c 2c4f 2b3c
00000010: 90e4 0c3b 2e77 ed3a 02af cd3b 139f a03b
00000020: 7dc6 423b 000b 2d3b f6fb 4e3c dbe8 143c
00000030: 0ba5 3e3b c849 b33b e58f 1d3c cb89 2e3c
00000040: f0fe b33a 1b19 893a 12c9 803b b4d2 173b
00000050: 4874 f23a 59aa e23a bc46 4a3b 208e c13b
00000060: 2344 863b 58a4 cd3b 7526 833c 5048 413c
00000070: 1083 e33a e108 9f3a 5634 a23b 4461 703b
0.003916862 0.006747285 0.008689359 0.010455888 0.0021498539 0.0018117183 0.006276966 0.0049017756
0.002972036 0.0026404262 0.012633314 0.00908872 0.0029090072 0.005471442 0.009616827 0.01065297
0.0013732594 0.0010459753 0.0039302194 0.002316636 0.0018497789 0.0017293199 0.0030864915 0.005906835
0.004097478 0.006275695 0.016009549 0.011797026 0.0017357785 0.0012133383 0.0049500866 0.0036679069

exp_avg f4 [8]
00000000: 6909 12bb 225f ab38 2386 d53a 6ca8 34ba
00000010: 5318 cbb9 d928 e539 470e 5eba e367 1dba
-0.002228344 8.171635e-05 0.0016290586 -0.0006891552 -0.000387373 0.00043708718 -0.00084707554 -0.0006004555

exp_avg_sq f4 [8]
00000000: 295b a937 fe69 1c37 311d 9f37 5f94 ab37
00000010: 6f8e f036 9c44 2637 5fb7 cf37 ba28 0c37
2.018882e-05 9.323003e-06 1.896787e-05 2.045388e-05 7.169139e-06 9.910345e-06 2.4761712e-05 8.354133e-06

exp_avg f4 [10, 8]
00000000: 3d5c f5b7 200c 053d 0a12 913c 2e98 763a
00000010: 1ae6 953b 8210 a63c c1df 243c bb94 ad3c
00000020: 97ef 8f38 4470 953b c04e 353c d866 d33a
00000030: 29c2 db3b c634 b53b 1a61 663a d5cd 3d3b
00000040: 652a a8bb 2a36 1d3c c656 d23b 4f0c 1739
00000050: 6cae da3a 5226 9a3b 24ac 933b a8cb 8f3b
00000060: be83 923a 2968 c83c 50d6 e03c e6a7 163c
00000070: 28e9 9a3c adb3 983c 73c2 123c e7f2 5d3c
00000080: 10d6 a73b 0119 423b fd00 cfba 578a d03b
00000090: 738f a43b bd91 7abc 252a fcb8 3d44 41bc
000000a0: 9dad 403a 0ade a7bd 5291 5fbd f963 a2bc
000000b0: 4197 10bd d380 0bbd 4538 e7bc 611a 1abd
000000c0: 98c0 dcbb d9e9 18bc e409 cbb9 55b9 43bc
000000d0: fcde 1ebc 6db9 a9bb 1f64 f0bb f2e3 2bbc
000000e0: 9177 423b 79b9 9ebb 8f18 bbbb 41dd 293b
000000f0: 64dd fe3a 6f03 d1ba c099 993a 376c 9b3a
00000100: 213a d0ba 83fc c43c 76d0 913b 68f4 fb3b
00000110: 9ed6 d53b e4f6 903c 257a 3c3c b944 c63c
00000120: dbcd 633b ffdc 00bb 3151 9ebb 5fc1 533b
00000130: 14d2 b9b9 2191 2fbc 4785 b7ba 52b5 f5bb
-2.9249228e-05 0.032482266 0.017708797 0.0009406832 0.0045745494 0.020271543 0.010063113 0.021189084
6.8633984e-05 0.0045605022 0.011066139 0.0016128672 0.0067064953 0.0055299727 0.0008788273 0.0028961797
-0.005132007 0.009595433 0.0064190356 0.00014405067 0.0016684062 0.004704275 0.0045066047 0.0043882914
0.0011178178 0.02446373 0.027445942 0.009195304 0.018910006 0.018640364 0.008957493 0.013546682
0.005121954 0.0029616954 -0.0015793141 0.0063641476 0.0050219833 -0.015293536 -0.000120241464 -0.011796054
0.0007350089 -0.081966475 -0.054581948 -0.019823061 -0.035300497 -0.034058403 -0.028225074 -0.037622813
-0.006736826 -0.009333097 -0.00038726546 -0.011946042 -0.009696718 -0.005179575 -0.007336154 -0.010491358
0.0029673318 -0.0048438874 -0.0057097147 0.002591923 0.0019444642 -0.0015946458 0.0011718795 0.0011857812
-0.0015886464 0.024046188 0.0044498993 0.0076890476 0.0065258285 0.017695852 0.011503731 0.024202691
0.003476015 -0.0019662974 -0.004831456 0.0032311303 -0.0003544247 -0.010715754 -0.0014001512 -0.0074984217

exp_avg_sq f4 [10, 8]
00000000: 086c 9937 af9a 803b 1c0a 273a 1ac9 db39
00000010: e00b 0f3a 53d3 053b d94f 423a c8ea 533b
00000020: 4942 6139 ec8d 703a bbc5 ba3b 8992 5e3a
00000030: 80a1 853b a4d3 5d3a d925 d538 5db7 8f38
00000040: c11b 893a 0bf9 b53a c958 753b 9f07 1d3b
00000050: dc9d a63b 66a8 9039 c2c4 b039 4332 0539
00000060: 5898 e536 a7a8 cb3b d94e ec3b 8e35 393a
00000070: 7e5c 7a3b 00ef 2b3b 238e 293a 9ffc d13a
00000080: 84f2 253b 63d8 7039 bf47 503b 357b 5d3b
00000090: b491 d03b 3b5e a73b 0caa df39 9638 273b
000000a0: 8a7c 1a39 a27b 5e3c fb29 bb3b 5881 2d3b
000000b0: 9cc9 b03b a8df a53b cf39 1f3b 699d e93b
000000c0: 5458 903a f869 bb3a 7c53 143a 3f03 243b
000000d0: 00e6 3a3b 1e72 ba39 2cba 1c3a aaf7 7f3a
000000e0: 8bae d638 4884 2239 2381 5a3b 561b e638
000000f0: ba66 c13a 844c 9d3b 79c7 2038 9471 c83a
00000100: 6aa6 1d3a b27d cc3b 944c 153c 93fe 643b
00000110: 1230 123c c3c4 b43b abbd c63a f589 8d3b
00000120: a2fb c83a e562 8939 1f73 d43b 6d62 f53a
00000130: c747 c73b 6efd 253c e24b 8e39 74bc 7d3b
1.8289327e-05 0.0039246897 0.0006372051 0.00041920767 0.00054567866 0.0020420149 0.0007412411 0.0032335985
0.00021482365 0.00091764214 0.005699841 0.00084904634 0.00407809 0.0008462018 0.00010163681 6.8529254e-05
0.0010460542 0.0013883425 0.0037436953 0.0023960841 0.0050847363 0.00027591287 0.00033715932 0.00012702592
6.842467e-06 0.0062151733 0.007211548 0.000706517 0.0038202102 0.0026234984 0.00064680184 0.0016020722
0.0025321553 0.00022968794 0.0031781045 0.003379536 0.0063650254 0.0051076687 0.0004266057 0.0025515906
0.00014732979 0.013579281 0.0057117916 0.00264748 0.0053951275 0.0050620623 0.0024295931 0.0071293605
0.0011012652 0.0014298549 0.0005658192 0.002502635 0.0028518438 0.00035561709 0.00059786695 0.0009764383
0.00010236826 0.00015498803 0.0033341132 0.00010972346 0.0014755346 0.004800381 3.8332746e-05 0.0015292638
0.00060138723 0.00624057 0.009112496 0.0034941777 0.008922594 0.00551662 0.0015162727 0.0043194243
0.0015333781 0.00026204358 0.00648345 0.001872135 0.0060815546 0.010131223 0.00027140888 0.0038717063

exp_avg f4 [10]
00000000: c9bd 293a fb23 3739 836d dbb9 6531 c13a
00000010: 0579 3b38 455d 26bb 2430 70ba 2dfb bab9
00000020: b2eb f83a 26a6 27b7
0.00064751186 0.00017465644 -0.00041852528 0.0014739452 4.4696983e-05 -0.0025385183 -0.0009162447 -0.00035663825
0.0018991141 -9.99266e-06

exp_avg_sq f4 [10]
00000000: 03f6 6d37 dcde 5137 88c4 6b37 a7aa 9c37
00000010: e636 e537 d62d 1938 976c 6137 fee1 8737
00000020: 13cb e537 556a ee37
1.418358e-05 1.2509259e-05 1.405285e-05 1.8676115e-05 2.7324491e-05 3.652073e-05 1.3436328e-05 1.619849e-05
2.7393491e-05 2.8421326e-05
