libraryExamples/mnist_lightning/.mnist_{epoch}-{val_loss:.2f}/epoch=1-step=1720-v1.ckpt (torch, 104528 bytes, 60 tensors)

model.layer_1.mainModule.weight f4 [4, 784]
000000 20 14 60 bd 46 b9 ce bc 8d 65 1c bd 4d d9 a5 bc
       -0.054706693 -0.02523483 -0.038182784 -0.020245219
000010 87 f5 45 bd 4c 91 c7 bc b7 b8 92 bd 0f cd 9a bd
       -0.048329856 -0.024361275 -0.07164138 -0.07558643
000020 1a d5 0f bd b9 ec 0b bd 28 37 6b bd e2 1d be bc
       -0.03511534 -0.034161303 -0.057425648 -0.023207609
000030 db 2a ab bd 82 9e 28 bd 3f fe f9 bc e5 a8 d8 bc
       -0.083577834 -0.04116679 -0.030516742 -0.026447723
000040 f8 07 2b bd 0d d3 48 bd 67 2f 9a bd 47 38 9f bd
       -0.041755646 -0.0490294 -0.075285725 -0.07774406
000050 f3 fb 8d bd 3b bc 87 bd 12 b4 e9 bc f8 ce 0f bd
       -0.06932821 -0.06627699 -0.028528247 -0.03510949
000060 11 ce 11 bd 97 22 5a bd 38 cd 1b bd 8b a9 45 bd
       -0.03559691 -0.053255644 -0.03803751 -0.048257392
000070 ae da 3d bd 47 06 9a bd 2a 19 8c bd 74 f3 83 bd
       -0.046351127 -0.075207286 -0.06840737 -0.064429194
000080 d2 4d 2e bd 18 15 a5 bd 2c 6a 9a bd ea 9b 7e bc
       -0.042554684 -0.08060664 -0.07539782 -0.0155401025
000090 38 71 10 bd 0f 99 44 bc 96 8f 47 bd 6f 8d eb 3b
       -0.035264224 -0.011999383 -0.04872092 0.007188491
0000a0 65 33 c3 bb e8 47 00 bc b6 c2 bb bc 56 52 87 bd
       -0.0059570544 -0.007829644 -0.022919994 -0.06607501
0000b0 29 cd ea bc 91 dc 85 bd 65 36 1d bd 2b 72 1e bd
       -0.028662281 -0.0653621 -0.038381953 -0.038683098
0000c0 d6 4e 67 bd e6 41 9e bd 66 65 80 bd b5 34 8a bd
       -0.05647167 -0.07727413 -0.0626934 -0.06748334
0000d0 2e 38 99 bd 3c 00 d8 bc 03 6d 75 bd 00 a7 74 bd
       -0.074814186 -0.0263673 -0.059918415 -0.059729576
0000e0 be 7c 81 bd a3 42 aa bd 43 af 29 bd 9d 6d b9 bc
       -0.06322621 -0.08313491 -0.04142691 -0.022635275
0000f0 a1 c1 89 bd 45 ee 40 bd cb b8 89 bd c6 ec 9a bc
       -0.06726385 -0.04710223 -0.067246996 -0.01891173
000100 79 6f 03 3d 1c 32 a3 3d 00 b1 ee 3d c5 3c f3 3d
       0.03208873 0.07968542 0.11654854 0.11876825
000110 84 7a 1a 3e d6 38 37 3e 79 5c 16 3e 7c 79 42 3e
       0.15085799 0.17892775 0.14683713 0.18991655
000120 bb 74 6b 3e 44 b9 22 3e d4 5a 2a 3e a7 a5 05 3e
       0.22993748 0.15890986 0.1663621 0.13051473
000130 82 c1 be 3d 3e a5 6b 3d 25 07 4e 3c db 60 8e b9
       0.093142524 0.057530634 0.012574946 -0.00027156514
000140 bd 07 8a bd 2c c8 4d bd 4e da 97 bd ec a6 aa bd
       -0.06739757 -0.050239727 -0.07414685 -0.08332619
000150 8c f2 ac bd 9f e0 9a bd a8 ba 89 bc 38 22 34 bd
       -0.084447 -0.07562374 -0.016812637 -0.043977946
000160 40 fe 28 bd 1b 24 8a bd ab c7 3c bc e3 c0 40 3d
       -0.041258097 -0.06745168 -0.011522214 0.04705895
000170 38 d6 f4 3c b0 bc af 3d 20 23 e2 3d 1a 94 97 3d
       0.029887304 0.08580911 0.11041856 0.07401295
000180 80 74 74 3d 8d 71 8e 3d 26 8c f2 3d eb db 26 3e
       0.059681416 0.06955252 0.118431374 0.1629483
000190 c0 d7 1f 3e f2 e7 53 3e 62 63 72 3e e4 da 86 3e
       0.15609646 0.20693949 0.23670724 0.26338875
0001a0 d6 96 86 3e 7b 56 4e 3e 9f f5 ba 3d ef a0 4e bb
       0.26286954 0.20150177 0.0912888 -0.003152903
0001b0 80 f3 e5 bc bf ad cd bc 53 b5 a0 bd a0 2d 87 bd
       -0.028070211 -0.025107263 -0.07847085 -0.06600499
0001c0 a6 6a 9c bc 80 31 01 bd a6 86 7e bd 32 18 8e bd
       -0.019093823 -0.031541348 -0.06214013 -0.06938209
0001d0 f5 39 66 bd 3f 94 ad bd 59 8d b1 bc 90 48 9d bd
       -0.056207616 -0.08475541 -0.021673845 -0.07679856
0001e0 c9 d0 8a bd e2 75 e4 bd 80 e9 25 be f2 ec 77 be
       -0.06778104 -0.11155297 -0.16202354 -0.24211481
0001f0 57 88 65 be 01 b9 60 be 22 fe 3a be 51 32 0c be
       -0.22415291 -0.21945573 -0.18261006 -0.13691069
000200 da ee a9 bd 4a ed f2 bc ab 5d 2a bc c5 d0 37 3d
       -0.082975104 -0.029654164 -0.010398309 0.044876833
000210 5e 0c ca 3d 84 0f f0 3d 67 c5 63 3d 93 21 9b 3c
       0.0986564 0.11721709 0.05560818 0.018936908
000220 36 e6 52 3c b2 99 7d bd bf 3a 3d bd ce 0f 9e bd
       0.012872269 -0.061914153 -0.046198603 -0.07717858
000230 f0 f9 11 bd 9d 06 71 bc 9d 7c 3c bd ac 50 88 bd
       -0.03563875 -0.014711049 -0.046017278 -0.06656012
000240 25 a3 c2 bd ec c6 0f be f5 d6 00 be b4 69 2b be
       -0.095037736 -0.14040726 -0.12582 -0.16739541
000250 44 d5 18 be f6 c0 3f be a5 d5 21 be 9c f6 63 be
       -0.14925104 -0.18725953 -0.15804155 -0.22262043
000260 d6 33 37 be 9b 7c 3b be 93 3d 0e be 44 e9 4a bd
       -0.17890868 -0.18309252 -0.13890676 -0.049538866
000270 99 bb 32 bd ef e2 a0 3c 53 8a 16 3d 80 fb 8c 3d
       -0.04363594 0.01963946 0.03675301 0.06883907
000280 38 e5 94 3d e8 57 d3 3d bb ed aa 3d 66 f8 8f 3d
       0.072702825 0.10319501 0.08346125 0.070298
000290 6b 78 a8 bc 0d 09 f5 bd 69 ec 7e bd ba d4 a1 bd
       -0.020565232 -0.11964617 -0.062237177 -0.079019025
0002a0 d7 7c ac bd 77 11 2e bd 44 24 aa bd 86 55 c8 bd
       -0.08422249 -0.042497125 -0.08307698 -0.09781937
0002b0 fe 4c 2f be e1 17 4c be 5f 21 23 be 47 da e7 bd
       -0.17119214 -0.19930984 -0.15930699 -0.1132093
0002c0 be 6b 1b be 84 07 b6 bd 2d 7e 04 be 66 8b 0c be
       -0.15177819 -0.08888152 -0.12938757 -0.13725051
0002d0 55 d5 03 be ec 0d fe bd 87 71 f8 bd a2 7c a7 bd
       -0.12874348 -0.12404999 -0.121310286 -0.08178069
0002e0 13 b1 90 bd f5 d2 b0 bd 80 b3 ae 3c a8 4c 39 3d
       -0.07065024 -0.08633987 0.021325827 0.04523912
0002f0 fc 84 bb 3c 45 e9 a8 3d 8f 3a 16 3e 98 b1 05 3e
       0.02289056 0.08247618 0.14670776 0.13056028
000300 98 6f ca 3c 61 32 7e bd 30 23 bb bd c2 ac 16 bd
       0.024711415 -0.062059764 -0.09137571 -0.03678585
000310 01 57 98 bd cf 14 d5 bc 8e f3 99 bd da dc cc bd
       -0.0743847 -0.026010899 -0.075171575 -0.100030616
000320 3b 4a 36 be 33 d3 0e be b9 4d bf bd 99 99 79 bd
       -0.17801754 -0.13947754 -0.09340996 -0.060937498
000330 ee d6 a6 bd 39 a2 00 bd c1 80 73 bd 80 78 47 bd
       -0.08146463 -0.031404708 -0.05944896 -0.048698902
000340 71 0f 10 be 24 d4 22 be 29 a1 b2 bd 5e 7f 01 be
       -0.1406839 -0.15901238 -0.08722145 -0.12646243
000350 01 80 c6 bd 33 4d 90 bd 78 90 0d bd 35 60 2f 3c
       -0.096923836 -0.070459746 -0.034561604 0.01070409
000360 d3 8a 2c 3d 08 dc 02 3e 8b 3c 31 3e ea ab 4e 3e
       0.04212458 0.12779248 0.17308252 0.20182768
000370 39 59 51 3d 67 2c 7e bd 57 e4 bd bd 8c 9f 61 bd
       0.05111048 -0.062054064 -0.09272068 -0.055083796
000380 fc 2d a5 bd 67 9f b1 bd 74 f0 b2 bd bc 6f 04 be
       -0.080654114 -0.08672982 -0.08737269 -0.12933248
000390 77 3e 27 be d4 3a 0a be 78 44 89 bd 07 dc a2 bc
       -0.16332422 -0.13499004 -0.067025125 -0.019880308
0003a0 5b 67 0d 3d 49 e6 7f 3d 1b 1c c9 3a da 98 32 3c
       0.034522396 0.062475476 0.0015343459 0.0109007
0003b0 31 52 38 bd 9f 1b 5e bd 29 28 d4 bd ee ef 1a be
       -0.04500026 -0.05422556 -0.103592224 -0.15130588
0003c0 93 c5 25 be 01 c1 b7 bd 2b 4d 89 bd dc 39 87 bc
       -0.1618865 -0.089723594 -0.06704172 -0.016507082
0003d0 6f 9d 20 3c 73 62 76 3d 8a 51 39 3e 80 d1 17 3e
       0.00980316 0.060152482 0.18097511 0.14826012
0003e0 7d 01 ac 3d 78 71 c9 bd 8e 8e 98 bd 18 96 15 bd
       0.08398721 -0.098360956 -0.07449065 -0.036520094
0003f0 00 30 ed bc a5 e1 26 bd 56 b9 89 bd 43 be 17 be
       -0.028953552 -0.040742535 -0.06724803 -0.14818673

model.layer_1.mainModule.bias f4 [4]
000000 5e a0 2e 3d f1 9f 64 3d 27 36 00 3e 40 0f d3 3d
       0.042633407 0.055816595 0.12520657 0.10305643

model.layer_1.pb.parentModule.weight f4 [4, 784]
000000 dc aa b4 bb 31 44 c4 3c a5 64 34 3c 21 24 ed 3c
       -0.005513532 0.023958297 0.011010324 0.028947892
000010 25 4b 62 3a 21 6c cb 3c 53 e5 b7 bc b7 36 d8 bc
       0.0008632413 0.024831833 -0.022448217 -0.026393278
000020 6e a6 66 3c f8 47 76 3c a0 e1 06 bc 85 df d4 3c
       0.014077766 0.015031807 -0.008232504 0.025985489
000030 94 e4 0c bd 8a 5f 08 3c 9a f7 9b 3c 15 74 ba 3c
       -0.034397677 0.00832356 0.019038964 0.02276043
000040 ee b5 f3 3b dc a6 2b 39 1a c0 d5 bc 95 e3 e9 bc
       0.007437459 0.00016369991 -0.026092578 -0.028550902
000050 45 f2 a4 bc 5e f3 8b bc 5c 49 a9 3c f8 be 66 3c
       -0.020135054 -0.01708382 0.020664863 0.014083616
000060 93 c2 5e 3c a5 1e 85 bb f7 c5 36 3c 4a 4a 75 3a
       0.013596195 -0.004062491 0.011155597 0.0009357078
000070 6e 40 3a 3b 9a 1b d5 bc 1c 67 9d bc 8a a0 79 bc
       0.002841975 -0.026014138 -0.019214205 -0.015236029
000080 dc 86 d9 3b 86 ab 00 bd 6e 59 02 bd de 21 94 3c
       0.006638391 -0.031413577 -0.031823568 0.018082555
000090 ca 6a da bb 41 dd d4 3c 05 bb 34 bc 1e 58 0c 3d
       -0.0066655623 0.025984408 -0.011030917 0.034263723
0000a0 73 e9 21 3c 5e 97 9c 3c ee 39 7b 3c 67 5d cb bc
       0.009882319 0.019115146 0.015333636 -0.024824811
0000b0 ae a5 b1 3b 97 75 d9 bc 01 e0 f9 3a 25 a9 5e 39
       0.005421362 -0.026545329 0.0019063951 0.00021234581
0000c0 0a 3f 53 bc 61 cc ec bc e5 51 5d bc ac d5 95 bc
       -0.012893448 -0.02890605 -0.013508295 -0.018290363
0000d0 37 e3 d1 bc 31 fd ba 3c 0a b9 2f bc 01 a1 2c bc
       -0.02562104 0.02282581 -0.010725269 -0.010536433
0000e0 e5 ea 65 bc 82 06 0b bd 4a 7b fe 3b 83 5e dc 3c
       -0.014033054 -0.033941753 0.007766162 0.026900535
0000f0 aa e9 93 bc b7 87 90 3a 32 9f 11 bd 5c cb 3f bc
       -0.018055756 0.0011026774 -0.03555221 -0.0117061995
000100 8e 92 73 3c b5 3f 0b 3d d5 8b c1 3c 9c 65 3c 3c
       0.014866484 0.033996303 0.023626247 0.011498835
000110 6e 8c 87 3b 9a 77 9d 3c 85 03 2d bc 81 6c 74 3c
       0.0041366136 0.01922207 -0.010559921 0.0149184475
000120 fd e1 0e 3d 2e 98 00 bc 4a ff c4 ba 4a f9 89 ba
       0.034883488 -0.007848782 -0.0015029695 -0.0010526564
000130 0a bc 97 3b c3 44 bc 3c cc e8 fa 3c 4b 22 0e 3d
       0.0046305703 0.022982007 0.030628584 0.034700673
000140 9c e6 de bc dc f2 d3 ba b5 6b cc bc 14 cf 0b bd
       -0.027209572 -0.00161704 -0.024953702 -0.034133032
000150 55 66 10 bd fa 84 d8 bc 9d 98 05 3d f7 54 a3 3b
       -0.03525384 -0.026430596 0.032616246 0.004984494
000160 ae 95 e2 3b f1 d1 d4 bc 4a ea 70 39 8f 1a 07 3d
       0.006914816 -0.025979014 0.00022975463 0.032984313
000170 85 28 84 bc ee 56 a6 bb 01 bd 6c bb 3c 82 37 3c
       -0.016132602 -0.005076281 -0.0036123397 0.011200484
000180 c1 46 33 3c 41 06 65 3c 45 af a3 3c 1c ed f8 bc
       0.010942162 0.013978542 0.019981036 -0.0303865
000190 7c 71 f8 bc 13 0c c9 3b 6e db e5 ba 7c 4c 63 3c
       -0.030327551 0.0061354726 -0.0017536709 0.013873216
0001a0 f0 d2 86 3c e7 8c 9c 3c 4a f2 29 b8 a6 5e 05 bd
       0.016458005 0.019110156 -4.051839e-05 -0.032560967
0001b0 61 35 36 bc 05 5a 89 3c b2 11 03 bd f5 b8 89 bc
       -0.011121125 0.016766557 -0.031999297 -0.016811827
0001c0 c8 92 f6 3c 3a c0 90 3c 8a 78 41 bc 07 c5 a5 bc
       0.030099288 0.017669786 -0.011808524 -0.020235552
0001d0 53 95 c1 3b 17 94 06 bd d3 3d ea 3c e5 f8 95 3b
       0.0059076934 -0.032856073 0.028593933 0.0045767897
0001e0 e2 e7 0d 3d ca 9b 23 3b 6e 16 08 bc 87 7a d8 bc
       0.03464497 0.0024964684 -0.008306129 -0.026425613
0001f0 25 de c9 bc 93 a6 e6 3b a7 62 a9 bc e3 44 9b bc
       -0.02464206 0.0070389 -0.020676924 -0.018953746
000200 b7 1b ae 3b 0e 26 25 bc 0a 82 91 bb a5 84 55 3b
       0.0053133625 -0.010079874 -0.0044405507 0.0032580283
000210 00 f4 82 3b 0a a1 d3 3b ab b3 05 bd e5 99 2e bc
       0.003996372 0.0064584063 -0.032642048 -0.0106568085
000220 f4 c1 04 3d 00 e4 22 bc 6e bc b1 3b b3 ca eb bc
       0.03241153 -0.009942055 0.005424074 -0.028783178
000230 18 13 5e 3c 0f 3d 0d 3d 13 ca 47 3b 9c 03 0f bc
       0.013554357 0.03448206 0.0030485436 -0.008728888
000240 ee cd 60 3c 58 da 73 bc d3 4d f9 3c f3 e1 0a 3c
       0.013720972 -0.0148836 0.030432617 0.008476722
000250 40 bc 05 3d 07 0e 0a bd 9c f6 21 3c 57 99 bb bc
       0.032650232 -0.033704784 0.009885456 -0.022900267
000260 0a 46 10 bc 88 cc f6 bc f0 38 a4 bc ec 6b 10 3d
       -0.008805761 -0.030126825 -0.020046681 0.035259172
000270 4a 3c c9 3b bc de 27 bc 01 3b bb bc e5 53 b6 3b
       0.00614122 -0.010245975 -0.022855284 0.0055642
000280 5c 40 63 3c f8 d3 ec 3b 5c 95 40 bb 33 0f 93 3c
       0.013870325 0.007227417 -0.00293859 0.017951583
000290 7a fe ea 3c 5a 23 f4 bc fe 7a 8c bc de c7 00 bd
       0.028685797 -0.029802013 -0.017148491 -0.03144061
0002a0 ea 7a 0f bd ee 69 db 3b b3 c8 05 bd 81 93 74 3b
       -0.03502933 0.0066959774 -0.032662105 0.0037319364
0002b0 a1 7c 56 bc 38 2c eb bc 37 bc c0 3c ae 2f e8 3b
       -0.013091237 -0.028707609 0.023527248 0.007085762
0002c0 ce a8 ce bc 3a 62 be 3c 7c 10 8a bc bc a8 bd bc
       -0.025226977 0.023240197 -0.016853563 -0.023151748
0002d0 9c 45 4b bc 25 c9 3b 3c b7 de 4a 3b ae c4 f2 3b
       -0.012406733 0.011461531 0.0030955502 0.0074087
0002e0 0e e8 4a 3c d3 ec 11 bd 93 68 07 3d b8 04 fb bb
       0.012384428 -0.035626244 0.033058714 -0.0076604746
0002f0 e1 7d c4 bc dc 93 c7 bc 3a 54 a9 3c e5 ab c7 bb
       -0.023985805 -0.024362497 0.020670045 -0.0060934895
000300 c5 82 58 3c 37 51 98 3c f2 c8 0b bd 83 55 a9 3c
       0.013214772 0.018593414 -0.034127183 0.020670658
000310 75 5e ce bc 31 6a cd 3c aa ef af bc 1c 5d 0a 3c
       -0.025191525 0.02507505 -0.021476585 0.008445051
000320 ea 7d b5 3c 8a 76 ba 3c 4c 03 f4 3c f0 45 83 3c
       0.022154767 0.022761602 0.029786728 0.01602456
000330 53 af 0a bd e5 53 be bb ee 8c 35 bc cc 4e a2 3c
       -0.03385861 -0.005808341 -0.011080964 0.019812964
000340 b7 ff 96 bc fa 19 ff bc 62 fb 0a 3d 40 7d 06 bd
       -0.018432481 -0.031140316 0.033931144 -0.03283429
000350 4a 92 b0 38 87 34 a6 3c 0a 7b ae bb c1 1d c5 bc
       8.4195824e-05 0.020288719 -0.005324726 -0.02406204
000360 a5 63 64 bb d3 61 8c bb 88 ed e1 bc 77 0c a1 3b
       -0.0034849432 -0.0042841225 -0.027579084 0.004914816
000370 20 6e 07 bd a1 bb 69 3c 25 ff 4e bb 25 71 82 ba
       -0.033064008 0.014265926 -0.0031585183 -0.0009951933
000380 77 d6 00 bd 95 41 11 bd 1e 6f b7 bc 6a fd 28 bc
       -0.03145453 -0.035462935 -0.022391852 -0.010314325
000390 ca ae 42 3c b3 91 5f bc 41 2b f7 bb 8c 36 82 3c
       0.011882493 -0.013645577 -0.007542998 0.01589515
0003a0 e3 90 02 3d cd 72 03 3d 8a 39 86 bb 55 fa e7 3c
       0.031876456 0.032091904 -0.0040962147 0.02831761
0003b0 0c 4c 8b 3c 77 db 92 bb 6e 0d 0a bb 01 78 ff b9
       0.017004035 -0.0044817287 -0.0021065134 -0.000487268
0003c0 31 7f af bc 8a 0c 74 bc bc 8f c6 bc 15 0a b6 bc
       -0.021422954 -0.014895568 -0.02423846 -0.022221604
0003d0 40 87 80 3b 2e d2 fd bc bf 53 0d 3d ae 17 03 bc
       0.003922373 -0.03098401 0.034503695 -0.008001251
0003e0 a5 f2 ff 3c 81 5e 41 bb c3 04 a5 3c d7 db 29 3c
       0.031243632 -0.0029505792 0.020143872 0.010367355
0003f0 20 48 aa 3c 93 40 36 3c 93 55 59 3b dc 31 be ba
       0.020786345 0.011123794 0.0033162578 -0.0014510709

model.layer_1.pb.parentModule.bias f4 [4]
000000 53 f5 d6 bb a5 10 63 3c 60 df 07 3d 97 e9 03 3d
       -0.0065600066 0.013858949 0.03317201 0.03220519

model.layer_1.pb.pbValues.0.topPBCandidateAverage f4 [4]
000000 00 00 00 00 00 00 00 00 00 00 00 00 00 00 00 00
       0.0 0.0 0.0 0.0

model.layer_1.pb.pbValues.0.PrevPBCandidateCorrelation f4 [4]
000000 00 00 00 00 00 00 00 00 00 00 00 00 00 00 00 00
       0.0 0.0 0.0 0.0

model.layer_1.pb.pbValues.0.currentCorrelationsForParallel f4 [4]
000000 00 00 00 00 00 00 00 00 00 00 00 00 00 00 00 00
       0.0 0.0 0.0 0.0

model.layer_1.pb.pbValues.0.bestScore f4 [4]
000000 00 00 00 00 00 00 00 00 00 00 00 00 00 00 00 00
       0.0 0.0 0.0 0.0

model.layer_1.pb.pbValues.0.previousBestScore f4 [4]
000000 00 00 00 00 00 00 00 00 00 00 00 00 00 00 00 00
       0.0 0.0 0.0 0.0

model.layer_1.pb.pbValues.0.PrevPBCandidateAverage f4 [4]
000000 00 00 00 00 00 00 00 00 00 00 00 00 00 00 00 00
       0.0 0.0 0.0 0.0

model.layer_1.pb.pbValues.0.mainGradAverageForScaling f4 [4]
000000 00 00 00 00 00 00 00 00 00 00 00 00 00 00 00 00
       0.0 0.0 0.0 0.0

model.layer_1.pb.pbValues.0.candidateGradAverageForScaling f4 [4]
000000 00 00 00 00 00 00 00 00 00 00 00 00 00 00 00 00
       0.0 0.0 0.0 0.0

model.layer_1.pb.pbValues.0.indexesOfbest f4 [4]
000000 00 00 00 00 00 00 00 00 00 00 00 00 00 00 00 00
       0.0 0.0 0.0 0.0

model.layer_1.pb.pbValues.0.nodesBestImprovedThisEpoch f4 [4]
000000 00 00 00 00 00 00 00 00 00 00 00 00 00 00 00 00
       0.0 0.0 0.0 0.0

model.layer_1.pb.pbValues.0.parentsAverageDvector f4 [4]
000000 00 00 00 00 00 00 00 00 00 00 00 00 00 00 00 00
       0.0 0.0 0.0 0.0

model.layer_1.pb.pbValues.0.normalPassAverageD f4 [4]
000000 16 f4 12 36 90 af 75 b6 88 4f c8 34 a3 04 2b b5
       2.1897772e-06 -3.6610036e-06 3.731077e-07 -6.370921e-07

model.layer_2.mainModule.weight f4 [8, 4]
000000 dc 84 07 3f 38 f5 41 3f 7b 7e da bc 27 5c e4 bd
       0.529371 0.757648 -0.026671639 -0.11150389
000010 40 ca 4c bb 45 07 cd bd 39 6b 1c 3c a4 c2 3d 3f
       -0.003124848 -0.10011152 0.009547048 0.74125123
000020 2d 15 23 be 91 0c 04 3f a4 45 51 be 16 b0 ab 3e
       -0.15926047 0.51581675 -0.20436722 0.3353278
000030 32 0e 98 3e 52 c4 ba be 97 c4 b7 be b4 b1 16 3f
       0.2969833 -0.36477906 -0.35892174 0.58864903
000040 dd 7b 4c 3f e5 6f 3e be 12 fb 90 3e 1a 25 ab be
       0.798765 -0.18597372 0.2831655 -0.33426744
000050 b0 ad ba bd 46 78 1e be e4 74 2a 3f 64 6c 13 3f
       -0.091151595 -0.15475568 0.6658461 0.57587266
000060 2d bd 31 3f 7c 63 45 3e e2 e9 9f be 74 ac ba 3e
       0.69429284 0.19276232 -0.31233126 0.36459696
000070 9a 83 21 bf 6c 5f 36 3f c1 a4 e7 3e 22 5d b2 3e
       -0.63091433 0.7123935 0.45242885 0.3483668

model.layer_2.mainModule.bias f4 [8]
000000 24 34 11 be e0 a6 ef 3e dd a6 a9 bc d2 3b 05 bf
       -0.14180046 0.46807003 -0.02070945 -0.52044404
000010 3c d7 be be 8e 9d 84 be c5 0c 05 bf 0e 18 9a 3e
       -0.37273586 -0.25901455 -0.5197261 0.30096477

model.layer_2.pb.parentModule.weight f4 [8, 4]
000000 a8 15 a9 3e f0 80 e0 3e 18 5f c3 bd c0 aa 5f 3c
       0.33024335 0.43848372 -0.09539622 0.01365155
000010 20 34 c9 3c 80 eb a4 3c d0 79 d0 3d ae 21 c6 3e
       0.024560988 0.020131826 0.10179484 0.3869757
000020 a0 53 41 bd 94 0c 9a 3e c0 58 32 3d 8a 42 9c 3e
       -0.04719889 0.3008772 0.04354167 0.30519515
000030 8e f0 ac 3e 38 0a ce bd f0 0b 4b be 4a cd bf 3e
       0.3377728 -0.10060543 -0.19828773 0.3746131
000040 10 33 f0 3e b2 aa b1 be d0 64 43 bd 2c 74 49 be
       0.46913958 -0.34700543 -0.047703564 -0.19673222
000050 f4 9b 60 be b0 12 75 3d c8 dc e8 3e c6 0f de 3e
       -0.21934491 0.059832275 0.45480943 0.4337141
000060 54 8a fb 3e d4 98 12 3e 9c cd 34 be b4 3c 8a 3e
       0.49128973 0.14316112 -0.17656559 0.26999438
000070 4c e6 e0 be f6 89 f5 3e 34 2f 77 3e 20 de d1 3e
       -0.43925703 0.47956818 0.241391 0.4098978

model.layer_2.pb.parentModule.bias f4 [8]
000000 14 76 63 be ce f1 ce 3e 98 89 00 3e e6 6c f1 be
       -0.22213012 0.40418857 0.12552488 -0.47153395
000010 5c 00 ea be 5a 4f 9b be 46 06 e1 be de aa b0 3e
       -0.457034 -0.30333978 -0.439501 0.3450536

model.layer_2.pb.pbValues.0.topPBCandidateAverage f4 [8]
000000 00 00 00 00 00 00 00 00 00 00 00 00 00 00 00 00
       0.0 0.0 0.0 0.0
000010 00 00 00 00 00 00 00 00 00 00 00 00 00 00 00 00
       0.0 0.0 0.0 0.0

model.layer_2.pb.pbValues.0.PrevPBCandidateCorrelation f4 [8]
000000 00 00 00 00 00 00 00 00 00 00 00 00 00 00 00 00
       0.0 0.0 0.0 0.0
000010 00 00 00 00 00 00 00 00 00 00 00 00 00 00 00 00
       0.0 0.0 0.0 0.0

model.layer_2.pb.pbValues.0.currentCorrelationsForParallel f4 [8]
000000 00 00 00 00 00 00 00 00 00 00 00 00 00 00 00 00
       0.0 0.0 0.0 0.0
000010 00 00 00 00 00 00 00 00 00 00 00 00 00 00 00 00
       0.0 0.0 0.0 0.0

model.layer_2.pb.pbValues.0.bestScore f4 [8]
000000 00 00 00 00 00 00 00 00 00 00 00 00 00 00 00 00
       0.0 0.0 0.0 0.0
000010 00 00 00 00 00 00 00 00 00 00 00 00 00 00 00 00
       0.0 0.0 0.0 0.0

model.layer_2.pb.pbValues.0.previousBestScore f4 [8]
000000 00 00 00 00 00 00 00 00 00 00 00 00 00 00 00 00
       0.0 0.0 0.0 0.0
000010 00 00 00 00 00 00 00 00 00 00 00 00 00 00 00 00
       0.0 0.0 0.0 0.0

model.layer_2.pb.pbValues.0.PrevPBCandidateAverage f4 [8]
000000 00 00 00 00 00 00 00 00 00 00 00 00 00 00 00 00
       0.0 0.0 0.0 0.0
000010 00 00 00 00 00 00 00 00 00 00 00 00 00 00 00 00
       0.0 0.0 0.0 0.0

model.layer_2.pb.pbValues.0.mainGradAverageForScaling f4 [8]
000000 00 00 00 00 00 00 00 00 00 00 00 00 00 00 00 00
       0.0 0.0 0.0 0.0
000010 00 00 00 00 00 00 00 00 00 00 00 00 00 00 00 00
       0.0 0.0 0.0 0.0

model.layer_2.pb.pbValues.0.candidateGradAverageForScaling f4 [8]
000000 00 00 00 00 00 00 00 00 00 00 00 00 00 00 00 00
       0.0 0.0 0.0 0.0
000010 00 00 00 00 00 00 00 00 00 00 00 00 00 00 00 00
       0.0 0.0 0.0 0.0

model.layer_2.pb.pbValues.0.indexesOfbest f4 [8]
000000 00 00 00 00 00 00 00 00 00 00 00 00 00 00 00 00
       0.0 0.0 0.0 0.0
000010 00 00 00 00 00 00 00 00 00 00 00 00 00 00 00 00
       0.0 0.0 0.0 0.0

model.layer_2.pb.pbValues.0.nodesBestImprovedThisEpoch f4 [8]
000000 00 00 00 00 00 00 00 00 00 00 00 00 00 00 00 00
       0.0 0.0 0.0 0.0
000010 00 00 00 00 00 00 00 00 00 00 00 00 00 00 00 00
       0.0 0.0 0.0 0.0

model.layer_2.pb.pbValues.0.parentsAverageDvector f4 [8]
000000 00 00 00 00 00 00 00 00 00 00 00 00 00 00 00 00
       0.0 0.0 0.0 0.0
000010 00 00 00 00 00 00 00 00 00 00 00 00 00 00 00 00
       0.0 0.0 0.0 0.0

model.layer_2.pb.pbValues.0.normalPassAverageD f4 [8]
000000 ec 5c 44 b6 71 13 de b5 06 c6 1d b6 61 6f 3f 35
       -2.9260364e-06 -1.6545947e-06 -2.3510088e-06 7.131512e-07
000010 10 6a f3 33 43 e5 5c 36 8f 30 82 36 10 a9 00 b6
       1.1334862e-07 3.2916003e-06 3.879955e-06 -1.9171894e-06

model.layer_3.mainModule.weight f4 [10, 8]
000000 79 f6 e9 3d 31 bb 18 bf c7 f1 09 bf a8 f7 c5 be
       0.11423964 -0.5966063 -0.5388455 -0.3866551
000010 5d 66 d1 3e 77 86 c1 3d fe 79 54 bf 38 44 f6 3e
       0.4089841 0.09449475 -0.82998645 0.48098922
000020 57 01 9c be 20 06 9e 3e 34 07 d9 bd 4b 55 01 3f
       -0.30469772 0.30864048 -0.10597077 0.5052077
000030 44 ba 51 be 21 3b 40 be 54 7b 3d 3e 33 03 1c bf
       -0.20481211 -0.18772556 0.18504077 -0.6094238
000040 1d 55 ae bd e8 81 2b 3e df 45 6d be 7f ef 96 3e
       -0.08512328 0.16748774 -0.23171185 0.29479596
000050 37 11 ce 3e 18 71 04 bd 20 f0 01 be 8f 0c 10 bd
       0.4024751 -0.032334417 -0.12689257 -0.035168227
000060 06 ce 13 bf ee 11 fc 3e 87 63 26 be f4 e8 ab bd
       -0.5773624 0.4923243 -0.16248904 -0.08394042
000070 1e 4b 6a be 3e ef 7b 3e 32 f6 bc be da c0 9d 3c
       -0.22880217 0.24602982 -0.36906582 0.019256998
000080 71 fa c4 3e c9 1a 8f bd 98 e3 7a 3e be 36 c2 bd
       0.38472322 -0.06987531 0.24500883 -0.094830975
000090 d1 be f8 3d f8 fd 5c bd 0a 8e 0a 3e 11 55 91 be
       0.1214577 -0.05395314 0.13530746 -0.28385213
0000a0 63 d2 99 bd 8f 57 01 3e 7a 89 02 3e 79 ee 5b bf
       -0.07510831 0.12631057 0.12747756 -0.85910755
0000b0 6e f2 d4 3e fb c5 b7 3e 67 78 af be da 87 2d be
       0.4159121 0.35893235 -0.34271547 -0.16946355
0000c0 dd b1 a8 3e a9 ac 0b bf cf 84 f9 be ac 8f a0 3d
       0.329482 -0.54560333 -0.48734137 0.07839903
0000d0 5c ac 0a 3f c9 79 40 be bd d7 be 3e 72 e4 2b bf
       0.5416925 -0.18796457 0.3727397 -0.67145455
0000e0 bb f9 a7 bc a8 fd a0 3b 68 cb 06 3f 2c 94 19 3e
       -0.020504823 0.0049130507 0.52654123 0.1499793
0000f0 43 1c af be ee 1b 90 be 48 fa e1 bd 44 9f e3 3e
       -0.3420125 -0.2814631 -0.110340655 0.44457448
000100 36 51 64 be c3 e8 1b 3e af bd c0 be be e9 65 3d
       -0.22296605 0.1522551 -0.37644717 0.056131117
000110 06 1d c1 3e c2 ba 48 3e f1 45 f9 3d f8 fa 70 be
       0.37717456 0.19602492 0.121715434 -0.23533237
000120 20 13 59 bd c6 0c ad be ac 4a 75 be 69 c0 1a be
       -0.052996755 -0.33798808 -0.23954266 -0.15112461
000130 40 34 ab be e4 1c 79 bd 82 9c a5 be 32 ea 43 be
       -0.334383 -0.060818568 -0.32345968 -0.19132307

model.layer_3.mainModule.bias f4 [10]
000000 40 13 cc 3e 3c 78 2e 3e 7f 00 0c 3f 51 e6 0e 3f
       0.39858437 0.17038053 0.54688257 0.55820185
000010 f5 0f 6c be 9a dd 20 bd 55 a1 db 3d 7b 77 3e 3e
       -0.23052962 -0.039273836 0.10724131 0.18600266
000020 0c b1 ed be 0a 16 75 3d
       -0.4642414 0.05983547

model.layer_3.pb.parentModule.weight f4 [10, 8]
000000 3b 9a 08 3e 93 8f 8f be c1 41 ad be 43 83 21 be
       0.13340084 -0.28039226 -0.3383923 -0.15772729
000010 e7 b6 b3 3e 60 91 70 bd 3c 07 ac be 0b a2 8d 3e
       0.3510048 -0.05873239 -0.3359927 0.2766269
000020 85 f8 19 be 3d b5 83 3e f3 15 7f be 32 cc ae 3e
       -0.15036209 0.2572421 -0.24910717 0.34140164
000030 09 11 df 3d 17 77 96 3d f7 b4 dd 3d 22 45 6b be
       0.10891921 0.07346933 0.10825532 -0.22975591
000040 e8 e4 56 be e3 c1 38 bd 0e e1 1a be 1e 11 6d 3d
       -0.20985758 -0.04510678 -0.15124914 0.057877652
000050 6a 46 a2 3d 36 c8 5f be 80 d3 b3 be ef a0 46 3c
       0.07923587 -0.21853718 -0.351223 0.0121233305
000060 a1 48 75 be 45 c9 57 3e b7 c7 8d be 0f 96 fd bd
       -0.23953487 0.21072872 -0.27691433 -0.12382137
000070 62 01 4e be b9 43 94 3c f3 f8 98 be 81 42 54 be
       -0.20117715 0.018098699 -0.29877433 -0.20728494
000080 3d 3d 62 3e 96 92 43 be a9 d4 d3 bd ba 97 a7 be
       0.22093673 -0.19098887 -0.10343296 -0.32732946
000090 af a1 8b 3e c4 9e 03 3e a9 99 e8 bd 8f cf a2 be
       0.27271792 0.12853533 -0.11357433 -0.3179898
0000a0 24 7c f4 bb 7f 3c ba 3d 65 fb a2 3e 80 72 41 be
       -0.007461088 0.0909357 0.31832424 -0.18891335
0000b0 db ce 77 3e a8 21 ab 3e 43 a9 68 be 25 2c 8c bd
       0.24200003 0.33424115 -0.22720818 -0.068443574
0000c0 12 f1 50 3e 2d 2a 88 be ec da e2 bd 32 f3 4f 3d
       0.20404461 -0.26594678 -0.11076912 0.05076904
0000d0 73 61 85 3e a3 18 07 3d db 3c 8f 3e 83 f8 96 be
       0.2605091 0.03298248 0.27976117 -0.29486474
0000e0 dd c8 3d bd 0c 98 98 3d 42 e5 a8 3e 97 e3 69 3e
       -0.046334136 0.07450876 0.3298741 0.22840725
0000f0 ed 84 54 3d a4 0d 27 be 57 b1 6e bb ed cd af 3e
       0.05188458 -0.16313797 -0.003642162 0.34336796
000100 74 39 d2 bd 0f c0 1b 3e 9a f0 a7 bd 2a 2a 08 3e
       -0.102648646 0.15209983 -0.08200188 0.13297334
000110 32 4c a4 3e e5 24 fe 3d 86 cc 34 3e 70 f4 13 be
       0.32089382 0.12409381 0.17656144 -0.14448714
000120 cb 74 85 bd 7d c6 94 be 89 92 82 be 7a bd 06 be
       -0.06516417 -0.29057685 -0.25502422 -0.13158217
000130 40 83 7e be 94 64 84 3d 4c 73 a9 be 39 7c 1d be
       -0.24854755 0.06464496 -0.33095777 -0.15379418

model.layer_3.pb.parentModule.bias f4 [10]
000000 63 d5 a2 3e b7 ab ca 3d a3 a5 84 3e 3e 2e 8e 3e
       0.31803426 0.09896033 0.2590762 0.27769655
000010 9e c5 3f be b8 b8 01 be 94 45 88 bd 61 9d b3 3e
       -0.18727729 -0.12668121 -0.06653896 0.35081008
000020 bd 8e 1b be 64 98 c8 3d
       -0.15191169 0.09794691

model.layer_3.pb.pbValues.0.topPBCandidateAverage f4 [10]
000000 00 00 00 00 00 00 00 00 00 00 00 00 00 00 00 00
       0.0 0.0 0.0 0.0
000010 00 00 00 00 00 00 00 00 00 00 00 00 00 00 00 00
       0.0 0.0 0.0 0.0
000020 00 00 00 00 00 00 00 00
       0.0 0.0

model.layer_3.pb.pbValues.0.PrevPBCandidateCorrelation f4 [10]
000000 00 00 00 00 00 00 00 00 00 00 00 00 00 00 00 00
       0.0 0.0 0.0 0.0
000010 00 00 00 00 00 00 00 00 00 00 00 00 00 00 00 00
       0.0 0.0 0.0 0.0
000020 00 00 00 00 00 00 00 00
       0.0 0.0

model.layer_3.pb.pbValues.0.currentCorrelationsForParallel f4 [10]
000000 00 00 00 00 00 00 00 00 00 00 00 00 00 00 00 00
       0.0 0.0 0.0 0.0
000010 00 00 00 00 00 00 00 00 00 00 00 00 00 00 00 00
       0.0 0.0 0.0 0.0
000020 00 00 00 00 00 00 00 00
       0.0 0.0

model.layer_3.pb.pbValues.0.bestScore f4 [10]
000000 00 00 00 00 00 00 00 00 00 00 00 00 00 00 00 00
       0.0 0.0 0.0 0.0
000010 00 00 00 00 00 00 00 00 00 00 00 00 00 00 00 00
       0.0 0.0 0.0 0.0
000020 00 00 00 00 00 00 00 00
       0.0 0.0

model.layer_3.pb.pbValues.0.previousBestScore f4 [10]
000000 00 00 00 00 00 00 00 00 00 00 00 00 00 00 00 00
       0.0 0.0 0.0 0.0
000010 00 00 00 00 00 00 00 00 00 00 00 00 00 00 00 00
       0.0 0.0 0.0 0.0
000020 00 00 00 00 00 00 00 00
       0.0 0.0

model.layer_3.pb.pbValues.0.PrevPBCandidateAverage f4 [10]
000000 00 00 00 00 00 00 00 00 00 00 00 00 00 00 00 00
       0.0 0.0 0.0 0.0
000010 00 00 00 00 00 00 00 00 00 00 00 00 00 00 00 00
       0.0 0.0 0.0 0.0
000020 00 00 00 00 00 00 00 00
       0.0 0.0

model.layer_3.pb.pbValues.0.mainGradAverageForScaling f4 [10]
000000 00 00 00 00 00 00 00 00 00 00 00 00 00 00 00 00
       0.0 0.0 0.0 0.0
000010 00 00 00 00 00 00 00 00 00 00 00 00 00 00 00 00
       0.0 0.0 0.0 0.0
000020 00 00 00 00 00 00 00 00
       0.0 0.0

model.layer_3.pb.pbValues.0.candidateGradAverageForScaling f4 [10]
000000 00 00 00 00 00 00 00 00 00 00 00 00 00 00 00 00
       0.0 0.0 0.0 0.0
000010 00 00 00 00 00 00 00 00 00 00 00 00 00 00 00 00
       0.0 0.0 0.0 0.0
000020 00 00 00 00 00 00 00 00
       0.0 0.0

model.layer_3.pb.pbValues.0.indexesOfbest f4 [10]
000000 00 00 00 00 00 00 00 00 00 00 00 00 00 00 00 00
       0.0 0.0 0.0 0.0
000010 00 00 00 00 00 00 00 00 00 00 00 00 00 00 00 00
       0.0 0.0 0.0 0.0
000020 00 00 00 00 00 00 00 00
       0.0 0.0

model.layer_3.pb.pbValues.0.nodesBestImprovedThisEpoch f4 [10]
000000 00 00 00 00 00 00 00 00 00 00 00 00 00 00 00 00
       0.0 0.0 0.0 0.0
000010 00 00 00 00 00 00 00 00 00 00 00 00 00 00 00 00
       0.0 0.0 0.0 0.0
000020 00 00 00 00 00 00 00 00
       0.0 0.0

model.layer_3.pb.pbValues.0.parentsAverageDvector f4 [10]
000000 00 00 00 00 00 00 00 00 00 00 00 00 00 00 00 00
       0.0 0.0 0.0 0.0
000010 00 00 00 00 00 00 00 00 00 00 00 00 00 00 00 00
       0.0 0.0 0.0 0.0
000020 00 00 00 00 00 00 00 00
       0.0 0.0

model.layer_3.pb.pbValues.0.normalPassAverageD f4 [10]
000000 f2 53 20 36 d9 ed 13 36 06 95 7a b7 66 d2 4e b6
       2.389072e-06 2.2043153e-06 -1.4935858e-05 -3.081886e-06
000010 2c 0e 17 36 34 84 83 b6 ac 9d 56 b6 58 f9 fd b5
       2.2509003e-06 -3.9194947e-06 -3.1980262e-06 -1.8922537e-06
000020 4c 48 a9 37 5f d1 5e 31
       2.0180036e-05 3.2424265e-09

exp_avg f4 [4, 784]
000000 e3 e8 0e b8 e3 e8 0e b8 e3 e8 0e b8 e3 e8 0e b8
       -3.407233e-05 -3.407233e-05 -3.407233e-05 -3.407233e-05
000010 e3 e8 0e b8 e3 e8 0e b8 e3 e8 0e b8 e3 e8 0e b8
       -3.407233e-05 -3.407233e-05 -3.407233e-05 -3.407233e-05
000020 e3 e8 0e b8 e3 e8 0e b8 e3 e8 0e b8 e3 e8 0e b8
       -3.407233e-05 -3.407233e-05 -3.407233e-05 -3.407233e-05
000030 e3 e8 0e b8 e3 e8 0e b8 e3 e8 0e b8 e3 e8 0e b8
       -3.407233e-05 -3.407233e-05 -3.407233e-05 -3.407233e-05
000040 e3 e8 0e b8 e3 e8 0e b8 e3 e8 0e b8 e3 e8 0e b8
       -3.407233e-05 -3.407233e-05 -3.407233e-05 -3.407233e-05
000050 e3 e8 0e b8 e3 e8 0e b8 e3 e8 0e b8 e3 e8 0e b8
       -3.407233e-05 -3.407233e-05 -3.407233e-05 -3.407233e-05
000060 e3 e8 0e b8 e3 e8 0e b8 e3 e8 0e b8 e3 e8 0e b8
       -3.407233e-05 -3.407233e-05 -3.407233e-05 -3.407233e-05
000070 e3 e8 0e b8 e3 e8 0e b8 e3 e8 0e b8 e3 e8 0e b8
       -3.407233e-05 -3.407233e-05 -3.407233e-05 -3.407233e-05
000080 e3 e8 0e b8 e3 e8 0e b8 83 ef 0e b8 83 58 0f b8
       -3.407233e-05 -3.407233e-05 -3.40785e-05 -3.417629e-05
000090 0f 52 1f b8 04 a9 1b b8 29 99 15 b8 ab 6a 0f b8
       -3.7984977e-05 -3.7112288e-05 -3.566701e-05 -3.41932e-05
0000a0 23 cf 10 b8 74 fb 17 b8 6b 07 13 b8 4a 94 0e b8
       -3.4525186e-05 -3.623539e-05 -3.505444e-05 -3.3993543e-05
0000b0 21 1c 68 b9 86 3b 03 b9 42 00 0f b8 e3 e8 0e b8
       -0.00022135723 -0.00012515308 -3.4094097e-05 -3.407233e-05
0000c0 e3 e8 0e b8 e3 e8 0e b8 e3 e8 0e b8 e3 e8 0e b8
       -3.407233e-05 -3.407233e-05 -3.407233e-05 -3.407233e-05
0000d0 e3 e8 0e b8 e3 e8 0e b8 e3 e8 0e b8 e3 e8 0e b8
       -3.407233e-05 -3.407233e-05 -3.407233e-05 -3.407233e-05
0000e0 e3 e8 0e b8 e3 e8 0e b8 e3 e8 0e b8 e3 e8 0e b8
       -3.407233e-05 -3.407233e-05 -3.407233e-05 -3.407233e-05
0000f0 e3 e8 0e b8 e3 e8 0e b8 a3 f5 0e b8 8f 29 0d b8
       -3.407233e-05 -3.407233e-05 -3.4084205e-05 -3.3655724e-05
000100 72 a8 27 b8 1f 3c 28 b8 6e e4 4e b8 24 74 2f b8
       -3.997278e-05 -4.0110313e-05 -4.932697e-05 -4.1831416e-05
000110 c1 34 28 35 ba f9 94 b7 67 5e e2 b7 b4 60 2a b8
       6.2661644e-07 -1.7759263e-05 -2.6985259e-05 -4.062122e-05
000120 be ce 87 b9 35 04 bd b8 91 31 26 b8 c7 99 1f b8
       -0.00025903241 -9.013006e-05 -3.9623646e-05 -3.805177e-05
000130 27 b3 11 b8 9b f5 11 b8 62 40 0f b8 15 e9 0e b8
       -3.4737543e-05 -3.4799432e-05 -3.4153818e-05 -3.4072513e-05
000140 e5 e8 0e b8 e3 e8 0e b8 e3 e8 0e b8 e3 e8 0e b8
       -3.4072338e-05 -3.407233e-05 -3.407233e-05 -3.407233e-05
000150 e3 e8 0e b8 e3 e8 0e b8 e3 e8 0e b8 e9 e8 0e b8
       -3.407233e-05 -3.407233e-05 -3.407233e-05 -3.4072353e-05
000160 23 e9 0e b8 f2 c4 f1 b7 5a c1 3a b7 07 fd 7c b8
       -3.4072564e-05 -2.8821149e-05 -1.1131482e-05 -6.0317132e-05
000170 82 4f 32 b8 ab 82 de 38 6c f4 c1 39 db 74 08 3a
       -4.2512555e-05 0.00010610124 0.00036993937 0.0005205401
000180 4e 5a e4 39 c3 94 b2 39 7c 49 cc 39 b7 ac 2c 39
       0.0004355483 0.00034061642 0.00038964662 0.0001646754
000190 08 ad 60 39 a0 de 31 39 0f a2 a8 39 1d 73 aa b9
       0.00021426764 0.0001696297 0.000321642 -0.00032510693
0001a0 38 b9 5a ba 81 c4 4e ba 73 e6 64 ba c6 0b 41 ba
       -0.000834364 -0.0007887558 -0.00087318494 -0.000736412
0001b0 1a 49 f7 b9 e3 e8 0e b8 e3 e8 0e b8 e3 e8 0e b8
       -0.00047165976 -3.407233e-05 -3.407233e-05 -3.407233e-05
0001c0 e3 e8 0e b8 e3 e8 0e b8 86 e8 0e b8 c7 e8 0e b8
       -3.407233e-05 -3.407233e-05 -3.4071993e-05 -3.407223e-05
0001d0 f3 63 06 b8 9e 8f b1 36 81 60 d0 b8 1e ec 8c b9
       -3.2041175e-05 5.2917303e-06 -9.936188e-05 -0.00026878802
0001e0 87 4b 1a b9 09 fb d0 b7 60 87 28 ba 8a 0a 80 ba
       -0.0001471472 -2.491243e-05 -0.0006428864 -0.0009768766
0001f0 4a 3a 7a ba 3d f6 2e ba 34 b9 3e ba 7f 44 41 ba
       -0.0009545429 -0.00066742656 -0.0007275522 -0.00073725724
000200 c0 d8 5b ba 68 03 8e ba fa 7c e0 b9 c8 f4 4e ba
       -0.0008386485 -0.0010834755 -0.00042817724 -0.00078947516
000210 3b 00 9d ba e0 6e 8a ba cf 33 70 ba 7a ee 49 ba
       -0.0011978218 -0.0010561608 -0.00091629935 -0.0007703077
000220 14 45 0f ba b5 f7 0e b8 69 e4 0e b8 b3 e7 0e b8
       -0.00054653105 -3.4086133e-05 -3.406816e-05 -3.4071225e-05
000230 e3 e8 0e b8 e3 e8 0e b8 c7 e8 0e b8 e3 42 4c b8
       -3.407233e-05 -3.407233e-05 -3.407223e-05 -4.8699683e-05
000240 1f d7 58 b8 49 19 02 3b 03 02 8c 3a 20 94 a8 39
       -5.169876e-05 0.0019851497 0.0010681752 0.0003215382
000250 2f 24 69 ba 0a 1f 99 ba 47 e6 cf ba dd c6 c8 ba
       -0.00088936364 -0.0011682224 -0.0015861475 -0.0015318055
000260 23 6c 7a b9 06 c1 98 3a 22 58 4e 3a eb ca 32 39
       -0.00023882142 0.0011654205 0.0007871409 0.00017050996
000270 01 f8 01 ba 72 4e 22 bb 29 5c 10 bb 21 e6 e2 ba
       -0.0004957915 -0.0024765995 -0.0022027588 -0.0017311015
000280 a1 b6 9c ba 40 e5 60 ba 18 49 22 ba f0 78 31 ba
       -0.0011956283 -0.0008579083 -0.00061907014 -0.0006770035
000290 91 fa ed b9 e8 19 f6 34 8f 0a 17 37 a7 cf 13 b8
       -0.0004539085 4.583992e-07 9.00276e-06 -3.5240922e-05
0002a0 e3 e8 0e b8 e3 e8 0e b8 25 b5 19 b8 5b 1f 7a b8
       -3.407233e-05 -3.407233e-05 -3.6646747e-05 -5.9633847e-05
0002b0 65 2f 86 b8 b8 88 3c 3a ca fe 0e 3b 72 19 cd 3a
       -6.398446e-05 0.00071920035 0.0021819347 0.0015647842
0002c0 0c 39 92 3a c4 23 28 3a 04 da 79 3a da 5e 04 3b
       0.0011155917 0.0006414021 0.0009531083 0.0020198137
0002d0 d9 8e 26 3b a3 e9 3e 3b ea 9e 00 3b c4 5d 47 3b
       0.0025414734 0.0029130958 0.001962597 0.003042088
0002e0 37 2f 20 3b 68 7c 9f 38 a8 04 23 bb ce 3e 2b bb
       0.0024442205 7.604883e-05 -0.0024874602 -0.0026129964
0002f0 61 66 c5 ba e1 94 54 ba c8 2b a8 39 e2 cb 88 b9
       -0.0015060419 -0.0008109343 0.00032076077 -0.00026091846
000300 8f aa 77 38 ce 0f 1f b7 9f ed 1c 38 f9 11 19 b8
       5.9048234e-05 -9.480818e-06 3.74146e-05 -3.649478e-05
000310 e3 e8 0e b8 a6 e8 0e b8 9c b2 1a b8 2d bb 11 b8
       -3.407233e-05 -3.407211e-05 -3.6882804e-05 -3.4745015e-05
000320 55 d5 e0 b6 44 bd a8 38 33 56 de b9 71 30 ad b9
       -6.7005553e-06 8.046118e-05 -0.00042407363 -0.00033033223
000330 0d 2a 10 38 42 b6 c0 39 52 44 d0 3a db 70 35 3b
       3.437144e-05 0.00036756886 0.0015889502 0.0027685675
000340 51 dc ae 3a e5 90 72 ba 2d aa 65 ba b3 49 3b 3a
       0.0013340806 -0.00092531584 -0.0008761015 0.0007144466
000350 2e b3 63 3a 97 90 f8 39 e9 94 60 ba b8 9e 87 ba
       0.00086860626 0.00047409974 -0.0008567111 -0.0010346984
000360 a9 21 b5 ba 92 a6 35 ba 3b dd 00 ba 73 d1 50 ba
       -0.0013819236 -0.0006929423 -0.00049157784 -0.00079657807
000370 43 00 7f b9 8c c9 a3 b7 2c 4e 7a b8 b7 f4 a8 b8
       -0.00024318793 -1.9524967e-05 -5.9677448e-05 -8.056446e-05
000380 af d0 0d b8 e3 e8 0e b8 27 5d c0 b7 14 8f 90 b7
       -3.381137e-05 -3.407233e-05 -2.2931561e-05 -1.7232764e-05
000390 17 3c 88 38 91 2f f2 39 52 29 d1 39 9f 2f 19 ba
       6.496178e-05 0.00046193277 0.00039894372 -0.0005843583
0003a0 e6 06 e2 ba 07 80 10 bb 8d 72 4b b8 b0 d0 3e 3a
       -0.0017244488 -0.0022048966 -4.8505655e-05 0.00072790217
0003b0 2a e5 35 ba 3c d3 42 bb 50 60 92 bb 1d f4 32 bb
       -0.000693875 -0.0029727956 -0.0044670478 -0.0027306147
0003c0 7c fa 2e ba 1c 62 97 3a a5 37 1b 38 4a e5 e5 38
       -0.00066748983 0.0011549625 3.7006703e-05 0.00010962279
0003d0 d9 91 36 39 f0 f5 53 ba 38 b3 47 ba ec 60 2d ba
       0.00017411205 -0.0008085659 -0.0007617953 -0.0006613869
0003e0 ba b6 82 b9 87 fe f9 b7 93 57 9b 38 3a 74 14 b9
       -0.00024931674 -2.9801637e-05 7.407288e-05 -0.00014157678
0003f0 e5 1d 95 b7 a2 fc a8 b7 87 c2 fa b7 1e 1b cf 37
       -1.7776105e-05 -2.0144802e-05 -2.9892906e-05 2.468895e-05

exp_avg_sq f4 [4, 784]
000000 b7 cb 94 36 b7 cb 94 36 b7 cb 94 36 b7 cb 94 36
       4.4344592e-06 4.4344592e-06 4.4344592e-06 4.4344592e-06
000010 b7 cb 94 36 b7 cb 94 36 b7 cb 94 36 b7 cb 94 36
       4.4344592e-06 4.4344592e-06 4.4344592e-06 4.4344592e-06
000020 b7 cb 94 36 b7 cb 94 36 b7 cb 94 36 b7 cb 94 36
       4.4344592e-06 4.4344592e-06 4.4344592e-06 4.4344592e-06
000030 bc c8 94 36 c3 a2 94 36 4c a5 94 36 0a ca 94 36
       4.4341123e-06 4.4296917e-06 4.429987e-06 4.434264e-06
000040 b7 cb 94 36 b7 cb 94 36 b7 cb 94 36 b7 cb 94 36
       4.4344592e-06 4.4344592e-06 4.4344592e-06 4.4344592e-06
000050 b7 cb 94 36 b7 cb 94 36 b7 cb 94 36 b7 cb 94 36
       4.4344592e-06 4.4344592e-06 4.4344592e-06 4.4344592e-06
000060 b7 cb 94 36 b7 cb 94 36 b7 cb 94 36 b7 cb 94 36
       4.4344592e-06 4.4344592e-06 4.4344592e-06 4.4344592e-06
000070 b7 cb 94 36 b7 cb 94 36 b7 cb 94 36 b7 cb 94 36
       4.4344592e-06 4.4344592e-06 4.4344592e-06 4.4344592e-06
000080 b7 cb 94 36 b6 cb 94 36 c5 6a 94 36 8d ca 96 36
       4.4344592e-06 4.434459e-06 4.4231733e-06 4.4939284e-06
000090 e5 e9 96 36 f0 00 95 36 fa 1e 95 36 1c 47 96 36
       4.4975773e-06 4.440655e-06 4.444152e-06 4.4786266e-06
0000a0 d7 4a 96 36 3e 91 94 36 66 9f 95 36 ba e6 96 36
       4.479061e-06 4.427652e-06 4.4591025e-06 4.4972085e-06
0000b0 d0 c6 97 36 59 d3 95 36 46 de 95 36 ee a9 95 36
       4.5232955e-06 4.46515e-06 4.466422e-06 4.4603285e-06
0000c0 1e a5 94 36 1e ae 94 36 b3 cb 94 36 b4 cb 94 36
       4.429966e-06 4.4310136e-06 4.4344574e-06 4.434458e-06
0000d0 b7 cb 94 36 b7 cb 94 36 b7 cb 94 36 b7 cb 94 36
       4.4344592e-06 4.4344592e-06 4.4344592e-06 4.4344592e-06
0000e0 b7 cb 94 36 b7 cb 94 36 b8 cb 94 36 2f b9 94 36
       4.4344592e-06 4.4344592e-06 4.4344597e-06 4.432302e-06
0000f0 69 c3 94 36 6a c9 94 36 2a 4b 95 36 44 38 97 36
       4.4334924e-06 4.4341914e-06 4.4492963e-06 4.506701e-06
000100 2d 58 9b 36 d2 41 a3 36 70 ed a5 36 b6 91 9f 36
       4.629625e-06 4.865441e-06 4.9450246e-06 4.7555322e-06
000110 c5 45 a2 36 05 ec a7 36 3c f8 a7 36 9a 3a a8 36
       4.8360985e-06 5.004464e-06 5.005886e-06 5.0136123e-06
000120 2e f3 aa 36 5e ee a0 36 6d 2e a2 36 d7 d8 a3 36
       5.0947046e-06 4.796121e-06 4.833381e-06 4.883022e-06
000130 5e ee 99 36 3f 22 96 36 ed 51 95 36 1f d9 94 36
       4.587505e-06 4.474335e-06 4.4500835e-06 4.43602e-06
000140 58 95 94 36 73 d2 94 36 b7 cb 94 36 b7 cb 94 36
       4.4281296e-06 4.435243e-06 4.4344592e-06 4.4344592e-06
000150 b7 cb 94 36 b7 cb 94 36 cc cd 94 36 0e fb 94 36
       4.4344592e-06 4.4344592e-06 4.4347016e-06 4.4399703e-06
000160 4d 09 95 36 e3 7a 95 36 1b 49 9a 36 7b f4 9d 36
       4.441629e-06 4.454852e-06 4.5980682e-06 4.707426e-06
000170 c0 74 a9 36 7c 15 c3 36 ee 23 e8 36 01 61 e2 36
       5.050184e-06 5.813954e-06 6.9183216e-06 6.7466176e-06
000180 1c af 02 37 d4 95 0b 37 ea 97 20 37 df 74 31 37
       7.789375e-06 8.31993e-06 9.572113e-06 1.0577233e-05
000190 31 b5 18 37 4e f8 06 37 28 bb fd 36 06 02 ec 36
       9.102093e-06 8.044835e-06 7.5617754e-06 7.0335836e-06
0001a0 9b 82 f2 36 9b a9 d2 36 81 59 bc 36 04 ba ad 36
       7.2273665e-06 6.2782324e-06 5.6132562e-06 5.177457e-06
0001b0 8a 15 9d 36 60 ba 94 36 2e c0 94 36 b7 cb 94 36
       4.681472e-06 4.4324406e-06 4.4331164e-06 4.4344592e-06
0001c0 b7 cb 94 36 32 cc 94 36 fa ce 94 36 51 c6 94 36
       4.4344592e-06 4.434515e-06 4.434839e-06 4.433831e-06
0001d0 fc e3 96 36 c6 e8 9c 36 dd cc a4 36 7c cb bf 36
       4.4968892e-06 4.6762607e-06 4.91143e-06 5.7159323e-06
0001e0 a2 f7 d9 36 15 89 0c 37 ae 9b 2b 37 ee e7 53 37
       6.495932e-06 8.376567e-06 1.0228641e-05 1.263058e-05
0001f0 e3 93 79 37 82 b1 96 37 9a 6c c3 37 d6 a5 c8 37
       1.4875989e-05 1.7964052e-05 2.3296383e-05 2.3919081e-05
000200 23 93 b5 37 23 7e a7 37 be 8f 92 37 01 b9 77 37
       2.1645397e-05 1.9966688e-05 1.7471491e-05 1.4765422e-05
000210 84 1c 52 37 8b bf 28 37 03 08 01 37 76 94 cb 36
       1.2523615e-05 1.0058177e-05 7.690865e-06 6.0671546e-06
000220 28 7d a9 36 95 5b 98 36 50 67 95 36 80 c1 94 36
       5.0511626e-06 4.5406146e-06 4.452573e-06 4.43327e-06
000230 b7 cb 94 36 b7 cb 94 36 a6 cb 94 36 71 10 93 36
       4.4344592e-06 4.4344592e-06 4.4344515e-06 4.3828554e-06
000240 40 d2 9d 36 fc a7 c5 36 3f f0 d7 36 c2 96 0b 37
       4.703441e-06 5.8906135e-06 6.4354676e-06 8.320147e-06
000250 57 7e 34 37 6d fb 84 37 85 7c a8 37 46 7b ed 37
       1.0758252e-05 1.5852705e-05 2.0085145e-05 2.8310005e-05
000260 e4 c4 19 38 5f 4d 3f 38 96 a8 5d 38 5a af 76 38
       3.666141e-05 4.5610006e-05 5.2847514e-05 5.881428e-05
000270 ab 83 62 38 6a dc 46 38 90 50 18 38 e2 4e f2 37
       5.4005224e-05 4.7412155e-05 3.6314654e-05 2.888538e-05
000280 66 50 a6 37 09 a1 60 37 e3 af 29 37 79 24 04 37
       1.982618e-05 1.3388934e-05 1.0114137e-05 7.876305e-06
000290 bf 21 be 36 c8 a4 a2 36 f0 a9 96 36 58 d1 94 36
       5.66637e-06 4.8471593e-06 4.4901317e-06 4.4351145e-06
0002a0 b7 cb 94 36 b7 cb 94 36 e1 df 94 36 43 89 9b 36
       4.4344592e-06 4.4344592e-06 4.4368066e-06 4.6353393e-06
0002b0 53 77 b2 36 e8 5a da 36 7d 73 16 37 2e 23 49 37
       5.3187046e-06 6.507489e-06 8.967586e-06 1.19887245e-05
0002c0 53 33 94 37 ff fa e1 37 00 c9 1e 38 f5 2d 57 38
       1.7666875e-05 2.693897e-05 3.785733e-05 5.1302795e-05
0002d0 e1 08 7d 38 6e d8 92 38 9c 3f 9d 38 91 30 a3 38
       6.032817e-05 7.002136e-05 7.4981916e-05 7.781492e-05
0002e0 41 ee 9c 38 34 27 8f 38 e7 9c 68 38 8b 0f 2d 38
       7.483038e-05 6.8260735e-05 5.5459237e-05 4.126089e-05
0002f0 5b 33 f8 37 5a d4 9d 37 3f cb 65 37 6d ce 29 37
       2.9587818e-05 1.8814742e-05 1.3696786e-05 1.0121247e-05
000300 91 a1 e0 36 b5 89 b0 36 e4 4a 9c 36 b9 bc 96 36
       6.694529e-06 5.26124e-06 4.6578807e-06 4.4923186e-06
000310 b7 cb 94 36 8d b4 94 36 a2 f4 94 36 14 14 a1 36
       4.4344592e-06 4.4317626e-06 4.4392227e-06 4.8005113e-06
000320 d4 d0 cc 36 76 ef 0e 37 85 d0 35 37 8d b8 84 37
       6.1039846e-06 8.519613e-06 1.083699e-05 1.5821564e-05
000330 d8 35 cd 37 db a5 1d 38 39 74 4f 38 f3 6d 7f 38
       2.4462977e-05 3.7586182e-05 4.9460887e-05 6.0899136e-05
000340 a9 40 8e 38 08 2b 98 38 a3 02 98 38 bf 5d 9b 38
       6.7831315e-05 7.25594e-05 7.248416e-05 7.4084375e-05
000350 66 12 9a 38 77 d0 90 38 ab 0e 7f 38 7a b5 4f 38
       7.346719e-05 6.905285e-05 6.08104e-05 4.952166e-05
000360 6d 9b 1a 38 78 9f c8 37 dd 46 8c 37 27 26 44 37
       3.6861213e-05 2.3916116e-05 1.6722299e-05 1.1691393e-05
000370 df a6 00 37 4a ba b3 36 5b b2 9a 36 2c b1 94 36
       7.668247e-06 5.3563026e-06 4.610321e-06 4.4313692e-06
000380 33 cb 94 36 b4 b3 94 36 18 64 95 36 70 9b a7 36
       4.434399e-06 4.431664e-06 4.4521985e-06 4.995083e-06
000390 56 2f e1 36 31 a6 24 37 93 42 64 37 72 b4 ac 37
       6.711033e-06 9.813856e-06 1.36053595e-05 2.0588024e-05
0003a0 57 16 fc 37 ff 01 35 38 a6 24 5b 38 d7 a4 7d 38
       3.0051144e-05 4.3155622e-05 5.22478e-05 6.047342e-05
0003b0 29 62 84 38 4d 52 84 38 db c3 7e 38 6d 94 81 38
       6.312534e-05 6.30958e-05 6.0740724e-05 6.178846e-05
0003c0 b8 1c 8c 38 f3 cf 86 38 03 f8 76 38 4c c6 56 38
       6.6810695e-05 6.4283515e-05 5.888195e-05 5.1206254e-05
0003d0 6a 2c 21 38 a0 30 e0 37 0a ef 9d 37 19 17 4f 37
       3.8426755e-05 2.6725524e-05 1.882717e-05 1.2343539e-05
0003e0 ff 2f 0a 37 6d dd c4 36 76 9b 9a 36 ca e1 94 36
       8.236616e-06 5.8670325e-06 4.6076557e-06 4.437029e-06
0003f0 d9 cd 94 36 0f 50 94 36 55 d5 95 36 44 5a b0 36
       4.4347075e-06 4.4200638e-06 4.465381e-06 5.255717e-06

exp_avg f4 [4]
000000 ec 70 a8 38 91 44 64 ba e3 1d a5 39 c7 5e 18 ba
       8.0318976e-05 -0.0008707727 0.0003149352 -0.0005812463

exp_avg_sq f4 [4]
000000 e3 b5 ce 37 ab 70 58 37 9b 2a 0f 37 35 db 67 37
       2.4641811e-05 1.2900836e-05 8.533384e-06 1.3819711e-05

exp_avg f4 [8, 4]
000000 91 f7 ca ba 10 0d 25 3a 26 51 18 bb f2 01 ff ba
       -0.0015485157 0.0006296197 -0.0023241728 -0.0019455536
000010 03 09 ed bb 80 f9 11 bc b6 4d a1 ba ca c7 be ba
       -0.0072337403 -0.008909583 -0.0012306485 -0.0014555391
000020 69 36 87 bc f8 f1 9c bc 50 e5 00 bc 43 62 84 bc
       -0.016505437 -0.019158348 -0.007867172 -0.016160136
000030 98 0b b9 3a a3 a4 3b 3b d4 65 04 3c 93 2e b5 3a
       0.0014117835 0.0028632067 0.008080918 0.0013823084
000040 df fe 9d 3b 1c 40 d1 3b 8b b3 12 bc 49 61 0d bb
       0.004821643 0.0063858163 -0.008953939 -0.002157288
000050 69 a8 98 ba 45 7e 1c bb cb 28 09 bc 0c 54 d8 ba
       -0.001164687 -0.0023878973 -0.008371542 -0.001650454
000060 70 83 3d bb 57 07 fa 38 f3 54 96 bb d0 9f 0d ba
       -0.0028917454 0.00011922296 -0.0045877635 -0.0005402537
000070 10 31 de ba a2 87 ac bb 14 5c 8a 3b 9f a9 70 bb
       -0.0016951878 -0.005265192 0.0042224023 -0.0036722196

exp_avg_sq f4 [8, 4]
000000 b8 ff d7 3a c1 dd 26 3a 33 e9 46 3b b9 3c 20 3b
       0.0016479408 0.00063654414 0.00303514 0.0024450256
000010 0c 6c d8 3a b3 9d 11 3a ba 8b a8 3b a8 31 06 3b
       0.0016511693 0.000555481 0.00514361 0.0020476375
000020 8c 09 18 3b b0 2c c0 3a 2d db a2 3b 79 06 3e 3b
       0.002319905 0.0014661755 0.0049699754 0.0028995557
000030 6c 45 34 3b c7 7e f7 39 65 6e e5 3b 6c 8c 73 3b
       0.00275072 0.00047205968 0.0070016854 0.0037162555
000040 84 9d e2 3a 4e 7a 58 3a 57 f9 9a 3b 74 7c 66 3b
       0.0017289375 0.0008257971 0.0047294307 0.0035169395
000050 ec 8b 7f 3a 64 41 eb 39 77 a9 01 3b ce 9a b1 3a
       0.0009748328 0.00044871413 0.0019784847 0.0013550164
000060 27 01 f0 3a 96 d7 2f 3a 88 bf 82 3b 7e 94 e6 3a
       0.001831089 0.0006707845 0.0039901175 0.0017591862
000070 5d ae 07 3b 1c 98 c7 3a 39 4c 99 3b a6 56 34 3b
       0.0020703294 0.0015227827 0.004678276 0.0027517467

exp_avg f4 [8]
000000 8a 75 a0 b9 95 d3 95 b9 e1 97 71 ba a7 f7 d8 b9
       -0.00030605152 -0.00028577136 -0.0009216052 -0.00041383246
000010 68 34 80 b8 2b fb b7 39 c6 7f 1d 39 36 62 af b9
       -6.113277e-05 0.00035091615 0.00015020286 -0.00033451774

exp_avg_sq f4 [8]
000000 7f aa c4 36 92 b1 f9 36 9e 78 15 37 04 cf 1f 37
       5.8611035e-06 7.44145e-06 8.909175e-06 9.525338e-06
000010 81 30 08 37 b9 80 7d 36 f9 97 cd 36 3d f1 17 37
       8.117525e-06 3.7774864e-06 6.127168e-06 9.056469e-06

exp_avg f4 [10, 8]
000000 72 0b 36 3c 12 85 80 3b b4 b2 30 3b 4b 17 2f 37
       0.011111127 0.003922113 0.0026961984 1.0436236e-05
000010 bf 2a bb 3b b6 b5 c0 3b a0 9e d6 3b 42 3f cb 3b
       0.005711883 0.0058810366 0.0065496713 0.0062026093
000020 e6 f0 60 3b 46 22 2a 3a 8d 00 73 3a c5 c0 96 ba
       0.0034323274 0.00064900925 0.00092697964 -0.0011501542
000030 ca 3d 9a 3a f9 64 1b 3b d3 ba c3 3a e2 81 5a 3b
       0.0011767682 0.0023711307 0.0014932997 0.0033341576
000040 1d dc 9f 3a 48 9e be 3b 0a 8b 50 3a e5 8e 75 3b
       0.0012196336 0.0058172084 0.0007955289 0.0037469205
000050 35 22 c3 3a 4f 8b 21 3c fb 01 75 3b a8 2c 8e 3b
       0.0014887514 0.009859874 0.0037385214 0.0043388195
000060 44 1e 7f 3b 61 03 3d 3c 84 7b 78 3b 6c ff f0 3b
       0.0038927952 0.01153645 0.0037915418 0.0073546674
000070 76 f1 10 3b c6 2d 5d 3c bd fd 01 3c d8 4a ff 3b
       0.0022116578 0.013499683 0.007934031 0.0077909045
000080 e2 4c 26 bc 8c 23 bf 3b 93 d2 5d ba 35 f9 c2 3a
       -0.010150166 0.005833095 -0.0008461859 0.0014875295
000090 e7 bf c7 bb b4 91 05 3c 2e 24 bc bb 08 6f 89 3b
       -0.0060958746 0.008152414 -0.0057416176 0.004194144
0000a0 56 b2 4d bc 78 81 74 bc 80 8f a3 bb ed 85 4b 3a
       -0.012554726 -0.014923446 -0.004991472 0.0007763792
0000b0 67 77 fb bb 53 aa df bc f4 ed ff bb 62 d6 b1 bc
       -0.007674146 -0.027302897 -0.0078103486 -0.021708671
0000c0 43 09 69 3c ad 11 68 3b 3e 90 bd 3b 7a 77 27 3b
       0.0142234 0.0035410926 0.0057850173 0.0025553391
0000d0 58 f6 8e 3b d9 58 ac 3a 69 13 46 3c fe 45 8f 3b
       0.0043628626 0.0013149037 0.012089589 0.0043723574
0000e0 24 ca 36 bc 45 01 41 bc 56 a4 12 bc 06 2e 2e bc
       -0.0111565925 -0.011780088 -0.008950314 -0.01063109
0000f0 59 71 65 ba 80 e1 fa bb 28 7b 70 bc 73 d5 e7 bb
       -0.0008752547 -0.007656276 -0.0146778 -0.0070750057
000100 89 4b 98 b7 92 97 96 bb 73 ce 4f 3a d1 fd 87 bb
       -1.8154986e-05 -0.0045957053 0.00079271867 -0.0041501303
000110 90 2f a1 b9 fd 8d c8 bb 17 55 6a bb f2 f6 bd ba
       -0.0003074375 -0.006120442 -0.0035756284 -0.0014493151
000120 25 c2 d7 34 e2 54 af 34 c7 80 07 32 fa 65 ee 33
       4.018813e-07 3.265805e-07 7.887315e-09 1.1101288e-07
000130 9f 73 5d 35 41 dd 35 35 c3 f5 a8 34 ba 7c a3 33
       8.2497166e-07 6.774972e-07 3.1471254e-07 7.6129666e-08

exp_avg_sq f4 [10, 8]
000000 90 e7 89 3a ab 87 a9 39 a5 a2 ba 38 05 90 a3 34
       0.0010521282 0.00032335272 8.899466e-05 3.0465904e-07
000010 d3 f8 83 3a 23 ac 82 3b 93 bc 10 39 7e e1 20 3b
       0.0010068662 0.0039878055 0.0001380316 0.0024548466
000020 85 fa ad 39 0f 6f eb 3a 62 e1 46 39 a6 49 aa 3a
       0.00033183783 0.0017962175 0.00018966713 0.001299192
000030 34 b6 be 39 2e 16 07 3b b3 d3 e3 3a 6b 4d 70 39
       0.00036375376 0.0020612585 0.0017381817 0.00022917024
000040 f8 41 88 38 7d 3e 4c 39 d1 55 74 37 c6 c7 99 38
       6.497273e-05 0.00019478235 1.4563514e-05 7.332819e-05
000050 92 b1 8e 38 cc d0 b2 39 d6 30 1d 39 ff ef 92 38
       6.804163e-05 0.00034106371 0.0001499088 7.006525e-05
000060 3a 58 ac 39 ae 2b 73 3b b4 4e a5 39 34 b8 4e 3a
       0.0003287213 0.0037104893 0.0003152989 0.0007885725
000070 1a 80 20 3a 5e 2d 30 3c ae bf 8a 3a fd 62 6f 3b
       0.0006122604 0.010753004 0.001058569 0.0036527507
000080 9d d6 8f 3b ad cf d4 3a 70 c6 57 3a 68 29 0c 3a
       0.0043895976 0.0016236209 0.00082311686 0.0005346746
000090 8d a6 cc 3a a1 e6 69 3b 1b 58 54 3b 76 b1 12 3b
       0.0015613601 0.0035690444 0.0032401148 0.0022383607
0000a0 56 67 21 3b 96 ca 4d 3b da d3 77 39 95 bb 26 39
       0.0024628243 0.0031401268 0.00023634676 0.00015900873
0000b0 60 8e 7d 3b 34 9c 8d 3c f2 d0 b1 3a 85 4d cc 3b
       0.0038689598 0.017286398 0.0013566299 0.006234827
0000c0 0e 9f 05 3b 47 89 a3 39 de c7 d8 38 9f a4 83 39
       0.0020388993 0.00031192062 0.00010336911 0.0002510892
0000d0 63 cc de 3a 20 4b 85 3a c5 c1 bc 3a 73 c0 67 39
       0.0016998168 0.0010169484 0.001440101 0.0002210157
0000e0 da bc 0e 3b f9 d3 ea 3a 0c e0 6a 3a a0 7e 07 3a
       0.0021780045 0.0017915956 0.0008959777 0.000516871
0000f0 67 bb 7b 39 ff 63 5f 3b 68 93 e2 3a e4 2c 44 3b
       0.00024007038 0.0034086702 0.0017286362 0.0029933983
000100 ce f4 0d 3b ba 23 ab 3b b7 2b ab 39 59 e4 04 3b
       0.0021660808 0.005222765 0.00032648232 0.0020277707
000110 a7 43 6d 3b e9 32 5a 3c 29 40 8c 3b 00 6b 19 3b
       0.0036203654 0.013317802 0.0042801094 0.0023409724
000120 18 74 fd 32 34 a6 20 32 bc 71 44 32 00 e4 df 30
       2.950587e-08 9.351016e-09 1.1434562e-08 1.6290187e-09
000130 12 1e 3a 32 19 be f6 32 43 9c 7b 32 d7 a3 e5 32
       1.0833462e-08 2.8724616e-08 1.4645653e-08 2.6733614e-08

exp_avg f4 [10]
000000 e6 46 0a 3a c5 91 dd 38 c6 61 d0 ba d3 d7 0c 3a
       0.0005274847 0.00010565253 -0.0015898279 0.00053727365
000010 63 d9 03 39 80 0e 57 ba 72 41 99 39 8b 46 31 ba
       0.00012574116 -0.000820376 0.00029231195 -0.0006762526
000020 a1 50 c4 3a d6 0c 78 34
       0.0014977643 2.310147e-07

exp_avg_sq f4 [10]
000000 1a 2b 16 37 81 78 12 37 7d 65 ac 35 f2 03 88 37
       8.950732e-06 8.730335e-06 1.2844536e-06 1.62143e-05
000010 89 61 63 37 27 7a e7 37 46 a3 0d 37 b6 df 45 37
       1.35529635e-05 2.7594228e-05 8.44227e-06 1.1794202e-05
000020 d7 8a db 37 38 57 df 32
       2.6171487e-05 2.600028e-08
