libraryExamples/mnist_lightning/.mnist_{epoch}-{val_loss:.2f}/epoch=62-step=54180.ckpt (torch, 145488 bytes, 60 tensors)

model.layer_1.mainModule.weight f4 [4, 784]
000000 10 10 f3 39 d4 ba 45 bd a3 1f 9c bc 33 cb f3 b9
       0.0004636054 -0.048273876 -0.019058054 -0.00046499967
000010 45 b1 60 bd ea ad 87 bb eb 7d 2f bd df a3 36 bd
       -0.054856557 -0.004140605 -0.042844694 -0.044589873
000020 71 15 b5 bc d7 71 8c bc bb a0 06 bd dc c3 81 bd
       -0.02210495 -0.017144127 -0.03286813 -0.06336185
000030 f5 69 38 bd 9e b8 08 bd 64 76 97 bd 7f 10 51 bd
       -0.045022923 -0.03337919 -0.07395628 -0.051041123
000040 6e 3f c2 bc 4d fa d0 bc 94 ca 7e bd 72 2c 03 bd
       -0.023711886 -0.025509978 -0.062204912 -0.03202481
000050 80 96 1e bd 96 08 25 bd ff aa 08 bc eb 34 c1 3b
       -0.038717747 -0.04029139 -0.00834155 0.005896201
000060 c2 7d c6 bc 12 04 41 bc b1 8b cd bc c1 86 5b bd
       -0.024229888 -0.011780756 -0.025091024 -0.05359531
000070 a7 93 8a 3b 57 7c 86 bc 96 a6 44 bc 18 c6 30 bd
       0.0042290273 -0.016416712 -0.012002608 -0.043157667
000080 22 23 c2 bc 5f c9 05 bd 44 c7 f9 3b e9 8a 0f bc
       -0.023698393 -0.032662746 0.0076226313 -0.008761146
000090 fc 54 57 bc 9b b3 91 bc e1 73 2d 3d 92 7b 95 3d
       -0.01314282 -0.017785838 0.04234684 0.0729896
0000a0 25 be ea bb 2b 5a 36 bd ab db 18 bd f9 ab d5 bd
       -0.0071637803 -0.044519585 -0.037318867 -0.10433192
0000b0 47 9e 25 be 99 62 ce bd 53 44 34 bd e2 5f ba bc
       -0.1617366 -0.100774 -0.04401047 -0.022750799
0000c0 3f e0 bd bc 51 20 37 bd 49 8d 51 bd 93 de 92 bc
       -0.023178218 -0.044708554 -0.05116013 -0.017928397
0000d0 3e 85 2d bd 3e f8 52 bd 68 b7 89 bc 01 d8 25 bc
       -0.042363398 -0.051506273 -0.016811088 -0.0101223
0000e0 7e 1d a3 bc 9e e5 52 bd b1 2c 19 bd b9 57 c1 bc
       -0.019911524 -0.05148851 -0.037396137 -0.0236014
0000f0 fa c9 82 bd 12 7a 8c 3b 2a cc 64 3c 2e 4f 05 3d
       -0.0638618 0.004287013 0.013964692 0.032546215
000100 5a 70 f4 3d 5b 1a e6 3d da 09 d5 3e 91 b2 38 3e
       0.11935492 0.11235496 0.4160908 0.18036868
000110 7b 77 a8 3e 90 88 e4 3e bc 85 eb 3e 50 f2 87 3e
       0.32903656 0.4463544 0.4600047 0.26552057
000120 dd 59 6c 3d 29 1c 45 bc 25 8f 1c 3f 9f 9a c4 3e
       0.057702888 -0.01203064 0.6115592 0.38399217
000130 00 81 5e 3e 0b 55 6f 3e 47 ef b5 3d 8a 09 00 bd
       0.21728897 0.23372285 0.08883529 -0.031259097
000140 10 d3 59 bd 26 7b 63 bd eb df 70 bd 8e e5 2e bd
       -0.0531798 -0.055537365 -0.058807295 -0.04269939
000150 69 c7 98 bc ca f0 24 bc 30 65 38 bd 17 0f e7 bb
       -0.018649774 -0.010067174 -0.045018375 -0.0070513594
000160 af 84 89 3c 85 10 bd 3a 07 21 0c 3d e4 e8 46 3e
       0.016786901 0.0014424479 0.034211185 0.19424778
000170 27 0c 59 bd 7a ea fe bd 85 4d b1 3d 55 ff 6a be
       -0.052990105 -0.124470666 0.08657364 -0.22948964
000180 ac 4f fc be af ef b8 bd a5 82 05 bf 8f 0e a1 3e
       -0.49279535 -0.09030091 -0.5215247 0.3145642
000190 ea d9 a0 3d b1 91 4f 3e 71 1d 2f 3f 26 d6 cf 3e
       0.07854064 0.2027042 0.684043 0.4059307
0001a0 01 b0 c1 3e 9c be c9 3e f8 ad da 3e 16 b3 a4 3e
       0.37829593 0.39403236 0.42710853 0.32167882
0001b0 7a 67 a0 3e a3 e0 13 bc 1a 45 b6 bb e4 77 c7 3a
       0.31328946 -0.009025726 -0.0055624368 0.0015218225
0001c0 5e 20 37 bd 6c a9 b6 bc b9 e3 28 bd a0 00 4e bd
       -0.044708602 -0.022297584 -0.0412328 -0.050293565
0001d0 fa bb 88 bd 8b 1d 75 be ed 58 a1 be 1e a9 9d be
       -0.06676479 -0.23937051 -0.31513157 -0.3079309
0001e0 e8 bd 2d 3d 42 73 0b be 9b 3f ea be cb 9a f1 be
       0.042417437 -0.13618186 -0.45751652 -0.4718841
0001f0 fe 4b eb bd d7 ff 18 bf da be 80 be d7 1c 10 bf
       -0.11489104 -0.5976538 -0.25145608 -0.56294006
000200 19 54 a8 be 11 ed 72 bd 0e 77 07 bf f3 61 0b be
       -0.3287666 -0.059308115 -0.5291604 -0.13611583
000210 95 88 84 be d3 af 4b 3e df fb e5 3d b2 1e af bd
       -0.25885454 0.1989129 0.11229681 -0.085507765
000220 da 89 98 3e e1 47 ad bc d0 d6 fa bd 3d 59 0a bd
       0.29792672 -0.021152439 -0.122480035 -0.03377651
000230 6f f7 56 3b 8d 6a 3b bc 20 a5 0d 3d cb e4 bd bd
       0.003280129 -0.011438978 0.034581304 -0.092721544
000240 20 d1 12 3a 73 f8 aa be 94 84 fa be aa a0 12 bd
       0.000560062 -0.33392677 -0.48929274 -0.035797752
000250 22 17 d9 be c5 42 26 3e 5d 85 95 3d 94 ac 73 be
       -0.4240046 0.16236408 0.07300828 -0.23796302
000260 cf 17 0c be fc aa ff bd cb 2a b9 3e 3a 4c a4 3e
       -0.13680957 -0.124837846 0.3616546 0.32089406
000270 9f 3f da 3e f1 31 01 3f 66 e9 cf 3e 12 40 04 3f
       0.42626664 0.5046683 0.40607756 0.51660264
000280 2f b7 a1 3b 70 c0 b1 3e cb 60 80 3e 42 db ad 3d
       0.0049351673 0.3471713 0.25073847 0.08489086
000290 6c 35 56 3e d8 6c ee bd bb 2a 11 be 23 e8 a1 bb
       0.20918816 -0.11641854 -0.14176457 -0.004941003
0002a0 6f c3 3a 3a 0f ed 34 bd a3 c0 df bc f9 21 47 be
       0.0007124459 -0.04417139 -0.027313536 -0.19446553
0002b0 5d b7 22 bf 57 a0 96 be 6f 69 26 3d 88 95 8f 3e
       -0.6356104 -0.29419205 0.040627893 0.2804377
0002c0 85 06 c5 be c4 8c 85 bd 50 76 41 bd a5 71 62 be
       -0.38481537 -0.065209895 -0.047231972 -0.22113664
0002d0 e5 51 50 be 12 93 c5 be bc 84 a7 be e7 68 a6 be
       -0.2034374 -0.38588768 -0.32718456 -0.3250191
0002e0 17 db 29 bf a6 d4 81 be 5d 34 a1 be e9 80 69 bd
       -0.6634993 -0.2535755 -0.31485263 -0.057007704
0002f0 d7 40 80 3c 46 33 83 3e 50 2a 9d 3e d6 73 ff 3e
       0.015655918 0.25625056 0.30696344 0.49893063
000300 5a 0c a0 3e fa ad 47 be 74 da 97 be 74 9b 15 bd
       0.31259423 -0.1949996 -0.29658854 -0.036525205
000310 60 41 1e bc 3e 63 3f be 1b fd 67 bd 9f a8 d1 be
       -0.009659141 -0.18690202 -0.056637865 -0.4094896
000320 5c a2 81 bf 65 ed ad be 68 58 c1 be 2c 51 7e be
       -1.0127673 -0.3397018 -0.3776276 -0.24835652
000330 00 8c 9d 3d e1 e1 95 be 81 f5 94 be ef b1 7c be
       0.076927185 -0.29273894 -0.29093555 -0.24677251
000340 17 ee 14 bf 3b 5b 8c be c9 54 b6 be b5 67 4f be
       -0.58175796 -0.27413353 -0.3561156 -0.20254405
000350 05 d1 37 be b3 2f fe be 8f 25 9f be 51 b1 ef bd
       -0.17950828 -0.49645767 -0.31083342 -0.11703742
000360 e5 70 00 bf 6f 97 9d bd a5 e2 3c 3e 0a eb 12 3e
       -0.50172263 -0.07694899 0.18445833 0.14347473
000370 cc 08 b2 3e 81 12 92 be b8 56 fb bd ed 6e d0 bb
       0.34772336 -0.28529742 -0.122724 -0.0063608796
000380 d3 2e b5 bc e2 15 b2 bd 3c 13 b3 bd 29 40 0f bf
       -0.022117054 -0.0869558 -0.08743903 -0.55957276
000390 38 ca 66 bf 66 84 8f be 59 41 31 3c fd 1d aa 3d
       -0.9015231 -0.280307 0.010818803 0.08306501
0003a0 5a 21 39 3d 95 66 57 3d 5f ed ba be 61 29 55 3d
       0.045197822 0.052588064 -0.36509225 0.052041415
0003b0 a3 40 d0 be b8 12 5e be 82 37 be be ae d4 7b be
       -0.40674314 -0.21686828 -0.37151724 -0.2459285
0003c0 cd b6 33 bf 8a 98 45 be b7 2f c4 be f7 0a 69 bd
       -0.70200807 -0.1929647 -0.38317654 -0.056895223
0003d0 97 cd 0f be 8c c3 8e 3d d9 04 0f be e8 15 a8 3d
       -0.1404327 0.06970891 -0.13966693 0.08207303
0003e0 5e d3 c7 3e c1 76 7d 3e 30 df d9 bd 31 4f 5b 3d
       0.39028448 0.24752332 -0.10638273 0.05354232
0003f0 a4 49 81 bd 3e f0 3e bd d4 55 09 be db f9 1c bf
       -0.06312874 -0.04661583 -0.13411647 -0.6131875

model.layer_1.mainModule.bias f4 [4]
000000 59 15 31 3d b6 e7 22 3e 0e c2 95 3c a3 95 5a 3e
       0.04323325 0.15908703 0.018281009 0.21346144

model.layer_1.pb.parentModule.weight f4 [4, 784]
000000 9e fd f6 3c fc 43 98 bc 13 23 2e 3c 2a 62 ef 3c
       0.030150231 -0.018587105 0.0106284795 0.029221613
000010 ee 30 ce bc e1 45 d1 3c 4a 94 57 bc 2e 2c 74 bc
       -0.025169816 0.025546016 -0.013157913 -0.014903111
000020 ca 6e f8 3b dc 7e 4d 3c 37 80 50 bb 3e ef 09 bd
       0.0075815665 0.012542453 -0.0031814703 -0.033675425
000030 05 31 76 bc 57 d9 17 3c 81 b5 fa bc a7 48 aa bc
       -0.015026336 0.009268126 -0.030604126 -0.020786596
000040 5c c7 c3 3b 13 dc 88 3b 0b 32 05 bd 37 3c 19 bb
       0.005974693 0.0041766255 -0.032518428 -0.0023381838
000050 85 f6 13 bc ca be 2d bc c5 db ae 3c 48 bf 11 3d
       -0.009030943 -0.01060457 0.021345029 0.03558281
000060 e5 cd b2 3b 4a af 92 3c 8a 96 96 3b d1 db c3 bc
       0.0054566734 0.01790585 0.0045955824 -0.023908528
000070 18 eb 0a 3d f7 69 59 3c 0e de 90 3c 01 b5 5c bc
       0.03391561 0.013269893 0.017684009 -0.013470889
000080 5c 38 c4 3b 01 e8 47 bb 2b d5 08 3d f3 55 3a 3c
       0.005988164 -0.0030503275 0.033406418 0.011373031
000090 3c ca 29 bc 6e 24 1c bb dc de 0e b9 8a 6b 51 bc
       -0.010363158 -0.0023825425 -0.00013625197 -0.012781987
0000a0 b7 c0 31 bc 67 55 0a bd dc 8b a3 ba 2a ea 0a bc
       -0.010849169 -0.033772852 -0.0012477594 -0.008478681
0000b0 53 49 77 3c dc a4 ab bc a5 85 43 bc b8 9f 5c bb
       0.015093165 -0.020952635 -0.011933719 -0.0033664536
0000c0 01 18 39 ba 15 f9 89 bc be 11 ba bc 13 98 3b 3c
       -0.0007060767 -0.016842404 -0.022713538 0.011449832
0000d0 77 b1 4f bc ce be b2 bc d3 f3 52 3c 40 45 a0 3c
       -0.012676588 -0.021819498 0.012875515 0.019564271
0000e0 2e 27 20 3c 8c 99 b2 bc 2e d9 fd bb 4a da d7 3b
       0.009774966 -0.021801732 -0.007746837 0.0065873014
0000f0 ca 94 11 bd d8 b0 03 3d 1a c7 d3 3c 9c ff 9d bc
       -0.035542287 0.032151073 0.025851775 -0.019286923
000100 0e 5b d1 bc 0c 5d e3 bc f3 f1 84 3c fa 53 b9 3c
       -0.025556114 -0.02775433 0.016228652 0.022623051
000110 23 df 82 3c 50 8d a1 3c 73 30 b8 3c e3 8c 8c bc
       0.01597554 0.019720703 0.02248404 -0.017157024
000120 dc 79 ac bb d5 2a 89 3c ca 04 79 bb b0 fa 8c 3c
       -0.00526355 0.016744057 -0.003799724 0.01720938
000130 90 ce 8b bc b7 71 0a 3d ca 52 86 bc ea 88 05 bd
       -0.01706627 0.033799853 -0.016396899 -0.032601275
000140 43 cf a8 3c 65 2d ed 3b 4e 8e ee bc d3 32 55 bc
       0.020606643 0.0072380775 -0.02912059 -0.013012606
000150 97 d3 34 3c dc b8 a0 3c c3 a2 8b bc 6e 4e 7b 3c
       0.011036775 0.019619398 -0.017045384 0.015338523
000160 ea c2 08 3d a3 5f df 3c 97 b2 32 bc f4 6e 05 bd
       0.03338901 0.027267283 -0.010906837 -0.032576516
000170 da f5 ee 3c 45 c8 e2 bc 6a fe 65 bc 37 b6 84 bc
       0.029169966 -0.027683387 -0.014037708 -0.016200168
000180 24 c6 01 bd 03 67 f4 3c e1 8c 3e bc 0c 1b 9b 3c
       -0.031683102 0.029834276 -0.011630268 0.018933795
000190 3c 31 c2 3c 7f 85 05 3d bc 9b 1b bc 7c f8 d1 bc
       0.023705117 0.032598015 -0.009497579 -0.025631182
0001a0 57 20 48 3c 5c 24 bd bb 73 82 1e 3c 2a 41 57 3c
       0.012214742 -0.0057721566 0.009674656 0.013138095
0001b0 fc 7e 6b 3c 25 4d 79 bb b3 e6 3e 3c ce a8 ff 3c
       0.014373537 -0.0038040366 0.011651683 0.031208422
0001c0 13 1e 76 bc 21 e6 7b 3c c0 67 81 bc 7c b7 8c bc
       -0.015021819 0.015374691 -0.015796542 -0.017177336
0001d0 57 fc 3c bc b8 2f 69 ba 7c 62 97 3c b7 a8 1b bb
       -0.011534772 -0.0008895355 0.018479578 -0.0023751685
0001e0 00 f0 1b ba 4a 0c d2 ba 42 b9 01 bd 0a 1a 8a 3b
       -0.00059485435 -0.0016025391 -0.031670816 0.00421453
0001f0 e3 d0 e3 bc 21 7a 71 bc d3 c1 73 bc fe 14 04 3d
       -0.027809566 -0.01473859 -0.014877754 0.032246582
000200 0e bc ec 3c 4e ff f4 3c 28 c0 e3 3c ab 35 12 bd
       0.028898265 0.029906895 0.027801588 -0.035695713
000210 51 8a dc 3c 0a 2b 92 bb 8a 33 d0 3b 97 88 23 3c
       0.026921423 -0.004460697 0.0063538 0.009981296
000220 53 fd 25 3c 81 fe fb 3b 01 15 b4 3a 13 c2 7e bc
       0.010131198 0.0076902513 0.001373917 -0.015549201
000230 13 08 07 3d fa 7b 95 3c eb 2e 00 3d fc 4b 7e bc
       0.032966685 0.018247593 0.031294744 -0.015521046
000240 bd 74 0e bd bc 46 2b bc 33 ce d9 bc 76 86 05 bd
       -0.0347793 -0.010453876 -0.026587581 -0.032598935
000250 4a 0f 15 bb 10 61 87 3c 0e 51 28 3c 7e 9a c0 bc
       -0.0022744709 0.016525775 0.010273231 -0.023511168
000260 7c 64 2a 3c 8a b2 34 bc 8e da bb bc 3c da 2f bc
       0.010399934 -0.011028895 -0.022931363 -0.0107331835
000270 fc 72 06 bd 95 e9 e2 3c 07 33 03 3d 85 89 8f 3c
       -0.0328245 0.027699271 0.032031085 0.01752163
000280 ea 7d ad 3c 7c 9d 26 bc 9a 38 92 bc 37 1e 5b bc
       0.021178205 -0.010169383 -0.017849255 -0.013373903
000290 7c 3b b0 3c 3c a8 2e bc 74 f5 03 bd 31 4d ab 3c
       0.02151274 -0.010660227 -0.032216504 0.020910831
0002a0 75 07 f9 3c 40 9a 10 bc 83 04 d7 3c 3a 1d fa bc
       0.030399064 -0.008825839 0.026247269 -0.030531514
0002b0 aa 10 17 bc 2c a8 e1 bc 68 b2 05 3d 7a 0f 00 3d
       -0.009220282 -0.02754601 0.032640845 0.03126476
0002c0 61 51 39 3c f8 4e ea bc 7b 81 08 bd da 8b c0 3c
       0.011310906 -0.028602108 -0.033326607 0.023504186
0002d0 aa 56 97 3c aa 84 7b bc 1e 85 c5 bc 67 d4 10 3d
       0.018473942 -0.015351454 -0.024111327 0.035358813
0002e0 05 77 f2 bc 41 5f cf bc c5 6b ea bc a5 f9 95 3c
       -0.029597769 -0.025313975 -0.028615842 0.018307516
0002f0 e7 ca 91 bc 6e ec d3 bc 01 4a 32 3a be a7 9e bc
       -0.017796947 -0.025869574 0.00068011886 -0.019367095
000300 41 38 c8 3c 65 1e e6 3c ee ef 59 3c 6a 2f dd 3c
       0.024440886 0.028090665 0.013301833 0.027000148
000310 a0 10 a4 3c 6d b6 01 bd 0a 25 e3 3b 75 8d cd bc
       0.020027459 -0.031668115 0.0069319056 -0.025091866
000320 86 28 0e bd 53 ce 2f bc 5c c5 f1 bb 6e c1 dc bc
       -0.034706615 -0.010730344 -0.0073782634 -0.026947703
000330 23 20 d4 bc 37 50 24 3b 2a 70 0b 3c 1e b0 f7 3c
       -0.02589423 0.0025072226 0.008510629 0.030235346
000340 1a 92 87 3c 23 eb a9 bc d5 ca af bc 8a 59 85 bc
       0.016549159 -0.020742005 -0.021459023 -0.016278047
000350 ac da a6 3c 6c 07 ea bc ce 55 7c bc 4a fa 10 b9
       0.020367943 -0.028567992 -0.015401317 -0.0001382615
000360 fe 9f 8d bc e7 89 85 3c 1e 0a da bc 93 a3 ad bc
       -0.017288204 0.016301109 -0.026616152 -0.021196162
000370 75 83 97 bc 7e ff 80 3c 16 d9 0c 3d e5 27 09 3d
       -0.0184953 0.015746828 0.034386717 0.033485312
000380 81 aa fb 3b 93 6d e2 3a 0c 98 0c 3d 2b 8f 01 bd
       0.0076802378 0.0017275087 0.03432469 -0.031630676
000390 ce 33 cc 3c 00 98 a6 b9 01 09 2b 3c 61 7f ee bc
       0.024927046 -0.00031775236 0.010439158 -0.029113473
0003a0 02 d1 08 bd ee ca 5f bc 13 1a 2f 3c 4e e1 78 bc
       -0.03340245 -0.013659222 0.010687369 -0.015190436
0003b0 10 44 a9 bc 67 bb 0d 3d dc 66 c2 b9 47 7e 01 3d
       -0.020662338 0.03460255 -0.000370792 0.031614568
0003c0 2a 55 5f bc dc ef be bb 87 c8 98 3c cc 29 ae bc
       -0.013631145 -0.0058269333 0.018650306 -0.021260165
0003d0 4e a7 33 3c ed 81 09 3d 93 99 44 3c 65 5e 08 bd
       0.0109651815 0.033571173 0.011999506 -0.033293147
0003e0 6a 54 90 3c b5 bf 8d 3c 38 7b 6f 3b ca 8c f2 3c
       0.017618377 0.017303327 0.003654195 0.02960815
0003f0 5d 1d 08 bd 83 3b 8a 3c 4b d5 0e bd 38 cc e8 3b
       -0.033231128 0.01687408 -0.03487138 0.007104423

model.layer_1.pb.parentModule.bias f4 [4]
000000 d3 f1 5d 3c 8a 63 ab bc 25 61 b5 bb 93 30 03 ba
       0.013546425 -0.020921487 -0.005535262 -0.00050044915

model.layer_1.pb.pbValues.0.topPBCandidateAverage f4 [4]
000000 00 00 00 00 00 00 00 00 00 00 00 00 00 00 00 00
       0.0 0.0 0.0 0.0

model.layer_1.pb.pbValues.0.PrevPBCandidateCorrelation f4 [4]
000000 00 00 00 00 00 00 00 00 00 00 00 00 00 00 00 00
       0.0 0.0 0.0 0.0

model.layer_1.pb.pbValues.0.currentCorrelationsForParallel f4 [4]
000000 00 00 00 00 00 00 00 00 00 00 00 00 00 00 00 00
       0.0 0.0 0.0 0.0

model.layer_1.pb.pbValues.0.bestScore f4 [4]
000000 00 00 00 00 00 00 00 00 00 00 00 00 00 00 00 00
       0.0 0.0 0.0 0.0

model.layer_1.pb.pbValues.0.previousBestScore f4 [4]
000000 00 00 00 00 00 00 00 00 00 00 00 00 00 00 00 00
       0.0 0.0 0.0 0.0

model.layer_1.pb.pbValues.0.PrevPBCandidateAverage f4 [4]
000000 00 00 00 00 00 00 00 00 00 00 00 00 00 00 00 00
       0.0 0.0 0.0 0.0

model.layer_1.pb.pbValues.0.mainGradAverageForScaling f4 [4]
000000 00 00 00 00 00 00 00 00 00 00 00 00 00 00 00 00
       0.0 0.0 0.0 0.0

model.layer_1.pb.pbValues.0.candidateGradAverageForScaling f4 [4]
000000 00 00 00 00 00 00 00 00 00 00 00 00 00 00 00 00
       0.0 0.0 0.0 0.0

model.layer_1.pb.pbValues.0.indexesOfbest f4 [4]
000000 00 00 00 00 00 00 00 00 00 00 00 00 00 00 00 00
       0.0 0.0 0.0 0.0

model.layer_1.pb.pbValues.0.nodesBestImprovedThisEpoch f4 [4]
000000 00 00 00 00 00 00 00 00 00 00 00 00 00 00 00 00
       0.0 0.0 0.0 0.0

model.layer_1.pb.pbValues.0.parentsAverageDvector f4 [4]
000000 00 00 00 00 00 00 00 00 00 00 00 00 00 00 00 00
       0.0 0.0 0.0 0.0

model.layer_1.pb.pbValues.0.normalPassAverageD f4 [4]
000000 01 f4 a2 34 a5 76 02 b6 58 36 3a b3 b4 05 d7 33
       3.0352388e-07 -1.944057e-06 -4.3355925e-08 1.0012755e-07

model.layer_2.mainModule.weight f4 [8, 4]
000000 fb 70 c1 3f 7d 79 72 be 5a a3 a5 3e af 34 26 3f
       1.5112604 -0.23679157 0.3235119 0.6492414
000010 be 3a 4c 3f 8c d5 a2 3f 1b de a2 3e 99 4f 4c bf
       0.79777133 1.2721419 0.31810078 -0.79808956
000020 4e 67 b0 be 8a b3 4d 3f 63 fb 84 bf f7 fb 8c 3f
       -0.34453815 0.8035208 -1.0389217 1.1014394
000030 f3 ec 95 3e aa b7 24 3f 79 6c a7 be af e4 ef 3e
       0.2928234 0.6434275 -0.32699946 0.4685416
000040 5e bd 87 3f 44 67 6b be 28 86 e6 be 6c d6 3b 3f
       1.0604665 -0.22988611 -0.45024228 0.73374057
000050 9b 31 dd be 89 af a9 3e a2 d5 89 3f 5d 75 a4 3e
       -0.43201908 0.33141735 1.076832 0.3212079
000060 3a eb b1 be 10 43 47 3e b6 ca b4 3f 83 e5 bc bc
       -0.34749776 0.19459176 1.4124362 -0.023058658
000070 bb ef 15 3f 7a 62 37 bf 90 ac 79 3f 3d e0 82 be
       0.58568925 -0.7163464 0.97528934 -0.25561705

model.layer_2.mainModule.bias f4 [8]
000000 c8 f2 13 c0 f2 1c aa bf 07 2b 01 40 5b af 85 bf
       -2.3116932 -1.3290083 2.0182512 -1.0444139
000010 0c b9 b8 3f 83 53 34 c0 7b 4c 1a 3e 28 53 d2 3f
       1.4431472 -2.8175972 0.15068237 1.6431627

model.layer_2.pb.parentModule.weight f4 [8, 4]
000000 66 46 f7 3e b0 f4 d5 be 20 a4 28 be 6c 8e aa 3e
       0.48295897 -0.41788244 -0.16468859 0.33311784
000010 f2 1c ad 3e 16 9f ea 3e d0 73 e2 3d c0 e1 9a be
       0.33811146 0.45824498 0.11057246 -0.3025036
000020 40 3d da be ac 19 63 3e b6 79 fc be cc 3f 95 3e
       -0.42624855 0.22177762 -0.49311608 0.29150236
000030 82 76 b2 be e8 58 87 3d 80 f6 65 be c0 41 5a bc
       -0.3485604 0.066087544 -0.22457314 -0.01332134
000040 4c ee 93 3e 3a 4d 95 be 44 95 8d be 66 19 e4 3e
       0.28892744 -0.29160482 -0.27652943 0.44550627
000050 60 63 b9 bd d8 e4 cc 3d 1c a1 34 3e 68 4d b5 3e
       -0.090521574 0.10004586 0.17639583 0.3541062
000060 14 8c 67 be 80 62 ee bd e0 8d b9 3e 80 07 8d 3c
       -0.2261203 -0.11639881 0.36241055 0.01721549
000070 a2 95 ec 3e 40 6b b5 bc 6a 69 8a 3e 10 e6 60 bd
       0.4620791 -0.022145867 0.2703355 -0.054906905

model.layer_2.pb.parentModule.bias f4 [8]
000000 a8 7d 0b be a6 8c a5 3e 58 e5 fc be b8 12 f6 3d
       -0.13622153 0.3233387 -0.49393725 0.12015289
000010 a8 d7 5f be 0e 38 eb be 36 1a e2 3e b4 90 a7 3e
       -0.2185961 -0.45941204 0.44160622 0.32727587

model.layer_2.pb.pbValues.0.topPBCandidateAverage f4 [8]
000000 00 00 00 00 00 00 00 00 00 00 00 00 00 00 00 00
       0.0 0.0 0.0 0.0
000010 00 00 00 00 00 00 00 00 00 00 00 00 00 00 00 00
       0.0 0.0 0.0 0.0

model.layer_2.pb.pbValues.0.PrevPBCandidateCorrelation f4 [8]
000000 00 00 00 00 00 00 00 00 00 00 00 00 00 00 00 00
       0.0 0.0 0.0 0.0
000010 00 00 00 00 00 00 00 00 00 00 00 00 00 00 00 00
       0.0 0.0 0.0 0.0

model.layer_2.pb.pbValues.0.currentCorrelationsForParallel f4 [8]
000000 00 00 00 00 00 00 00 00 00 00 00 00 00 00 00 00
       0.0 0.0 0.0 0.0
000010 00 00 00 00 00 00 00 00 00 00 00 00 00 00 00 00
       0.0 0.0 0.0 0.0

model.layer_2.pb.pbValues.0.bestScore f4 [8]
000000 00 00 00 00 00 00 00 00 00 00 00 00 00 00 00 00
       0.0 0.0 0.0 0.0
000010 00 00 00 00 00 00 00 00 00 00 00 00 00 00 00 00
       0.0 0.0 0.0 0.0

model.layer_2.pb.pbValues.0.previousBestScore f4 [8]
000000 00 00 00 00 00 00 00 00 00 00 00 00 00 00 00 00
       0.0 0.0 0.0 0.0
000010 00 00 00 00 00 00 00 00 00 00 00 00 00 00 00 00
       0.0 0.0 0.0 0.0

model.layer_2.pb.pbValues.0.PrevPBCandidateAverage f4 [8]
000000 00 00 00 00 00 00 00 00 00 00 00 00 00 00 00 00
       0.0 0.0 0.0 0.0
000010 00 00 00 00 00 00 00 00 00 00 00 00 00 00 00 00
       0.0 0.0 0.0 0.0

model.layer_2.pb.pbValues.0.mainGradAverageForScaling f4 [8]
000000 00 00 00 00 00 00 00 00 00 00 00 00 00 00 00 00
       0.0 0.0 0.0 0.0
000010 00 00 00 00 00 00 00 00 00 00 00 00 00 00 00 00
       0.0 0.0 0.0 0.0

model.layer_2.pb.pbValues.0.candidateGradAverageForScaling f4 [8]
000000 00 00 00 00 00 00 00 00 00 00 00 00 00 00 00 00
       0.0 0.0 0.0 0.0
000010 00 00 00 00 00 00 00 00 00 00 00 00 00 00 00 00
       0.0 0.0 0.0 0.0

model.layer_2.pb.pbValues.0.indexesOfbest f4 [8]
000000 00 00 00 00 00 00 00 00 00 00 00 00 00 00 00 00
       0.0 0.0 0.0 0.0
000010 00 00 00 00 00 00 00 00 00 00 00 00 00 00 00 00
       0.0 0.0 0.0 0.0

model.layer_2.pb.pbValues.0.nodesBestImprovedThisEpoch f4 [8]
000000 00 00 00 00 00 00 00 00 00 00 00 00 00 00 00 00
       0.0 0.0 0.0 0.0
000010 00 00 00 00 00 00 00 00 00 00 00 00 00 00 00 00
       0.0 0.0 0.0 0.0

model.layer_2.pb.pbValues.0.parentsAverageDvector f4 [8]
000000 00 00 00 00 00 00 00 00 00 00 00 00 00 00 00 00
       0.0 0.0 0.0 0.0
000010 00 00 00 00 00 00 00 00 00 00 00 00 00 00 00 00
       0.0 0.0 0.0 0.0

model.layer_2.pb.pbValues.0.normalPassAverageD f4 [8]
000000 37 28 95 35 9a 72 b4 35 73 0c c9 b5 3e bc 03 b5
       1.1113069e-06 1.3444399e-06 -1.497929e-06 -4.907523e-07
000010 ec 78 5f 35 43 23 99 35 7d 77 86 34 f3 b4 4f b5
       8.324994e-07 1.1409651e-06 2.5046384e-07 -7.7376825e-07

model.layer_3.mainModule.weight f4 [10, 8]
000000 08 02 bf bf cc a6 17 3f 06 54 34 3f 4a 59 42 3f
       -1.4922495 0.59238887 0.7044071 0.75917494
000010 d5 2f 2a bf a6 8e 0f bf d9 1b 1c bf 34 cd c4 bf
       -0.66479236 -0.5607704 -0.6097999 -1.5375123
000020 1e 33 e3 3e a1 a8 0f bf 14 0c fc be e5 d0 57 be
       0.44374937 -0.5611668 -0.49227965 -0.2107578
000030 f5 8f 3d 3e 13 26 24 be 44 f9 55 be 14 82 08 3d
       0.18511946 -0.16030149 -0.20895869 0.033327177
000040 9d 0f 4f 3e b2 28 89 bf 45 da 23 3d cc 9a de bd
       0.202208 -1.0715544 0.04000308 -0.10869369
000050 95 9c 51 3f 14 c6 6c bf 3e cb 74 bf 12 56 dc be
       0.8187955 -0.92489743 -0.9562262 -0.43034416
000060 b3 e4 39 be 3b ce c4 bf af 4d b4 3e 17 8d 29 3f
       -0.18153648 -1.5375437 0.35215518 0.6623091
000070 ab 30 9b bd 3e ef c8 3e 1d 19 c0 3e aa 97 9e bf
       -0.07577642 0.39245027 0.3751916 -1.2390034
000080 5d 62 1b 3e 7e 2a 56 3f fb 79 c7 bf f7 b4 92 3e
       0.15174241 0.8365859 -1.55841 0.2865369
000090 c1 00 70 be b0 88 d4 be 61 e8 4f bd 4c 7c 18 3d
       -0.23437788 -0.41510534 -0.050758723 0.037227914
0000a0 e5 e4 91 be 0b a9 a8 3d 5c 5d 6a 3e 06 e1 19 3f
       -0.28494945 0.082353674 0.22887176 0.60108984
0000b0 cf 82 62 be 47 3c 76 be 47 16 24 3e e7 16 97 bf
       -0.22120212 -0.24046431 0.16024123 -1.1803864
0000c0 59 f9 f7 3d 84 47 3c 3f 7a 24 66 be f7 88 f4 bd
       0.12108106 0.73546624 -0.22474852 -0.119401865
0000d0 e8 75 39 3e 42 33 a3 bf 22 97 c7 bf 1c f1 d7 3e
       0.18111384 -1.2750018 -1.5592997 0.4217614
0000e0 de 0b 96 bf e5 f5 51 3e 81 d7 8e bf 10 bf 91 bf
       -1.1722372 0.20503958 -1.1159517 -1.1386433
0000f0 45 88 01 3f f6 86 f3 3e 67 73 36 3f 91 d5 73 3f
       0.50598556 0.47563905 0.7126984 0.9524775
000100 39 dd e8 3e 59 11 c6 be 45 72 ac be d0 f5 02 3f
       0.4548128 -0.3868511 -0.3368093 0.5115633
000110 24 6f 93 bd e1 9e b6 3e 0d ee 08 3d ac 20 c8 bf
       -0.07198933 0.3566809 0.033430148 -1.5634971
000120 d2 ab b3 3e fd 9a 50 3e e2 d9 df bf a1 17 be 3d
       0.35092026 0.20371623 -1.7488368 0.092818506
000130 e2 b8 c4 bf db 09 c6 3e e9 e8 a0 3e 6a c1 55 3e
       -1.5368922 0.38679394 0.31427696 0.20874563

model.layer_3.mainModule.bias f4 [10]
000000 4a 6c b1 3f d5 84 9a 3f c5 80 80 40 15 13 a5 3e
       1.3861172 1.2071787 4.015719 0.3224112
000010 ed d0 9a be 59 bc c4 3f 13 ea 90 bf 44 87 4d 3f
       -0.30237523 1.5369979 -1.1321434 0.80284524
000020 5c 86 8f c0 3e 48 6e 3e
       -4.4851513 0.23269746

model.layer_3.pb.parentModule.weight f4 [10, 8]
000000 cb 4e e0 bd 88 53 8a 3e be 9c 62 be 05 d7 58 3e
       -0.109525286 0.27016854 -0.22130105 0.21175773
000010 ff 35 15 3d 01 2b 1b bd e0 38 33 3e 13 b8 29 be
       0.036428448 -0.03788281 0.17502165 -0.16574125
000020 ab 3e 81 3e af 24 96 be 3e 6c 5d bd 50 11 72 be
       0.25243124 -0.29324862 -0.054058306 -0.23639417
000030 d0 f6 0d bc 9e b9 c1 bd fa 36 b3 be 24 96 a9 3e
       -0.008664802 -0.09459232 -0.3500288 0.3312236
000040 01 bd c4 bc de 3c 74 be ad c3 51 3d c6 c3 a3 3e
       -0.024015905 -0.23851344 0.051212 0.319853
000050 52 7a 90 3e 19 3a 4d be d5 64 49 3e ee 64 5f 3e
       0.28218323 -0.20041694 0.1966737 0.21815845
000060 3d 42 3d be 75 61 d1 bd cf 72 95 3c 71 25 18 3e
       -0.18482299 -0.102236666 0.018243222 0.14858033
000070 f2 51 09 be 49 ab 8a 3e d3 52 ef bc 2e c1 62 be
       -0.13410166 0.27083805 -0.029214298 -0.22144005
000080 7e 97 9d bd 85 1c 99 3e fa 1a e4 bd ff 7b 7d 3e
       -0.076949105 0.2990457 -0.11137958 0.24754332
000090 ff e2 2e 3e 7f 98 02 3d 91 06 9c 3e cb f8 37 be
       0.1707878 0.031883713 0.3047376 -0.17966
0000a0 a0 e6 be 3b cb ac 9d bd da 7f 1e 3e 9c 8b 9f 3e
       0.0058258325 -0.07698973 0.15478459 0.311612
0000b0 fa d3 24 be 63 69 8c be dc 0b 19 be a2 41 a5 be
       -0.16096488 -0.27424154 -0.1494593 -0.32276636
0000c0 1e e0 5b 3e b9 4b ac 3e bb 81 a1 3e 6f b4 b7 3d
       0.21472213 0.33651522 0.3154429 0.08969962
0000d0 b7 03 65 3e b0 93 4c be 7a cf 7f be c5 26 9f 3e
       0.22364698 -0.19978213 -0.2498149 0.31084266
0000e0 12 39 99 bd 0e db 8a 3e c5 3d d9 bd 15 13 63 3e
       -0.074815884 0.2712025 -0.10607485 0.22175248
0000f0 70 d5 b9 bc c7 9e 6e 3e 05 6d 6d 3e 4d 64 9d 3e
       -0.022684783 0.23302756 0.23186119 0.30740586
000100 e9 85 61 3e 30 af ac be 2c 2d 62 be 2f 6c 1c 3e
       0.22023739 -0.33727407 -0.22087544 0.15275644
000110 40 77 3d be eb 85 40 3e 51 62 a3 bd 98 68 68 be
       -0.18502522 0.18801086 -0.07977737 -0.2269615
000120 ce 9d 33 3e 56 48 97 3e 2d 18 54 be 83 26 aa 3e
       0.17540666 0.29547375 -0.20712347 0.33232507
000130 55 1d 96 be 93 b3 80 bd 5b da 28 be 7b c6 87 be
       -0.29319254 -0.06284251 -0.16489546 -0.26518616

model.layer_3.pb.parentModule.bias f4 [10]
000000 38 8c 78 be a6 1d 9e 3e 31 12 5e bd d0 2a ee bd
       -0.24272239 0.30881995 -0.054216567 -0.116292596
000010 ea 53 0f 3e 8f 64 10 3e 25 18 b0 3e bf 67 8f bc
       0.13996854 0.1410086 0.3439342 -0.017505525
000020 ca c5 d7 3d c0 2e 32 3e
       0.10535772 0.17400646

model.layer_3.pb.pbValues.0.topPBCandidateAverage f4 [10]
000000 00 00 00 00 00 00 00 00 00 00 00 00 00 00 00 00
       0.0 0.0 0.0 0.0
000010 00 00 00 00 00 00 00 00 00 00 00 00 00 00 00 00
       0.0 0.0 0.0 0.0
000020 00 00 00 00 00 00 00 00
       0.0 0.0

model.layer_3.pb.pbValues.0.PrevPBCandidateCorrelation f4 [10]
000000 00 00 00 00 00 00 00 00 00 00 00 00 00 00 00 00
       0.0 0.0 0.0 0.0
000010 00 00 00 00 00 00 00 00 00 00 00 00 00 00 00 00
       0.0 0.0 0.0 0.0
000020 00 00 00 00 00 00 00 00
       0.0 0.0

model.layer_3.pb.pbValues.0.currentCorrelationsForParallel f4 [10]
000000 00 00 00 00 00 00 00 00 00 00 00 00 00 00 00 00
       0.0 0.0 0.0 0.0
000010 00 00 00 00 00 00 00 00 00 00 00 00 00 00 00 00
       0.0 0.0 0.0 0.0
000020 00 00 00 00 00 00 00 00
       0.0 0.0

model.layer_3.pb.pbValues.0.bestScore f4 [10]
000000 00 00 00 00 00 00 00 00 00 00 00 00 00 00 00 00
       0.0 0.0 0.0 0.0
000010 00 00 00 00 00 00 00 00 00 00 00 00 00 00 00 00
       0.0 0.0 0.0 0.0
000020 00 00 00 00 00 00 00 00
       0.0 0.0

model.layer_3.pb.pbValues.0.previousBestScore f4 [10]
000000 00 00 00 00 00 00 00 00 00 00 00 00 00 00 00 00
       0.0 0.0 0.0 0.0
000010 00 00 00 00 00 00 00 00 00 00 00 00 00 00 00 00
       0.0 0.0 0.0 0.0
000020 00 00 00 00 00 00 00 00
       0.0 0.0

model.layer_3.pb.pbValues.0.PrevPBCandidateAverage f4 [10]
000000 00 00 00 00 00 00 00 00 00 00 00 00 00 00 00 00
       0.0 0.0 0.0 0.0
000010 00 00 00 00 00 00 00 00 00 00 00 00 00 00 00 00
       0.0 0.0 0.0 0.0
000020 00 00 00 00 00 00 00 00
       0.0 0.0

model.layer_3.pb.pbValues.0.mainGradAverageForScaling f4 [10]
000000 00 00 00 00 00 00 00 00 00 00 00 00 00 00 00 00
       0.0 0.0 0.0 0.0
000010 00 00 00 00 00 00 00 00 00 00 00 00 00 00 00 00
       0.0 0.0 0.0 0.0
000020 00 00 00 00 00 00 00 00
       0.0 0.0

model.layer_3.pb.pbValues.0.candidateGradAverageForScaling f4 [10]
000000 00 00 00 00 00 00 00 00 00 00 00 00 00 00 00 00
       0.0 0.0 0.0 0.0
000010 00 00 00 00 00 00 00 00 00 00 00 00 00 00 00 00
       0.0 0.0 0.0 0.0
000020 00 00 00 00 00 00 00 00
       0.0 0.0

model.layer_3.pb.pbValues.0.indexesOfbest f4 [10]
000000 00 00 00 00 00 00 00 00 00 00 00 00 00 00 00 00
       0.0 0.0 0.0 0.0
000010 00 00 00 00 00 00 00 00 00 00 00 00 00 00 00 00
       0.0 0.0 0.0 0.0
000020 00 00 00 00 00 00 00 00
       0.0 0.0

model.layer_3.pb.pbValues.0.nodesBestImprovedThisEpoch f4 [10]
000000 00 00 00 00 00 00 00 00 00 00 00 00 00 00 00 00
       0.0 0.0 0.0 0.0
000010 00 00 00 00 00 00 00 00 00 00 00 00 00 00 00 00
       0.0 0.0 0.0 0.0
000020 00 00 00 00 00 00 00 00
       0.0 0.0

model.layer_3.pb.pbValues.0.parentsAverageDvector f4 [10]
000000 00 00 00 00 00 00 00 00 00 00 00 00 00 00 00 00
       0.0 0.0 0.0 0.0
000010 00 00 00 00 00 00 00 00 00 00 00 00 00 00 00 00
       0.0 0.0 0.0 0.0
000020 00 00 00 00 00 00 00 00
       0.0 0.0

model.layer_3.pb.pbValues.0.normalPassAverageD f4 [10]
000000 48 94 6c b4 49 d3 62 35 b7 af ad b5 dc 26 82 b5
       -2.2033157e-07 8.449902e-07 -1.2940644e-06 -9.697064e-07
000010 e6 a3 95 34 5b cb a5 b4 d0 04 53 33 a7 ea 90 34
       2.7872665e-07 -3.0881606e-07 4.9131643e-08 2.6992822e-07
000020 4b 45 ee 35 a1 37 e4 b4
       1.7752549e-06 -4.2508785e-07

exp_avg f4 [4, 784]
000000 71 0b 28 b9 71 0b 28 b9 71 0b 28 b9 71 0b 28 b9
       -0.00016025991 -0.00016025991 -0.00016025991 -0.00016025991
000010 71 0b 28 b9 71 0b 28 b9 71 0b 28 b9 71 0b 28 b9
       -0.00016025991 -0.00016025991 -0.00016025991 -0.00016025991
000020 71 0b 28 b9 71 0b 28 b9 71 0b 28 b9 71 0b 28 b9
       -0.00016025991 -0.00016025991 -0.00016025991 -0.00016025991
000030 71 0b 28 b9 6e 0b 28 b9 6e 0b 28 b9 71 0b 28 b9
       -0.00016025991 -0.00016025986 -0.00016025986 -0.00016025991
000040 71 0b 28 b9 71 0b 28 b9 71 0b 28 b9 71 0b 28 b9
       -0.00016025991 -0.00016025991 -0.00016025991 -0.00016025991
000050 71 0b 28 b9 71 0b 28 b9 71 0b 28 b9 71 0b 28 b9
       -0.00016025991 -0.00016025991 -0.00016025991 -0.00016025991
000060 71 0b 28 b9 71 0b 28 b9 71 0b 28 b9 71 0b 28 b9
       -0.00016025991 -0.00016025991 -0.00016025991 -0.00016025991
000070 71 0b 28 b9 71 0b 28 b9 71 0b 28 b9 71 0b 28 b9
       -0.00016025991 -0.00016025991 -0.00016025991 -0.00016025991
000080 71 0b 28 b9 71 0b 28 b9 71 0b 28 b9 71 0b 28 b9
       -0.00016025991 -0.00016025991 -0.00016025991 -0.00016025991
000090 71 0b 28 b9 ff e8 28 b9 44 3c 29 b9 6e 5c 28 b9
       -0.00016025991 -0.00016108526 -0.00016139547 -0.00016056161
0000a0 89 0b 28 b9 11 11 28 b9 a7 1d 28 b9 32 0d 28 b9
       -0.00016026026 -0.00016028086 -0.00016032775 -0.00016026644
0000b0 2f 0b 28 b9 99 11 28 b9 49 0c 28 b9 76 0b 28 b9
       -0.00016025895 -0.00016028284 -0.00016026305 -0.00016025998
0000c0 6e 0b 28 b9 64 0b 28 b9 69 0b 28 b9 71 0b 28 b9
       -0.00016025986 -0.00016025972 -0.00016025979 -0.00016025991
0000d0 71 0b 28 b9 71 0b 28 b9 71 0b 28 b9 71 0b 28 b9
       -0.00016025991 -0.00016025991 -0.00016025991 -0.00016025991
0000e0 71 0b 28 b9 71 0b 28 b9 71 0b 28 b9 71 0b 28 b9
       -0.00016025991 -0.00016025991 -0.00016025991 -0.00016025991
0000f0 71 0b 28 b9 71 0b 28 b9 71 0b 28 b9 c8 fe 27 b9
       -0.00016025991 -0.00016025991 -0.00016025991 -0.00016021274
000100 f7 f8 27 b9 cf fa 28 b9 2f db 29 b9 e0 67 29 b9
       -0.00016019108 -0.00016115162 -0.00016198748 -0.00016155792
000110 9f 8f 27 b9 49 47 23 b9 77 76 0d b9 9c eb 11 b9
       -0.00015979864 -0.00015571447 -0.0001349094 -0.00013916049
000120 a7 e0 6f b9 7c 18 90 b9 9b 73 62 b9 50 b0 27 b9
       -0.00022876506 -0.00027484063 -0.00021596106 -0.00015992043
000130 79 fd 2b b9 77 a4 2f b9 d7 00 2c b9 6e 0b 28 b9
       -0.00016402257 -0.00016750568 -0.00016403511 -0.00016025986
000140 71 0b 28 b9 71 0b 28 b9 71 0b 28 b9 71 0b 28 b9
       -0.00016025991 -0.00016025991 -0.00016025991 -0.00016025991
000150 71 0b 28 b9 71 0b 28 b9 71 0b 28 b9 71 0b 28 b9
       -0.00016025991 -0.00016025991 -0.00016025991 -0.00016025991
000160 6e 0b 28 b9 71 0b 28 b9 01 08 28 b9 32 e9 27 b9
       -0.00016025986 -0.00016025991 -0.0001602471 -0.00016013233
000170 e2 0e 28 b9 fa 04 29 b9 e8 d3 28 b9 fd 38 26 b9
       -0.00016027273 -0.0001611895 -0.0001610067 -0.00015852223
000180 13 18 19 b9 13 ba 0c b9 57 3a 1a b9 f9 f7 5e b9
       -0.00014600185 -0.00013420758 -0.00014708318 -0.00021263947
000190 10 6d 34 ba 20 2f 08 ba 00 8a 8b b9 26 0d 9d b8
       -0.00068827067 -0.00051950105 -0.00026614964 -7.4887925e-05
0001a0 c2 03 f2 b8 21 f0 66 b9 49 6d 9c b9 69 0b 83 b9
       -0.00011540159 -0.00022023964 -0.00029836062 -0.00024994768
0001b0 90 39 34 b9 37 a1 2b b9 71 0b 28 b9 71 0b 28 b9
       -0.00017187581 -0.00016367888 -0.00016025991 -0.00016025991
0001c0 71 0b 28 b9 71 0b 28 b9 71 0b 28 b9 71 0b 28 b9
       -0.00016025991 -0.00016025991 -0.00016025991 -0.00016025991
0001d0 29 0b 28 b9 92 00 18 b9 3e 99 18 b9 03 e3 1b b9
       -0.00016025886 -0.00014496062 -0.00014552937 -0.0001486652
0001e0 ab 51 1d b9 04 eb 28 b9 16 cc 01 b9 07 f8 64 39
       -0.0001500311 -0.00016109279 -0.00012378427 0.00021836172
0001f0 28 3a 81 3a 60 21 2c 3a 33 2b 2a 3a d4 ba 9c 3a
       0.0009859251 0.00065662526 0.00064914225 0.0011957535
000200 ce 2f 83 3a 21 c8 c9 3a a9 b8 b2 3a 55 a7 00 3a
       0.0010008754 0.0015394726 0.0013635355 0.0004907747
000210 29 47 a8 b9 99 38 b0 b9 42 1e a0 b9 c7 31 a2 b9
       -0.00032096475 -0.00033611504 -0.00030540122 -0.00030936135
000220 0d 3d 5b b9 91 7d 48 b9 65 0a 28 b9 71 0b 28 b9
       -0.0002090821 -0.00019120263 -0.00016025601 -0.00016025991
000230 71 0b 28 b9 71 0b 28 b9 71 0b 28 b9 6c 0b 28 b9
       -0.00016025991 -0.00016025991 -0.00016025991 -0.00016025983
000240 3a 5e 22 b9 ae a8 c4 b8 5d 55 d5 b8 a4 5a 6a b9
       -0.00015484626 -9.377427e-05 -0.000101725316 -0.00022349745
000250 0b c0 c8 b9 c5 bc ce b9 79 25 ad b9 1c 05 5c 3a
       -0.00038290056 -0.00039432026 -0.0003302505 0.00083930953
000260 be 0b d7 3a 0b c4 00 3b 50 ff c9 3a be d2 3a 3a
       0.0016406698 0.00196481 0.0015411172 0.000712674
000270 25 51 82 ba 7f 05 2b ba 15 df 27 39 38 c5 4a ba
       -0.0009942396 -0.00065239513 0.00016009466 -0.00077350764
000280 b6 b0 f1 ba e2 13 b4 b9 7a 8e 73 b9 16 37 0c b9
       -0.0018439505 -0.0003434709 -0.00023227363 -0.00013371962
000290 fd 1c 4e b9 24 32 8b b9 46 11 28 b9 71 0b 28 b9
       -0.0001965649 -0.00026549504 -0.00016028163 -0.00016025991
0002a0 71 0b 28 b9 c9 bf 24 b9 82 19 1f b9 57 b8 25 b9
       -0.00016025991 -0.00015711704 -0.00015172924 -0.00015804298
0002b0 5d 01 29 b9 01 6e 0f b9 96 30 89 b9 0c e3 db b9
       -0.00016117604 -0.00013678522 -0.00026166876 -0.00041940098
0002c0 7a 36 18 ba 57 43 3e ba de dc 97 ba 75 63 9f ba
       -0.00058064575 -0.0007257959 -0.0011586209 -0.0012160378
0002d0 5e 1b 99 3a e4 89 02 3b 47 4c c6 3a 2f 49 d4 3a
       0.001168113 0.0019918615 0.0015128934 0.0016196127
0002e0 c4 fd f6 b8 0f 58 a8 ba 38 98 c2 ba 3b 00 92 ba
       -0.000117774616 -0.0012843626 -0.001484639 -0.0011138985
0002f0 b7 dd 20 bb d8 94 fb ba b8 6e eb b9 33 c1 99 b9
       -0.0024546215 -0.0019194139 -0.00044905185 -0.0002932638
000300 1e 64 03 ba bd 0b c5 b9 85 c4 32 b9 54 ec 27 b9
       -0.0005012172 -0.00037583514 -0.00017048612 -0.000160144
000310 71 0b 28 b9 7c 80 c8 b8 82 19 1f b9 64 3b 1f b9
       -0.00016025991 -9.560675e-05 -0.00015172924 -0.00015185546
000320 83 20 3f b9 b8 a7 8f b9 4d ce a0 b9 d3 7b e5 b9
       -0.00018227291 -0.00027400046 -0.00030671284 -0.0004377054
000330 75 82 08 ba dc 2c b6 ba 4d 52 5d ba 4a 2d ac ba
       -0.0005207428 -0.0013898867 -0.0008442745 -0.0013136056
000340 31 6a 06 3a 47 cc da 39 93 4d b8 ba 27 da 1a 37
       0.0005127518 0.000417324 -0.0014061205 9.229908e-06
000350 e1 88 07 ba 2b 4b 0d 37 c2 ab b1 b9 0e 57 9a ba
       -0.0005170238 8.421756e-06 -0.0003388804 -0.0011775212
000360 ab 8a 5b bb e5 17 28 bb a8 ee 16 ba 6b f6 a0 b9
       -0.00334994 -0.0025649008 -0.00057576085 -0.00030701174
000370 70 8f 11 ba 0c 51 23 b9 41 79 32 b9 99 01 28 b9
       -0.0005552685 -0.00015575084 -0.00017020573 -0.00016022324
000380 71 0b 28 b9 8e fe 25 38 71 0b 28 b9 1f b4 1f b9
       -0.00016025991 3.9576138e-05 -0.00016025991 -0.00015230522
000390 a6 1a 73 b9 9b 26 bd b9 3c 73 b7 b9 e1 4a 84 ba
       -0.00023184213 -0.00036077652 -0.00034990336 -0.0010093116
0003a0 d0 57 c5 ba 9a de b3 ba ed 9d c7 38 74 02 6a 3a
       -0.0015056077 -0.0013722957 9.5184754e-05 0.0008926757
0003b0 e4 52 fb 38 82 e9 e6 ba 0a 1b 3e bb 3a 59 05 3a
       0.00011984052 -0.0017617198 -0.0029007816 0.0005086843
0003c0 04 05 61 3b 34 c5 70 3b c5 64 06 3b 2b 49 60 39
       0.0034335265 0.0036738636 0.002050684 0.00021389562
0003d0 56 94 67 bb 5e ce 30 bb c5 4b eb b9 4e 76 e6 b9
       -0.0035336218 -0.0026978473 -0.00044879146 -0.00043957162
0003e0 8a c6 f4 b9 6a b0 4a 39 69 fe 32 b9 71 0b 28 b9
       -0.0004668723 0.0001932994 -0.00017070178 -0.00016025991
0003f0 71 0b 28 b9 53 34 17 b9 23 0b 28 b9 76 40 1d b9
       -0.00016025991 -0.00014419974 -0.00016025877 -0.000149967

exp_avg_sq f4 [4, 784]
000000 1c 15 06 37 1c 15 06 37 1c 15 06 37 1c 15 06 37
       7.991937e-06 7.991937e-06 7.991937e-06 7.991937e-06
000010 1c 15 06 37 1c 15 06 37 1c 15 06 37 1c 15 06 37
       7.991937e-06 7.991937e-06 7.991937e-06 7.991937e-06
000020 1c 15 06 37 1c 15 06 37 1c 15 06 37 1c 15 06 37
       7.991937e-06 7.991937e-06 7.991937e-06 7.991937e-06
000030 1c 15 06 37 1c 15 06 37 1c 15 06 37 1c 15 06 37
       7.991937e-06 7.991937e-06 7.991937e-06 7.991937e-06
000040 1c 15 06 37 1c 15 06 37 1c 15 06 37 1c 15 06 37
       7.991937e-06 7.991937e-06 7.991937e-06 7.991937e-06
000050 1c 15 06 37 1c 15 06 37 1c 15 06 37 1c 15 06 37
       7.991937e-06 7.991937e-06 7.991937e-06 7.991937e-06
000060 1c 15 06 37 1c 15 06 37 1c 15 06 37 1c 15 06 37
       7.991937e-06 7.991937e-06 7.991937e-06 7.991937e-06
000070 1c 15 06 37 1c 15 06 37 1c 15 06 37 1c 15 06 37
       7.991937e-06 7.991937e-06 7.991937e-06 7.991937e-06
000080 1c 15 06 37 1c 15 06 37 1c 15 06 37 1c 15 06 37
       7.991937e-06 7.991937e-06 7.991937e-06 7.991937e-06
000090 21 15 06 37 93 14 06 37 66 67 06 37 39 f6 06 37
       7.991942e-06 7.991813e-06 8.011097e-06 8.044351e-06
0000a0 71 16 06 37 4b 14 06 37 4f 15 06 37 e1 17 06 37
       7.992247e-06 7.991747e-06 7.991984e-06 7.992582e-06
0000b0 71 0c 06 37 4a 10 06 37 c7 15 06 37 ff 14 06 37
       7.989919e-06 7.990815e-06 7.992093e-06 7.991911e-06
0000c0 43 15 06 37 20 15 06 37 1c 15 06 37 1c 15 06 37
       7.991973e-06 7.991941e-06 7.991937e-06 7.991937e-06
0000d0 1c 15 06 37 1c 15 06 37 1c 15 06 37 1c 15 06 37
       7.991937e-06 7.991937e-06 7.991937e-06 7.991937e-06
0000e0 1c 15 06 37 1c 15 06 37 1c 15 06 37 21 15 06 37
       7.991937e-06 7.991937e-06 7.991937e-06 7.991942e-06
0000f0 10 15 06 37 05 15 06 37 2c 15 06 37 7b 0f 06 37
       7.991926e-06 7.991916e-06 7.991952e-06 7.990627e-06
000100 29 06 06 37 a4 2b 06 37 ed 30 08 37 b4 8d 06 37
       7.988457e-06 7.997183e-06 8.117623e-06 8.020015e-06
000110 11 36 09 37 48 2a 0f 37 ab 04 0c 37 6c 63 0a 37
       8.178425e-06 8.533309e-06 8.345737e-06 8.248589e-06
000120 c8 e3 07 37 85 3e 0a 37 7c 85 0d 37 c5 57 10 37
       8.0996615e-06 8.239997e-06 8.435334e-06 8.603504e-06
000130 d6 df 07 37 dd 5c 06 37 e4 08 06 37 b3 13 06 37
       8.098743e-06 8.008644e-06 7.989092e-06 7.991609e-06
000140 bf 15 06 37 90 16 06 37 1c 15 06 37 1c 15 06 37
       7.992086e-06 7.992276e-06 7.991937e-06 7.991937e-06
000150 1c 15 06 37 1c 15 06 37 de 14 06 37 21 15 06 37
       7.991937e-06 7.991937e-06 7.991881e-06 7.991942e-06
000160 19 15 06 37 e1 d1 06 37 9d 4f 06 37 3b 6c 06 37
       7.991935e-06 8.035889e-06 8.005559e-06 8.012222e-06
000170 51 8c 19 37 3e 57 28 37 fe 0a 2d 37 93 ef 1e 37
       9.152181e-06 1.0033893e-05 1.0314163e-05 9.473314e-06
000180 9a bc 37 37 e3 60 82 37 8f c7 93 37 7f 4b 9d 37
       1.0951562e-05 1.5542324e-05 1.7616692e-05 1.8751014e-05
000190 77 54 99 37 e8 da 65 37 46 67 4c 37 92 ac 50 37
       1.8278353e-05 1.3700432e-05 1.2183393e-05 1.2437946e-05
0001a0 30 c8 37 37 da 24 2b 37 cb 5a 0d 37 e9 3f 09 37
       1.095426e-05 1.0200974e-05 8.425394e-06 8.180717e-06
0001b0 46 c6 06 37 03 17 06 37 1c 15 06 37 1c 15 06 37
       8.0331865e-06 7.99238e-06 7.991937e-06 7.991937e-06
0001c0 1c 15 06 37 80 11 06 37 6e 13 06 37 94 14 06 37
       7.991937e-06 7.991097e-06 7.991546e-06 7.991814e-06
0001d0 45 fe 05 37 6e f1 0a 37 e6 bd 12 37 6d fb 23 37
       7.9866195e-06 8.281653e-06 8.746492e-06 9.774097e-06
0001e0 bd 70 43 37 41 e1 86 37 30 73 86 37 8b d0 b4 37
       1.1649155e-05 1.6078937e-05 1.6027683e-05 2.1554783e-05
0001f0 dc 82 06 38 b7 74 31 38 12 91 41 38 b1 e1 4b 38
       3.2069962e-05 4.2308788e-05 4.6149893e-05 4.8609163e-05
000200 f8 cf 3b 38 ea e7 21 38 2d 3a fd 37 d4 99 cb 37
       4.477796e-05 3.8601378e-05 3.018704e-05 2.4271118e-05
000210 73 ca 9c 37 ea f4 68 37 7c 88 39 37 74 9e 1a 37
       1.8690922e-05 1.3885301e-05 1.1058637e-05 9.216008e-06
000220 b1 ad 10 37 fe cf 07 37 f2 61 06 37 1a 15 06 37
       8.6235095e-06 8.095054e-06 8.009827e-06 7.9919355e-06
000230 1c 15 06 37 1c 15 06 37 cf 2d 06 37 b2 a5 06 37
       7.991937e-06 7.991937e-06 7.997688e-06 8.025601e-06
000240 f1 71 0d 37 22 36 29 37 cb c0 45 37 ef 9c 73 37
       8.430784e-06 1.0085789e-05 1.1787003e-05 1.4520468e-05
000250 ae 1b 9b 37 be 48 d7 37 53 35 04 38 09 7d 42 38
       1.849033e-05 2.566387e-05 3.1520914e-05 4.6369652e-05
000260 fb cc 8d 38 a7 43 b4 38 09 fe c8 38 49 6c bf 38
       6.7615845e-05 8.59567e-05 9.584061e-05 9.1277594e-05
000270 aa ec b6 38 6a e3 a0 38 9f 47 75 38 c8 4a 30 38
       8.7225184e-05 7.671754e-05 5.8479254e-05 4.2031315e-05
000280 a6 54 e9 37 15 f5 a7 37 5b 37 87 37 3a 28 5a 37
       2.7815182e-05 2.0022077e-05 1.6119031e-05 1.30031785e-05
000290 c3 e2 2f 37 f0 bc 14 37 d7 4d 06 37 59 15 06 37
       1.048361e-05 8.865478e-06 8.005146e-06 7.991993e-06
0002a0 1c 15 06 37 b6 11 06 37 df 11 06 37 5a e0 07 37
       7.991937e-06 7.991146e-06 7.991183e-06 8.098863e-06
0002b0 fe 42 20 37 fb d0 3b 37 fc 39 76 37 db 06 b0 37
       9.552341e-06 1.1194726e-05 1.4676243e-05 2.0984027e-05
0002c0 02 d2 00 38 f2 f8 32 38 5d 2f 7e 38 0a 8e a9 38
       3.0713163e-05 4.2670355e-05 6.060243e-05 8.085005e-05
0002d0 80 70 d7 38 02 b4 f9 38 e4 cb 05 39 32 f5 09 39
       0.00010272954 0.00011906774 0.00012759824 0.0001315668
0002e0 10 e7 04 39 4a 00 e6 38 25 9b b3 38 01 ec 7b 38
       0.00012674578 0.000109673085 8.564283e-05 6.006286e-05
0002f0 70 d3 3c 38 24 4f 04 38 5d 09 b9 37 a2 7f 84 37
       4.501961e-05 3.1544958e-05 2.2058079e-05 1.579506e-05
000300 29 ee 3f 37 b1 33 1b 37 0b d9 08 37 f8 0d 06 37
       1.1439938e-05 9.250755e-06 8.156766e-06 7.990275e-06
000310 1c 15 06 37 1b da 05 37 f5 0e 06 37 a9 fd 0d 37
       7.991937e-06 7.978199e-06 7.990505e-06 8.463315e-06
000320 b0 25 2c 37 ea 71 45 37 6f 65 95 37 94 75 f4 37
       1.0260774e-05 1.1768638e-05 1.7809418e-05 2.9141818e-05
000330 f9 92 36 38 97 69 7e 38 b8 d2 b0 38 ab c7 ea 38
       4.352906e-05 6.0656657e-05 8.4315834e-05 0.000111951806
000340 87 44 08 39 70 d3 09 39 c0 47 0d 39 92 88 16 39
       0.00012995499 0.00013144105 0.00013473537 0.00014355991
000350 a8 25 15 39 74 cb 0e 39 9f 75 e1 38 d2 67 ab 38
       0.00014223775 0.00013617967 0.00010750745 8.1732534e-05
000360 ee f3 72 38 3c b1 32 38 a0 bb dc 37 49 1f 94 37
       5.7924473e-05 4.260357e-05 2.6313413e-05 1.7657543e-05
000370 ab 96 39 37 d1 df 14 37 89 ff 08 37 c9 11 06 37
       1.1061939e-05 8.873599e-06 8.165728e-06 7.991163e-06
000380 1c 15 06 37 6d 7f 05 37 cd 15 06 37 05 bb 0d 37
       7.991937e-06 7.957086e-06 7.992098e-06 8.447799e-06
000390 47 75 2d 37 c9 c5 70 37 37 95 ae 37 01 09 18 38
       1.0338909e-05 1.4351165e-05 2.08119e-05 3.624801e-05
0003a0 22 7e 59 38 47 e5 96 38 5e c8 c1 38 bb 15 ed 38
       5.1854302e-05 7.1952636e-05 9.2402785e-05 0.00011305088
0003b0 02 a6 05 39 7e 9a 06 39 83 76 f8 38 2a d8 eb 38
       0.00012745711 0.00012836789 0.00011847636 0.00011245937
0003c0 10 a9 05 39 7b f5 09 39 22 a1 f5 38 13 73 c1 38
       0.00012746849 0.00013156787 0.00011712524 9.2243914e-05
0003d0 2d ba 85 38 5e 30 47 38 81 88 e9 37 12 33 8e 37
       6.376612e-05 4.7490343e-05 2.7839329e-05 1.69515e-05
0003e0 d4 3b 41 37 90 91 1a 37 42 7e 0a 37 fc f1 05 37
       1.1517626e-05 9.213007e-06 8.254838e-06 7.983759e-06
0003f0 1c 15 06 37 f1 e8 05 37 f7 1d 06 37 7f 7c 0f 37
       7.991937e-06 7.981654e-06 7.993999e-06 8.552451e-06

exp_avg f4 [4]
000000 08 11 c6 39 db 5c 1c ba 91 89 57 ba c3 c6 e5 39
       0.00037778192 -0.0005964764 -0.0008222098 0.00043826373

exp_avg_sq f4 [4]
000000 29 45 3a 38 29 59 f1 37 9b 44 50 38 88 72 fe 37
       4.4410266e-05 2.8770957e-05 4.965496e-05 3.0332492e-05

exp_avg f4 [8, 4]
000000 3e 3a 0e bc 89 ba 92 ba 8c 85 8c bc 9c 58 db b9
       -0.008680878 -0.0011194508 -0.017153524 -0.00041836954
000010 0b b4 97 bb d5 b1 db 3a 14 46 ac 3a 07 28 bb 37
       -0.004629617 0.0016761372 0.0013143444 2.2310776e-05
000020 49 7a 29 3b b1 12 4d b6 5b ad 50 3b 79 17 80 bb
       0.002586024 -3.055826e-06 0.003184161 -0.003909048
000030 dc 48 b7 bb 0b fe d4 3a 34 51 51 bc 0e 99 81 bc
       -0.0055934023 0.0016250027 -0.012775708 -0.015820052
000040 26 37 bb 3c 18 00 94 3c d4 00 27 3d 8d c6 10 3d
       0.022853445 0.018066451 0.040772274 0.035345603
000050 18 a8 2b 3b 67 71 6c 3b 53 e5 0d bb 9b 51 7d bc
       0.002619272 0.0036078335 -0.002165158 -0.015461351
000060 8e ae d1 3b bb 3c 2c bb e0 85 bc 3a 18 e8 16 bc
       0.0063989824 -0.0026281315 0.001438316 -0.009210609
000070 6d 24 2d bb 0d 23 45 bc a0 14 d0 ba 10 7a 77 bb
       -0.0026419417 -0.012032283 -0.0015875287 -0.0037761964

exp_avg_sq f4 [8, 4]
000000 ff 27 1f 3b f5 83 2f 3c b7 17 01 3c 44 3a f7 3b
       0.0024285314 0.010712613 0.007879189 0.0075447876
000010 9d a1 c1 3b f5 9f 5b 3c 85 5c 9d 3b c4 22 89 3c
       0.0059091584 0.013404836 0.004802289 0.01674021
000020 fc 7a 3f 3b be 78 00 3c d9 75 83 3b a4 b6 cc 3b
       0.0029217592 0.007841287 0.0040118513 0.0062473584
000030 75 7e f5 3a 7f 4f 85 3b b0 f9 a8 3b e0 f2 a3 3b
       0.0018729704 0.0040683146 0.005156718 0.005003318
000040 eb b6 9d 3b 58 cc f6 3b 27 b4 1e 3c f5 2a fc 3b
       0.0048130653 0.007531684 0.009686506 0.0076955506
000050 3b f2 ae 3b a5 2a 08 3c 9b 17 53 3b be b0 47 3c
       0.0053389347 0.0083109485 0.0032210115 0.012188135
000060 55 8d 5f 3b 00 5c 90 3b f5 dc c9 3a 73 32 95 3b
       0.003411134 0.0044054985 0.0015400933 0.004553133
000070 cc 06 d7 3b 7a aa c4 3b a9 9d d2 3b 48 1b 22 3c
       0.0065620895 0.0060017677 0.006427486 0.0098942

exp_avg f4 [8]
000000 29 d7 73 b9 b0 b8 8e 38 c1 b1 6f b9 f9 dc c3 b9
       -0.0002325444 6.8054884e-05 -0.00022859035 -0.00037357936
000010 45 c7 bb 3a ca bb 50 b9 28 e1 16 b9 77 07 14 b9
       0.0014326355 -0.00019906383 -0.00014388992 -0.00014117161

exp_avg_sq f4 [8]
000000 03 43 1d 37 c0 c6 37 37 37 e4 c1 36 9e 15 cb 36
       9.373532e-06 1.0953925e-05 5.778416e-06 6.052388e-06
000010 fa bb 2a 37 93 8d 08 37 c6 39 a3 36 be 28 0b 37
       1.0176556e-05 8.1391945e-06 4.8645043e-06 8.294532e-06

exp_avg f4 [10, 8]
000000 8c 9a 84 3b ca b6 ac 3b ab 56 0e 3c 9b e6 c7 3b
       0.0040467437 0.0052708136 0.008687655 0.0061004884
000010 10 80 6f 3b 2e 9a 44 3b 41 22 a2 3a ab e1 34 34
       0.0036544837 0.0029999125 0.0012369828 1.6845904e-07
000020 56 be f2 3b 39 c1 46 3b 44 af 1c 3b 62 4b 50 3b
       0.0074079437 0.0030327572 0.0023908177 0.0031783213
000030 9e 14 ad 3b 5d bc af 3a 60 c7 88 3a cd 69 cc 3a
       0.005281999 0.0013407577 0.0010435395 0.0015595496
000040 4d 1c 29 3c 3b 3f 31 bb db 79 77 3c a6 d8 d1 3b
       0.010321689 -0.0027045745 0.015104736 0.0064040003
000050 7c 08 3d 3c 49 fa 8f 3b dc ac 27 3a eb be 34 39
       0.011537667 0.00439385 0.00063963025 0.0001723726
000060 d5 a4 75 bc 69 e4 5b bb a1 01 c8 bc 64 7c 56 bc
       -0.014992912 -0.003355289 -0.02441484 -0.0130911805
000070 e7 13 74 bc 32 7b 1e bc c4 57 97 bb 4e 2f 07 3b
       -0.014897323 -0.009672927 -0.004618617 0.002062756
000080 eb c0 33 3c 4c f7 ce 3b 6f 59 38 ba ef 87 58 3b
       0.010971288 0.006316101 -0.00070323696 0.0033040007
000090 d5 05 b5 3b d6 20 dd 3b 3c 6a 05 3c df 13 ca 3b
       0.005524377 0.006748299 0.008143004 0.0061669196
0000a0 59 42 07 bc 14 29 04 bc a1 8f 85 bc b6 e4 35 bc
       -0.008255565 -0.008066434 -0.01630384 -0.011101892
0000b0 26 f2 ec bb a2 a6 ee bb a7 1e 8f bb 71 ed 00 39
       -0.007231015 -0.007283048 -0.0043676677 0.00012295485
0000c0 36 d2 2f bc f3 b3 e1 bb 0c 48 8b bb 62 8b b4 bb
       -0.010731271 -0.0068879067 -0.004250532 -0.00550978
0000d0 b1 28 01 bc a2 b0 e0 ba 96 22 99 ba c9 39 e2 ba
       -0.007883237 -0.0017142484 -0.0011683281 -0.0017259653
0000e0 53 e5 89 3c 17 2d d7 3b e8 75 f0 ba 91 4f c8 3a
       0.016832983 0.0065666544 -0.0018345686 0.0015282502
0000f0 2c 91 a7 3b 63 7b 4b 3c 67 c9 80 3c e6 ae 5f 3c
       0.0051137414 0.012419554 0.015721036 0.013652539
000100 bf 8b 9b 3c 87 1d a3 3c 7b 7d b2 3c 1d 6c 97 3c
       0.018987535 0.01991154 0.02178835 0.01848417
000110 d8 e7 43 3c 84 1c 8c 3c d2 86 6d 3c 8f 70 13 ba
       0.011957131 0.017103441 0.014497476 -0.00056243775
000120 88 ac 0d bd 64 86 a4 bc 51 8a f3 b9 af 4f 18 bc
       -0.034588367 -0.020083614 -0.00046451626 -0.009296342
000130 56 f0 55 bc a7 bd d7 bc 14 fe fe bc 78 b5 af bc
       -0.013057789 -0.02633555 -0.031127013 -0.021448836

exp_avg_sq f4 [10, 8]
000000 6b 7c 3a 3a df fd 2b 3b 2e ff 85 3b 92 af 05 3b
       0.00071138766 0.0026243848 0.0040892577 0.0020398838
000010 80 9f 17 3a 58 93 3c 3a 49 8d b6 39 59 0a b9 30
       0.000578396 0.0007193587 0.0003481901 1.3463463e-09
000020 ab 2b 13 3c 58 33 53 3a 21 2b 88 3a cb 4c b9 3a
       0.008982579 0.0008056662 0.001038883 0.0014137266
000030 29 71 86 3b 32 af a9 3a c8 c9 96 3a 37 13 4c 3a
       0.004102845 0.0012945889 0.0011504227 0.00077848457
000040 c3 e5 e7 3b 15 e9 f0 39 cd 17 bf 3b 0d a7 24 3b
       0.0070769503 0.00045950027 0.0058316947 0.0025123984
000050 98 60 b6 3b 23 cb a8 39 4e 9d 33 38 9c 0d 20 39
       0.005565714 0.00032194806 4.2823427e-05 0.00015263859
000060 da ac 17 3c a5 17 b9 3a 08 ff 62 3c fd 64 c3 3b
       0.00925752 0.0014121427 0.0138547495 0.0059629665
000070 28 5d d5 3b f8 e3 8e 3b 64 23 31 3b eb be 2a 39
       0.006511349 0.004360672 0.002702915 0.00016283586
000080 8b 49 21 3c 66 1c 3f 3c c2 23 1f 3a 2d f2 21 3b
       0.009844194 0.011664486 0.0006070697 0.0024710998
000090 b6 2f 07 3b 1e f4 a5 3b 5d 47 d2 3b 44 41 d1 3a
       0.0020627803 0.0050645014 0.0064171986 0.0015964885
0000a0 cc 21 6a 3c 6f 26 4e 3c 5e 13 a5 3c d8 0b 4a 3c
       0.014290284 0.0125824055 0.020150837 0.012331925
0000b0 4c 94 04 3c 7d 88 e4 3b 1b 0b 95 3b 34 9f e2 36
       0.008091997 0.0069742785 0.004548443 6.7538585e-06
0000c0 b2 02 ba 3b 8c df 4c 3b 8b 74 02 3b 3c 60 fe 3a
       0.005676591 0.0031261174 0.001990589 0.0019407342
0000d0 9e 70 5a 3b 4f 77 ce 38 55 cf 56 38 2c dd 64 39
       0.0033331285 9.8450684e-05 5.121467e-05 0.00021826167
0000e0 51 03 04 3b 84 d3 76 3b ee a2 d4 38 6a ec bf 39
       0.0020143578 0.0037662694 0.00010139296 0.000366065
0000f0 c0 24 84 39 c3 88 98 3b 64 33 cd 3b a6 91 a0 3a
       0.00025204383 0.004654975 0.0062622298 0.0012250438
000100 03 dc cf 3c 85 24 2b 3c 0e 30 60 3c 18 95 32 3c
       0.025373464 0.010445719 0.013683332 0.0108998045
000110 45 19 44 3c 31 d6 02 3c c8 6f bf 3b 1c c0 37 3a
       0.011968915 0.0079856375 0.005842183 0.00070095225
000120 2c 3d 0e 3c 97 0f 56 3c 1d 27 dc 39 b2 8f 07 3b
       0.008681577 0.01306524 0.00041990812 0.0020685014
000130 3a 37 8e 3a 99 c3 1d 3c 68 0d 4f 3c f2 13 27 3b
       0.0010850199 0.009629154 0.012637474 0.0025494066

exp_avg f4 [10]
000000 89 16 b1 38 c9 40 a4 38 96 ee 44 39 fa 97 b9 b9
       8.444215e-05 7.8321966e-05 0.00018780897 -0.0003539918
000010 9e 9e 9a 39 b7 7b 7d b9 af 8c 25 b9 a6 58 8d 39
       0.00029491348 -0.00024174048 -0.00015788035 0.00026959664
000020 b1 7f ff 39 e1 13 2a ba
       0.00048732528 -0.00064879475

exp_avg_sq f4 [10]
000000 a4 26 bb 35 01 09 fa 35 9d 84 18 36 55 03 8b 36
       1.3943832e-06 1.8629072e-06 2.2726956e-06 4.1429107e-06
000010 83 69 53 36 ac d1 c2 36 82 ca cb 35 f9 c0 19 36
       3.1502866e-06 5.8060596e-06 1.5183616e-06 2.2911101e-06
000020 19 1a bd 36 a0 93 9d 36
       5.635677e-06 4.6961504e-06
