libraryExamples/mnist_lightning/.mnist_{epoch}-{val_loss:.2f}/epoch=64-step=55900.ckpt (torch, 152848 bytes, 60 tensors)

model.layer_1.mainModule.weight f4 [4, 784]
000000 e2 32 45 3f 78 0d 46 3f fe 22 54 3f e7 6e 47 3f
       0.77030766 0.773643 0.82865894 0.779036
000010 8d 79 52 3f da 7c 49 3f 56 92 4c 3f e7 02 4f 3f
       0.8221672 0.78706133 0.7991079 0.80863804
000020 cc e3 4e 3f f3 c9 53 3f ce 2a 49 3f 63 44 4d 3f
       0.8081634 0.82730025 0.7858094 0.80182475
000030 d6 42 47 3f 81 84 4f 3f e1 1f 4d 3f 56 09 48 3f
       0.7783636 0.8106156 0.8012677 0.78139246
000040 4c 64 53 3f 15 2f 46 3f 57 3c 4b 3f f8 47 53 3f
       0.82574916 0.7741559 0.79388946 0.8253169
000050 20 0a 52 3f d2 a9 4b 3f 46 57 48 3f 20 a9 47 3f
       0.820467 0.79556 0.7825817 0.7799244
000060 b5 a6 4e 3f b9 e7 47 3f 80 6d 53 3f 2c 8b 4b 3f
       0.80723125 0.78087956 0.8258896 0.79509234
000070 3d 15 45 3f b8 37 44 3f c3 10 4f 3f 6f 42 53 3f
       0.7698553 0.7664752 0.8088495 0.82523245
000080 f2 62 52 3f 49 c1 50 3f 44 b7 43 3f b6 d5 52 3f
       0.8218223 0.8154493 0.76451516 0.82357347
000090 95 99 53 3f ca 52 48 3f 34 44 49 3f 8d 54 4f 3f
       0.8265622 0.78251326 0.78619695 0.8098839
0000a0 f6 39 4f 3f ea 0d 4a 3f 0d fa 52 3f d8 a4 4b 3f
       0.80947816 0.7892748 0.824128 0.79548407
0000b0 36 83 52 3f a7 ac 52 3f 81 97 54 3f 99 a8 46 3f
       0.8223146 0.82294697 0.83043677 0.7760101
0000c0 4d 8c 52 3f cd 48 54 3f 2e 34 4b 3f cb e1 45 3f
       0.8224533 0.82923585 0.79376495 0.7729766
0000d0 7f ed 47 3f 24 f0 52 3f 93 8e 4e 3f fb 91 53 3f
       0.78096765 0.82397676 0.806863 0.82644624
0000e0 7d 83 46 3f 14 e6 50 3f 3f 6e 46 3f d3 46 4d 3f
       0.77544385 0.8160107 0.7751197 0.80186194
0000f0 20 23 4d 3f c4 70 52 3f c1 7e 53 3f fa 68 4d 3f
       0.8013172 0.82203317 0.82615286 0.80238307
000100 e2 39 53 3f 11 af 43 3f 90 f6 4e 3f 65 61 4d 3f
       0.825102 0.76439005 0.80844975 0.8022674
000110 5b d1 53 3f 6e d6 63 3f 22 9d 97 3f 10 46 62 3f
       0.82741326 0.8899907 1.1844828 0.88388157
000120 68 88 4b 3f 77 27 4a 3f 2c 1e 4c 3f 1c 1c 4f 3f
       0.79505014 0.7896647 0.7973354 0.80902267
000130 e1 42 4d 3f fa 75 53 3f ab ef 47 3f da 79 48 3f
       0.80180174 0.8260189 0.7810008 0.7831093
000140 31 c3 47 3f a9 ca 44 3f 3e db 49 3f c2 c2 50 3f
       0.78032213 0.76871735 0.7885016 0.81547177
000150 8e 37 4d 3f 4c 58 50 3f a7 9c 48 3f 8f 41 4f 3f
       0.80162895 0.8138473 0.7836403 0.8095941
000160 a7 47 53 3f 34 5c 48 3f ea 77 4c 3f cd 2e 53 3f
       0.8253121 0.7826569 0.79870474 0.8249329
000170 22 63 50 3f 02 bb 45 3f 1c 18 4e 3f 98 e4 47 3f
       0.81401265 0.77238476 0.8050554 0.7808318
000180 57 73 5f 3f 31 d8 83 3f da e2 8a 3f d6 3c 1a 3e
       0.8728537 1.0300351 1.085048 0.1506227
000190 8f 1a 49 be 90 28 cc be 33 1d f2 be 59 43 91 be
       -0.19639038 -0.39874697 -0.47287902 -0.28371695
0001a0 ea 45 69 3f f6 99 4b 3f d7 f9 52 3f df 72 4b 3f
       0.91122305 0.795318 0.82412475 0.79472154
0001b0 6d e6 42 3f 76 8b 48 3f e4 3e 46 3f d1 e5 44 3f
       0.7613285 0.783378 0.77439713 0.7691317
0001c0 7b 11 46 3f 00 22 4e 3f 77 69 49 3f 96 d8 4f 3f
       0.77370423 0.8052063 0.7867655 0.8118986
0001d0 9c ad 49 3f 97 42 4f 3f 78 77 4f 3f d4 a6 48 3f
       0.7878053 0.80960983 0.8104167 0.7837956
0001e0 f9 4d 2d 3f 36 d4 cf 3e a2 3a ec 3e f6 6f ab 3e
       0.676971 0.40591592 0.46138483 0.33483857
0001f0 d7 9c 59 3e bd 1d 8e 3d 7c 80 ef bd 8b 9a d0 be
       0.21251236 0.06939266 -0.11694428 -0.40742907
000200 70 e2 06 bf fa f0 06 bf f1 40 ed be 16 45 79 3f
       -0.52689266 -0.5271145 -0.4633861 0.9737104
000210 73 98 30 3f 31 dc 30 3f 40 25 3f 3f 6e 9b 63 3f
       0.6898262 0.69085985 0.74666214 0.8890904
000220 ff 9f 4b 3f ff 43 4e 3f fd c8 53 3f 2f 81 43 3f
       0.7954101 0.80572504 0.8272856 0.76368994
000230 9f 4a 43 3f ce a6 47 3f 29 24 4b 3f 00 16 4e 3f
       0.7628574 0.779889 0.7935205 0.8050232
000240 88 f4 46 3f b5 db 4f 3f 54 b7 3d 3f b0 67 14 3f
       0.77716875 0.8119462 0.7410786 0.57970715
000250 5b 8f 26 bc 56 c4 d8 3d 82 c9 99 3e 4a 23 b3 3e
       -0.010166015 0.10584323 0.3003655 0.3498786
000260 ec c5 a0 3e ea 50 8f be bc c8 f2 bf 2d 59 bb 3d
       0.31401002 -0.2799142 -1.8967509 0.09147868
000270 b0 f3 1d 3f 3d 22 36 3f 12 c3 06 bf 6f c0 ee be
       0.6169996 0.71145993 -0.52641404 -0.4663119
000280 99 c6 2c 3f 91 79 3b 3f 19 38 e4 3d bd c8 31 3f
       0.67490536 0.7323237 0.11143512 0.6944693
000290 d3 7b 48 3f ed 24 4d 3f 55 29 43 3f e1 9c 54 3f
       0.7831394 0.8013447 0.7623494 0.8305188
0002a0 69 95 4e 3f 10 46 45 3f a7 bc 50 3f b2 16 4a 3f
       0.8069673 0.7706003 0.8153786 0.7894088
0002b0 96 67 43 3f 98 5a 3a 3f 08 16 a4 3e a0 20 8d 3c
       0.76329935 0.72794485 0.32048059 0.01722747
0002c0 ef 13 2f be 47 12 91 3e db 1a a8 3e b0 78 f7 3e
       -0.17097448 0.28334257 0.3283299 0.48334265
0002d0 c6 e8 3b bd 74 4c a6 bf 76 5f a0 bf 9c 60 79 bf
       -0.045876287 -1.2992082 -1.2529132 -0.9741304
0002e0 8e ca 74 bf f9 3e 82 3f ab 43 08 bf a9 38 0f bf
       -0.95621574 1.0175468 -0.53228253 -0.5594583
0002f0 1a a0 97 be b7 c2 fd 3f d7 db bb be 40 09 32 3f
       -0.29614335 1.9825047 -0.36691162 0.69545364
000300 90 cc 30 3f 0b 8e 52 3f b9 7e 50 3f e4 46 4b 3f
       0.6906214 0.8224799 0.81443363 0.79405046
000310 64 6a 52 3f aa 18 54 3f bc 73 44 3f 5a f8 53 3f
       0.8219359 0.82850134 0.76739097 0.8280083
000320 4c 15 53 3f 7c 85 cb 3e f3 63 30 be 06 6b d0 be
       0.8245437 0.39750278 -0.17225628 -0.40706652
000330 9f 22 c2 be 94 81 a7 3e 11 b7 12 3f 40 56 48 3e
       -0.3791704 0.32716048 0.5731059 0.19564152
000340 e0 f7 00 bf 3a 4b 1e bf 17 a5 56 bf ca 72 57 bf
       -0.5037823 -0.61833537 -0.8384566 -0.8415953
000350 08 6b 4c bf e2 cc 0d bf 97 6a 16 bf 4b 30 0b bf
       -0.79850817 -0.5539075 -0.58756393 -0.54370564
000360 0f d1 09 bf 32 ec 02 bf eb 71 cf be 81 0d 27 3f
       -0.53834623 -0.51141655 -0.405166 0.6525498
000370 f8 ad 2e 3f 49 c2 49 3f a0 d3 52 3f db 01 4d 3f
       0.68234205 0.7881208 0.82354164 0.80080956
000380 81 89 47 3f d0 76 4a 3f 94 21 4d 3f 5c 03 4d 3f
       0.7794419 0.79087543 0.8012936 0.8008325
000390 51 c3 58 3f 4d 2e 6e 3e 76 d3 cc be d9 b2 e7 bf
       0.8467303 0.2325985 -0.40005082 -1.8101455
0003a0 76 c3 25 3c 11 c1 3a 3f 44 82 b6 be ef 8b fb be
       0.010117402 0.72950846 -0.3564626 -0.49130198
0003b0 e5 68 0b bf 07 6f 18 bf 35 87 35 bf f0 03 3f bf
       -0.5445693 -0.59544414 -0.70909435 -0.74615383
0003c0 a0 c4 35 bf 74 61 12 bf 62 0d 1a bf 33 a8 15 bf
       -0.7100315 -0.5717995 -0.6017667 -0.58459777
0003d0 73 46 10 bf 5a 72 0a bf 7e 20 40 3b 9a 23 2d 3f
       -0.56357497 -0.54080737 0.0029316242 0.6763245
0003e0 ac 32 3e 3f 00 86 48 3f 74 66 46 3f 6b 39 44 3f
       0.7429607 0.7832947 0.7750008 0.7665011
0003f0 13 a8 53 3f d7 12 4c 3f ea df 4c 3f 14 f2 57 3f
       0.82678336 0.7971625 0.80029166 0.84353757

model.layer_1.mainModule.bias f4 [4]
000000 04 2b 4f bf 3d 23 3e bf 28 62 a8 bf 7e ae 11 bf
       -0.8092501 -0.7427252 -1.3154955 -0.5690688

model.layer_1.pb.parentModule.weight f4 [4, 784]
000000 dc 8c d4 bc 37 3a b9 bc 43 bb 04 3d 45 0c 8d bc
       -0.025946073 -0.022610767 0.03240515 -0.017217765
000010 61 48 d4 3c 8a 9b 16 bc 25 0d 3b 3b 97 e7 4a 3c
       0.02591342 -0.009192357 0.002854177 0.012384317
000020 a5 20 43 3c 31 55 fe 3c 8a 1e 2b bc f7 8c b6 3b
       0.0119096385 0.031046482 -0.010444293 0.0055710035
000030 67 8e 92 bc 0a 4e 6b 3c dc 4b a4 3b aa 7c 73 bc
       -0.017890168 0.014361868 0.005013926 -0.014861265
000040 51 a0 f1 3c 95 06 b5 bc dc f1 1a bb c8 15 ee 3c
       0.02949539 -0.022097865 -0.0023642695 0.02906312
000050 cc 5a c6 3c b7 dd 35 ba b3 00 60 bc 25 c5 85 bc
       0.024213217 -0.000693764 -0.013672042 -0.016329357
000060 f3 da 33 3c 13 e4 7b bc dc c6 f2 3c 4a 3a 98 ba
       0.0109774945 -0.015374201 0.02963584 -0.0011614051
000070 83 41 d8 bc 2e f2 f3 bc 8e 5e 4e 3c b8 64 ed 3c
       -0.026398426 -0.029778566 0.012595786 0.02897869
000080 13 75 d1 3c 0c 40 9d 3c 55 00 02 bd 98 cd df 3c
       0.02556852 0.019195579 -0.031738598 0.027319714
000090 6e 49 f8 3c ca 1f 61 bc 37 c5 24 bc 13 51 5f 3c
       0.030308452 -0.013740489 -0.010056785 0.013630169
0000a0 25 ab 58 3c ae af e4 bb 7a 58 e4 3c 93 c4 49 ba
       0.013224398 -0.0069789505 0.02787422 -0.00076968333
0000b0 85 7d d5 3c ae ab da 3c 6a 03 0c 3d 1a d6 a5 bc
       0.026060829 0.026693191 0.034182943 -0.020243693
0000c0 7a a0 d6 3c 36 18 07 3d 13 1b 23 bb d5 af be bc
       0.026199568 0.032982074 -0.0024887964 -0.023277203
0000d0 58 72 7a bc 45 1b e3 3c 5c d2 2d 3c 38 56 f7 3c
       -0.015286051 0.027722964 0.010609236 0.03019248
0000e0 8a 79 aa bc 4e d9 a1 3c 4a 21 ad bc 1c c5 b7 3b
       -0.020809907 0.01975694 -0.021134038 0.005608214
0000f0 93 eb a5 3b 53 2f d3 3c f8 ee f4 3c ae d8 c8 3b
       0.005063483 0.025779402 0.029899105 0.006129346
000100 18 53 ec 3c 76 83 02 bd d3 d1 47 3c e5 0d c5 3b
       0.028848216 -0.031863652 0.012196022 0.0060136192
000110 25 42 ff 3c 01 b6 ca bb d3 79 35 3c 38 fa 78 bb
       0.03115947 -0.0061862473 0.011076408 -0.003799094
000120 25 c1 9d ba 37 e9 d7 bb 25 c5 8d 3a c5 34 51 3c
       -0.0012035711 -0.0065890807 0.00108162 0.012768929
000130 c1 cb b5 3b 11 d6 f3 3c 73 e7 79 bc a5 5b 57 bc
       0.005547971 0.02976516 -0.015252936 -0.013144408
000140 07 83 82 bc 0a 94 e1 bc 41 05 fe bb 1a 6f 9d 3c
       -0.01593162 -0.02753641 -0.007752091 0.019218016
000150 77 22 b0 3b 53 20 90 3c 61 a8 4e bc 93 91 5a 3c
       0.0053752023 0.017593538 -0.012613387 0.013340372
000160 ac 0b ee 3c 4a c5 5e bc a5 a0 20 3b 73 f0 ea 3c
       0.0290583 -0.013596842 0.0024509814 0.028679108
000170 0e 7b 91 3c e5 88 c3 bc ce 34 10 3c ca 98 3e bc
       0.017758872 -0.023868987 0.008801652 -0.011633107
000180 01 ec cc 3c a5 be 65 3c c1 32 5e bc 6c 73 dc bc
       0.02501488 0.014022504 -0.013561905 -0.026910506
000190 5c a3 ba bc 85 90 88 3c a5 33 b0 bb da f5 cf 3c
       -0.022782974 0.016670475 -0.0053772503 0.025385786
0001a0 60 97 8a 3c 01 4e 75 ba bc 51 e4 3c 6e d4 c8 ba
       0.016917884 -0.0009357632 0.027871005 -0.0015322098
0001b0 bf 0d 0f bd aa f4 52 bc ac 0c b3 bc 18 2f de bc
       -0.03492522 -0.012875715 -0.021856628 -0.027122065
0001c0 cc b9 b8 bc c5 ad 12 3c 6a 74 1b bc a0 29 80 3c
       -0.022549532 0.008952563 -0.0094882045 0.015644848
0001d0 0e 6b 0a bc 93 d3 5a 3c a5 0b 68 3c 4a 1d 0d 3d
       -0.008448375 0.013356107 0.0141629325 0.03445176
0001e0 6e 5a 59 bc aa d8 7a bc 98 6a e5 3c e5 0e fb bb
       -0.013266189 -0.015310446 0.02800493 -0.0076616877
0001f0 4e 3f 0d bc 0a 65 94 bb d1 3c f7 bc 0c 01 c3 3c
       -0.00862105 -0.0045286464 -0.030180367 0.02380421
000200 cc 35 ad bc d8 cf 6d 3c a6 e8 0b 3d 97 07 35 3c
       -0.021143816 0.014514886 0.034157418 0.011049173
000210 4a 82 d6 39 a3 a7 be bc 50 18 a1 3c 6a d6 bb 3c
       0.00040914334 -0.023273295 0.019664913 0.022929389
000220 01 2a 5d ba 65 2d 1b 3c 6a 36 fe 3c 97 61 05 bd
       -0.000843674 0.009471272 0.031031806 -0.032563772
000230 98 ca 08 bd 6e 0f 86 bc ee 1f 33 bb ce ad 0f 3c
       -0.033396333 -0.01636478 -0.0027332264 0.008769466
000240 20 58 9c bc 77 8d 80 3c b7 86 d9 3b 9c c0 c3 3b
       -0.01908499 0.015692456 0.0066383737 0.0059738886
000250 1e e1 9f bc 40 39 07 3d e5 03 a9 3c 77 65 8f 3c
       -0.019516524 0.033013582 0.02063174 0.017504437
000260 dc 55 b3 ba 25 4d 2c 3c dc 9d 08 bb ee 6d ba bb
       -0.0013682204 0.01051644 -0.0020846045 -0.005689374
000270 6e 54 e0 3a 8a 34 99 3b a0 c2 16 3c e5 67 fc bc
       0.0017115006 0.0046754526 0.009201676 -0.03081126
000280 81 4b e4 bb 5c 27 7d 3c 10 60 9a 3c 33 10 07 bd
       -0.0069670086 0.015451279 0.018844634 -0.032974433
000290 ca b1 c2 3c ca d1 a6 3b 3b df 0a bd 6f 59 0c 3d
       0.023766417 0.005090927 -0.033904295 0.034264978
0002a0 e1 87 2f 3c 2e 27 d2 bc bc ab 9c 3c 8a 4b e0 bb
       0.010713548 -0.025653448 0.019124858 -0.0068449425
0002b0 32 fb 06 bd d3 f3 8e bb 37 52 92 3b bc 5b 68 3c
       -0.032954402 -0.004362562 0.004465367 0.014182027
0002c0 81 4d 53 bb e5 15 34 bc 51 9a c5 bc 7d 2d 0f 3d
       -0.003224224 -0.010991548 -0.024121435 0.03495549
0002d0 a5 02 c6 bc e7 f6 cb 3c 28 16 e8 3c 12 f6 08 3d
       -0.024171183 0.024898006 0.028330877 0.033437796
0002e0 de 95 ba 3c 0b 34 0f 3d 65 e6 f9 bb b3 fd 52 bc
       0.02277654 0.03496174 -0.007626342 -0.012877869
0002f0 c7 94 ce 3c 4e ff 01 3d dc 72 02 3c 0c e8 ea 3c
       0.025217427 0.03173762 0.007961955 0.028675102
000300 13 bb 0f bc 2a d8 d6 3c 0a ee 94 3c ee 64 10 bb
       -0.008772629 0.026226122 0.018179912 -0.0022032815
000310 5a 63 d2 3c 03 16 04 3d ae 71 ec bc fe 10 02 3d
       0.02568214 0.032247555 -0.0288628 0.031754486
000320 45 c0 e7 3c c5 78 ee 3c 9e 69 ae bc f0 90 03 bd
       0.028289923 0.029110322 -0.021290597 -0.032120645
000330 0e 5f 14 3c 13 21 e0 bc 1c cd 79 bc 2f 3f 00 3d
       0.009055866 -0.027359521 -0.015246656 0.031310257
000340 ee a3 bd bb 8a c1 4d bc ca 6c 30 bb 97 53 48 bc
       -0.005787364 -0.01255835 -0.0026920312 -0.012226961
000350 d3 1c bd bc 61 65 46 3c f3 be 70 bc 85 af fb 3c
       -0.023085034 0.012109132 -0.014693963 0.030723343
000360 75 94 d5 3c 2e 93 11 bc 65 e5 89 3b 13 fb 89 bb
       0.026071766 -0.008885188 0.004208254 -0.0042108386
000370 93 62 2c 3c d7 3f 05 bc d8 8a df 3c f7 48 95 3b
       0.010521549 -0.008132896 0.027287886 0.004555817
000380 0c b9 89 bc 4a 3c b0 bb 40 25 a5 3b 5c 0b 17 3b
       -0.01681187 -0.0053782808 0.005039841 0.0023047542
000390 47 c9 c1 bc b5 38 84 3c 8a ea 3e bc 0c 46 e8 3c
       -0.023655547 0.016140321 -0.011652598 0.028353713
0003a0 bc 1e 5b bc 10 23 07 3d 70 27 11 3d d7 7f 0e 3c
       -0.013374027 0.032992423 0.035438 0.008697472
0003b0 a3 8e 98 3c 67 71 88 bc 08 4f ea bc 6e bb 74 bc
       0.018622702 -0.016655637 -0.028602138 -0.014937265
0003c0 38 2a 70 3c 8e 9e a8 3c 0e c6 91 bc 4a 28 09 ba
       0.014658503 0.020583417 -0.017794635 -0.0005232139
0003d0 ec f8 8f 3c aa 27 63 3c 75 68 e2 3c 81 14 32 3c
       0.01757475 0.013864437 0.0276377 0.010869146
0003e0 6c 02 c4 3c 25 52 54 bc b1 1a ae bc d3 bb f3 bc
       0.023926936 -0.012959038 -0.021252962 -0.029752648
0003f0 23 19 fa 3c b8 39 6e 3a 93 50 84 3b e7 d2 9b 3c
       0.030529564 0.000908758 0.0040379255 0.019021465

model.layer_1.pb.parentModule.bias f4 [4]
000000 4e e1 53 bc ba 9f b5 bc dc 73 aa ba 28 e3 00 3d
       -0.012932135 -0.02217089 -0.00130045 0.031466633

model.layer_1.pb.pbValues.0.topPBCandidateAverage f4 [4]
000000 00 00 00 00 00 00 00 00 00 00 00 00 00 00 00 00
       0.0 0.0 0.0 0.0

model.layer_1.pb.pbValues.0.PrevPBCandidateCorrelation f4 [4]
000000 00 00 00 00 00 00 00 00 00 00 00 00 00 00 00 00
       0.0 0.0 0.0 0.0

model.layer_1.pb.pbValues.0.currentCorrelationsForParallel f4 [4]
000000 00 00 00 00 00 00 00 00 00 00 00 00 00 00 00 00
       0.0 0.0 0.0 0.0

model.layer_1.pb.pbValues.0.bestScore f4 [4]
000000 00 00 00 00 00 00 00 00 00 00 00 00 00 00 00 00
       0.0 0.0 0.0 0.0

model.layer_1.pb.pbValues.0.previousBestScore f4 [4]
000000 00 00 00 00 00 00 00 00 00 00 00 00 00 00 00 00
       0.0 0.0 0.0 0.0

model.layer_1.pb.pbValues.0.PrevPBCandidateAverage f4 [4]
000000 00 00 00 00 00 00 00 00 00 00 00 00 00 00 00 00
       0.0 0.0 0.0 0.0

model.layer_1.pb.pbValues.0.mainGradAverageForScaling f4 [4]
000000 00 00 00 00 00 00 00 00 00 00 00 00 00 00 00 00
       0.0 0.0 0.0 0.0

model.layer_1.pb.pbValues.0.candidateGradAverageForScaling f4 [4]
000000 00 00 00 00 00 00 00 00 00 00 00 00 00 00 00 00
       0.0 0.0 0.0 0.0

model.layer_1.pb.pbValues.0.indexesOfbest f4 [4]
000000 00 00 00 00 00 00 00 00 00 00 00 00 00 00 00 00
       0.0 0.0 0.0 0.0

model.layer_1.pb.pbValues.0.nodesBestImprovedThisEpoch f4 [4]
000000 00 00 00 00 00 00 00 00 00 00 00 00 00 00 00 00
       0.0 0.0 0.0 0.0

model.layer_1.pb.pbValues.0.parentsAverageDvector f4 [4]
000000 00 00 00 00 00 00 00 00 00 00 00 00 00 00 00 00
       0.0 0.0 0.0 0.0

model.layer_1.pb.pbValues.0.normalPassAverageD f4 [4]
000000 32 00 00 00 32 00 00 00 32 00 00 00 32 00 00 00
       7e-44 7e-44 7e-44 7e-44

model.layer_2.mainModule.weight f4 [8, 4]
000000 5a 33 21 3e 7c 44 c4 be 59 45 8a bf 2b 11 e6 3e
       0.15742245 -0.383335 -1.0802413 0.44934973
000010 af c3 f2 3f aa 82 c1 3e 43 0e 68 bf 7f eb 32 3e
       1.8965968 0.37795 -0.9064676 0.17472647
000020 6b 0c 35 be 60 c0 b5 be cf 81 ad be db dc 13 bf
       -0.17680518 -0.35498333 -0.338881 -0.57758874
000030 d2 7f cd 3f 94 70 c4 be 62 c3 d3 be 60 2e e1 3c
       1.6054633 -0.3836714 -0.41360003 0.027487934
000040 b7 3f 31 bf 66 0f 52 3e 78 7f da be 58 12 51 be
       -0.69237846 0.20513687 -0.42675376 -0.20417154
000050 da 01 6b bf b9 a1 5f 3f 96 57 1b bf f7 97 81 bf
       -0.917997 0.87356144 -0.6068052 -1.0124501
000060 a4 ff 0d bf 08 74 08 3f 92 57 24 bf 82 16 8b be
       -0.554682 0.5330205 -0.6419612 -0.2716561
000070 8e 2e 52 3e e2 38 bc bd f2 4b 00 bf 6b 56 cf 3e
       0.20525572 -0.09190537 -0.50115883 0.4049562

model.layer_2.mainModule.bias f4 [8]
000000 e0 82 48 be 7f dd ab bf 7b 14 6a bf 5c 73 95 bf
       -0.19581175 -1.342697 -0.914375 -1.167583
000010 95 43 6e bf 40 4f 93 be e2 44 67 bf 83 d6 78 bf
       -0.9307187 -0.287714 -0.9033948 -0.9720232

model.layer_2.pb.parentModule.weight f4 [8, 4]
000000 00 ed de bd 9a 64 d8 be a2 a4 f5 be a8 b9 1a be
       -0.10885048 -0.42264253 -0.47977167 -0.15109885
000010 e4 22 46 3e 80 d5 84 3d 3a 8f bc 3e b8 fe d9 be
       0.19349247 0.064860344 0.36828023 -0.42577147
000020 d2 f2 d8 3e 4a cd e2 3e 50 f5 85 3e e0 61 bb 3c
       0.42372757 0.44297248 0.2616372 0.022873819
000030 04 48 19 3e 94 70 c4 be 62 c3 d3 be 60 2e e1 3c
       0.14968878 -0.3836714 -0.41360003 0.027487934
000040 60 e2 71 3d 7e 63 ca be 70 f3 31 3e 08 eb ca 3e
       0.05905378 -0.39529032 0.1737802 0.3963244
000050 b0 6e 7f bd c0 7a b2 3e 80 e3 ce bb 2c e8 d2 be
       -0.06236142 0.34859276 -0.006313741 -0.41192758
000060 10 a5 3b 3d 90 c9 28 3e 62 30 eb 3e 96 5a a8 3e
       0.045811713 0.1648314 0.4593535 0.32881612
000070 78 c2 a3 bd dc 64 f8 3e cc 70 0c be 3c 45 48 be
       -0.07996076 0.4851445 -0.13714904 -0.19557661

model.layer_2.pb.parentModule.bias f4 [8]
000000 5c be b1 3e 78 85 93 be 38 28 bd 3d d4 e4 9e be
       0.34715545 -0.28812766 0.09236187 -0.31033957
000010 e4 73 0c 3e ce 24 e0 3e d0 79 31 be c2 de fc 3e
       0.13716084 0.4377808 -0.17331624 0.493887

model.layer_2.pb.pbValues.0.topPBCandidateAverage f4 [8]
000000 00 00 00 00 00 00 00 00 00 00 00 00 00 00 00 00
       0.0 0.0 0.0 0.0
000010 00 00 00 00 00 00 00 00 00 00 00 00 00 00 00 00
       0.0 0.0 0.0 0.0

model.layer_2.pb.pbValues.0.PrevPBCandidateCorrelation f4 [8]
000000 00 00 00 00 00 00 00 00 00 00 00 00 00 00 00 00
       0.0 0.0 0.0 0.0
000010 00 00 00 00 00 00 00 00 00 00 00 00 00 00 00 00
       0.0 0.0 0.0 0.0

model.layer_2.pb.pbValues.0.currentCorrelationsForParallel f4 [8]
000000 00 00 00 00 00 00 00 00 00 00 00 00 00 00 00 00
       0.0 0.0 0.0 0.0
000010 00 00 00 00 00 00 00 00 00 00 00 00 00 00 00 00
       0.0 0.0 0.0 0.0

model.layer_2.pb.pbValues.0.bestScore f4 [8]
000000 00 00 00 00 00 00 00 00 00 00 00 00 00 00 00 00
       0.0 0.0 0.0 0.0
000010 00 00 00 00 00 00 00 00 00 00 00 00 00 00 00 00
       0.0 0.0 0.0 0.0

model.layer_2.pb.pbValues.0.previousBestScore f4 [8]
000000 00 00 00 00 00 00 00 00 00 00 00 00 00 00 00 00
       0.0 0.0 0.0 0.0
000010 00 00 00 00 00 00 00 00 00 00 00 00 00 00 00 00
       0.0 0.0 0.0 0.0

model.layer_2.pb.pbValues.0.PrevPBCandidateAverage f4 [8]
000000 00 00 00 00 00 00 00 00 00 00 00 00 00 00 00 00
       0.0 0.0 0.0 0.0
000010 00 00 00 00 00 00 00 00 00 00 00 00 00 00 00 00
       0.0 0.0 0.0 0.0

model.layer_2.pb.pbValues.0.mainGradAverageForScaling f4 [8]
000000 00 00 00 00 00 00 00 00 00 00 00 00 00 00 00 00
       0.0 0.0 0.0 0.0
000010 00 00 00 00 00 00 00 00 00 00 00 00 00 00 00 00
       0.0 0.0 0.0 0.0

model.layer_2.pb.pbValues.0.candidateGradAverageForScaling f4 [8]
000000 00 00 00 00 00 00 00 00 00 00 00 00 00 00 00 00
       0.0 0.0 0.0 0.0
000010 00 00 00 00 00 00 00 00 00 00 00 00 00 00 00 00
       0.0 0.0 0.0 0.0

model.layer_2.pb.pbValues.0.indexesOfbest f4 [8]
000000 00 00 00 00 00 00 00 00 00 00 00 00 00 00 00 00
       0.0 0.0 0.0 0.0
000010 00 00 00 00 00 00 00 00 00 00 00 00 00 00 00 00
       0.0 0.0 0.0 0.0

model.layer_2.pb.pbValues.0.nodesBestImprovedThisEpoch f4 [8]
000000 00 00 00 00 00 00 00 00 00 00 00 00 00 00 00 00
       0.0 0.0 0.0 0.0
000010 00 00 00 00 00 00 00 00 00 00 00 00 00 00 00 00
       0.0 0.0 0.0 0.0

model.layer_2.pb.pbValues.0.parentsAverageDvector f4 [8]
000000 00 00 00 00 00 00 00 00 00 00 00 00 00 00 00 00
       0.0 0.0 0.0 0.0
000010 00 00 00 00 00 00 00 00 00 00 00 00 00 00 00 00
       0.0 0.0 0.0 0.0

model.layer_2.pb.pbValues.0.normalPassAverageD f4 [8]
000000 32 00 00 00 32 00 00 00 32 00 00 00 32 00 00 00
       7e-44 7e-44 7e-44 7e-44
000010 32 00 00 00 32 00 00 00 32 00 00 00 32 00 00 00
       7e-44 7e-44 7e-44 7e-44

model.layer_3.mainModule.weight f4 [10, 8]
000000 cf 3a d3 3d 1a be ee be db 40 e6 3e 69 9f 45 3f
       0.10313951 -0.4662941 0.44971356 0.77196366
000010 e3 07 35 3f 0e 3c cb 3d 5e 0b 6d be 9f e6 59 3e
       0.7071516 0.09923564 -0.23148867 0.21279381
000020 e0 28 25 3f 62 37 ad bf 33 41 68 be e7 6b 04 3f
       0.64515495 -1.3532526 -0.22681122 0.51727146
000030 0d 19 0b bf 1a 60 2b 3f a3 5e 75 bf cc ec 8a bd
       -0.543351 0.66943514 -0.9584753 -0.06783447
000040 72 86 73 bf 6f 51 fe 3e c7 3c 89 3e 84 a8 14 c0
       -0.9512702 0.49671504 0.26804182 -2.3227854
000050 b5 32 7a 3f fd 15 da 3e 1a 30 da 3e a8 9a 0f 3f
       0.9773362 0.425949 0.42614824 0.5609536
000060 24 79 37 3f af 61 d5 be 1b 48 fd be f1 ca 08 40
       0.7166922 -0.4167609 -0.49469075 2.1373866
000070 1d 33 dd 3e 82 3d 09 bf 84 6d 07 bf ca f4 66 bc
       0.4320306 -0.5360948 -0.5290148 -0.014096448
000080 7b 1e 27 3f 4b 15 c5 3f b3 ad 9a be 0c 8f 81 bf
       0.65280885 1.5397123 -0.30210647 -1.012178
000090 46 8b 06 be 8e 49 47 3e a3 39 eb 3f aa 76 79 3d
       -0.13139066 0.19461653 1.8376964 0.060904182
0000a0 87 7b 90 3e 57 05 de bf 7d ad 4c be ce b2 10 bf
       0.28219244 -1.734538 -0.19988056 -0.56522834
0000b0 30 ca 0f bf fe 21 0b 3e 82 b5 c3 bf 43 d2 16 bd
       -0.5616789 0.13587186 -1.5289767 -0.036821615
0000c0 a3 d6 98 3e de 36 d3 bf e3 ea de be 3a 59 fc 3e
       0.29851255 -1.6501119 -0.4353858 0.49286824
0000d0 a5 06 c4 be 00 8b 8d 3d b9 1f 87 3e 68 21 ee 3e
       -0.3828632 0.06911278 0.2639139 0.46509862
0000e0 29 b7 d1 3e 20 ca a0 be 08 f0 b4 3e f4 71 c4 3f
       0.40960053 -0.3140421 0.3533938 1.5347276
0000f0 ce 8b b1 bd 15 6c a0 3f 5c db 0d bb 62 38 c7 3e
       -0.08669244 1.2532984 -0.002164564 0.38910204
000100 5b bb 5a 3f 88 64 45 3d 41 c6 5e 3f 09 7a 8f 3f
       0.8544213 0.048191577 0.8702126 1.1209117
000110 99 ca 66 bf 96 86 56 3f db aa b1 bc ac ef e3 3e
       -0.9015289 0.8379911 -0.021687916 0.44518793
000120 2a 11 5c bf b4 c5 3b 3d dc dd 95 bd 0f c9 0a c0
       -0.8596369 0.04584284 -0.07317707 -2.1685216
000130 fd 35 9f be 38 8a fa 3e d7 9a bd bd 28 6d fb 3e
       -0.31095877 0.48933578 -0.09258049 0.49106717

model.layer_3.mainModule.bias f4 [10]
000000 3c a2 cd 3f e0 62 1f 40 b0 d0 ce 3f 48 b2 fb 3f
       1.6065135 2.4904099 1.6157436 1.9663782
000010 69 c5 b9 3f 1b c7 06 c0 76 5a ce 3f a1 2a 09 40
       1.451337 -2.1059024 1.6121356 2.1432269
000020 32 2e c8 3f ca 64 cf 3f
       1.5639098 1.6202633

model.layer_3.pb.parentModule.weight f4 [10, 8]
000000 30 72 5d 3e df ad 5b be 6f 55 2b be f3 65 ac be
       0.2162559 -0.21453045 -0.16731809 -0.3367153
000010 cb f1 23 bc 38 97 9e 3d 83 c1 53 be 63 5a 6e 3e
       -0.010006378 0.077436864 -0.20679288 0.23276667
000020 1b de 4d be 62 14 83 be 94 3b 06 3e 50 e4 9b 3c
       -0.20104258 -0.25601488 0.13108665 0.019029766
000030 52 11 2d 3d 02 a7 2b be 56 4d cf 3c ce 31 1a be
       0.042252846 -0.16762927 0.025305431 -0.15058061
000040 1c 0f d3 3d e0 65 a8 3e 00 d7 2d be b4 b0 04 3d
       0.10305616 0.32890224 -0.16976547 0.03239508
000050 d2 29 b7 3d 2d ff 57 3d b7 29 80 3e be b1 38 3e
       0.089435235 0.05273359 0.25031826 0.18036553
000060 f2 fb 79 3d c9 d3 03 be a1 0c 46 be 5f e3 8c bd
       0.06103129 -0.12873758 -0.19340755 -0.06879305
000070 22 db 3e be 90 b8 83 be c3 4f 7c be a5 52 8e 3e
       -0.1863828 -0.25726748 -0.24639802 0.27797428
000080 c0 de 00 be 75 30 9d be 29 3d fd 3d 6f ea a7 3b
       -0.12584972 -0.30701032 0.12365181 0.005124382
000090 75 3f 94 bd f2 eb 9f 3e a3 7d 9a 3e 79 88 35 be
       -0.07238666 0.312347 0.30173978 -0.17727841
0000a0 20 ad 0c be 11 9e 4b 3e 34 28 70 3e 78 70 49 3e
       -0.13737917 0.19884516 0.23452836 0.1967181
0000b0 21 78 1e 3d 6a 74 62 bd 85 b1 82 be 63 2a 49 be
       0.038688783 -0.055286802 -0.25526062 -0.19645076
0000c0 e7 b5 b3 3e 4e f8 24 bd 38 ef 92 be 9b 7c a3 be
       0.35099718 -0.040275864 -0.28698134 -0.31931004
0000d0 e0 d7 5d 3e f4 7b 22 be a1 b2 98 3c 5b ed 5f be
       0.21664381 -0.15867597 0.018639864 -0.21867888
0000e0 24 a7 ec bb 44 74 78 be 74 3b 61 be c4 5c e3 3d
       -0.007222073 -0.24263102 -0.21995336 0.11101678
0000f0 01 d5 1a 3d a0 19 af 3e 2b 13 4c bd a5 17 2a be
       0.037800793 0.34199238 -0.049822967 -0.16610582
000100 0b c5 56 3d 26 c7 37 be df 84 a8 3d 8b 6e a6 be
       0.05243401 -0.17947063 0.08228468 -0.32506213
000110 c4 1d 02 be 2c e0 b1 3d 11 07 4b be 7f 68 8e be
       -0.12706667 0.086853355 -0.19826914 -0.278141
000120 50 dc 86 be e5 a1 94 3e 74 3e a9 be 37 d1 61 be
       -0.2633996 0.29029766 -0.3305546 -0.22052465
000130 65 72 70 3e e1 e8 ca 3d 73 6f 87 be ea 90 d2 bd
       0.23481138 0.099076994 -0.26452217 -0.102815464

model.layer_3.pb.parentModule.bias f4 [10]
000000 d9 b3 9d 3e 60 7f 38 3d c3 81 91 3e e2 be 03 3e
       0.30801275 0.04504335 0.28419313 0.12865785
000010 2a 25 82 3e 36 de 04 be ed f6 13 be 67 6a 6b be
       0.2541898 -0.12975392 -0.14449663 -0.22989808
000020 dc 9e 54 be 2a f3 10 be
       -0.20763725 -0.1415526

model.layer_3.pb.pbValues.0.topPBCandidateAverage f4 [10]
000000 00 00 00 00 00 00 00 00 00 00 00 00 00 00 00 00
       0.0 0.0 0.0 0.0
000010 00 00 00 00 00 00 00 00 00 00 00 00 00 00 00 00
       0.0 0.0 0.0 0.0
000020 00 00 00 00 00 00 00 00
       0.0 0.0

model.layer_3.pb.pbValues.0.PrevPBCandidateCorrelation f4 [10]
000000 00 00 00 00 00 00 00 00 00 00 00 00 00 00 00 00
       0.0 0.0 0.0 0.0
000010 00 00 00 00 00 00 00 00 00 00 00 00 00 00 00 00
       0.0 0.0 0.0 0.0
000020 00 00 00 00 00 00 00 00
       0.0 0.0

model.layer_3.pb.pbValues.0.currentCorrelationsForParallel f4 [10]
000000 00 00 00 00 00 00 00 00 00 00 00 00 00 00 00 00
       0.0 0.0 0.0 0.0
000010 00 00 00 00 00 00 00 00 00 00 00 00 00 00 00 00
       0.0 0.0 0.0 0.0
000020 00 00 00 00 00 00 00 00
       0.0 0.0

model.layer_3.pb.pbValues.0.bestScore f4 [10]
000000 00 00 00 00 00 00 00 00 00 00 00 00 00 00 00 00
       0.0 0.0 0.0 0.0
000010 00 00 00 00 00 00 00 00 00 00 00 00 00 00 00 00
       0.0 0.0 0.0 0.0
000020 00 00 00 00 00 00 00 00
       0.0 0.0

model.layer_3.pb.pbValues.0.previousBestScore f4 [10]
000000 00 00 00 00 00 00 00 00 00 00 00 00 00 00 00 00
       0.0 0.0 0.0 0.0
000010 00 00 00 00 00 00 00 00 00 00 00 00 00 00 00 00
       0.0 0.0 0.0 0.0
000020 00 00 00 00 00 00 00 00
       0.0 0.0

model.layer_3.pb.pbValues.0.PrevPBCandidateAverage f4 [10]
000000 00 00 00 00 00 00 00 00 00 00 00 00 00 00 00 00
       0.0 0.0 0.0 0.0
000010 00 00 00 00 00 00 00 00 00 00 00 00 00 00 00 00
       0.0 0.0 0.0 0.0
000020 00 00 00 00 00 00 00 00
       0.0 0.0

model.layer_3.pb.pbValues.0.mainGradAverageForScaling f4 [10]
000000 00 00 00 00 00 00 00 00 00 00 00 00 00 00 00 00
       0.0 0.0 0.0 0.0
000010 00 00 00 00 00 00 00 00 00 00 00 00 00 00 00 00
       0.0 0.0 0.0 0.0
000020 00 00 00 00 00 00 00 00
       0.0 0.0

model.layer_3.pb.pbValues.0.candidateGradAverageForScaling f4 [10]
000000 00 00 00 00 00 00 00 00 00 00 00 00 00 00 00 00
       0.0 0.0 0.0 0.0
000010 00 00 00 00 00 00 00 00 00 00 00 00 00 00 00 00
       0.0 0.0 0.0 0.0
000020 00 00 00 00 00 00 00 00
       0.0 0.0

model.layer_3.pb.pbValues.0.indexesOfbest f4 [10]
000000 00 00 00 00 00 00 00 00 00 00 00 00 00 00 00 00
       0.0 0.0 0.0 0.0
000010 00 00 00 00 00 00 00 00 00 00 00 00 00 00 00 00
       0.0 0.0 0.0 0.0
000020 00 00 00 00 00 00 00 00
       0.0 0.0

model.layer_3.pb.pbValues.0.nodesBestImprovedThisEpoch f4 [10]
000000 00 00 00 00 00 00 00 00 00 00 00 00 00 00 00 00
       0.0 0.0 0.0 0.0
000010 00 00 00 00 00 00 00 00 00 00 00 00 00 00 00 00
       0.0 0.0 0.0 0.0
000020 00 00 00 00 00 00 00 00
       0.0 0.0

model.layer_3.pb.pbValues.0.parentsAverageDvector f4 [10]
000000 00 00 00 00 00 00 00 00 00 00 00 00 00 00 00 00
       0.0 0.0 0.0 0.0
000010 00 00 00 00 00 00 00 00 00 00 00 00 00 00 00 00
       0.0 0.0 0.0 0.0
000020 00 00 00 00 00 00 00 00
       0.0 0.0

model.layer_3.pb.pbValues.0.normalPassAverageD f4 [10]
000000 8c 95 d2 36 a0 e4 04 b6 74 70 6e 36 d2 aa 7e 35
       6.2758972e-06 -1.980261e-06 3.553022e-06 9.487095e-07
000010 5c ad bc 36 2c 40 db b3 fb 9c 89 b6 20 92 95 b6
       5.6230183e-06 -1.0209655e-07 -4.101193e-06 -4.457557e-06
000020 c2 6b f1 b6 b1 a4 c0 35
       -7.1949044e-06 1.4353046e-06

exp_avg f4 [4, 784]
000000 04 00 00 80 04 00 00 80 04 00 00 80 04 00 00 80
       -6e-45 -6e-45 -6e-45 -6e-45
000010 04 00 00 80 04 00 00 80 04 00 00 80 04 00 00 80
       -6e-45 -6e-45 -6e-45 -6e-45
000020 04 00 00 80 04 00 00 80 04 00 00 80 04 00 00 80
       -6e-45 -6e-45 -6e-45 -6e-45
000030 04 00 00 80 04 00 00 80 04 00 00 80 04 00 00 80
       -6e-45 -6e-45 -6e-45 -6e-45
000040 04 00 00 80 04 00 00 80 04 00 00 80 04 00 00 80
       -6e-45 -6e-45 -6e-45 -6e-45
000050 04 00 00 80 04 00 00 80 04 00 00 80 04 00 00 80
       -6e-45 -6e-45 -6e-45 -6e-45
000060 04 00 00 80 04 00 00 80 04 00 00 80 04 00 00 80
       -6e-45 -6e-45 -6e-45 -6e-45
000070 04 00 00 80 04 00 00 80 04 00 00 80 04 00 00 80
       -6e-45 -6e-45 -6e-45 -6e-45
000080 04 00 00 80 04 00 00 80 04 00 00 80 04 00 00 80
       -6e-45 -6e-45 -6e-45 -6e-45
000090 04 00 00 80 04 00 00 80 04 00 00 80 04 00 00 80
       -6e-45 -6e-45 -6e-45 -6e-45
0000a0 04 00 00 80 04 00 00 80 04 00 00 80 04 00 00 80
       -6e-45 -6e-45 -6e-45 -6e-45
0000b0 04 00 00 80 04 00 00 80 04 00 00 80 04 00 00 80
       -6e-45 -6e-45 -6e-45 -6e-45
0000c0 04 00 00 80 04 00 00 80 04 00 00 80 04 00 00 80
       -6e-45 -6e-45 -6e-45 -6e-45
0000d0 04 00 00 80 04 00 00 80 04 00 00 80 04 00 00 80
       -6e-45 -6e-45 -6e-45 -6e-45
0000e0 04 00 00 80 04 00 00 80 04 00 00 80 04 00 00 80
       -6e-45 -6e-45 -6e-45 -6e-45
0000f0 04 00 00 80 04 00 00 80 04 00 00 80 04 00 00 80
       -6e-45 -6e-45 -6e-45 -6e-45
000100 04 00 00 80 04 00 00 80 04 00 00 80 04 00 00 80
       -6e-45 -6e-45 -6e-45 -6e-45
000110 04 00 00 80 04 00 00 80 04 00 00 80 04 00 00 80
       -6e-45 -6e-45 -6e-45 -6e-45
000120 04 00 00 80 04 00 00 80 04 00 00 80 04 00 00 80
       -6e-45 -6e-45 -6e-45 -6e-45
000130 04 00 00 80 04 00 00 80 04 00 00 80 04 00 00 80
       -6e-45 -6e-45 -6e-45 -6e-45
000140 04 00 00 80 04 00 00 80 04 00 00 80 04 00 00 80
       -6e-45 -6e-45 -6e-45 -6e-45
000150 04 00 00 80 04 00 00 80 04 00 00 80 04 00 00 80
       -6e-45 -6e-45 -6e-45 -6e-45
000160 04 00 00 80 04 00 00 80 04 00 00 80 04 00 00 80
       -6e-45 -6e-45 -6e-45 -6e-45
000170 04 00 00 80 04 00 00 80 04 00 00 80 04 00 00 80
       -6e-45 -6e-45 -6e-45 -6e-45
000180 04 00 00 80 04 00 00 80 04 00 00 80 04 00 00 80
       -6e-45 -6e-45 -6e-45 -6e-45
000190 04 00 00 80 04 00 00 80 04 00 00 80 04 00 00 80
       -6e-45 -6e-45 -6e-45 -6e-45
0001a0 04 00 00 80 04 00 00 80 04 00 00 80 04 00 00 80
       -6e-45 -6e-45 -6e-45 -6e-45
0001b0 04 00 00 80 04 00 00 80 04 00 00 80 04 00 00 80
       -6e-45 -6e-45 -6e-45 -6e-45
0001c0 04 00 00 80 04 00 00 80 04 00 00 80 04 00 00 80
       -6e-45 -6e-45 -6e-45 -6e-45
0001d0 04 00 00 80 04 00 00 80 04 00 00 80 04 00 00 80
       -6e-45 -6e-45 -6e-45 -6e-45
0001e0 04 00 00 80 04 00 00 00 04 00 00 00 04 00 00 00
       -6e-45 6e-45 6e-45 6e-45
0001f0 04 00 00 00 04 00 00 00 04 00 00 00 04 00 00 80
       6e-45 6e-45 6e-45 -6e-45
000200 04 00 00 80 04 00 00 80 04 00 00 80 04 00 00 80
       -6e-45 -6e-45 -6e-45 -6e-45
000210 04 00 00 80 04 00 00 80 04 00 00 80 04 00 00 80
       -6e-45 -6e-45 -6e-45 -6e-45
000220 04 00 00 80 04 00 00 80 04 00 00 80 04 00 00 80
       -6e-45 -6e-45 -6e-45 -6e-45
000230 04 00 00 80 04 00 00 80 04 00 00 80 04 00 00 80
       -6e-45 -6e-45 -6e-45 -6e-45
000240 04 00 00 80 04 00 00 80 04 00 00 80 04 00 00 00
       -6e-45 -6e-45 -6e-45 6e-45
000250 04 00 00 00 04 00 00 00 04 00 00 00 04 00 00 00
       6e-45 6e-45 6e-45 6e-45
000260 04 00 00 00 04 00 00 00 04 00 00 00 04 00 00 00
       6e-45 6e-45 6e-45 6e-45
000270 04 00 00 80 04 00 00 80 04 00 00 80 04 00 00 80
       -6e-45 -6e-45 -6e-45 -6e-45
000280 04 00 00 80 04 00 00 80 04 00 00 80 04 00 00 80
       -6e-45 -6e-45 -6e-45 -6e-45
000290 04 00 00 80 04 00 00 80 04 00 00 80 04 00 00 80
       -6e-45 -6e-45 -6e-45 -6e-45
0002a0 04 00 00 80 04 00 00 80 04 00 00 80 04 00 00 80
       -6e-45 -6e-45 -6e-45 -6e-45
0002b0 04 00 00 80 04 00 00 80 04 00 00 00 04 00 00 00
       -6e-45 -6e-45 6e-45 6e-45
0002c0 04 00 00 00 04 00 00 00 04 00 00 00 04 00 00 00
       6e-45 6e-45 6e-45 6e-45
0002d0 04 00 00 00 04 00 00 00 04 00 00 00 04 00 00 00
       6e-45 6e-45 6e-45 6e-45
0002e0 04 00 00 00 04 00 00 80 04 00 00 80 04 00 00 80
       6e-45 -6e-45 -6e-45 -6e-45
0002f0 04 00 00 80 04 00 00 80 04 00 00 80 04 00 00 80
       -6e-45 -6e-45 -6e-45 -6e-45
000300 04 00 00 80 04 00 00 80 04 00 00 80 04 00 00 80
       -6e-45 -6e-45 -6e-45 -6e-45
000310 04 00 00 80 04 00 00 80 04 00 00 80 04 00 00 80
       -6e-45 -6e-45 -6e-45 -6e-45
000320 04 00 00 80 04 00 00 00 04 00 00 00 04 00 00 00
       -6e-45 6e-45 6e-45 6e-45
000330 04 00 00 00 04 00 00 00 04 00 00 00 04 00 00 80
       6e-45 6e-45 6e-45 -6e-45
000340 04 00 00 80 04 00 00 00 04 00 00 00 04 00 00 00
       -6e-45 6e-45 6e-45 6e-45
000350 04 00 00 00 04 00 00 80 04 00 00 80 04 00 00 80
       6e-45 -6e-45 -6e-45 -6e-45
000360 04 00 00 80 04 00 00 80 04 00 00 80 04 00 00 80
       -6e-45 -6e-45 -6e-45 -6e-45
000370 04 00 00 80 04 00 00 80 04 00 00 80 04 00 00 80
       -6e-45 -6e-45 -6e-45 -6e-45
000380 04 00 00 80 04 00 00 80 04 00 00 80 04 00 00 80
       -6e-45 -6e-45 -6e-45 -6e-45
000390 04 00 00 80 04 00 00 00 04 00 00 00 04 00 00 00
       -6e-45 6e-45 6e-45 6e-45
0003a0 04 00 00 00 04 00 00 80 04 00 00 80 04 00 00 80
       6e-45 -6e-45 -6e-45 -6e-45
0003b0 04 00 00 80 04 00 00 80 04 00 00 00 04 00 00 00
       -6e-45 -6e-45 6e-45 6e-45
0003c0 04 00 00 00 04 00 00 80 04 00 00 80 04 00 00 80
       6e-45 -6e-45 -6e-45 -6e-45
0003d0 04 00 00 80 04 00 00 80 04 00 00 80 04 00 00 80
       -6e-45 -6e-45 -6e-45 -6e-45
0003e0 04 00 00 80 04 00 00 80 04 00 00 80 04 00 00 80
       -6e-45 -6e-45 -6e-45 -6e-45
0003f0 04 00 00 80 04 00 00 80 04 00 00 80 04 00 00 80
       -6e-45 -6e-45 -6e-45 -6e-45

exp_avg_sq f4 [4, 784]
000000 1f 30 ff 06 1f 30 ff 06 1f 30 ff 06 1f 30 ff 06
       9.5991047e-35 9.5991047e-35 9.5991047e-35 9.5991047e-35
000010 1f 30 ff 06 1f 30 ff 06 1f 30 ff 06 1f 30 ff 06
       9.5991047e-35 9.5991047e-35 9.5991047e-35 9.5991047e-35
000020 1f 30 ff 06 1f 30 ff 06 1f 30 ff 06 1f 30 ff 06
       9.5991047e-35 9.5991047e-35 9.5991047e-35 9.5991047e-35
000030 1f 30 ff 06 1f 30 ff 06 1f 30 ff 06 1f 30 ff 06
       9.5991047e-35 9.5991047e-35 9.5991047e-35 9.5991047e-35
000040 1f 30 ff 06 1f 30 ff 06 1f 30 ff 06 1f 30 ff 06
       9.5991047e-35 9.5991047e-35 9.5991047e-35 9.5991047e-35
000050 1f 30 ff 06 1f 30 ff 06 1f 30 ff 06 1f 30 ff 06
       9.5991047e-35 9.5991047e-35 9.5991047e-35 9.5991047e-35
000060 1f 30 ff 06 1f 30 ff 06 1f 30 ff 06 1f 30 ff 06
       9.5991047e-35 9.5991047e-35 9.5991047e-35 9.5991047e-35
000070 1f 30 ff 06 1f 30 ff 06 1f 30 ff 06 1f 30 ff 06
       9.5991047e-35 9.5991047e-35 9.5991047e-35 9.5991047e-35
000080 1f 30 ff 06 1f 30 ff 06 1f 30 ff 06 1f 30 ff 06
       9.5991047e-35 9.5991047e-35 9.5991047e-35 9.5991047e-35
000090 1f 30 ff 06 1f 30 ff 06 1f 30 ff 06 1f 30 ff 06
       9.5991047e-35 9.5991047e-35 9.5991047e-35 9.5991047e-35
0000a0 1f 30 ff 06 1f 30 ff 06 1f 30 ff 06 1f 30 ff 06
       9.5991047e-35 9.5991047e-35 9.5991047e-35 9.5991047e-35
0000b0 1f 30 ff 06 1f 30 ff 06 1f 30 ff 06 1f 30 ff 06
       9.5991047e-35 9.5991047e-35 9.5991047e-35 9.5991047e-35
0000c0 1f 30 ff 06 1f 30 ff 06 1f 30 ff 06 1f 30 ff 06
       9.5991047e-35 9.5991047e-35 9.5991047e-35 9.5991047e-35
0000d0 1f 30 ff 06 1f 30 ff 06 1f 30 ff 06 1f 30 ff 06
       9.5991047e-35 9.5991047e-35 9.5991047e-35 9.5991047e-35
0000e0 1f 30 ff 06 1f 30 ff 06 1f 30 ff 06 1f 30 ff 06
       9.5991047e-35 9.5991047e-35 9.5991047e-35 9.5991047e-35
0000f0 1f 30 ff 06 1f 30 ff 06 1f 30 ff 06 1f 30 ff 06
       9.5991047e-35 9.5991047e-35 9.5991047e-35 9.5991047e-35
000100 1f 30 ff 06 1f 30 ff 06 1f 30 ff 06 1f 30 ff 06
       9.5991047e-35 9.5991047e-35 9.5991047e-35 9.5991047e-35
000110 1f 30 ff 06 4c 93 5f 06 e5 e7 6d 05 27 03 6d 06
       9.5991047e-35 4.2049855e-35 1.1186279e-35 4.4577062e-35
000120 1f 30 ff 06 1f 30 ff 06 1f 30 ff 06 1f 30 ff 06
       9.5991047e-35 9.5991047e-35 9.5991047e-35 9.5991047e-35
000130 1f 30 ff 06 1f 30 ff 06 1f 30 ff 06 1f 30 ff 06
       9.5991047e-35 9.5991047e-35 9.5991047e-35 9.5991047e-35
000140 1f 30 ff 06 1f 30 ff 06 1f 30 ff 06 1f 30 ff 06
       9.5991047e-35 9.5991047e-35 9.5991047e-35 9.5991047e-35
000150 1f 30 ff 06 1f 30 ff 06 1f 30 ff 06 1f 30 ff 06
       9.5991047e-35 9.5991047e-35 9.5991047e-35 9.5991047e-35
000160 1f 30 ff 06 1f 30 ff 06 1f 30 ff 06 1f 30 ff 06
       9.5991047e-35 9.5991047e-35 9.5991047e-35 9.5991047e-35
000170 1f 30 ff 06 1f 30 ff 06 1f 30 ff 06 1c af 04 07
       9.5991047e-35 9.5991047e-35 9.5991047e-35 9.982036e-35
000180 b9 ca 9f 06 be 4b e2 05 37 69 9d 05 9c f7 00 05
       6.0107027e-35 2.1280761e-35 1.4802859e-35 6.06401e-36
000190 90 72 d6 05 c4 b1 0e 07 e8 2a 8a 07 8d 37 66 06
       2.0166547e-35 1.0735133e-34 2.078915e-34 4.3299004e-35
0001a0 24 70 62 06 1f 30 ff 06 1f 30 ff 06 1f 30 ff 06
       4.2588264e-35 9.5991047e-35 9.5991047e-35 9.5991047e-35
0001b0 1f 30 ff 06 1f 30 ff 06 1f 30 ff 06 1f 30 ff 06
       9.5991047e-35 9.5991047e-35 9.5991047e-35 9.5991047e-35
0001c0 1f 30 ff 06 1f 30 ff 06 1f 30 ff 06 1f 30 ff 06
       9.5991047e-35 9.5991047e-35 9.5991047e-35 9.5991047e-35
0001d0 1f 30 ff 06 1f 30 ff 06 1f 30 ff 06 cc c4 5c 07
       9.5991047e-35 9.5991047e-35 9.5991047e-35 1.6608794e-34
0001e0 b6 4a cc 07 7d ce 34 08 0e 9e 25 09 05 b7 3c 09
       3.073842e-34 5.4409505e-34 1.993547e-33 2.2715732e-33
0001f0 e4 33 ba 08 9d 49 41 08 84 d5 61 07 92 9d c4 04
       1.1206667e-33 5.8165357e-34 1.6989865e-34 4.6224084e-36
000200 0f 17 08 08 0b 2d b0 08 51 8a e6 07 f7 f9 14 06
       4.0953117e-34 1.0603204e-33 3.4687849e-34 2.801935e-35
000210 b2 c3 1a 08 0e 75 bd 07 f0 db 98 07 4b 7f 8a 06
       4.657273e-34 2.8506358e-34 2.2999686e-34 5.209687e-35
000220 1f 30 ff 06 1f 30 ff 06 1f 30 ff 06 1f 30 ff 06
       9.5991047e-35 9.5991047e-35 9.5991047e-35 9.5991047e-35
000230 1f 30 ff 06 1f 30 ff 06 1f 30 ff 06 1f 30 ff 06
       9.5991047e-35 9.5991047e-35 9.5991047e-35 9.5991047e-35
000240 1f 30 ff 06 1f 30 ff 06 3f 55 88 07 88 6d b4 07
       9.5991047e-35 9.5991047e-35 2.0513109e-34 2.7147767e-34
000250 fc 7b d4 07 62 bf 3e 08 0f 39 02 09 23 af 38 09
       3.1971086e-34 5.7401015e-34 1.567501e-33 2.2230543e-33
000260 20 53 23 09 2d ce 85 07 de 96 fd 06 f4 f5 10 08
       1.9659496e-33 2.0132795e-34 9.53897e-35 4.362254e-34
000270 90 b0 5f 07 ef 94 d8 07 5b 0d 91 08 d3 8b 33 07
       1.6828542e-34 3.2587603e-34 8.73001e-34 1.3507554e-34
000280 3e d1 38 08 0b a3 b4 07 09 90 22 05 14 c9 97 07
       5.561645e-34 2.7179218e-34 7.6436585e-36 2.2838138e-34
000290 81 c2 41 07 1f 30 ff 06 1f 30 ff 06 1f 30 ff 06
       1.4576866e-34 9.5991047e-35 9.5991047e-35 9.5991047e-35
0002a0 1f 30 ff 06 1f 30 ff 06 1f 30 ff 06 1f 30 ff 06
       9.5991047e-35 9.5991047e-35 9.5991047e-35 9.5991047e-35
0002b0 1f 30 ff 06 1a a5 fc 06 68 9e 97 07 ed cc fa 07
       9.5991047e-35 9.503446e-35 2.2813058e-34 3.7736264e-34
0002c0 c7 f5 b3 07 8a a5 0d 09 78 96 44 09 e9 7c e7 08
       2.7077382e-34 1.7050094e-33 2.3663392e-33 1.3932173e-33
0002d0 7d 79 c7 06 46 b5 87 07 f2 3e e5 07 7f c8 a1 08
       7.503399e-35 2.0419085e-34 3.4493086e-34 9.736971e-34
0002e0 30 36 6c 07 31 d5 05 06 4a 5c 54 08 12 fd d1 08
       1.7770591e-34 2.5171148e-35 6.3904915e-34 1.26382265e-33
0002f0 9f e2 7a 06 e3 ac 2a 04 88 06 c0 06 4c 56 8b 08
       4.718627e-35 2.006279e-36 7.223197e-35 8.3860465e-34
000300 66 2e fa 07 1f 30 ff 06 1f 30 ff 06 1f 30 ff 06
       3.764309e-34 9.5991047e-35 9.5991047e-35 9.5991047e-35
000310 1f 30 ff 06 1f 30 ff 06 1f 30 ff 06 1f 30 ff 06
       9.5991047e-35 9.5991047e-35 9.5991047e-35 9.5991047e-35
000320 1f 30 ff 06 12 8e 00 07 31 17 bc 07 0b 3d 5f 07
       9.5991047e-35 9.6714e-35 2.8300727e-34 1.6794594e-34
000330 3c 57 55 07 89 64 a7 08 23 7b 6e 08 ca 76 05 05
       1.6049975e-34 1.0074583e-33 7.1765266e-34 6.275448e-36
000340 43 92 e8 07 ca 58 07 09 4a 3f 65 09 76 f9 7f 09
       3.4993445e-34 1.6291782e-33 2.759463e-33 3.0811804e-33
000350 63 05 80 09 de 5c 54 09 c1 94 c7 09 c8 1e e0 09
       3.0819945e-33 2.5562238e-33 4.8047395e-33 5.3954985e-33
000360 ac 42 6a 09 2a 9a fe 07 f5 cf 05 07 13 70 c1 08
       2.8198074e-33 3.8308282e-34 1.0066921e-34 1.16421135e-33
000370 53 a2 70 08 1f 30 ff 06 1f 30 ff 06 1f 30 ff 06
       7.2413184e-34 9.5991047e-35 9.5991047e-35 9.5991047e-35
000380 1f 30 ff 06 1f 30 ff 06 1f 30 ff 06 51 5b f9 06
       9.5991047e-35 9.5991047e-35 9.5991047e-35 9.379757e-35
000390 87 31 86 06 ed 96 1d 07 dc 33 59 07 c1 91 0a 07
       5.047797e-35 1.185572e-34 1.6340506e-34 1.0424799e-34
0003a0 91 12 0e 07 92 b5 04 08 5b a9 e0 06 d9 f0 f1 07
       1.0688349e-34 3.993574e-34 8.450828e-35 3.6403207e-34
0003b0 ce 22 5b 09 c4 73 21 0a 65 cb 6a 0a 9e 40 44 0a
       2.6377531e-33 7.773641e-33 1.13049444e-32 9.44921e-33
0003c0 f5 03 32 0a f4 58 dc 09 06 1b 8b 0a e0 d7 8c 0a
       8.5711325e-33 5.3046725e-33 1.3395378e-32 1.3562713e-32
0003d0 26 26 4b 0a b4 4c 11 09 0e a3 6b 05 54 13 91 08
       9.7812694e-33 1.7489806e-33 1.1079595e-35 8.731414e-34
0003e0 cc 1a ae 07 1f 30 ff 06 1f 30 ff 06 1f 30 ff 06
       2.619636e-34 9.5991047e-35 9.5991047e-35 9.5991047e-35
0003f0 1f 30 ff 06 1f 30 ff 06 1f 30 ff 06 fb d2 c2 06
       9.5991047e-35 9.5991047e-35 9.5991047e-35 7.32847e-35

exp_avg f4 [4]
000000 04 00 00 00 04 00 00 00 04 00 00 00 04 00 00 00
       6e-45 6e-45 6e-45 6e-45

exp_avg_sq f4 [4]
000000 45 41 31 08 01 a6 a3 09 bb 65 8d 0c 77 f1 3b 08
       5.3340724e-34 3.9396932e-33 2.1785717e-31 5.6557106e-34

exp_avg f4 [8, 4]
000000 04 00 00 00 04 00 00 00 04 00 00 00 04 00 00 80
       6e-45 6e-45 6e-45 -6e-45
000010 04 00 00 80 04 00 00 80 04 00 00 00 04 00 00 80
       -6e-45 -6e-45 6e-45 -6e-45
000020 04 00 00 00 04 00 00 00 04 00 00 00 04 00 00 00
       6e-45 6e-45 6e-45 6e-45
000030 04 00 00 80 00 00 00 00 00 00 00 00 00 00 00 00
       -6e-45 0.0 0.0 0.0
000040 04 00 00 00 04 00 00 80 04 00 00 00 04 00 00 00
       6e-45 -6e-45 6e-45 6e-45
000050 04 00 00 00 04 00 00 80 04 00 00 00 04 00 00 00
       6e-45 -6e-45 6e-45 6e-45
000060 04 00 00 00 04 00 00 80 04 00 00 00 04 00 00 00
       6e-45 -6e-45 6e-45 6e-45
000070 04 00 00 00 04 00 00 00 04 00 00 00 04 00 00 80
       6e-45 6e-45 6e-45 -6e-45

exp_avg_sq f4 [8, 4]
000000 c2 3d 42 09 94 47 44 07 c9 4a db 05 90 ed 87 05
       2.3380939e-33 1.4766436e-34 2.0622133e-35 1.2782606e-35
000010 5a 6a 67 08 13 f7 45 0e de 90 87 0b bf e6 7c 06
       6.963905e-34 2.4401087e-30 5.221808e-32 4.7565458e-35
000020 50 62 09 08 b8 d5 07 0d 63 01 29 07 dd 01 b5 05
       4.1342504e-34 4.185734e-31 1.2714554e-34 1.7021843e-35
000030 b5 11 7e 06 00 00 00 00 00 00 00 00 00 00 00 00
       4.77851e-35 0.0 0.0 0.0
000040 f1 72 12 08 ec b4 38 05 54 67 1f 08 f0 56 6a 06
       4.407039e-34 8.6848685e-36 4.7968784e-34 4.407438e-35
000050 38 bc a3 07 7d c5 c2 0d ed c4 46 06 84 60 62 07
       2.463614e-34 1.2003717e-30 3.738434e-35 1.7030714e-34
000060 95 06 58 06 71 44 3f 0e fa 30 00 0b af c9 e4 05
       4.062992e-35 2.3575521e-30 2.468875e-32 2.1515104e-35
000070 49 e6 da 08 ed da 54 0e 52 7d 33 0c b1 b3 0b 08
       1.31745375e-33 2.6236426e-30 1.3827371e-31 4.2040017e-34

exp_avg f4 [8]
000000 04 00 00 00 04 00 00 00 04 00 00 00 04 00 00 00
       6e-45 6e-45 6e-45 6e-45
000010 04 00 00 00 04 00 00 00 04 00 00 00 04 00 00 00
       6e-45 6e-45 6e-45 6e-45

exp_avg_sq f4 [8]
000000 26 4e 7a 0d 79 42 77 0b b6 b6 ad 09 f0 eb 12 0c
       7.7131266e-31 4.7620478e-32 4.1820056e-33 1.1318431e-31
000010 ae 50 73 07 cb 11 c9 0c 7e ac 6c 0b 91 af b3 0b
       1.8304998e-34 3.0979662e-31 4.5581715e-32 6.9212455e-32

exp_avg f4 [10, 8]
000000 04 00 00 80 04 00 00 00 04 00 00 80 04 00 00 80
       -6e-45 6e-45 -6e-45 -6e-45
000010 04 00 00 80 04 00 00 80 04 00 00 80 04 00 00 80
       -6e-45 -6e-45 -6e-45 -6e-45
000020 04 00 00 80 04 00 00 00 04 00 00 00 04 00 00 80
       -6e-45 6e-45 6e-45 -6e-45
000030 04 00 00 80 04 00 00 80 04 00 00 80 04 00 00 80
       -6e-45 -6e-45 -6e-45 -6e-45
000040 04 00 00 80 04 00 00 80 04 00 00 80 04 00 00 00
       -6e-45 -6e-45 -6e-45 6e-45
000050 04 00 00 80 04 00 00 80 04 00 00 80 04 00 00 80
       -6e-45 -6e-45 -6e-45 -6e-45
000060 04 00 00 80 04 00 00 80 04 00 00 00 04 00 00 80
       -6e-45 -6e-45 6e-45 -6e-45
000070 04 00 00 80 04 00 00 80 04 00 00 80 04 00 00 80
       -6e-45 -6e-45 -6e-45 -6e-45
000080 04 00 00 80 04 00 00 00 04 00 00 00 04 00 00 00
       -6e-45 6e-45 6e-45 6e-45
000090 04 00 00 80 04 00 00 80 04 00 00 00 04 00 00 80
       -6e-45 -6e-45 6e-45 -6e-45
0000a0 04 00 00 80 04 00 00 80 04 00 00 00 04 00 00 00
       -6e-45 -6e-45 6e-45 6e-45
0000b0 04 00 00 80 04 00 00 80 04 00 00 80 04 00 00 80
       -6e-45 -6e-45 -6e-45 -6e-45
0000c0 04 00 00 80 04 00 00 00 04 00 00 80 04 00 00 80
       -6e-45 6e-45 -6e-45 -6e-45
0000d0 04 00 00 80 04 00 00 80 04 00 00 80 04 00 00 80
       -6e-45 -6e-45 -6e-45 -6e-45
0000e0 04 00 00 80 04 00 00 80 04 00 00 80 04 00 00 80
       -6e-45 -6e-45 -6e-45 -6e-45
0000f0 04 00 00 80 04 00 00 80 04 00 00 80 04 00 00 80
       -6e-45 -6e-45 -6e-45 -6e-45
000100 04 00 00 00 04 00 00 80 04 00 00 80 04 00 00 80
       6e-45 -6e-45 -6e-45 -6e-45
000110 04 00 00 00 04 00 00 00 04 00 00 80 04 00 00 00
       6e-45 6e-45 -6e-45 6e-45
000120 04 00 00 80 04 00 00 80 04 00 00 80 04 00 00 00
       -6e-45 -6e-45 -6e-45 6e-45
000130 04 00 00 80 04 00 00 80 04 00 00 80 04 00 00 80
       -6e-45 -6e-45 -6e-45 -6e-45

exp_avg_sq f4 [10, 8]
000000 18 e1 c7 0c 8d 60 59 09 09 af ab 0a a9 8d 41 08
       3.0796278e-31 2.6165823e-33 1.6532542e-32 5.8245346e-34
000010 4f df e5 06 da 29 8e 0b 32 a7 34 0a 96 3a 05 0c
       8.646835e-35 5.475938e-32 8.698131e-33 1.0263577e-31
000020 68 b2 1d 0c 0c f3 3f 0a ec 67 b9 08 f6 b9 02 09
       1.2148527e-31 9.2420275e-33 1.1158714e-33 1.573562e-33
000030 d9 9f 4a 06 d0 7f bc 08 c4 83 6b 0a d2 d0 e6 08
       3.8109415e-35 1.1344887e-33 1.1339621e-32 1.3891715e-33
000040 72 a3 5f 0b 1b 09 10 0d 18 c9 ff 0d d4 21 0b 04
       4.30712e-32 4.4384386e-31 1.5764e-30 1.6354905e-36
000050 d8 85 26 06 99 60 96 0e 08 47 ca 0d 5a 3e 19 0f
       3.1319463e-35 3.7070875e-30 1.2466311e-30 7.555491e-30
000060 b6 f3 33 0c 54 e4 51 0c 99 0b 25 0e 64 20 02 08
       1.3862997e-31 1.6169484e-31 2.0343404e-30 3.9158527e-34
000070 b4 6d c7 08 1c fd c4 0e 81 4e a3 0d 51 7f 49 0f
       1.2002668e-33 4.8561466e-30 1.006455e-30 9.934585e-30
000080 1d 0f c1 0a e8 90 87 0c aa 14 c6 08 ef d9 c4 08
       1.8590909e-32 2.0887256e-31 1.192155e-33 1.1847557e-33
000090 53 d0 2b 08 13 28 da 09 d2 4d e8 0c 21 68 de 0a
       5.1703325e-34 5.2519277e-33 3.5792096e-31 2.1416991e-32
0000a0 94 36 af 0b b6 07 b7 06 21 10 10 08 6d 71 f9 06
       6.748967e-32 6.884828e-35 4.3352383e-34 9.3830054e-35
0000b0 a5 fa da 06 20 e2 88 09 4c 92 38 07 39 86 95 09
       8.2370775e-35 3.2953456e-33 1.3885614e-34 3.5996668e-33
0000c0 db f1 e7 0b 8e dc 2b 06 33 f7 12 06 63 c7 04 08
       8.934187e-32 3.2323563e-35 2.764116e-35 3.9956683e-34
0000d0 f2 5d dd 06 3e f2 e1 09 dc 44 a8 06 1c 49 1a 0a
       8.3269e-35 5.4394583e-33 6.3295756e-35 7.4285806e-33
0000e0 15 1f ec 0b 72 a8 97 0a fb 1f ba 09 77 dd 40 08
       9.095066e-32 1.4604133e-32 4.4807945e-33 5.803823e-34
0000f0 61 15 8c 05 0f 5c 4b 0b e2 de d0 0a 33 43 b1 0b
       1.317339e-35 3.9165635e-32 2.011351e-32 6.827903e-32
000100 24 fb 8b 0c 89 7d 02 0b a8 63 7c 0a 80 dd dc 08
       2.156749e-31 2.513153e-32 1.2152102e-32 1.3292843e-33
000110 7e a9 5c 07 8b f5 67 0b e3 a3 25 0b bf 74 ec 0b
       1.660077e-34 4.4673708e-32 3.190114e-32 9.1079553e-32
000120 4c 7a 31 0b f4 49 c6 08 66 89 37 0a eb 9a 6e 09
       3.4180966e-32 1.1934078e-33 8.836971e-33 2.872105e-33
000130 2b 1c ee 05 be c8 f9 0a 13 f8 ce 09 40 84 64 0b
       2.239176e-35 2.4053339e-32 4.9825984e-33 4.4010697e-32

exp_avg f4 [10]
000000 ad cf 92 3a a1 e2 86 bb 75 33 07 39 26 f6 f1 3a
       0.0011200808 -0.0041163717 0.00012893773 0.0018460199
000010 da 01 b8 3a 52 cd 2b 37 fa 8e 45 ba a8 47 c6 3a
       0.0014038638 1.0240199e-05 -0.0007536259 0.0015127556
000020 6c 6d b6 ba 8f 8f 7b 39
       -0.0013918108 0.00023990705

exp_avg_sq f4 [10]
000000 10 b1 43 37 d6 5c 75 38 c4 63 3b 37 cc 21 c0 37
       1.1664131e-05 5.8499012e-05 1.1169297e-05 2.2903921e-05
000010 be 4e 0d 37 3c e3 fb 31 61 4a 2f 37 60 4f 07 38
       8.4225885e-06 7.330895e-09 1.04481305e-05 3.2260432e-05
000020 87 c0 23 37 e0 d9 44 37
       9.760383e-06 1.1733238e-05
