libraryExamples/mnist_lightning/.mnist_{epoch}-{val_loss:.2f}/epoch=786-step=676820.ckpt (torch, 712592 bytes, 60 tensors)

model.layer_1.mainModule.weight f4 [4, 784]
0	0xbd0638be	-0.032768957
1	0xbd5299d0	-0.05141622
2	0xbd52125e	-0.051287048
3	0xbd8ff303	-0.07028773
4	0xbd397afd	-0.045283306
5	0xbd994dbb	-0.07485529
6	0xbd109243	-0.035295736
7	0xbd33e680	-0.043920994
8	0xbd96d060	-0.07363963
9	0xbd8a4673	-0.06751718
10	0xbda6335a	-0.08115263
11	0xbd887bb5	-0.0666422
12	0xbd2c52fb	-0.042071324
13	0xbd0e736a	-0.034778036
14	0xbd984f5a	-0.0743701
15	0xbd8b367a	-0.067975
16	0xbd1f1401	-0.038837437
17	0xbdc299a0	-0.09501958
18	0xbdb670fe	-0.0890827
19	0xbdb04472	-0.08606805
20	0xbd99cf7e	-0.07510279
21	0xbd8e928f	-0.069615476
22	0xbd0a77a8	-0.03380552
23	0xbd993d99	-0.07482452
24	0xbd70f33b	-0.058825713
25	0xbdae6f3f	-0.08517312
26	0xbd02f994	-0.031976297
27	0xbdce435e	-0.10071443
28	0xbda7d491	-0.08194841
29	0xbd952920	-0.072832346
30	0xbdb31b0c	-0.08745393
31	0xbd3d301f	-0.04618847
32	0xbd89386c	-0.06700215
33	0xbd89c660	-0.0672729
34	0x3bcd00d0	0.0062562004
35	0x3d5679bf	0.0523622
36	0xbc22fc38	-0.009947829
37	0x3b79a9a0	0.003809549
38	0x3eb8e114	0.3610922
39	0x3d949a9b	0.07256051
40	0x3e6b7be0	0.22996473
41	0x3abef85d	0.0014569868
42	0xbe449af7	-0.1919974
43	0xbd7bfbd9	-0.061519478
44	0x3ed34ebd	0.4127101
45	0x3e86db6f	0.2633929
46	0x3db1fddf	0.08691
47	0x3e5a2b75	0.2130564
48	0x3ddbab37	0.10726016
49	0xbcca8491	-0.024721416
50	0xbd3832dc	-0.04497038
51	0xb989bee9	-0.00026272915
52	0xbdbbf893	-0.09178271
53	0xbd488110	-0.04895121
54	0xbd8dbbab	-0.069205604
55	0xbd1eba14	-0.038751677
56	0xbd88ed09	-0.06685836
57	0xbd774201	-0.06036568
58	0xbd97d0a9	-0.07412846
59	0xbd349381	-0.044085983
60	0xbdb659c9	-0.08903844
61	0xbd475b58	-0.048671097
62	0x3c647b59	0.013945424
63	0x3de51672	0.11185922
64	0x3ca9b52a	0.020716269
65	0x3e91821b	0.28419575
66	0x3e27671e	0.1634793
67	0x3eec7bf3	0.46188316
68	0x3e0915a2	0.13387159
69	0x3ee47de2	0.4462729
70	0x3e2c62f5	0.16834624
71	0x3e1836d2	0.14864662
72	0x3e4eeac9	0.20206751
73	0x3f1a7713	0.6033794
74	0x3ed295b9	0.41129854
75	0x3ef05506	0.46939868
76	0x3e1bdecd	0.1522171
77	0x3e0cab5d	0.13737245
78	0x3c7a1046	0.015262669
79	0x3dcdc733	0.1004776
80	0x3e517a93	0.20456915
81	0x3dfff432	0.124977484
82	0xbd9c9837	-0.0764622
83	0xbd17e46b	-0.03708307
84	0xbda86be4	-0.082237035
85	0xbd4d0a2a	-0.05005852
86	0xbd72f632	-0.05931682
87	0x3c81451a	0.01578002
88	0xbd8d8e26	-0.06911878
89	0xbe1d3a8d	-0.15354367
90	0xbe1205f1	-0.14260079
91	0x3eaecc7d	0.34140387
92	0xbf09cfa4	-0.5383246
93	0x3ba61baf	0.005069218
94	0x3e3790f7	0.17926393
95	0x3e9c15d2	0.30485398
96	0x3f75ebb7	0.960628
97	0x3ea8e0a8	0.329839
98	0x3dffb1e3	0.12485101
99	0x3d6eaf67	0.058272745
100	0xbbd782cd	-0.006576872
101	0x3e951708	0.29119134
102	0xbea1fc61	-0.31637862
103	0xbe0cc8c2	-0.13748458
104	0xbe698ee9	-0.22808422
105	0x3e6424de	0.22279689
106	0x3e4e93cc	0.20173568
107	0x3e668be5	0.22514303
108	0x3e81dd85	0.25364318
109	0x3d96b703	0.073591255
110	0x3ce5c0ac	0.028045975
111	0xbd447fdf	-0.04797351
112	0xbdbf3b7a	-0.09337516
113	0xbdac3394	-0.08408275
114	0xbdc585a5	-0.09644631
115	0xbba1a1f0	-0.0049326345
116	0xbe95ef22	-0.29284006
117	0xbef8e935	-0.48615423
118	0x3eb252ec	0.3482889
119	0x3e38f819	0.18063392
120	0x3e5727b1	0.21011235
121	0xbea5e372	-0.3240009
122	0x3f77b09e	0.9675387
123	0x3e239952	0.15976456
124	0x3e209d9e	0.15685126
125	0x3f2dfffa	0.67968714
126	0x3f12cc0f	0.5734262
127	0x3f0a623c	0.54056144
128	0xbc500578	-0.012696616
129	0xbed34a98	-0.41267848
130	0x3eb70ee9	0.35753563
131	0xbd8a5124	-0.067537576
132	0x3e6c2c7a	0.23063841
133	0xbec1d5aa	-0.37858325
134	0xbeb3d826	-0.35125846
135	0xbf6abc39	-0.91693455
136	0xbe618b4b	-0.22025792
137	0x3d1f6008	0.038909942
138	0xbac4d49f	-0.0015016979
139	0xbd8e2129	-0.069399185
140	0xbd9d9214	-0.07693878
141	0xbda84f9a	-0.08218308
142	0xbbd5ddb5	-0.0065266737
143	0xbdcaaaca	-0.09895857
144	0xbe011d3d	-0.1260881
145	0xbed6c8df	-0.41950127
146	0x3e96b9bd	0.29438582
147	0x3f266f99	0.65014035
148	0x3f10cca4	0.56562257
149	0x3e051e72	0.12999895
150	0x3f1586f3	0.5840904
151	0x3f26c2a5	0.65140754
152	0x3f20d993	0.6283199
153	0x3d806000	0.062683105
154	0xbccb3bc0	-0.024808764
155	0x3ef71b5c	0.4826306
156	0xba0d66ce	-0.0005394042
157	0xbeaa0415	-0.3320624
158	0x3e24528e	0.16047117
159	0xbe0c1385	-0.13679321
160	0xbe8a907b	-0.27063355
161	0xbeffc566	-0.4995529
162	0x3dcde6ff	0.10053825
163	0xbfada89f	-1.3567084
164	0xbf2b89db	-0.67007226
165	0xbee32f32	-0.44371945
166	0xbe2903d2	-0.16505364
167	0xbdc6bb33	-0.09703674
168	0xbd537965	-0.051629443
169	0xbd356f9b	-0.04429589
170	0xbd8bf537	-0.068338804
171	0xbe34fe9a	-0.17675248
172	0x3f2024f2	0.62556374
173	0x3d99a5fa	0.07502361
174	0x3ddaaadd	0.10677121
175	0x3f01f6fe	0.50767505
176	0x3e9af23f	0.30262944
177	0xbed10d3f	-0.40830418
178	0x3e8e122d	0.27748242
179	0x3eb5a16b	0.35474715
180	0x3f131a01	0.57461554
181	0x3ee3fcf0	0.44528913
182	0x3ee36bff	0.44418332
183	0xbd57dbb3	-0.052699756
184	0x3eb947f5	0.3618771
185	0x3d9c1825	0.07621793
186	0x3cc092e1	0.023507537
187	0xbea35220	-0.31898594
188	0x3e892861	0.2678862
189	0xbe3c8042	-0.18408301
190	0xbe0b17cb	-0.13583295
191	0xbe4ecebe	-0.20196053
192	0xbf7b4c80	-0.98163605
193	0xbeb9013c	-0.36133754
194	0xbe6de256	-0.23230872
195	0xbd9f453b	-0.077768765
196	0xbd34a0d8	-0.044098705
197	0xbd1c4807	-0.038154628
198	0x3d310356	0.043216072
199	0x3e0db7ce	0.13839647
200	0x3f880d01	1.0628968
201	0x3eef319e	0.46717542
202	0x3efdd6e4	0.4957801
203	0xbedabf86	-0.42724246
204	0xbac49ea2	-0.001500089
205	0xbe8f6bac	-0.28011835
206	0xbe0eccc9	-0.13945307
207	0xbe26be54	-0.16283542
208	0x3eb26f3d	0.34850493
209	0x3eafd563	0.3434249
210	0x3e523d77	0.2053126
211	0x3e8b8555	0.27250162
212	0x3f0ad86d	0.5423649
213	0x3e659830	0.22421336
214	0xbec03e3a	-0.37547475
215	0xbe70eaf4	-0.23527128
216	0xbe12232c	-0.1427123
217	0xbe8794bd	-0.26480666
218	0xbf1ad4f4	-0.6048119
219	0xbe922c9b	-0.28549656
220	0xbf8f056b	-1.1173528
221	0xbeddf541	-0.43351176
222	0xbef2093f	-0.4727268
223	0xbd5cd7fe	-0.053916924
224	0xbdbbf118	-0.09176844
225	0xbd3fd8ca	-0.046837606
226	0xbc4aab69	-0.012369969
227	0xbe1862a1	-0.14881374
228	0x3f55cbc3	0.8351404
229	0x3ea9694b	0.33088145
230	0x3f391803	0.72302264
231	0x3e841091	0.2579389
232	0x3db11b77	0.08647817
233	0x3f0d4a9d	0.55191976
234	0x3e73b768	0.23800433
235	0x3e421653	0.18953829
236	0x3d82d904	0.06389049
237	0x3f1e236a	0.6177279
238	0xbd90db14	-0.07073036
239	0x3e8f61f1	0.2800441
240	0xbd2b51c2	-0.041826017
241	0x3d8e055e	0.069346175
242	0x3f2af318	0.6677718
243	0x3f1caabf	0.6119804
244	0xbdbaeb73	-0.091269396
245	0x3f05120a	0.5198065
246	0xbe8722ac	-0.2639364
247	0xbf9d3c67	-1.2284058
248	0xbf379c64	-0.7172301
249	0xbf0d302d	-0.55151635
250	0xbea33a3d	-0.3188037
251	0x3c9f5b9d	0.019452864
252	0xbde2962e	-0.11063801
253	0xbdc214d2	-0.094766274
254	0x3c031b7e	0.00800216
255	0xbe274482	-0.16334727

model.layer_1.mainModule.bias f4 [4]
0	0x3d2e2ccb	0.042523187
1	0x3eb318ab	0.34979758
2	0x3d0ec9b3	0.034860324
3	0xbdfca404	-0.12335971

model.layer_1.pb.parentModule.weight f4 [4, 784]
0	0x3d0964cf	0.033543404
1	0x3c740d81	0.014895798
2	0x3c762b1c	0.0150249265
3	0xbb807125	-0.003919738
4	0x3cac453a	0.021029104
5	0xbc0b0df3	-0.0084872125
6	0x3cfe16d8	0.031016752
7	0x3cb76e8a	0.022391576
8	0xbbee489c	-0.0072718393
9	0xba96a36e	-0.0011492798
10	0xbc72393c	-0.014784154
11	0xb98f8e4a	-0.000273811
12	0x3cc6e64e	0.02427974
13	0x3cee8685	0.029116878
14	0xbc2fc901	-0.010729075
15	0xbadf7b4a	-0.0017050293
16	0x3ce113da	0.027475286
17	0xbceab601	-0.02865124
18	0xbcba137c	-0.022714369
19	0xbca1614a	-0.019699711
20	0xbc0f1bb7	-0.008734635
21	0xbb54d225	-0.0032473889
22	0x3d052600	0.032506943
23	0xbc0a8cf3	-0.0084564565
24	0x3bf54fd3	0.0074863224
25	0xbc9a0c80	-0.018804789
26	0x3d0ca40e	0.034336142
27	0xbd0cae7d	-0.034346092
28	0xbc7f42fc	-0.015579935
29	0xbbd3d565	-0.0064646476
30	0xbcacbbb5	-0.0210856
31	0x3ca4da9e	0.020123776
32	0xba2463b7	-0.0006270962
33	0xba989a93	-0.0011642746
34	0x3c72bef8	0.014816038
35	0xbccab963	-0.024746602
36	0xbc30d0fc	-0.010792013
37	0x3cad88be	0.021183368
38	0xbc967fda	-0.018371511
39	0xbd0f1167	-0.034928706
40	0x3cb3595a	0.021893192
41	0x3c8de87a	0.017322768
42	0xbc1440e0	-0.0090486705
43	0x3cbcbaa5	0.023038218
44	0xbc9ea63c	-0.019366376
45	0x3c794fae	0.015216751
46	0xbc9c1320	-0.019052088
47	0xbc6ce8a1	-0.01445976
48	0xbd00f11c	-0.03147994
49	0xbc968eae	-0.018378582
50	0xbb6dc925	-0.0036283222
51	0x3d041592	0.032247134
52	0xbcd031cc	-0.02541437
53	0x3c8e3883	0.017360931
54	0xbb39fa5c	-0.0028377986
55	0x3ce1c7ea	0.027561147
56	0xba0082dc	-0.0004902312
57	0x3bc2d981	0.0059463386
58	0xbbffbadc	-0.007804258
59	0x3cb49dc1	0.02204788
60	0xbcb2b865	-0.021816442
61	0x3cbd83f5	0.023134211
62	0x3d116ecf	0.035506066
63	0xbc9dcdf0	-0.019263238
64	0xbc31f041	-0.010860504
65	0x3b93b6ae	0.004507861
66	0xbb231d80	-0.002488941
67	0x3b3e46b7	0.0029033849
68	0xbcbe72fa	-0.023248184
69	0x3cee9f73	0.029128766
70	0x3c19f7ee	0.00939749
71	0xbbfb8a6e	-0.007676414
72	0xbc2c2501	-0.010506869
73	0x3c9b4d4e	0.01895776
74	0x3cc76961	0.02434224
75	0x3bf44fee	0.0074558174
76	0xb9a5dd25	-0.00031636018
77	0x3d089ba4	0.033351555
78	0xbcddebba	-0.027089942
79	0x3cf6a003	0.030105596
80	0xbca61bc7	-0.020276917
81	0x3c3be073	0.011467087
82	0xbc2560d3	-0.0100938855
83	0x3cef7355	0.0292298
84	0xbc81fee5	-0.015868613
85	0x3c85263c	0.016253583
86	0x3c9318da	0.017956186
87	0xbcfff72a	-0.031245787
88	0xbb4a4b81	-0.0030867758
89	0xbceb0cda	-0.028692652
90	0xbcf69328	-0.030099466
91	0xbca634c3	-0.02028883
92	0x3d04d204	0.03242685
93	0xbb18a080	-0.0023289025
94	0xbc9fd043	-0.019508487
95	0x3acb33b7	0.0015503083
96	0x3cb024aa	0.021501858
97	0x3c905caa	0.01762231
98	0x3c02392e	0.007948203
99	0xbb95fce5	-0.0045772665
100	0x3ba375dc	0.004988415
101	0xbc918dd3	-0.017767822
102	0xbc56bdb7	-0.013106755
103	0xbc67a701	-0.014138938
104	0xbbc90777	-0.006134923
105	0xbc9ddbd7	-0.019269867
106	0x3cd03b0c	0.02541878
107	0x3c4fa70e	0.012674106
108	0x3ce72f0e	0.02822068
109	0xbca4078a	-0.020023126
110	0xbc66a698	-0.014077805
111	0x3c963ae3	0.018338626
112	0xbcdd3d68	-0.02700682
113	0xbc8c5dda	-0.017134596
114	0x3bffb9c1	0.007804126
115	0x3cf8818e	0.030335214
116	0xbced5a13	-0.028973615
117	0x3a6af2dc	0.00089625805
118	0xbc24f86e	-0.010068996
119	0xbc9c21fa	-0.01905917
120	0xbc941895	-0.018078128
121	0xbce6f8fc	-0.028194897
122	0xbce3b9e1	-0.027798595
123	0xbc3e7985	-0.011625652
124	0xbc6e3a0a	-0.014540205
125	0x3ce613ec	0.028085671
126	0x3c3b7085	0.011440401
127	0x3cfd5cd1	0.030928047
128	0x3c288a45	0.010286872
129	0x3cf3ceea	0.02976175
130	0xbc17f2ea	-0.009274224
131	0xbb833840	-0.0040045083
132	0x3c51fae5	0.012816166
133	0x3ba20d6e	0.0049454486
134	0xbc6a2133	-0.014290142
135	0xbcb01333	-0.02149353
136	0xbd055833	-0.032554816
137	0xbc2cb353	-0.010540801
138	0xbc3a67f7	-0.011377326
139	0xbc3bdab3	-0.011465716
140	0xbc2d2f73	-0.010570395
141	0xbc818dd5	-0.015814701
142	0x3d088c2f	0.033336814
143	0x3d10abe4	0.035320178
144	0xbc474125	-0.012161528
145	0xbc6e363c	-0.014539298
146	0x3bab3641	0.0052249734
147	0x3ccede05	0.025252352
148	0xbbbe4693	-0.005806753
149	0x3adbb501	0.0016762317
150	0x3b46b3ca	0.0030319565
151	0x3c42b5fc	0.011884209
152	0xbc16f6aa	-0.009214083
153	0xbcd70f4a	-0.026252408
154	0x3d0ef1f5	0.034898717
155	0xbc6f5345	-0.014607255
156	0x3c8882e7	0.016663982
157	0xbd11b5d3	-0.03557379
158	0xbb5d246e	-0.0033743638
159	0xbd04d5f5	-0.032430608
160	0x3c4aa2ca	0.0123679135
161	0xbc126685	-0.008935575
162	0x3c9d15e3	0.019175475
163	0x3cb347a1	0.021884741
164	0x3c515b17	0.012778065
165	0x3ceb3665	0.02871246
166	0xbd0e587f	-0.034752365
167	0xbc3ff1d3	-0.01171537
168	0x3c708f13	0.014682549
169	0x3cae2575	0.021258095
170	0x3c79b065	0.01523981
171	0xbd064ce0	-0.032788157
172	0x3c4ef577	0.012631766
173	0xbd0c0673	-0.034185838
174	0xbb6e4525	-0.0036357131
175	0x3b6a8f01	0.0035790803
176	0x3c9fa305	0.019486913
177	0x3d0400d0	0.032227337
178	0xbc36e16e	-0.011162145
179	0xbb266500	-0.002538979
180	0x3cb3db83	0.021955257
181	0x3ccf3e7c	0.02529835
182	0x3cf508d5	0.029911438
183	0x3ccf0637	0.025271518
184	0x3d09e55c	0.033666
185	0x3b305825	0.0026908007
186	0x3c970aae	0.01843771
187	0xbcc1bf7e	-0.02365088
188	0xbb3803a5	-0.0028078344
189	0xbd056d44	-0.032574907
190	0x3a840725	0.001007293
191	0xbd085a9e	-0.033289544
192	0xbc95f3ba	-0.018304694
193	0xbc59bfce	-0.013290359
194	0xbb8acc8a	-0.0042358087
195	0x3cde9d8c	0.027174734
196	0x3cb5f9cc	0.022213839
197	0x3c6dc133	0.014511394
198	0x3becbc93	0.0072246282
199	0x3b83bfca	0.004020666
200	0xbcc1bf91	-0.023650916
201	0xbcd587ea	-0.026065785
202	0x3c277100	0.010219812
203	0x3b990d13	0.004670748
204	0x3c4f5d1c	0.012656476
205	0x3a4d836e	0.0007839714
206	0x3aa74625	0.0012761994
207	0x3cf9b3ee	0.030481305
208	0xbd04dc66	-0.03243675
209	0x3cb64b3a	0.022252668
210	0x3a78d5b8	0.0009492296
211	0x3d10130b	0.03517441
212	0xbcd0813c	-0.025452249
213	0xbc9b610e	-0.018967178
214	0x3ca621b7	0.020279748
215	0xbd0b0963	-0.0339445
216	0xbafaac01	-0.0019124747
217	0x3c7c0e65	0.015384291
218	0x3cdf9975	0.027294854
219	0x3bae8437	0.00532582
220	0x3c92b4f7	0.017908556
221	0xbcd66d7a	-0.02617525
222	0x3b951a2e	0.00455024
223	0x3b6d3a25	0.0036197987
224	0xbced7f71	-0.028991433
225	0x3d0a16ab	0.033713024
226	0xbd00ac5b	-0.03141437
227	0x3c89e7b3	0.016834116
228	0x3ce167b1	0.027515264
229	0x3ac32a6e	0.0014889964
230	0xbbd6aa5c	-0.00655107
231	0xb9e9ad25	-0.00044570226
232	0xbcaefa53	-0.021359598
233	0x3c1a4cb3	0.009417701
234	0x3cbaae1c	0.0227881
235	0x3a89514a	0.0010476497
236	0xbba73b6e	-0.00510352
237	0xbcb8dc9c	-0.022566132
238	0xbce3ce51	-0.02780834
239	0xbc26684a	-0.0101567
240	0xbc671d4e	-0.014106108
241	0x3d0a664e	0.03378897
242	0x3cf6e22a	0.03013714
243	0xbb713413	-0.003680472
244	0xbc62172e	-0.013799472
245	0xbcbc4f21	-0.02298695
246	0x3cc23891	0.023708614
247	0x3bcbdb77	0.0062212306
248	0x3d08518b	0.03328089
249	0x3ca1abfc	0.019735329
250	0xb8683b6e	-5.536846e-05
251	0xbc213e8a	-0.009841571
252	0xbc9e1caa	-0.019300777
253	0x3a038200	0.0005016625
254	0xbb5df9a5	-0.0033870724
255	0x3bec8a81	0.0072186594

model.layer_1.pb.parentModule.bias f4 [4]
0	0xbcc2e2d1	-0.023789795
1	0x3c46cc8a	0.012133727
2	0xbcc05d81	-0.023482086
3	0x3c3fbc73	0.011702645

model.layer_1.pb.pbValues.0.topPBCandidateAverage f4 [4]
0	0x00000000	0.0
1	0x00000000	0.0
2	0x00000000	0.0
3	0x00000000	0.0

model.layer_1.pb.pbValues.0.PrevPBCandidateCorrelation f4 [4]
0	0x00000000	0.0
1	0x00000000	0.0
2	0x00000000	0.0
3	0x00000000	0.0

model.layer_1.pb.pbValues.0.currentCorrelationsForParallel f4 [4]
0	0x00000000	0.0
1	0x00000000	0.0
2	0x00000000	0.0
3	0x00000000	0.0

model.layer_1.pb.pbValues.0.bestScore f4 [4]
0	0x00000000	0.0
1	0x00000000	0.0
2	0x00000000	0.0
3	0x00000000	0.0

model.layer_1.pb.pbValues.0.previousBestScore f4 [4]
0	0x00000000	0.0
1	0x00000000	0.0
2	0x00000000	0.0
3	0x00000000	0.0

model.layer_1.pb.pbValues.0.PrevPBCandidateAverage f4 [4]
0	0x00000000	0.0
1	0x00000000	0.0
2	0x00000000	0.0
3	0x00000000	0.0

model.layer_1.pb.pbValues.0.mainGradAverageForScaling f4 [4]
0	0x00000000	0.0
1	0x00000000	0.0
2	0x00000000	0.0
3	0x00000000	0.0

model.layer_1.pb.pbValues.0.candidateGradAverageForScaling f4 [4]
0	0x00000000	0.0
1	0x00000000	0.0
2	0x00000000	0.0
3	0x00000000	0.0

model.layer_1.pb.pbValues.0.indexesOfbest f4 [4]
0	0x00000000	0.0
1	0x00000000	0.0
2	0x00000000	0.0
3	0x00000000	0.0

model.layer_1.pb.pbValues.0.nodesBestImprovedThisEpoch f4 [4]
0	0x00000000	0.0
1	0x00000000	0.0
2	0x00000000	0.0
3	0x00000000	0.0

model.layer_1.pb.pbValues.0.parentsAverageDvector f4 [4]
0	0x00000000	0.0
1	0x00000000	0.0
2	0x00000000	0.0
3	0x00000000	0.0

model.layer_1.pb.pbValues.0.normalPassAverageD f4 [4]
0	0x3673ed34	3.6347892e-06
1	0xb71ccb3d	-9.345645e-06
2	0x369d2889	4.6836835e-06
3	0x379cc90c	1.8690269e-05

model.layer_2.mainModule.weight f4 [8, 4]
0	0x3fa203a1	1.2657357
1	0x3b9952b1	0.004679047
2	0xbf444af3	-0.76676863
3	0xbe573636	-0.21016774
4	0x3ee44e47	0.4459097
5	0x3fb0485a	1.377208
6	0x3e52226e	0.20520946
7	0xbf828ef5	-1.0199877
8	0xbedf1d89	-0.4357722
9	0xbebff67c	-0.3749274
10	0x3e76d616	0.24105105
11	0xc02a0412	-2.6564984
12	0x3f2daebf	0.67844766
13	0x3f70a8ca	0.9400755
14	0xbefd88f9	-0.49518564
15	0x3fc97e60	1.5741692
16	0xbe0fe7ea	-0.14053312
17	0x3f7839eb	0.96963376
18	0xbea293e6	-0.31753463
19	0xbe236671	-0.15957047
20	0xbe1e97f5	-0.15487655
21	0x3f831aaf	1.0242518
22	0xbdedfc73	-0.116204165
23	0xbf6820f0	-0.9067526
24	0x3fa6b3c9	1.3023616
25	0x3bf953e3	0.007608877
26	0xbd06ad60	-0.032880187
27	0xbf3acb63	-0.72966594
28	0xbe8988f3	-0.26862296
29	0x3e20a450	0.1568768
30	0x3fdab0d9	1.708522
31	0xbf168161	-0.58791167

model.layer_2.mainModule.bias f4 [8]
0	0x3f91dfef	1.1396464
1	0xc0cb922a	-6.3615923
2	0x4039c1fd	2.902465
3	0xc051407c	-3.2695608
4	0xbe7a0ac2	-0.24418166
5	0x40e0d6da	7.026227
6	0x3ffeb73c	1.9899669
7	0xbf52f6f7	-0.8240809

model.layer_2.pb.parentModule.weight f4 [8, 4]
0	0x3e9f6f1c	0.31139457
1	0x3e72c4a4	0.23707825
2	0xbdc180e0	-0.09448409
3	0x3d289880	0.04116106
4	0x3d9ae7f0	0.0756377
5	0x3eef870c	0.4678272
6	0xbdf87310	-0.121313214
7	0xbe806b58	-0.25081897
8	0xbeae0e36	-0.33995217
9	0xbe481388	-0.195387
10	0x3e101524	0.14070565
11	0xbe5668cc	-0.20938414
12	0x3d445dd0	0.04794103
13	0x3eeaa65c	0.45830047
14	0xbeb09720	-0.344903
15	0x3e05bef0	0.13061118
16	0xbe616930	-0.22012782
17	0x3ea6f3f0	0.32607985
18	0x3df075f8	0.11741251
19	0xbd44a110	-0.048005164
20	0xbec686ae	-0.38774627
21	0x3e877f82	0.26464468
22	0xbe3c7644	-0.1840449
23	0xbe83f4c6	-0.25772685
24	0x3e8565f8	0.26054358
25	0xbe8212b0	-0.25404882
26	0xbee73cae	-0.45163482
27	0xbe9c0da8	-0.3047917
28	0xbdcd7b60	-0.100332975
29	0x3d77ad70	0.060468137
30	0x3eec7ee6	0.46190566
31	0xbe91d0d0	-0.28479624

model.layer_2.pb.parentModule.bias f4 [8]
0	0x3d25a5e0	0.040441394
1	0xbc958b60	-0.018254936
2	0x3e0e9848	0.13925278
3	0xbe73f74c	-0.23824805
4	0xbe469870	-0.19394088
5	0xbe749304	-0.23884207
6	0x3ee02e70	0.4378543
7	0xbe6383dc	-0.22218269

model.layer_2.pb.pbValues.0.topPBCandidateAverage f4 [8]
0	0x00000000	0.0
1	0x00000000	0.0
2	0x00000000	0.0
3	0x00000000	0.0
4	0x00000000	0.0
5	0x00000000	0.0
6	0x00000000	0.0
7	0x00000000	0.0

model.layer_2.pb.pbValues.0.PrevPBCandidateCorrelation f4 [8]
0	0x00000000	0.0
1	0x00000000	0.0
2	0x00000000	0.0
3	0x00000000	0.0
4	0x00000000	0.0
5	0x00000000	0.0
6	0x00000000	0.0
7	0x00000000	0.0

model.layer_2.pb.pbValues.0.currentCorrelationsForParallel f4 [8]
0	0x00000000	0.0
1	0x00000000	0.0
2	0x00000000	0.0
3	0x00000000	0.0
4	0x00000000	0.0
5	0x00000000	0.0
6	0x00000000	0.0
7	0x00000000	0.0

model.layer_2.pb.pbValues.0.bestScore f4 [8]
0	0x00000000	0.0
1	0x00000000	0.0
2	0x00000000	0.0
3	0x00000000	0.0
4	0x00000000	0.0
5	0x00000000	0.0
6	0x00000000	0.0
7	0x00000000	0.0

model.layer_2.pb.pbValues.0.previousBestScore f4 [8]
0	0x00000000	0.0
1	0x00000000	0.0
2	0x00000000	0.0
3	0x00000000	0.0
4	0x00000000	0.0
5	0x00000000	0.0
6	0x00000000	0.0
7	0x00000000	0.0

model.layer_2.pb.pbValues.0.PrevPBCandidateAverage f4 [8]
0	0x00000000	0.0
1	0x00000000	0.0
2	0x00000000	0.0
3	0x00000000	0.0
4	0x00000000	0.0
5	0x00000000	0.0
6	0x00000000	0.0
7	0x00000000	0.0

model.layer_2.pb.pbValues.0.mainGradAverageForScaling f4 [8]
0	0x00000000	0.0
1	0x00000000	0.0
2	0x00000000	0.0
3	0x00000000	0.0
4	0x00000000	0.0
5	0x00000000	0.0
6	0x00000000	0.0
7	0x00000000	0.0

model.layer_2.pb.pbValues.0.candidateGradAverageForScaling f4 [8]
0	0x00000000	0.0
1	0x00000000	0.0
2	0x00000000	0.0
3	0x00000000	0.0
4	0x00000000	0.0
5	0x00000000	0.0
6	0x00000000	0.0
7	0x00000000	0.0

model.layer_2.pb.pbValues.0.indexesOfbest f4 [8]
0	0x00000000	0.0
1	0x00000000	0.0
2	0x00000000	0.0
3	0x00000000	0.0
4	0x00000000	0.0
5	0x00000000	0.0
6	0x00000000	0.0
7	0x00000000	0.0

model.layer_2.pb.pbValues.0.nodesBestImprovedThisEpoch f4 [8]
0	0x00000000	0.0
1	0x00000000	0.0
2	0x00000000	0.0
3	0x00000000	0.0
4	0x00000000	0.0
5	0x00000000	0.0
6	0x00000000	0.0
7	0x00000000	0.0

model.layer_2.pb.pbValues.0.parentsAverageDvector f4 [8]
0	0x00000000	0.0
1	0x00000000	0.0
2	0x00000000	0.0
3	0x00000000	0.0
4	0x00000000	0.0
5	0x00000000	0.0
6	0x00000000	0.0
7	0x00000000	0.0

model.layer_2.pb.pbValues.0.normalPassAverageD f4 [8]
0	0xb68e7805	-4.245902e-06
1	0x36613eef	3.3564245e-06
2	0x366750fa	3.4468817e-06
3	0x36cce9d2	6.106894e-06
4	0xb6a527ee	-4.9220316e-06
5	0xb74a88c6	-1.2071983e-05
6	0x35cfb9ac	1.547674e-06
7	0x351fbdf4	5.9508534e-07

model.layer_3.mainModule.weight f4 [10, 8]
0	0x3e988682	0.2979012
1	0xbe4c4843	-0.1994944
2	0xc05d6528	-3.459299
3	0xbf85145d	-1.0396839
4	0x3f12ab53	0.5729267
5	0x3fcfc5f3	1.6232284
6	0xbf251194	-0.6447995
7	0xbf644ad6	-0.8917669
8	0x3ddfc2e2	0.10925843
9	0x3f2f5a66	0.6849731
10	0xc0ce79d5	-6.452372
11	0xbe50dc81	-0.20396616
12	0xc0151d48	-2.3299122
13	0xc09bc122	-4.867326
14	0x3e1ba74c	0.15200537
15	0x3e20a808	0.15689099
16	0x3fa67a1d	1.3006016
17	0xbf67c611	-0.905366
18	0xc01e1b26	-2.470407
19	0xbf748204	-0.9551089
20	0x3d955740	0.07292032
21	0x3ebdc358	0.37063098
22	0x3faa2204	1.3291631
23	0xbf523954	-0.82118726
24	0x3bd716c2	0.0065639922
25	0x3f143634	0.5789521
26	0xc0c181c3	-6.04709
27	0xbe09bf60	-0.1345191
28	0x3eca4c0e	0.3951115
29	0xbeb0bb69	-0.34517983
30	0x3e5628fd	0.20914073
31	0xbed49190	-0.41517305
32	0x3bf63b2a	0.007514377
33	0xbf92bd75	-1.1464068
34	0xbe19f72c	-0.15035695
35	0x3e4f3075	0.20233329
36	0xbf13e6dd	-0.57774144
37	0xbfe60c49	-1.7972499
38	0xbfe5569b	-1.7917055
39	0x3f837c1e	1.0272253
40	0xc0302c4d	-2.752704
41	0x3e683582	0.22676662
42	0xbfc5fdb0	-1.5468044
43	0xbecfced7	-0.40587494
44	0x3ebc961e	0.3683328
45	0x3ea265b5	0.3171822
46	0xbef78776	-0.48345536
47	0x3e3ae0fc	0.18249887
48	0xbef32765	-0.47490993
49	0xbfadf5d1	-1.3590642
50	0x4068f846	3.6401534
51	0xbfa32d80	-1.274826
52	0x3da2addd	0.07943318
53	0x3c73b1e1	0.014873953
54	0x3f796deb	0.97433347
55	0x3ef7c6e0	0.48393917
56	0x3ef2d084	0.4742471
57	0xbf57b990	-0.8426752
58	0xc0822157	-4.06657
59	0x3f5569c3	0.83364505
60	0x3f5b3f1a	0.8564316
61	0xbf0b60d3	-0.5444462
62	0xbeedf229	-0.46473816
63	0xbf8ab7cf	-1.0837344
64	0xbe9132fd	-0.28359213
65	0x3fb1ab78	1.3880453
66	0xc02e4445	-2.7229168
67	0xbeff5372	-0.4986835
68	0x3e1b3af9	0.15159215
69	0xbfd86772	-1.6906569
70	0xbea58a83	-0.3233224
71	0x3ed8c1e0	0.42335415
72	0xc00be238	-2.1856823
73	0xbf0f27d3	-0.5592014
74	0xbfe4d3f3	-1.7877182
75	0x3f8fee7d	1.1244656
76	0xbf3ed7e9	-0.745482
77	0xc001bd6c	-2.0271864
78	0xbf8c7ae3	-1.0975002
79	0xbe65269e	-0.22378013

model.layer_3.mainModule.bias f4 [10]
0	0x40b528b9	5.661221
1	0xbee724ee	-0.45145363
2	0x406e5fcc	3.724597
3	0xbffc2396	-1.969836
4	0x40bb2bb8	5.8490868
5	0x402c492a	2.6919656
6	0x3f5885e1	0.84579283
7	0xbfe79de5	-1.809506
8	0xc0d46bc3	-6.6381545
9	0xc001de57	-2.0291955

model.layer_3.pb.parentModule.weight f4 [10, 8]
0	0xbcb76c0b	-0.022390386
1	0x3e3b0ce2	0.18266633
2	0x3ccff2b6	0.025384288
3	0x3e0a9e65	0.13536985
4	0x3e7bd306	0.24592218
5	0x3e35f36f	0.17768644
6	0x3eb3ac73	0.35092506
7	0x3c1afab3	0.009459185
8	0x3e8bb918	0.27289653
9	0x3d16860c	0.03674893
10	0x3da0396e	0.07823454
11	0x3d04d639	0.03243086
12	0xbe0eec53	-0.13957338
13	0xbe8cff26	-0.27538413
14	0x3e672397	0.2257217
15	0x3d222298	0.039583772
16	0x3ea6a2e1	0.32546142
17	0xbd9c037d	-0.07617853
18	0xbe8d6258	-0.27614093
19	0xbe18e15e	-0.14929721
20	0x3eb410ac	0.3516897
21	0x3d6c72a3	0.057726514
22	0x3eb112a0	0.34584522
23	0xba49977b	-0.0007690114
24	0xbdef34e2	-0.116800085
25	0x3ddc1b5a	0.107474044
26	0x3e2f7bd7	0.17137085
27	0xbe08c44b	-0.1335613
28	0x3e950206	0.29103106
29	0xbea107af	-0.31451175
30	0x3e0b6c46	0.13615522
31	0xbdc12c27	-0.094322495
32	0x3e4399bc	0.19101614
33	0x3e05c1db	0.13062231
34	0xbe71b922	-0.23605779
35	0xbe148b08	-0.14506161
36	0x3e9247d1	0.28570417
37	0x3e87d5e2	0.26530367
38	0xbe962350	-0.29323816
39	0xbdc96497	-0.09833639
40	0x3c919673	0.017771935
41	0x3e62bb64	0.22141796
42	0xbe2c0bd6	-0.1680139
43	0xbd0b9582	-0.03407813
44	0x3dae749f	0.085183375
45	0xbea8c399	-0.3296173
46	0xbdca06fb	-0.09864613
47	0xbe906b63	-0.2820693
48	0xbea05de0	-0.3132162
49	0xbe900d25	-0.28135028
50	0xbe831ba8	-0.25607038
51	0x3dd981ad	0.10620437
52	0x3e5b7d5e	0.21434543
53	0xbd691cc3	-0.056912195
54	0x3ea3163f	0.3185291
55	0x3e2e1f75	0.17004187
56	0xbe940e93	-0.2891737
57	0x3e3bd58f	0.18343185
58	0x3e7b91e4	0.24567372
59	0x3ea848a8	0.32867932
60	0x3e824265	0.2544128
61	0xbe909374	-0.28237498
62	0xbe81fa5d	-0.25386325
63	0x3d4c745a	0.04991565
64	0xbe583f42	-0.21117881
65	0x3e76bfb1	0.24096562
66	0x3ea7a428	0.3274243
67	0xbe9da87d	-0.3079261
68	0x3ea4e998	0.32209468
69	0xbca3cff0	-0.019996613
70	0x3dc221eb	0.094791256
71	0x3dceca6f	0.10097205
72	0xbe00cb92	-0.12577656
73	0xbe524166	-0.2053276
74	0xbe2ad5a3	-0.16683058
75	0x3e873f4d	0.26415482
76	0xbe6365e7	-0.22206841
77	0xbeaf92c6	-0.34291667
78	0x3da82b8e	0.082114324
79	0xbdabb76a	-0.08384593

model.layer_3.pb.parentModule.bias f4 [10]
0	0xbe11ca25	-0.14237268
1	0xbe9c04e0	-0.3047247
2	0xbe378728	-0.17922652
3	0x3e1785a8	0.1479708
4	0xbe9b0a31	-0.30281213
5	0x3e3758f1	0.17905022
6	0xbe248be3	-0.16068988
7	0x3e4bcba1	0.19901897
8	0x3ea66122	0.3249598
9	0x3eb38887	0.350651

model.layer_3.pb.pbValues.0.topPBCandidateAverage f4 [10]
0	0x00000000	0.0
1	0x00000000	0.0
2	0x00000000	0.0
3	0x00000000	0.0
4	0x00000000	0.0
5	0x00000000	0.0
6	0x00000000	0.0
7	0x00000000	0.0
8	0x00000000	0.0
9	0x00000000	0.0

model.layer_3.pb.pbValues.0.PrevPBCandidateCorrelation f4 [10]
0	0x00000000	0.0
1	0x00000000	0.0
2	0x00000000	0.0
3	0x00000000	0.0
4	0x00000000	0.0
5	0x00000000	0.0
6	0x00000000	0.0
7	0x00000000	0.0
8	0x00000000	0.0
9	0x00000000	0.0

model.layer_3.pb.pbValues.0.currentCorrelationsForParallel f4 [10]
0	0x00000000	0.0
1	0x00000000	0.0
2	0x00000000	0.0
3	0x00000000	0.0
4	0x00000000	0.0
5	0x00000000	0.0
6	0x00000000	0.0
7	0x00000000	0.0
8	0x00000000	0.0
9	0x00000000	0.0

model.layer_3.pb.pbValues.0.bestScore f4 [10]
0	0x00000000	0.0
1	0x00000000	0.0
2	0x00000000	0.0
3	0x00000000	0.0
4	0x00000000	0.0
5	0x00000000	0.0
6	0x00000000	0.0
7	0x00000000	0.0
8	0x00000000	0.0
9	0x00000000	0.0

model.layer_3.pb.pbValues.0.previousBestScore f4 [10]
0	0x00000000	0.0
1	0x00000000	0.0
2	0x00000000	0.0
3	0x00000000	0.0
4	0x00000000	0.0
5	0x00000000	0.0
6	0x00000000	0.0
7	0x00000000	0.0
8	0x00000000	0.0
9	0x00000000	0.0

model.layer_3.pb.pbValues.0.PrevPBCandidateAverage f4 [10]
0	0x00000000	0.0
1	0x00000000	0.0
2	0x00000000	0.0
3	0x00000000	0.0
4	0x00000000	0.0
5	0x00000000	0.0
6	0x00000000	0.0
7	0x00000000	0.0
8	0x00000000	0.0
9	0x00000000	0.0

model.layer_3.pb.pbValues.0.mainGradAverageForScaling f4 [10]
0	0x00000000	0.0
1	0x00000000	0.0
2	0x00000000	0.0
3	0x00000000	0.0
4	0x00000000	0.0
5	0x00000000	0.0
6	0x00000000	0.0
7	0x00000000	0.0
8	0x00000000	0.0
9	0x00000000	0.0

model.layer_3.pb.pbValues.0.candidateGradAverageForScaling f4 [10]
0	0x00000000	0.0
1	0x00000000	0.0
2	0x00000000	0.0
3	0x00000000	0.0
4	0x00000000	0.0
5	0x00000000	0.0
6	0x00000000	0.0
7	0x00000000	0.0
8	0x00000000	0.0
9	0x00000000	0.0

model.layer_3.pb.pbValues.0.indexesOfbest f4 [10]
0	0x00000000	0.0
1	0x00000000	0.0
2	0x00000000	0.0
3	0x00000000	0.0
4	0x00000000	0.0
5	0x00000000	0.0
6	0x00000000	0.0
7	0x00000000	0.0
8	0x00000000	0.0
9	0x00000000	0.0

model.layer_3.pb.pbValues.0.nodesBestImprovedThisEpoch f4 [10]
0	0x00000000	0.0
1	0x00000000	0.0
2	0x00000000	0.0
3	0x00000000	0.0
4	0x00000000	0.0
5	0x00000000	0.0
6	0x00000000	0.0
7	0x00000000	0.0
8	0x00000000	0.0
9	0x00000000	0.0

model.layer_3.pb.pbValues.0.parentsAverageDvector f4 [10]
0	0x00000000	0.0
1	0x00000000	0.0
2	0x00000000	0.0
3	0x00000000	0.0
4	0x00000000	0.0
5	0x00000000	0.0
6	0x00000000	0.0
7	0x00000000	0.0
8	0x00000000	0.0
9	0x00000000	0.0

model.layer_3.pb.pbValues.0.normalPassAverageD f4 [10]
0	0xb651d2e0	-3.1266172e-06
1	0x343ba039	1.7474021e-07
2	0xb4f2ba63	-4.5211627e-07
3	0x35d516c2	1.587636e-06
4	0xb65f074a	-3.3233832e-06
5	0x332618f4	3.867258e-08
6	0x355ad26f	8.151755e-07
7	0xb62d7a88	-2.5850331e-06
8	0x350ba427	5.202041e-07
9	0x36d5185a	6.3507296e-06

exp_avg f4 [4, 784]
0	0x3a0875ea	0.0005205559
1	0x3a0875ea	0.0005205559
2	0x3a0875ea	0.0005205559
3	0x3a0875ea	0.0005205559
4	0x3a0875ea	0.0005205559
5	0x3a0875ea	0.0005205559
6	0x3a0875ea	0.0005205559
7	0x3a0875ea	0.0005205559
8	0x3a0875ea	0.0005205559
9	0x3a0875ea	0.0005205559
10	0x3a0875ea	0.0005205559
11	0x3a0875ea	0.0005205559
12	0x3a0875ea	0.0005205559
13	0x3a0875ea	0.0005205559
14	0x3a0875ea	0.0005205559
15	0x3a0875ea	0.0005205559
16	0x3a0875ea	0.0005205559
17	0x3a0875ea	0.0005205559
18	0x3a0875ea	0.0005205559
19	0x3a0875ea	0.0005205559
20	0x3a0875ea	0.0005205559
21	0x3a0875ea	0.0005205559
22	0x3a0875ea	0.0005205559
23	0x3a0875ea	0.0005205559
24	0x3a0875ea	0.0005205559
25	0x3a0875ea	0.0005205559
26	0x3a0875ea	0.0005205559
27	0x3a0875ea	0.0005205559
28	0x3a0875ea	0.0005205559
29	0x3a0875ea	0.0005205559
30	0x3a0875ea	0.0005205559
31	0x3a0875ea	0.0005205559
32	0x3a0875ea	0.0005205559
33	0x3a0875ea	0.0005205559
34	0x3a0875ea	0.0005205559
35	0x3a0875ea	0.0005205559
36	0x3a0875ea	0.0005205559
37	0x3a087693	0.0005205657
38	0x3a0877ba	0.0005205829
39	0x3a0877c1	0.0005205833
40	0x3a087693	0.0005205657
41	0x3a0875ed	0.00052055606
42	0x3a0875ed	0.00052055606
43	0x3a0875ea	0.0005205559
44	0x3a0875ea	0.0005205559
45	0x3a0875ea	0.0005205559
46	0x3a0875ea	0.0005205559
47	0x3a0875ea	0.0005205559
48	0x3a0875ea	0.0005205559
49	0x3a0875ea	0.0005205559
50	0x3a0875ea	0.0005205559
51	0x3a0875ea	0.0005205559
52	0x3a0875ea	0.0005205559
53	0x3a0875ea	0.0005205559
54	0x3a0875ea	0.0005205559
55	0x3a0875ea	0.0005205559
56	0x3a0875ea	0.0005205559
57	0x3a0875ea	0.0005205559
58	0x3a0875ea	0.0005205559
59	0x3a0875ea	0.0005205559
60	0x3a0875ea	0.0005205559
61	0x3a0875ea	0.0005205559
62	0x3a0875ea	0.0005205559
63	0x3a087784	0.00052057975
64	0x3a088076	0.00052071305
65	0x3a087766	0.000520578
66	0x3a0877c1	0.0005205833
67	0x3a0877c8	0.0005205837
68	0x3a087721	0.000520574
69	0x3a0875e3	0.0005205555
70	0x3a0875de	0.0005205552
71	0x3a0875df	0.00052055524
72	0x3a0875e3	0.0005205555
73	0x3a0875e3	0.0005205555
74	0x3a0875f6	0.0005205566
75	0x3a087615	0.0005205584
76	0x3a0876b6	0.00052056776
77	0x3a087804	0.0005205872
78	0x3a08761a	0.0005205587
79	0x3a0875ea	0.0005205559
80	0x3a0875ea	0.0005205559
81	0x3a0875ea	0.0005205559
82	0x3a0875ea	0.0005205559
83	0x3a0875ea	0.0005205559
84	0x3a0875ea	0.0005205559
85	0x3a0875ea	0.0005205559
86	0x3a0875ea	0.0005205559
87	0x3a0875ea	0.0005205559
88	0x3a0875ea	0.0005205559
89	0x3a087b83	0.0005206393
90	0x3a0892c9	0.0005209861
91	0x3a08b7a2	0.00052153517
92	0x3a090225	0.0005226455
93	0x3a08a1be	0.000521209
94	0x3a0884c7	0.00052077736
95	0x3a088c47	0.0005208891
96	0x3a0882b1	0.0005207463
97	0x3a0b9a26	0.0005325399
98	0x3a092615	0.000523181
99	0x39fda94d	0.0004838206
100	0x39f5feaf	0.00046919796
101	0x39f71dd3	0.00047133732
102	0x39f18d2e	0.0004607229
103	0x39f76a2e	0.0004719062
104	0x3a014e72	0.0004932649
105	0x3a085a4b	0.0005201443
106	0x3a087569	0.0005205484
107	0x3a0875ea	0.0005205559
108	0x3a0875ea	0.0005205559
109	0x3a0875ea	0.0005205559
110	0x3a0875ea	0.0005205559
111	0x3a0875ea	0.0005205559
112	0x3a0875ea	0.0005205559
113	0x3a0875ea	0.0005205559
114	0x3a0875ea	0.0005205559
115	0x3a0875ea	0.0005205559
116	0x3a0875ed	0.00052055606
117	0x3a088349	0.00052075513
118	0x3a08a7ac	0.00052129733
119	0x3a07961b	0.0005172209
120	0x3a402504	0.00073297345
121	0x3a97c007	0.0011577614
122	0x3a95a45e	0.0011416783
123	0x3a9f460c	0.0012151613
124	0x3a3c4a1c	0.0007182674
125	0xb882da76	-6.2395746e-05
126	0xbabcb23b	-0.0014396379
127	0xbad132d4	-0.0015960583
128	0xbaeccb22	-0.0018065909
129	0xbaa3af9b	-0.0012488248
130	0xba06e460	-0.0005145725
131	0x39f49f9e	0.0004665823
132	0x39f8f854	0.00047487265
133	0x39f89373	0.00047412104
134	0x3a06ed4b	0.0005147054
135	0x3a07f390	0.0005186135
136	0x3a085538	0.0005200687
137	0x3a0875ea	0.0005205559
138	0x3a0875ea	0.0005205559
139	0x3a0875ea	0.0005205559
140	0x3a0875ea	0.0005205559
141	0x3a0875ea	0.0005205559
142	0x3a0875ea	0.0005205559
143	0x3a086c4a	0.00052041246
144	0x3a0848e4	0.000519885
145	0x3a081ebb	0.00051925675
146	0x3a04d52b	0.0005067165
147	0x39f571d3	0.00046814847
148	0x3a68e0c1	0.00088835886
149	0x3a87ece1	0.0010370278
150	0x39ad5ec6	0.00033067743
151	0xba25394c	-0.00063027884
152	0xba8da66b	-0.0010807043
153	0xba5ee2c5	-0.0008502419
154	0xbb0af94c	-0.0021205721
155	0xbb4f14ae	-0.003159802
156	0xbb34a18d	-0.0027562112
157	0xbb038e7b	-0.0020073939
158	0xba7d9165	-0.00096728496
159	0xb9a7990a	-0.00031966745
160	0x39ac030e	0.00032808672
161	0x3998f597	0.00029174678
162	0x39d8fc07	0.00041386505
163	0x3a001213	0.0004885506
164	0x3a08858d	0.0005207889
165	0x3a088d5a	0.00052090513
166	0x3a0875ea	0.0005205559
167	0x3a0875ea	0.0005205559
168	0x3a0875ea	0.0005205559
169	0x3a0875ea	0.0005205559
170	0x3a0875ea	0.0005205559
171	0x3a07b463	0.0005176721
172	0x3a0825e5	0.0005193635
173	0x3a05d73f	0.00051056215
174	0x3a0d20d1	0.0005383613
175	0x398ce745	0.0002687519
176	0x3a1c5d89	0.00059648656
177	0x3a641a6b	0.00087014463
178	0x38c6e83c	9.484633e-05
179	0xba95cbce	-0.0011428536
180	0xbaabe287	-0.0013113775
181	0xbab689fc	-0.0013926621
182	0xbb25a77a	-0.0025276826
183	0xbb786257	-0.0037900412
184	0xbb6ddfc3	-0.0036296702
185	0xbb703794	-0.003665422
186	0xbb286b02	-0.0025698547
187	0xbaf632a0	-0.0018783398
188	0xba422411	-0.0007405887
189	0x38ca186b	9.636659e-05
190	0x389d1c47	7.4916104e-05
191	0x39bf8052	0.00036525965
192	0x3a0d1bb3	0.00053828506
193	0x3a0cf53a	0.0005377118
194	0x3a0b09de	0.00053038995
195	0x3a0875ea	0.0005205559
196	0x3a0875ea	0.0005205559
197	0x3a08772b	0.00052057457
198	0x3a08a866	0.00052130816
199	0x3a08683f	0.0005203522
200	0x3a08c5a9	0.0005217442
201	0x3a083eb0	0.00051973294
202	0x39f1547e	0.00046030054
203	0x398d7556	0.00026981038
204	0x3a174c9e	0.000577161
205	0x3a6cba03	0.00090304035
206	0x3a26addd	0.0006358305
207	0xba94f329	-0.0011363971
208	0xbaed43d6	-0.0018101882
209	0xbb3269c1	-0.0027223679
210	0xbb5b56c3	-0.0033468462
211	0xbb6919ec	-0.003556843
212	0xbb48df9b	-0.0030650857
213	0xbb6cf903	-0.0036159165
214	0xbb690719	-0.003555721
215	0xbb2d615c	-0.0026455736
216	0xbb0c9962	-0.0021453728
217	0xb805de23	-3.1916552e-05
218	0x375061d8	1.2420547e-05
219	0x39e7540d	0.00044122376
220	0x3a0c687c	0.00053561456
221	0x3a0ce100	0.0005374104
222	0x3a0b32fe	0.00053100276
223	0x3a0875ea	0.0005205559
224	0x3a0875ea	0.0005205559
225	0x3a0876f0	0.00052057113
226	0x3a09f5a6	0.000526274
227	0x3a0a42c8	0.00052742334
228	0x3a0e985c	0.00054395734
229	0x3a43633d	0.00074534473
230	0x3a53f728	0.00080858404
231	0x3a106219	0.0005507782
232	0x3a40eba1	0.000735933
233	0x3a2d0cba	0.00066013227
234	0x39046fa7	0.00012630095
235	0xba8f740e	-0.0010944621
236	0xbb021321	-0.0019847827
237	0xbb133391	-0.0022461156
238	0xbb472d15	-0.0030391861
239	0xbb5d3b41	-0.0033757242
240	0xbb26189b	-0.0025344256
241	0xba37a1d5	-0.0007005011
242	0xbad2ec99	-0.001609224
243	0xbb2f5782	-0.002675504
244	0xbae9e1a2	-0.0017843733
245	0x3941f2be	0.00018496343
246	0x39c1ae0c	0.00036941504
247	0x39db844c	0.00041869504
248	0x3a0c5c07	0.00053542893
249	0x3a0a8d51	0.000528534
250	0x3a08962e	0.0005210367
251	0x3a0875ea	0.0005205559
252	0x3a0875ea	0.0005205559
253	0x3a0875ea	0.0005205559
254	0x3a090756	0.00052272284
255	0x3a0a4959	0.0005275212

exp_avg_sq f4 [4, 784]
0	0x369e586d	4.719061e-06
1	0x369e586d	4.719061e-06
2	0x369e586d	4.719061e-06
3	0x369e586d	4.719061e-06
4	0x369e586d	4.719061e-06
5	0x369e586d	4.719061e-06
6	0x369e586d	4.719061e-06
7	0x369e586d	4.719061e-06
8	0x369e586d	4.719061e-06
9	0x369e586d	4.719061e-06
10	0x369e586d	4.719061e-06
11	0x369e586d	4.719061e-06
12	0x369e586d	4.719061e-06
13	0x369e586d	4.719061e-06
14	0x369e586d	4.719061e-06
15	0x369e586d	4.719061e-06
16	0x369e586d	4.719061e-06
17	0x369e586d	4.719061e-06
18	0x369e586d	4.719061e-06
19	0x369e586d	4.719061e-06
20	0x369e586d	4.719061e-06
21	0x369e586d	4.719061e-06
22	0x369e586d	4.719061e-06
23	0x369e586d	4.719061e-06
24	0x369e586d	4.719061e-06
25	0x369e586d	4.719061e-06
26	0x369e586d	4.719061e-06
27	0x369e586d	4.719061e-06
28	0x369e586d	4.719061e-06
29	0x369e586d	4.719061e-06
30	0x369e586d	4.719061e-06
31	0x369e586d	4.719061e-06
32	0x369e586d	4.719061e-06
33	0x369e586d	4.719061e-06
34	0x369e586d	4.719061e-06
35	0x369e586d	4.719061e-06
36	0x369e586d	4.719061e-06
37	0x369ea512	4.7279837e-06
38	0x36a0116b	4.7703993e-06
39	0x369e14f6	4.711207e-06
40	0x369de7db	4.705956e-06
41	0x369e5069	4.718128e-06
42	0x369e585d	4.719054e-06
43	0x369e5562	4.718707e-06
44	0x369e5397	4.718498e-06
45	0x369e5510	4.7186695e-06
46	0x369e5868	4.719059e-06
47	0x369e5885	4.719072e-06
48	0x369e5870	4.7190624e-06
49	0x369e586d	4.719061e-06
50	0x369e586d	4.719061e-06
51	0x369e586d	4.719061e-06
52	0x369e586d	4.719061e-06
53	0x369e586d	4.719061e-06
54	0x369e586d	4.719061e-06
55	0x369e586d	4.719061e-06
56	0x369e586d	4.719061e-06
57	0x369e586d	4.719061e-06
58	0x369e586d	4.719061e-06
59	0x369e586d	4.719061e-06
60	0x369e586d	4.719061e-06
61	0x369e586d	4.719061e-06
62	0x369e586d	4.719061e-06
63	0x369e5852	4.719049e-06
64	0x369e5812	4.7190197e-06
65	0x369fb954	4.7601443e-06
66	0x36a1ca89	4.821752e-06
67	0x36a392f8	4.874888e-06
68	0x36a2fe1f	4.85756e-06
69	0x36b4387d	5.370994e-06
70	0x36daae64	6.517208e-06
71	0x36bc0986	5.6039453e-06
72	0x36a91a8e	5.039684e-06
73	0x36a55fc8	4.9285336e-06
74	0x36a02205	4.772332e-06
75	0x369fb11a	4.7591866e-06
76	0x369e5272	4.718365e-06
77	0x369df72b	4.7077388e-06
78	0x369e58ae	4.7190906e-06
79	0x369e614d	4.7200942e-06
80	0x369e98b0	4.726542e-06
81	0x369e67b6	4.7208405e-06
82	0x369e586d	4.719061e-06
83	0x369e586d	4.719061e-06
84	0x369e586d	4.719061e-06
85	0x369e586d	4.719061e-06
86	0x369e586d	4.719061e-06
87	0x369e63d0	4.7203866e-06
88	0x369e586d	4.719061e-06
89	0x369e58b8	4.719095e-06
90	0x369e5d05	4.719596e-06
91	0x369e98fd	4.726577e-06
92	0x369e06d2	4.709561e-06
93	0x36a092a2	4.785442e-06
94	0x36abdc63	5.1218535e-06
95	0x36b97d2e	5.5280025e-06
96	0x36f54bc0	7.3103874e-06
97	0x37303cd5	1.0504581e-05
98	0x3755a3b1	1.2733902e-05
99	0x375b62cf	1.3076423e-05
100	0x373c8a24	1.1237837e-05
101	0x36e1c545	6.7284877e-06
102	0x36bdb9e8	5.6542813e-06
103	0x36b4597d	5.374836e-06
104	0x36a42bf3	4.8926972e-06
105	0x36a38cd8	4.874175e-06
106	0x36a11f2f	4.801804e-06
107	0x369eddb9	4.734579e-06
108	0x369e649b	4.720479e-06
109	0x369e57c5	4.7189847e-06
110	0x369e5973	4.71918e-06
111	0x369e586d	4.719061e-06
112	0x369e586d	4.719061e-06
113	0x369e586d	4.719061e-06
114	0x369e586d	4.719061e-06
115	0x369e650b	4.72053e-06
116	0x369e549d	4.718617e-06
117	0x369e9070	4.7255817e-06
118	0x36a3b28d	4.8785646e-06
119	0x36b68846	5.439887e-06
120	0x36ccf7ec	6.1085357e-06
121	0x3702b5b2	7.790908e-06
122	0x373f446b	1.1400417e-05
123	0x378d5897	1.6849763e-05
124	0x37e8813f	2.771674e-05
125	0x38188b8d	3.636959e-05
126	0x381e9e4d	3.7817565e-05
127	0x385c4d30	5.2523974e-05
128	0x3850748a	4.96996e-05
129	0x3814440c	3.5349323e-05
130	0x378fc6eb	1.7139557e-05
131	0x3741903f	1.1537281e-05
132	0x3761b353	1.3452797e-05
133	0x36f63334	7.337332e-06
134	0x36c47681	5.855051e-06
135	0x36daa651	6.516268e-06
136	0x36c44d0b	5.850224e-06
137	0x369e9018	4.7255417e-06
138	0x369e5785	4.7189556e-06
139	0x369e5801	4.719012e-06
140	0x369e586d	4.719061e-06
141	0x369e586d	4.719061e-06
142	0x369e586d	4.719061e-06
143	0x369e66e7	4.7207463e-06
144	0x36a002b7	4.7686876e-06
145	0x36a595c0	4.9348164e-06
146	0x36c3583b	5.8217242e-06
147	0x371d0bc2	9.360667e-06
148	0x376cbf32	1.4111212e-05
149	0x3798fd26	1.8237693e-05
150	0x37d21809	2.5045143e-05
151	0x381f1176	3.7924816e-05
152	0x386ae497	5.600284e-05
153	0x388b35b3	6.638039e-05
154	0x38afdc54	8.3856896e-05
155	0x38b70eee	8.728901e-05
156	0x3899aa06	7.327278e-05
157	0x3884b8d7	6.3286796e-05
158	0x3847a5bd	4.7599653e-05
159	0x37f8e52d	2.9670622e-05
160	0x37b1edce	2.121078e-05
161	0x3774ad88	1.4583937e-05
162	0x3730e5cf	1.0543924e-05
163	0x36ec8115	7.048375e-06
164	0x36c57e4b	5.88576e-06
165	0x369e7994	4.7229205e-06
166	0x369e568c	4.7188423e-06
167	0x369e57c1	4.718983e-06
168	0x369e586d	4.719061e-06
169	0x369e586d	4.719061e-06
170	0x369e586b	4.71906e-06
171	0x369ef6be	4.7374915e-06
172	0x36a8c674	5.029893e-06
173	0x36c5dbe6	5.896657e-06
174	0x370ea67b	8.502621e-06
175	0x377ea471	1.5177867e-05
176	0x37ba150b	2.2182727e-05
177	0x3804d5bf	3.167032e-05
178	0x38580afe	5.150865e-05
179	0x389cd969	7.4791555e-05
180	0x38afe58b	8.387406e-05
181	0x38c57877	9.41613e-05
182	0x38edc6cd	0.0001133807
183	0x38dee43c	0.00010628297
184	0x38b0f8ac	8.438653e-05
185	0x38a38b09	7.798343e-05
186	0x38833adc	6.25753e-05
187	0x3826396b	3.963096e-05
188	0x37d649e6	2.55452e-05
189	0x378673b3	1.6027921e-05
190	0x373e3ba1	1.1338766e-05
191	0x36d97e95	6.48184e-06
192	0x36c4de7e	5.8671567e-06
193	0x369f129b	4.740735e-06
194	0x369e5d22	4.719609e-06
195	0x369e584f	4.7190474e-06
196	0x369e586d	4.719061e-06
197	0x369e5872	4.7190633e-06
198	0x369e506a	4.7181284e-06
199	0x36ad0288	5.1560964e-06
200	0x36bbb9a6	5.5946466e-06
201	0x36ed6dee	7.075948e-06
202	0x374a3145	1.205161e-05
203	0x3796bae5	1.7968423e-05
204	0x37c98ca8	2.4026565e-05
205	0x382e6b8a	4.1584986e-05
206	0x388cbe73	6.711194e-05
207	0x38ab3078	8.1629434e-05
208	0x38aa0e13	8.108853e-05
209	0x38ba55be	8.885142e-05
210	0x38d264e2	0.00010032371
211	0x38b9c865	8.858814e-05
212	0x38adfc15	8.296237e-05
213	0x38b26f01	8.5083775e-05
214	0x38a06283	7.647744e-05
215	0x3865890d	5.4725493e-05
216	0x381c5103	3.7268746e-05
217	0x37b1281f	2.1118727e-05
218	0x37728fa5	1.4457769e-05
219	0x37207d91	9.565979e-06
220	0x36e1bdb4	6.727607e-06
221	0x369e5398	4.7184985e-06
222	0x369f533b	4.7482586e-06
223	0x369e1f03	4.712377e-06
224	0x369e589c	4.7190824e-06
225	0x369e5a87	4.7193057e-06
226	0x369ed5c0	4.7336507e-06
227	0x36b0b275	5.265984e-06
228	0x36d0bda3	6.2209597e-06
229	0x370a4a1c	8.242696e-06
230	0x3751e53d	1.2510744e-05
231	0x3791264f	1.7303186e-05
232	0x37bd3716	2.2556207e-05
233	0x3841b5e4	4.6184185e-05
234	0x3882507e	6.213876e-05
235	0x388d345c	6.7331566e-05
236	0x389b2b19	7.3990035e-05
237	0x38b482ce	8.607433e-05
238	0x38a108d3	7.678722e-05
239	0x38951b43	7.1099515e-05
240	0x3895f7c1	7.1510214e-05
241	0x38a0c717	7.666478e-05
242	0x38a479ee	7.8428406e-05
243	0x387de8ff	6.0536895e-05
244	0x38331061	4.269218e-05
245	0x37e13fe4	2.6851842e-05
246	0x375f30d6	1.3303206e-05
247	0x370e8a5b	8.496073e-06
248	0x36acdf65	5.152006e-06
249	0x36a0e888	4.795442e-06
250	0x369dc0f3	4.701427e-06
251	0x369df300	4.7072535e-06
252	0x369e5861	4.7190556e-06
253	0x369e585d	4.719054e-06
254	0x369e5563	4.7187073e-06
255	0x36a163c6	4.809789e-06

exp_avg f4 [4]
0	0xbaa0d6f9	-0.0012271098
1	0x3ad200cc	0.0016021966
2	0x3ab04b6a	0.001345021
3	0xbae49f28	-0.0017442452

exp_avg_sq f4 [4]
0	0x37dbfa34	2.6223344e-05
1	0x37a2eb19	1.942138e-05
2	0x37fc9aec	3.0112882e-05
3	0x37f7291e	2.9463841e-05

exp_avg f4 [8, 4]
0	0xbce329ff	-0.027729986
1	0xbc98eeb6	-0.018668514
2	0xbccea36a	-0.025224406
3	0xbbac8d43	-0.005265863
4	0x3cc45015	0.023963967
5	0x3c9b8277	0.018983109
6	0x3cb3e2fe	0.021958824
7	0x3c8c1e91	0.017104419
8	0xb9ec6414	-0.00045087992
9	0x3a1de4c5	0.0006023164
10	0xbb171bc2	-0.0023057316
11	0xb8e830fa	-0.00011071745
12	0xbc65cd1d	-0.014025954
13	0xbb69fc47	-0.0035703348
14	0xbc24ea4c	-0.010065626
15	0xbc19c004	-0.009384159
16	0x3b1566fa	0.0022796975
17	0xbb983adc	-0.0046456885
18	0xbb1886d8	-0.0023273733
19	0xbbfe3249	-0.0077574593
20	0x3d399e02	0.045316704
21	0x3ccb0915	0.024784604
22	0x3d234a44	0.039865747
23	0x3c0a0cbd	0.008425889
24	0xba0fc809	-0.00054848247
25	0x3a47123a	0.00075939635
26	0x3b4cce8c	0.0031251041
27	0x3c16bbdd	0.0092000635
28	0x3c7368fe	0.014856575
29	0x3ba04ae6	0.004891741
30	0x3c551e40	0.0130077
31	0x3c0bfc67	0.008544064

exp_avg_sq f4 [8, 4]
0	0x3bd71820	0.006564155
1	0x3c2a18fb	0.010381932
2	0x3bcd4019	0.0062637446
3	0x3b198649	0.0023425987
4	0x3c1773f1	0.009243951
5	0x3c0afbf5	0.008482923
6	0x3c382fa5	0.011241828
7	0x3b110ca9	0.002213279
8	0x39168a52	0.00014356643
9	0x398e220e	0.00027109723
10	0x3ad64003	0.0016345981
11	0x35a0cc94	1.1980469e-06
12	0x3b48d0ea	0.00306421
13	0x3b728212	0.0037003797
14	0x3b809ecd	0.0039251805
15	0x3b17a791	0.002314065
16	0x3b15b766	0.002284491
17	0x3ba8225e	0.00513105
18	0x3b747e68	0.003730679
19	0x3b833f70	0.004005365
20	0x3c639e35	0.0138927
21	0x3ca1a9ee	0.01973435
22	0x3ca0c57e	0.019625422
23	0x3b933d2f	0.0044933776
24	0x3b92bfbc	0.004478423
25	0x3b4a6e2a	0.0030888417
26	0x3b856222	0.0040705362
27	0x3a86358d	0.0010239348
28	0x3b6f78ee	0.0036540586
29	0x3bbae243	0.005703242
30	0x3bc7aa63	0.0060933097
31	0x3b7d892b	0.0038686495

exp_avg f4 [8]
0	0xba58893f	-0.00082601974
1	0x3a333d8b	0.0006837479
2	0x385ed937	5.313122e-05
3	0xb92ae062	-0.00016296052
4	0xb887dae3	-6.4780725e-05
5	0x3a7b9c17	0.00095981493
6	0xb8469f09	-4.735499e-05
7	0x39acad17	0.00032935358

exp_avg_sq f4 [8]
0	0x36e93f66	6.9513217e-06
1	0x36e535b2	6.830983e-06
2	0x36af8e2b	5.231957e-06
3	0x3653b8ff	3.1549132e-06
4	0x3642bff9	2.9019996e-06
5	0x376c8538	1.4097714e-05
6	0x367cf5ac	3.7693926e-06
7	0x369743ac	4.5080287e-06

exp_avg f4 [10, 8]
0	0x3b15b549	0.002284365
1	0x3b5407a7	0.0032353194
2	0xb7e5fd1a	-2.7416787e-05
3	0x3b36aa43	0.002787248
4	0x3ad9ea1a	0.0016625554
5	0x3b1337c3	0.0022463656
6	0x3b2bc8a0	0.002621211
7	0xb9baeac9	-0.00035651613
8	0xbb63596a	-0.0034690746
9	0xbbfbc668	-0.007683564
10	0x2988a167	6.067612e-14
11	0xbc225350	-0.009907559
12	0xb8726b57	-5.7797264e-05
13	0xba4693c0	-0.0007575117
14	0xbc0061f5	-0.007835855
15	0xbc1c45d7	-0.0095381355
16	0xbbdd5e86	-0.006755653
17	0xbc3e88c1	-0.011629284
18	0x363643eb	2.7159647e-06
19	0xbb7cc11d	-0.0038567253
20	0xbb6ee01f	-0.0036449505
21	0xbbc12c37	-0.0058951634
22	0xbc571725	-0.013128077
23	0xbc2d8a6c	-0.010592084
24	0x3c0f2e78	0.008739106
25	0x3c97cf9d	0.018531615
26	0x269979f9	1.0649568e-15
27	0x3ce74137	0.028229339
28	0x3bbf311e	0.0058347126
29	0x3be3f75d	0.0069569782
30	0x3c822d8d	0.01589086
31	0x3c87ded6	0.016585749
32	0xb6450348	-2.9357197e-06
33	0xbb5c400a	-0.0033607506
34	0x38bd015c	9.0124755e-05
35	0xbb6202e1	-0.003448658
36	0xbaee0261	-0.0018158668
37	0xbab06cc9	-0.0013460155
38	0xb9f0bc78	-0.00045916787
39	0xbb59f6c2	-0.0033258651
40	0x3906981e	0.00012835904
41	0x3bbfe82d	0.005856535
42	0xb6f63bb3	-7.338321e-06
43	0x3b33d9c4	0.002744303
44	0x3b3fa124	0.0029240334
45	0x3b877508	0.0041338243
46	0x3ac9d295	0.0015397841
47	0x3b74c6e2	0.0037349989
48	0x3b363032	0.0027799723
49	0x3b3a1bd2	0.002839793
50	0xb87b14cc	-5.9862432e-05
51	0x3a505f2a	0.0007948751
52	0x388eb45a	6.804681e-05
53	0x39b4fc8c	0.00034520437
54	0x3bdc32d8	0.0067199282
55	0x3bcea1d6	0.0063059134
56	0xbc012125	-0.007881437
57	0xbc12bfbd	-0.008956847
58	0x273a9f7f	2.5899148e-15
59	0xbd091e32	-0.033476062
60	0xbbaa8415	-0.0052037337
61	0xbb10c9b5	-0.0022092883
62	0xbc283e36	-0.0102687385
63	0xbc32cd62	-0.010913225
64	0x3b7b296a	0.0038324245
65	0xbb077f81	-0.0020675363
66	0x35ee5c9b	1.7759334e-06
67	0x3bac8550	0.0052649155
68	0xbb7cc96c	-0.0038572205
69	0xbbb80de4	-0.0056168903
70	0x3b8f8173	0.004379445
71	0x3b8ac8e9	0.004235376
72	0x39b4d1a2	0.00034488464
73	0x3b53fe7f	0.0032347736
74	0x20a83ae2	2.8499272e-19
75	0x3c32114b	0.010868381
76	0x3b86076e	0.004090241
77	0x3b0c698c	0.0021425216
78	0x3a0db9f7	0.0005406434
79	0x3b7d38da	0.0038638623

exp_avg_sq f4 [10, 8]
0	0x38812504	6.158094e-05
1	0x3b12a14f	0.002237398
2	0x34a2b00f	3.030295e-07
3	0x3a74d55c	0.00093396544
4	0x3a70ffbf	0.00091933826
5	0x3acad746	0.0015475533
6	0x390758ca	0.0001290768
7	0x39ca0915	0.0003853521
8	0x39a382d7	0.00031187266
9	0x3a37719a	0.0006997824
10	0x1af06ee0	9.94408e-23
11	0x3b0131f5	0.0019713615
12	0x35d921ca	1.6177594e-06
13	0x3613db78	2.2032455e-06
14	0x3ac8572d	0.001528477
15	0x3b23438a	0.0024912083
16	0x3ac8299e	0.0015271192
17	0x3b37b517	0.0028031522
18	0x31da6849	6.356491e-09
19	0x3b0a6aa2	0.0021120687
20	0x3996b75c	0.00028746843
21	0x3a25af7d	0.00063204
22	0x3b4a591b	0.0030875865
23	0x3a8cb189	0.0010734062
24	0x3b12b01d	0.0022382804
25	0x3c44acaa	0.012004057
26	0x199fd970	1.6528037e-23
27	0x3c4810e5	0.012211059
28	0x3b025c23	0.0019891344
29	0x3b572ce1	0.0032833146
30	0x3bc52fea	0.0060176747
31	0x3bba48b7	0.005684938
32	0x36598b35	3.241655e-06
33	0x399289e3	0.00027950024
34	0x3504333d	4.9248393e-07
35	0x3bb211c9	0.005434249
36	0x38921acd	6.9668145e-05
37	0x37bdb12d	2.261306e-05
38	0x38d2b3e9	0.00010047091
39	0x3b60e12d	0.0034313903
40	0x36972cd3	4.505369e-06
41	0x3bcd3a76	0.0062630726
42	0x3562dfd9	8.45173e-07
43	0x3b628f1d	0.0034570165
44	0x3ad0a7bd	0.001591913
45	0x3b3e90d3	0.0029078021
46	0x3a162f6c	0.00057291123
47	0x3bbe6e49	0.005811487
48	0x3806494f	3.2016364e-05
49	0x38a3719b	7.793606e-05
50	0x35ab0a44	1.274348e-06
51	0x378ee0fe	1.703249e-05
52	0x35810d23	9.615072e-07
53	0x37b8f4d2	2.2048513e-05
54	0x399c4d8c	0.00029812416
55	0x3a61b880	0.00086105615
56	0x3975ccd3	0.00023441324
57	0x3aa74ab8	0.0012763357
58	0x15bb6db5	7.5701786e-26
59	0x3c183ed3	0.009292322
60	0x3a39ad6a	0.00070830307
61	0x398c8fff	0.00026810166
62	0x39e896af	0.00044362756
63	0x3a80d416	0.0009828832
64	0x3a676bcc	0.00088280137
65	0x3c22dca1	0.009940297
66	0x34bbca01	3.4978441e-07
67	0x3c0cb961	0.00858912
68	0x3a89d1d2	0.0010514802
69	0x3b1f1d4a	0.0024278932
70	0x3b9bf312	0.004759201
71	0x3c4414fd	0.011967895
72	0x3765e500	1.3702782e-05
73	0x3a5f8613	0.00085267535
74	0x114f1030	1.6334409e-28
75	0x3c53e0bd	0.012932
76	0x3a0ff10f	0.00054909376
77	0x38e07041	0.00010702061
78	0x390b399b	0.00013277533
79	0x3b781ff4	0.0037860842

exp_avg f4 [10]
0	0x387f45b2	6.0861646e-05
1	0xb9267afe	-0.00015876812
2	0xb99e3d79	-0.0003018191
3	0x3a037e2b	0.0005016054
4	0xb8a31e36	-7.778073e-05
5	0x3889971d	6.560816e-05
6	0x38f4e03c	0.000116765936
7	0xb9c7ece1	-0.00038132726
8	0x37793fb6	1.485639e-05
9	0x3927c542	0.00015999845

exp_avg_sq f4 [10]
0	0x35500118	7.748763e-07
1	0x3521e725	6.0313533e-07
2	0x355d566b	8.245467e-07
3	0x363bb01a	2.7967676e-06
4	0x35bf4926	1.4251898e-06
5	0x35f3b1e9	1.815669e-06
6	0x34cb9779	3.7921907e-07
7	0x3582c381	9.742654e-07
8	0x363f5833	2.8512557e-06
9	0x360bc996	2.0829953e-06
