libraryExamples/mnist_lightning/.mnist_{epoch}-{val_loss:.2f}/epoch=345-step=297560.ckpt (torch, 384968 bytes, 90 tensors)

model.layer_1.mainModule.weight f4 [4, 784]
0	0xbe906ab9	-0.28206423
1	0xbe7569d5	-0.23966153
2	0xbe86264c	-0.26201093
3	0xbe7ce6a9	-0.24697365
4	0xbe7eb681	-0.24874307
5	0xbe8c8e1d	-0.27452174
6	0xbe89ffa6	-0.26952857
7	0xbe874369	-0.26418617
8	0xbe8c7f03	-0.27440652
9	0xbe8e48ff	-0.27790067
10	0xbe83ec1f	-0.25766084
11	0xbe83ff4d	-0.25780717
12	0xbe8f3e01	-0.27976993
13	0xbe3fcb85	-0.1872998
14	0xbe4e3fab	-0.20141475
15	0xbe93def6	-0.28881043
16	0xbe8f668f	-0.28007933
17	0xbe6f2b3c	-0.23356336
18	0xbe991285	-0.29896942
19	0xbe882a55	-0.26594797
20	0xbe98224e	-0.29713672
21	0xbe85a844	-0.2610494
22	0xbe8e9698	-0.2784927
23	0xbe9997c5	-0.29998603
24	0xbe76a3d6	-0.24085936
25	0xbe6f8642	-0.23391059
26	0xbe80cb63	-0.25155172
27	0xbe963a6a	-0.2934144
28	0xbe8f8fb1	-0.28039315
29	0xbe862dd0	-0.26206827
30	0xbe882f6e	-0.26598686
31	0xbe77cc61	-0.24199058
32	0xbe7eb4af	-0.24873613
33	0xbe9239a6	-0.28559607
34	0xbe6715b1	-0.22566868
35	0xbe603c5e	-0.21898028
36	0xbe64018a	-0.22266212
37	0xbd5fbc7b	-0.05462311
38	0x3e195a77	0.14975916
39	0x3dd44886	0.10365395
40	0x3e893d91	0.26804784
41	0x3d8aee2e	0.067837104
42	0xbd561935	-0.052270133
43	0xbe57a25d	-0.2105803
44	0x3d987de2	0.07445885
45	0xbe1eeb16	-0.15519366
46	0xbe8a9584	-0.27067196
47	0xbe7a5e56	-0.24450049
48	0xbe23bf23	-0.15990882
49	0xbcd9f3de	-0.026605543
50	0x3e6e4a55	0.23270543
51	0xbcc0beb5	-0.023528436
52	0xbe989ea8	-0.29808545
53	0xbe9aec9b	-0.3025864
54	0xbe89f648	-0.2694571
55	0xbe93f69f	-0.28899094
56	0xbe73f035	-0.238221
57	0xbe8242ae	-0.25441498
58	0xbe745c2e	-0.23863289
59	0xbe8251c1	-0.25452998
60	0xbe87611c	-0.26441276
61	0xbe8ffcce	-0.28122562
62	0xbe44335a	-0.19160214
63	0x3e3389cc	0.17533034
64	0x3e8628d3	0.2620302
65	0x3f38aa29	0.72134644
66	0x3fa3f552	1.2809241
67	0x3fd6821e	1.6758459
68	0x3f9dd519	1.2330657
69	0x3faec5ec	1.3654151
70	0x3fb9fb74	1.4529862
71	0x3f1e4023	0.61816615
72	0x3f0c4abd	0.5480154
73	0x3f4b6df4	0.7946465
74	0x3e81ddee	0.2536463
75	0x3e000e9c	0.12505573
76	0x3df39a2b	0.118946396
77	0xbedee6c9	-0.4353545
78	0xbdf16283	-0.11786368
79	0x3e10415f	0.14087437
80	0xbdff0c45	-0.12453512
81	0xbe930c34	-0.28720248
82	0xbe92854d	-0.28617325
83	0xbe8abf37	-0.2709901
84	0xbe979bb0	-0.29610968
85	0xbe85839f	-0.2607698
86	0xbe90e3b9	-0.2829874
87	0xbdcb61cd	-0.099307634
88	0xbe888049	-0.26660374
89	0xbe8432e4	-0.25820076
90	0xbe9dc021	-0.30810645
91	0x3e89829b	0.26857457
92	0x3f20edf0	0.62863064
93	0x3d93817f	0.07202434
94	0x3faf6734	1.370337
95	0x3f604578	0.87606
96	0x3f3b6d63	0.73213786
97	0x3ff8a3a8	1.9424944
98	0x3fb81ce1	1.4383813
99	0x3f94b1e9	1.1616794
100	0x3fa164f6	1.2608936
101	0x3ee8f1ac	0.4549688
102	0x3f6892f3	0.90849227
103	0x3f18cf41	0.59691244
104	0x3f0eb8db	0.5575082
105	0x3f24c7fe	0.64367664
106	0x3e82d960	0.2555647
107	0xbcd9f64c	-0.026606701
108	0x3d8d4759	0.06898374
109	0xbe7c263e	-0.24623963
110	0xbe89c61c	-0.26908958
111	0xbe7b4cfb	-0.24541084
112	0xbe8456f7	-0.258476
113	0xbe91e1a0	-0.2849245
114	0xbeacf292	-0.33778816
115	0xbd1f588d	-0.038902808
116	0xbe00838f	-0.12550186
117	0x3d2e5c66	0.042568587
118	0xbedb302b	-0.42810187
119	0xbdbe511f	-0.09292816
120	0x3ebdcec4	0.37071812
121	0x3e4cadc8	0.19988167
122	0x3e9b2786	0.3030359
123	0x3e416552	0.18886307
124	0x3d78cd40	0.060742617
125	0x3e43d8bc	0.19125646
126	0x3de57a62	0.11204983
127	0x3f1952bb	0.5989186
128	0xbcf658f3	-0.030071711
129	0xbed3e651	-0.41386655
130	0xbd1e4079	-0.038635705
131	0xbf1a5a59	-0.6029411
132	0x3dcd15fd	0.100139596
133	0xbdc7a4b4	-0.097482115
134	0xbe17d0fa	-0.14825812
135	0xbe0bc20e	-0.13648245
136	0xbe27028f	-0.1630957
137	0xbce066b8	-0.02739273
138	0xbe80c670	-0.25151396
139	0xbe90210e	-0.2815022
140	0xbe92c18b	-0.28663287
141	0xbe85959d	-0.26090708
142	0xbe832f04	-0.25621808
143	0xbea05767	-0.31316683
144	0xbf36aedf	-0.7136058
145	0x3d4578dd	0.048210967
146	0xbed137e7	-0.40862963
147	0xbede8054	-0.43457282
148	0x3e4a3086	0.19745073
149	0xbe8463d8	-0.25857425
150	0x3e16ede5	0.14739187
151	0x3b01c86c	0.0019803299
152	0x3c469548	0.012120552
153	0x3eb63c0c	0.35592687
154	0x3e218316	0.15772662
155	0x3e545472	0.20735338
156	0x3d2877d5	0.041129906
157	0x3f5f527b	0.8723523
158	0x3e89d961	0.2692366
159	0x3eb153ca	0.34634238
160	0x3edd27b7	0.43194363
161	0xbe7cb4a5	-0.24678285
162	0xbf000a02	-0.5001527
163	0xbf0cf956	-0.55067956
164	0xbf3e57a8	-0.743525
165	0x3d60c058	0.054870933
166	0xbe926b4e	-0.28597492
167	0xbe84a508	-0.2590716
168	0xbe94d2c1	-0.29067042
169	0xbe7fc34e	-0.24976847
170	0xbe4597c4	-0.19296175
171	0xbd781aed	-0.060572553
172	0xbf12565c	-0.57163024
173	0xbcd634aa	-0.026148159
174	0xbf3f0ac8	-0.74625826
175	0xbeddb69a	-0.43303376
176	0xbf1d25d2	-0.61385834
177	0xbe21661c	-0.15761608
178	0x3d6fad24	0.05851473
179	0x3c7ac2e9	0.015305259
180	0x3ec31bcc	0.38107145
181	0x3c6e9218	0.014561199
182	0x3eb7aaa4	0.35872376
183	0x3e27fe8d	0.16405697
184	0x3eb07eac	0.34471643
185	0x3e0b9505	0.13631065
186	0x3ec79318	0.3897941
187	0x3cb2e86e	0.021839347
188	0x3e49527c	0.19660372
189	0xbe301c66	-0.17198333
190	0xbea4d9bf	-0.32197377
191	0xbf0c8945	-0.54896957
192	0xbf703882	-0.93836224
193	0xbcf5f4de	-0.030023988
194	0xbeae041e	-0.33987516
195	0xbe9d21e5	-0.30689922
196	0xbe8045e1	-0.25053313
197	0xbe60d0d5	-0.21954663
198	0xbe2bc348	-0.16773713
199	0xbf2ce7c7	-0.67541164
200	0xbe9ae632	-0.3025375
201	0x3af0b1fb	0.0018363589
202	0xbf481fb7	-0.78173393
203	0xbeadc4f3	-0.33939323
204	0x3eaa5bdc	0.33273208
205	0xbf285cd3	-0.6576664
206	0xbe0dd4a1	-0.13850643
207	0x3e16cf17	0.14727436
208	0xbde41f9d	-0.11138842
209	0x3ea54852	0.3228174
210	0x3ee4b974	0.4467274
211	0x3f215383	0.63018054
212	0x3e41fd6e	0.18944332
213	0xbd9fb73b	-0.0779862
214	0x3e4ea753	0.20181017
215	0xbba651d7	-0.005075674
216	0xbece0967	-0.40241548
217	0x3f4284a2	0.7598363
218	0xbe22a41f	-0.1588292
219	0x3f20ee2f	0.6286344
220	0x3e0facba	0.14030734
221	0x3d34dcd1	0.0441559
222	0xbecf545d	-0.40494052
223	0xbe7fcf9d	-0.24981542
224	0xbe878831	-0.26471093
225	0xbe907d84	-0.2822076
226	0xbe38fa77	-0.18064295
227	0xbf25ecf0	-0.6481466
228	0xbf075df5	-0.5287774
229	0xbf33b44c	-0.70196986
230	0xbd41ea3a	-0.047342516
231	0x3ec59d2a	0.3859647
232	0x3e338d39	0.17534341
233	0x3e832486	0.25613803
234	0x3e330860	0.17483664
235	0xbdabb77c	-0.08384606
236	0x3f07edab	0.5309703
237	0xbdb3a973	-0.08772554
238	0xbc3efaa9	-0.011656442
239	0xbd68fead	-0.056883503
240	0x3e4c910b	0.19977205
241	0xbea1a620	-0.31572056
242	0xbd780c97	-0.06055888
243	0xbd74450d	-0.059636164
244	0x3e76f5b3	0.24117164
245	0x3dea60ac	0.1144422
246	0x3f08c536	0.5342592
247	0x3e1bbe75	0.15209372
248	0xbd70ab4b	-0.058757108
249	0xbe224a3f	-0.15848635
250	0xbdd4897b	-0.10377785
251	0xbe80d195	-0.25159898
252	0xbe7a57d3	-0.24447565
253	0xbdc6c2cd	-0.09705124
254	0xbf2cf9b8	-0.6756854
255	0xbf7d933c	-0.99052787

model.layer_1.mainModule.bias f4 [4]
0	0x3e95072b	0.2910703
1	0x3e44bef2	0.19213465
2	0x3eb73517	0.35782692
3	0xbe054337	-0.13013922

model.layer_1.PBtoTop.0 f4 [1, 4]
0	0xb3eb3f4e	-1.0954555e-07
1	0x349f8915	2.9715798e-07
2	0xb415dbb9	-1.3956641e-07
3	0x31667989	3.353849e-09

model.layer_1.PBtoTop.1 f4 [2, 4]
0	0x3a90f19c	0.0011058333
1	0x39e523c4	0.0004370493
2	0x3b245c39	0.0025079383
3	0xba81526b	-0.0009866481
4	0xbc56c24f	-0.01310785
5	0x3a02ef7c	0.00049947924
6	0x3b6f1471	0.003648069
7	0xbbc8bbd3	-0.006125906

model.layer_1.pb.layers.0.weight f4 [4, 784]
0	0xbce5528c	-0.027993463
1	0xbcddf683	-0.027095085
2	0xbc9388c8	-0.018009558
3	0xbd2c7303	-0.04210187
4	0xbd144920	-0.03620255
5	0xbcb90787	-0.022586597
6	0xbc8bb88c	-0.017055772
7	0xbd1d37d8	-0.038383335
8	0xbcbf8978	-0.02338098
9	0xbc474380	-0.012162089
10	0xbcbc15e6	-0.02295966
11	0xbc560279	-0.013062113
12	0xbca118d8	-0.019665167
13	0xbc903891	-0.017605098
14	0xbd0fba5a	-0.035089828
15	0xbccf62b4	-0.02531562
16	0xbcaf6303	-0.021409517
17	0xbcc36582	-0.023852114
18	0xbd01b535	-0.031666953
19	0xbc919562	-0.017771427
20	0xbc2ca399	-0.010537052
21	0xbd1b9188	-0.037980586
22	0xbd04b8b0	-0.032402694
23	0xbcbe1c12	-0.023206744
24	0xbcdba56b	-0.026812276
25	0xbc766cbd	-0.015040574
26	0xbceb53aa	-0.028726418
27	0xbc62ef78	-0.013851039
28	0xbd350a3f	-0.044199225
29	0xbca46322	-0.020066801
30	0xbce90381	-0.028444054
31	0xbd186762	-0.03720797
32	0xbd2379a0	-0.039910913
33	0xbd11575e	-0.03548371
34	0xbd2abd5e	-0.0416845
35	0xbcca00d2	-0.024658594
36	0xbd00922f	-0.03138941
37	0xbd0f9999	-0.03505859
38	0xbcbee3cd	-0.023301983
39	0xbc85a11d	-0.016312176
40	0xbd350f41	-0.044204
41	0xbc8e8d4f	-0.017401366
42	0xbc9df901	-0.019283773
43	0xbcb7274e	-0.02235761
44	0xbcaacea8	-0.020850495
45	0xbd04c6ee	-0.032416277
46	0xbccae7ca	-0.024768729
47	0xbca692c8	-0.020333663
48	0xbd2130ec	-0.039353296
49	0xbcc8f0ad	-0.024528826
50	0xbcabd146	-0.020973813
51	0xbcac56ce	-0.021037485
52	0xbd2a995d	-0.041650165
53	0xbce5d439	-0.028055297
54	0xbd2ef220	-0.042711377
55	0xbd681853	-0.056663822
56	0xbcaa19e8	-0.020764306
57	0xbcd1491a	-0.025547553
58	0xbcfbbf1e	-0.03073078
59	0xbd25b317	-0.040453997
60	0xbce57286	-0.02800871
61	0xbd1f843b	-0.038944464
62	0xbcc68845	-0.0242349
63	0xbcfe2d06	-0.031027328
64	0xbca4c3d2	-0.020112906
65	0xbc9d6c00	-0.019216537
66	0xbd0e8fe7	-0.034805205
67	0xbc446493	-0.011986869
68	0xbd095c37	-0.03353521
69	0xbc939964	-0.018017478
70	0xbd373b97	-0.044734564
71	0xbc97cb99	-0.0185297
72	0xbccaf66e	-0.02477571
73	0xbd1f163e	-0.03883957
74	0xbce680ab	-0.028137526
75	0xbcaf95e7	-0.021433784
76	0xbca146f6	-0.019687157
77	0xbcd4e98b	-0.025990268
78	0xbd287f69	-0.041137133
79	0xbcf885e2	-0.030337278
80	0xbcb00f85	-0.021491775
81	0xbc26fe86	-0.010192519
82	0xbd02a9bc	-0.031900153
83	0xbd0d1c6a	-0.034450926
84	0xbc9e9065	-0.019355962
85	0xbd1683c0	-0.03674674
86	0xbc83be1b	-0.01608186
87	0xbd0722a7	-0.03299203
88	0xbcef9833	-0.029247379
89	0xbc527c7b	-0.012847061
90	0xbc9c0f09	-0.019050138
91	0xbcde7f2d	-0.027160252
92	0xbcd433c6	-0.025903594
93	0xbc417992	-0.01180877
94	0xbd007600	-0.031362534
95	0xbca531d9	-0.02016537
96	0xbc4043e3	-0.011734935
97	0xbd136e29	-0.03599373
98	0xbcbb8a49	-0.022893088
99	0xbbafcc34	-0.005364919
100	0xbd0928f0	-0.033486307
101	0xbc5dfc01	-0.013548852
102	0xbd274f55	-0.04084714
103	0xbcd69eb9	-0.026198732
104	0xbccbfa31	-0.024899574
105	0xbc8a05a1	-0.016848387
106	0xbc51d0ba	-0.012806112
107	0xbd0aa751	-0.03385097
108	0xbd3abd91	-0.04559094
109	0xbd140864	-0.036140814
110	0xbcf9441d	-0.030427987
111	0xbc1fee14	-0.009761352
112	0xbcc8feff	-0.024535654
113	0xbd02ae9b	-0.031904798
114	0xbd138d7c	-0.036023602
115	0xbcf4a13c	-0.029862039
116	0xbd32d840	-0.043663263
117	0xbcce28ac	-0.025165878
118	0xbc7d3e5d	-0.015456763
119	0xbcaae2a5	-0.020860026
120	0xbc0e308b	-0.008678566
121	0xbbaaefca	-0.0052165734
122	0x3c2f1855	0.010686954
123	0xbb3206e4	-0.0027164752
124	0xbc1a706f	-0.00942622
125	0x3c6bc424	0.014390025
126	0xbbe93ba9	-0.0071177077
127	0x3c310a6e	0.010805709
128	0xbc268d9b	-0.010165597
129	0xbbd3af4f	-0.0064601074
130	0xbcf5f143	-0.03002227
131	0xbc6aa41f	-0.014321356
132	0xbcee24c9	-0.029070275
133	0xbc5f44ca	-0.01362724
134	0xbd219dca	-0.03945712
135	0xbce0f1d0	-0.027459055
136	0xbcd15cc2	-0.025556926
137	0xbc8cd50e	-0.017191436
138	0xbcd5d928	-0.026104525
139	0xbd2ae421	-0.041721467
140	0xbc91fa4b	-0.017819544
141	0xbcd8bde7	-0.02645774
142	0xbd2ad1b4	-0.041703895
143	0xbd2421bf	-0.040071245
144	0xbcdf1ae4	-0.027234502
145	0xbc7390e9	-0.014866092
146	0xbcad5ae9	-0.021161513
147	0xbcc78a9e	-0.02435809
148	0x3bdd24d9	0.0067487773
149	0x3c6691ac	0.014072817
150	0x3cb1ad6d	0.021689141
151	0x3c625b22	0.013815673
152	0x3c5c99df	0.01346442
153	0x3c8d7416	0.017267268
154	0x3c645b68	0.013937809
155	0x3ca2b21f	0.019860325
156	0x3c569ecd	0.0130993845
157	0x3be73fe2	0.007057176
158	0xbca63b0b	-0.020291826
159	0xbcd2c8f0	-0.02573058
160	0xbc1a3b36	-0.009413531
161	0xbc5e1213	-0.013554114
162	0xbc81c399	-0.015840339
163	0xbcf0e278	-0.029404864
164	0x3b8bc25f	0.004265114
165	0xbc864d74	-0.016394354
166	0xbcb88a13	-0.022526776
167	0xbc4b58d3	-0.012411314
168	0xbcd5a9fb	-0.02608203
169	0xbd117ec4	-0.035521284
170	0xbccd4744	-0.025058396
171	0xbd196ed5	-0.037459213
172	0xbd14b04b	-0.03630094
173	0xbd0c21b3	-0.034211826
174	0xbcb547f4	-0.022129036
175	0xbcc01bb3	-0.023450708
176	0xbb023bc4	-0.001987205
177	0x3b26898f	0.002541158
178	0x3c8a3535	0.016871074
179	0x3cb05c99	0.021528529
180	0x3d0cdc4e	0.034389786
181	0x3c12deeb	0.008964281
182	0x3d037107	0.032090213
183	0x3c9e6bfa	0.019338597
184	0x3cef100c	0.029182456
185	0x3cbfbaa1	0.023404421
186	0x3c8ff2c3	0.017571812
187	0xbbda532f	-0.0066627483
188	0xbcaf358c	-0.021387838
189	0xbd0038db	-0.03130422
190	0xbd17b419	-0.03703699
191	0xbc51d4f0	-0.012807116
192	0xbcbdeca8	-0.023184136
193	0xbd23a1b4	-0.039949134
194	0xbd00190b	-0.031273883
195	0xbcad2e99	-0.021140384
196	0xbcdba7d9	-0.026813434
197	0xbd0c85b4	-0.034307197
198	0xbc9ab105	-0.018883238
199	0xbd25b5f0	-0.040456712
200	0xbc5b82c8	-0.01339788
201	0xbc9da57b	-0.019243946
202	0xbc9be25b	-0.019028833
203	0xbc554db6	-0.013019016
204	0x3bcaba3c	0.0061867516
205	0x3bea0397	0.007141541
206	0x3c889aaf	0.016675321
207	0x3bb3efab	0.005491217
208	0x3cd4be73	0.02596972
209	0x3c86980c	0.016429923
210	0x3c4cdd72	0.012503969
211	0x3c3cfe30	0.011535212
212	0x3cd18d13	0.025579965
213	0x3c69c15f	0.014267295
214	0x3c1d3ad5	0.009596546
215	0x3b0167d6	0.001974573
216	0xbbb83957	-0.00562207
217	0xbcc8ee92	-0.024527822
218	0xbba21855	-0.0049467483
219	0xbc8936dd	-0.016749794
220	0xbcc4c03b	-0.024017444
221	0xbc9d144d	-0.01917472
222	0xbc2e6f4f	-0.010646655
223	0xbccf012c	-0.025269113
224	0xbc94a9c4	-0.018147357
225	0xbd1a5838	-0.03768179
226	0xbcab7757	-0.02093093
227	0xbb07d222	-0.0020724614
228	0xbcef7d84	-0.029234655
229	0xbd0c6790	-0.034278452
230	0xbd0d60f0	-0.034516275
231	0x3adcdd5d	0.0016850639
232	0x3ca1c641	0.019747855
233	0x3b437b64	0.0029828185
234	0x3caaf899	0.020870494
235	0x3ceb5312	0.028726134
236	0x3cfc218b	0.030777713
237	0x3d0bcf08	0.034132987
238	0x3ce41207	0.027840627
239	0x3cec1a37	0.028821094
240	0x3ce191e2	0.027535383
241	0x3c7d00e8	0.015442111
242	0x3d0ae944	0.033913866
243	0x3b916c57	0.004437964
244	0xbc13fdfd	-0.0090327235
245	0xbc8a89de	-0.016911443
246	0xbcddf08e	-0.027092244
247	0xbc59a518	-0.01328399
248	0xbc9f1cee	-0.019422974
249	0xbcd31daa	-0.02577098
250	0xbce11fe7	-0.027481033
251	0xbca9879c	-0.020694546
252	0xbce86628	-0.028369024
253	0xbcec682a	-0.028858263
254	0xbcd71da4	-0.026259251
255	0xbc1c9f83	-0.009559515

model.layer_1.pb.layers.0.bias f4 [4]
0	0x3cbd2224	0.023087569
1	0x3caac785	0.020847091
2	0x3d2076af	0.039175685
3	0x3d2c5813	0.04207618

model.layer_1.pb.layers.1.weight f4 [4, 784]
0	0xbce6117d	-0.028084511
1	0xbc769eaa	-0.015052477
2	0xbcf7c861	-0.030246915
3	0xbd34f80e	-0.044181876
4	0xbcc3c943	-0.02389968
5	0xbd2177af	-0.03942078
6	0xbccdf205	-0.025139818
7	0xbd7e5c39	-0.06209967
8	0xbd28120b	-0.041032832
9	0xbd2d8333	-0.04236145
10	0xbc90a663	-0.017657464
11	0xbcea945b	-0.028635195
12	0xbcfead15	-0.031088391
13	0xbd408213	-0.04699905
14	0xbd31cdb0	-0.04340905
15	0xbd565cce	-0.0523346
16	0xbd3a9c72	-0.045559354
17	0xbd27ab7d	-0.04093503
18	0xbd5dffd1	-0.054199044
19	0xbd050b3b	-0.032481413
20	0xbd0dc015	-0.03460701
21	0xbd20649c	-0.03915845
22	0xbcf99c2f	-0.030469982
23	0xbcd3dcd0	-0.025862128
24	0xbd0e82c3	-0.034792673
25	0xbd33194c	-0.043725297
26	0xbd0f8016	-0.03503426
27	0xbd0dc90c	-0.03461556
28	0xbd3fe4a5	-0.04684891
29	0xbd1f7004	-0.038925186
30	0xbd3961d2	-0.045259304
31	0xbd67d73c	-0.056601748
32	0xbcfa6c15	-0.030569116
33	0xbcd934dc	-0.026514463
34	0xbd485111	-0.048905436
35	0xbce57f9b	-0.028014949
36	0xbccec2e6	-0.02523942
37	0xbd240358	-0.04004225
38	0xbd43e329	-0.04782406
39	0xbd47bd1e	-0.04876434
40	0xbd0da116	-0.03457745
41	0xbcdd104d	-0.026985312
42	0xbca057bf	-0.01957309
43	0xbd2273be	-0.03966116
44	0xbd01dea9	-0.031706486
45	0xbd18c029	-0.037292633
46	0xbd07b90c	-0.03313546
47	0xbd14f095	-0.03636225
48	0xbcd9f785	-0.026607284
49	0xbd55d23c	-0.05220245
50	0xbd338587	-0.043828513
51	0xbd05df53	-0.03268368
52	0xbd271ab3	-0.040796947
53	0xbd28c53d	-0.041203726
54	0xbd0f7e8d	-0.035032798
55	0xbcdeafd4	-0.02718345
56	0xbd6f0688	-0.058355838
57	0xbd446578	-0.04794833
58	0xbcd8f6ac	-0.02648481
59	0xbcd2525b	-0.025674036
60	0xbd16085f	-0.036629077
61	0xbd050897	-0.032478895
62	0xbcf955a7	-0.03043635
63	0xbd04af17	-0.03239354
64	0xbd06eb32	-0.032939143
65	0xbd4b68f1	-0.049660627
66	0xba411e85	-0.00073669135
67	0xbce9ecf1	-0.028555365
68	0xbcd2ef4a	-0.025748868
69	0xbd0b9bbb	-0.034084063
70	0xbd3f2691	-0.04666764
71	0xbd369c1b	-0.044582468
72	0xbcf31fd1	-0.029678257
73	0xbc9b26e4	-0.018939443
74	0xbcf69af0	-0.030103177
75	0xbd428fe0	-0.04750049
76	0xbd2f649d	-0.04282056
77	0x3c652500	0.013985872
78	0x3c00745e	0.007840244
79	0xbd03906c	-0.032120153
80	0xbd55e9bd	-0.052224863
81	0xbd32111e	-0.043473355
82	0xbce015c9	-0.027354138
83	0xbce0ef32	-0.027457807
84	0xbcbcbf9a	-0.023040581
85	0xbd55fad9	-0.05224118
86	0xbd24dfbc	-0.040252432
87	0xbd28edff	-0.041242596
88	0xbd2803b0	-0.04101914
89	0xbcb0f9a5	-0.021603415
90	0xbcebcb87	-0.028783573
91	0xbcd7fece	-0.026366618
92	0xbd232e29	-0.039838944
93	0xbd172345	-0.03689887
94	0xbc0ba428	-0.008523025
95	0x3c28c0bd	0.010299859
96	0x3b4eac3f	0.0031535772
97	0x3ca31f62	0.019912425
98	0xbc53f26e	-0.012936218
99	0xbbe4c426	-0.0069813905
100	0xbc030e40	-0.007999003
101	0xbcb3a9be	-0.021931525
102	0xbd0b226e	-0.03396838
103	0xbc740781	-0.014894367
104	0x3c8954f5	0.016764143
105	0x3d12b07c	0.03581284
106	0xbb33b662	-0.002742194
107	0xbd029ec4	-0.031889692
108	0xbc35e315	-0.011101504
109	0xbd349682	-0.044088848
110	0xbd3bb264	-0.045824423
111	0xbcc9e313	-0.02464441
112	0xbc9c534c	-0.019082688
113	0xbd34579f	-0.044028874
114	0xbd0f32dc	-0.034960613
115	0xbce1827d	-0.027528042
116	0xbd143592	-0.0361839
117	0xbd1e7a15	-0.038690645
118	0xbd1658c5	-0.03670575
119	0xbd06b778	-0.032889813
120	0x3c9f51e3	0.019448226
121	0x3c7c7f22	0.01541117
122	0x3cbdd981	0.023175003
123	0x3d9ed57e	0.07755564
124	0x3da48533	0.08033218
125	0x3d0056a5	0.03133263
126	0x3cf0edc3	0.029410249
127	0x3d4cea43	0.050028097
128	0x3d47c24d	0.048769284
129	0x3da3726c	0.079808086
130	0x3d33c22e	0.043886356
131	0x3d28c2ff	0.041201588
132	0x3dc00ecf	0.093778245
133	0xbcd6743a	-0.026178468
134	0xbe00a1b2	-0.12561682
135	0xbdb449f8	-0.08803171
136	0xbcccda25	-0.025006363
137	0x3c3d4b9f	0.011553674
138	0xbd269bfc	-0.040676102
139	0xbd34ba92	-0.04412324
140	0xbd480c23	-0.0488397
141	0xbd1a82e4	-0.037722483
142	0xbcbd9bcd	-0.02314558
143	0xbd472be4	-0.04862584
144	0xbcd77914	-0.026302852
145	0xbcc25484	-0.02372194
146	0x3b221f06	0.002473773
147	0x3c8f144a	0.01746573
148	0x3d08b437	0.03337499
149	0x3d67bea9	0.056578312
150	0x3db70469	0.08936388
151	0x3cebc7d2	0.028781805
152	0x3c80be80	0.015715837
153	0x3ce28785	0.027652511
154	0xbc7e9eb3	-0.0155407665
155	0xbd432c76	-0.047649823
156	0xbca3cfca	-0.019996542
157	0xbcb10300	-0.021607876
158	0xbd8d55e5	-0.06901149
159	0xbdaaa7bd	-0.08332775
160	0xbc9059e0	-0.01762098
161	0xbc04f130	-0.008114144
162	0xbe0eea59	-0.13956584
163	0xbd6d6cef	-0.057965215
164	0xbd6fe78c	-0.05857043
165	0x3d1b6b30	0.03794402
166	0xbd3c772b	-0.046012085
167	0xbd172e60	-0.03690946
168	0xbd03c9ac	-0.03217475
169	0xbcf388fd	-0.029728407
170	0xbcfa4122	-0.030548636
171	0xbc8d386d	-0.01723882
172	0xbc4a5c30	-0.012351081
173	0x3bd7015a	0.0065614404
174	0x3d0a8e52	0.033827133
175	0x3d9297e4	0.07157877
176	0x3d901267	0.0703476
177	0x3ddbfe8e	0.10741912
178	0x3dce2f0d	0.10067568
179	0x3b88fdfc	0.004180668
180	0xbd36f475	-0.044666726
181	0xbc81a649	-0.015826361
182	0xbcb2854d	-0.021792078
183	0x3c1847ce	0.009294463
184	0x3bf1ddc7	0.0073811742
185	0xbd2c37c2	-0.042045362
186	0xbde13c8b	-0.10997876
187	0xbe0823ad	-0.13294859
188	0xbcf24713	-0.029574906
189	0xbcac1524	-0.021006174
190	0xbde5ef19	-0.11227245
191	0xbd0b2c3e	-0.03397774
192	0xbd25fc47	-0.040523794
193	0x3c7c4c4b	0.015399049
194	0xbcf34bbc	-0.029699199
195	0xbcdd6197	-0.027024074
196	0xbd1bd3b3	-0.03804369
197	0xbc7eeca6	-0.015559351
198	0xbd4461dd	-0.047944892
199	0xbd130494	-0.035893038
200	0xbcff2dc9	-0.031149762
201	0x3c31e49b	0.010857726
202	0x3de23ab6	0.110463545
203	0x3ddf740c	0.10910806
204	0x3de6abe3	0.112632535
205	0x3e229b95	0.15879662
206	0x3e428235	0.18994983
207	0x3e0f5f61	0.14001228
208	0x3cc6fe1c	0.02429109
209	0x3d4ab649	0.049490247
210	0x3cf8112e	0.03028163
211	0x3bc68ad8	0.006059032
212	0xbc61e6da	-0.013787949
213	0xbd4ba78b	-0.04972033
214	0xbd24d03a	-0.040237643
215	0xbd599f50	-0.053130448
216	0xbcd21a2e	-0.02564725
217	0xbd51d593	-0.05122907
218	0xbdb49725	-0.08817891
219	0xbd999a3f	-0.07500123
220	0x3ca414de	0.020029482
221	0x3c3c5e0b	0.011497031
222	0xbd03a157	-0.032136288
223	0xbc77b071	-0.0151177505
224	0xbd6d3c65	-0.057918925
225	0xbd0ed220	-0.03486836
226	0xbd1e61d7	-0.038667526
227	0xbcf15cf9	-0.029463278
228	0xbd17a732	-0.037024684
229	0xbd197562	-0.03746546
230	0x3d4447ad	0.047919918
231	0x3dbb3181	0.091403015
232	0x3e04ff63	0.12988047
233	0x3e6e9676	0.23299584
234	0x3dc9d490	0.09854996
235	0x3bb5bc7f	0.005546152
236	0x3d8c231a	0.068426326
237	0x3d99ada8	0.075038254
238	0x3d37b401	0.0448494
239	0x3c63adea	0.013896445
240	0xbc5fed39	-0.013667398
241	0xbd83699a	-0.06416626
242	0xbcc749b0	-0.02432713
243	0x3d463005	0.04838564
244	0xbd1988a8	-0.03748384
245	0xbd88ecdf	-0.066858046
246	0xbd8dd54b	-0.06925448
247	0xbde0caa0	-0.10976148
248	0xbbb9fb26	-0.005675691
249	0xbd63550a	-0.05550102
250	0xbd247efa	-0.040160157
251	0xbd7eef99	-0.062240217
252	0xbcf8f2d1	-0.030389221
253	0xbd138b24	-0.036021367
254	0xbcd5507c	-0.026039355
255	0xbd255d44	-0.04037215

model.layer_1.pb.layers.1.bias f4 [4]
0	0x3c8f30ca	0.01747932
1	0x3d76e7de	0.06027972
2	0x3c0125fa	0.0078825895
3	0x3cd2ed66	0.025747966

model.layer_1.pb.parentModule.weight f4 [4, 784]
0	0xbc7375e1	-0.0148596475
1	0x3ce198c1	0.027538659
2	0x3baa2480	0.0051923394
3	0x3ca5b1ac	0.020226322
4	0x3c9732f7	0.01845692
5	0xbbefc9a5	-0.007317739
6	0xbb18665c	-0.002325437
7	0x3b45b093	0.003016506
8	0xbbec0281	-0.007202447
9	0xbc2f3f81	-0.010696293
10	0x3c1c5453	0.009541589
11	0x3c19ef25	0.009395395
12	0xbcfe15c8	-0.031016245
13	0x3c44e7b7	0.012018136
14	0x3d0f80d5	0.035034973
15	0xbcbb7d05	-0.022886762
16	0xbc52f077	-0.012874714
17	0x3d09c6e8	0.033636957
18	0xbd021ee3	-0.031767737
19	0x3aa47a25	0.0012548609
20	0xbcf5392e	-0.029934492
21	0x3bc9a737	0.0061539668
22	0xbc38f3d3	-0.011288601
23	0xbd06498e	-0.03278499
24	0x3cd7c91e	0.026341017
25	0x3d085ade	0.033289783
26	0x3c8034f5	0.015650252
27	0xbcd6b8a5	-0.026211092
28	0xbc581645	-0.013188903
29	0x3ba845b7	0.005135264
30	0x3a9f6393	0.0012160413
31	0x3cce84b5	0.025209764
32	0x3c97438a	0.018464822
33	0xbc97160a	-0.018443126
34	0xbbee07dc	-0.0072641205
35	0xbd085797	-0.033286657
36	0xbcae2c4c	-0.021261357
37	0xbb83cf9c	-0.0040225517
38	0xbc14904e	-0.009067608
39	0x3c7e3653	0.015515882
40	0x3cd4479e	0.025913056
41	0xbd10f855	-0.035393078
42	0x3ce3d911	0.027813466
43	0xbc90fa13	-0.01769737
44	0xbd0b7c4a	-0.03405408
45	0xbac37325	-0.0014911635
46	0xbb5acf93	-0.0033387884
47	0x3c334cee	0.010943634
48	0xbc98c6c3	-0.018649464
49	0xbce56f65	-0.028007219
50	0x3c4ebe77	0.012618653
51	0xbc4343ca	-0.011918018
52	0xbcfcfef3	-0.030883288
53	0xbd10efcf	-0.03538495
54	0xbb13b4b7	-0.0022538134
55	0xbcb27b51	-0.021787317
56	0x3ced6611	0.028979333
57	0x3c51802e	0.012786908
58	0x3ce9fb75	0.028562287
59	0x3c507cc5	0.01272506
60	0x3b0d0313	0.0021516725
61	0xbc4da5ce	-0.012551738
62	0x3c04f513	0.008115071
63	0x3bd2855c	0.006424589
64	0xbc12861c	-0.008943107
65	0xbbfb9878	-0.007678088
66	0x3be8682e	0.0070924973
67	0x3ccb533e	0.024819966
68	0x3bf5ba93	0.007499048
69	0x3b18cab7	0.0023314187
70	0x3ca8421e	0.02053934
71	0x3ccec2d5	0.025239388
72	0x3c79f593	0.015256303
73	0x3c1d8efc	0.00961661
74	0xbb86cbf7	-0.00411367
75	0x3d00cf16	0.031447493
76	0x3b9bbae5	0.004752504
77	0xbcd3362c	-0.025782667
78	0x3c4b70f3	0.012417066
79	0xbcde6bda	-0.027151037
80	0x3d0c238b	0.034213584
81	0xbcd1c115	-0.025604764
82	0xbc9b64a7	-0.018968893
83	0xbb782593	-0.0037864193
84	0xbceccd61	-0.028906526
85	0x3bd2d1ee	0.006433717
86	0xbb8e9540	-0.004351288
87	0xbd11b9d3	-0.035577606
88	0x3be9716e	0.0071241176
89	0xbc983147	-0.018578185
90	0x3c49467c	0.012284871
91	0x3aacceb7	0.0013184164
92	0x3d032c84	0.032024875
93	0xbc71af38	-0.014751248
94	0x3d0a11cd	0.033708382
95	0x3cfd6b83	0.030935055
96	0xbc211357	-0.009831271
97	0xbc80ec0a	-0.015737552
98	0xbaa9f24a	-0.0012965885
99	0xbcb8501a	-0.022499133
100	0xbc3495ca	-0.011022041
101	0xbc4a3bdc	-0.012343373
102	0x3c9c1f15	0.01905779
103	0xbb4151b7	-0.0029498169
104	0x3d10debe	0.035368674
105	0xbcff2208	-0.031144157
106	0x3cb73ec3	0.022368794
107	0x3c98ec03	0.018667227
108	0xbc617d5c	-0.013762798
109	0x3cb426c3	0.02199114
110	0xbaf970b8	-0.0019030785
111	0x3cb27f7a	0.021789301
112	0x3c0ef960	0.008726448
113	0xbc910123	-0.017700737
114	0xbc7b52e5	-0.015339588
115	0x3ca71785	0.020396957
116	0x3aa55bb7	0.0012615834
117	0xbd0937f3	-0.033500623
118	0x3ce62805	0.028095255
119	0xbcb7db6a	-0.022443492
120	0xbc338537	-0.010957054
121	0x3ced3991	0.028958114
122	0xbcabccc5	-0.020971665
123	0xbd0f00df	-0.03491294
124	0x3cc5f265	0.024163434
125	0x3cb53511	0.02212003
126	0x3c32ab6a	0.010905126
127	0xbcaa62f7	-0.020799143
128	0xbc0f5320	-0.008747846
129	0xbc9c0a50	-0.019047886
130	0x3bf83f8a	0.007575934
131	0x3cfe7093	0.031059539
132	0xb95fc36e	-0.0002133974
133	0x3bbfa51c	0.00584854
134	0xbb8e0cf7	-0.0043350416
135	0x3cc4c34e	0.02401891
136	0x3bd42413	0.006474027
137	0x3cf93688	0.03042151
138	0xbcbda15e	-0.023148235
139	0xbcb08997	-0.021549983
140	0xbc9f283a	-0.019428361
141	0x3bce50a5	0.0062962347
142	0x3cb2e6e5	0.021838615
143	0xbcb0a365	-0.021562288
144	0xbcdc6eb3	-0.026908254
145	0xbbc8e79c	-0.0061311256
146	0x3c157aae	0.009123487
147	0xbc0f0f73	-0.008731711
148	0x3c38210e	0.01123835
149	0x3a12e6dc	0.0005603859
150	0x3b603501	0.003421128
151	0x3ca141ba	0.019684661
152	0xbc5995e1	-0.013280363
153	0x3c93f33a	0.018060315
154	0xbc9a6cf0	-0.018850774
155	0xbc7313ca	-0.014836261
156	0x3b906fdc	0.004407866
157	0xbca14f3e	-0.019691106
158	0x3c972663	0.018450921
159	0xbc8f88bc	-0.017521255
160	0xbcbc45b7	-0.022982461
161	0x3c923803	0.017848974
162	0x3d00f522	0.031483777
163	0xbcf6becc	-0.030120276
164	0xbcaca78c	-0.021075986
165	0x3bddbc8a	0.0067668604
166	0x3ca96ac7	0.020680798
167	0xba994700	-0.0011694133
168	0xbcc03f07	-0.023467554
169	0x3c8f505a	0.01749437
170	0xbbca4c4a	-0.006173645
171	0xbbd4da65	-0.006495761
172	0xbcf3f8ae	-0.029781666
173	0x3c8857a5	0.016643355
174	0x3cac62e5	0.02104325
175	0xbb5cdd01	-0.0033701065
176	0xba637a93	-0.0008677628
177	0x3c1225c0	0.008920133
178	0xbaa3644a	-0.0012465802
179	0xbbf6d44a	-0.007532631
180	0xbc7a22d3	-0.015267092
181	0xbc6d15ae	-0.014470501
182	0x3c13a40a	0.009011278
183	0x3bd1bb13	0.006400475
184	0x3c872ac5	0.016499886
185	0xbc817e2a	-0.01580723
186	0xbd06dd3c	-0.03292583
187	0xbd08788b	-0.033318084
188	0xbcc594ca	-0.0241188
189	0x3c522745	0.012826745
190	0xbcef8108	-0.029236332
191	0xbc07f6ca	-0.008298585
192	0x3cbf8813	0.023380315
193	0x3c9e0bc7	0.019292725
194	0x3b81a653	0.003956595
195	0xbd10b03a	-0.035324313
196	0x3c888843	0.016666537
197	0x3cc3480a	0.023838062
198	0x3c4978ca	0.012296865
199	0xbba1d2dc	-0.0049384665
200	0xbbea381c	-0.007147802
201	0xbb72295c	-0.0036950922
202	0x3c6e33ae	0.014538689
203	0xbcff386c	-0.031154834
204	0x3c2d726e	0.010586364
205	0xbc934925	-0.017979214
206	0xbc08e18a	-0.008354554
207	0xbcfd31da	-0.03090756
208	0xbc0bc500	-0.008530855
209	0x3a6e5201	0.0009091199
210	0xbca36300	-0.019944668
211	0x3cc2caa1	0.023778262
212	0x3cb383de	0.021913465
213	0xbc20b0f7	-0.009807817
214	0x3ca8aa7c	0.020589106
215	0xbc19a740	-0.009378254
216	0xbc322cdc	-0.010874953
217	0x3cd4118a	0.02588727
218	0x3c9351b5	0.017983297
219	0xbc82b043	-0.015953189
220	0x3cd4cf47	0.025977744
221	0xbcf28f61	-0.029609384
222	0x3c9452c0	0.018105865
223	0x3c98a993	0.018635547
224	0x3b35cb25	0.0027739492
225	0xbc5368ea	-0.012903431
226	0xbba5edca	-0.005063747
227	0xbb026900	-0.001989901
228	0xbd0119e6	-0.03151884
229	0x3cf9e7f1	0.030506106
230	0xbc84754c	-0.016169213
231	0xbd0c037a	-0.034183003
232	0xbc2f8a0a	-0.010714063
233	0x3c8aadc7	0.016928567
234	0x3cd42b21	0.025899472
235	0x3bb50441	0.0055241887
236	0x3c951d80	0.018202543
237	0x3cbcd321	0.023049893
238	0x3ccfa503	0.025347238
239	0x3c85e36c	0.016343795
240	0xbd0d6937	-0.03452417
241	0x3d0b753b	0.034047347
242	0x3cde6a8a	0.027150411
243	0xbd061ff8	-0.03274533
244	0xbc3ecb8e	-0.011645211
245	0xbcf6fdec	-0.030150376
246	0xbcf09e75	-0.029372433
247	0x3d09a955	0.033608753
248	0x3cc82e1a	0.024436045
249	0x3c768fe1	0.015048952
250	0xbc9b41b0	-0.01895222
251	0x3a9c3200	0.0011916757
252	0x3cc4df7a	0.024032343
253	0xbc4e0f57	-0.0125768995
254	0x3afb9625	0.0019194527
255	0xbcb253de	-0.021768507

model.layer_1.pb.parentModule.bias f4 [4]
0	0x3cc37e61	0.023863973
1	0x3cd8eb2c	0.026479326
2	0x3c39c7e1	0.011339159
3	0xbce9086c	-0.028446399

model.layer_1.pb.PBtoCandidates.0 f4 [1, 4]
0	0x3d0df606	0.034658454
1	0x3d589d60	0.05288446
2	0x3d20052e	0.03906744
3	0x3c8f555f	0.017496763

model.layer_1.pb.PBtoPB.1 f4 [1, 4]
0	0x3d0df606	0.034658454
1	0x3d589d60	0.05288446
2	0x3d20052e	0.03906744
3	0x3c8f555f	0.017496763

model.layer_1.pb.pbValues.0.topPBCandidateAverage f4 [4]
0	0x3f766fc2	0.9626428
1	0x3f78e57a	0.97225153
2	0x3f71423f	0.9424171
3	0x3eb914c7	0.36148664

model.layer_1.pb.pbValues.0.PrevPBCandidateCorrelation f4 [4]
0	0x38b61d97	8.683948e-05
1	0x37eacef9	2.7991353e-05
2	0x38e59b6e	0.00010948522
3	0x398f6a1a	0.00027354137

model.layer_1.pb.pbValues.0.currentCorrelationsForParallel f4 [4]
0	0x00000000	0.0
1	0x00000000	0.0
2	0x00000000	0.0
3	0x00000000	0.0

model.layer_1.pb.pbValues.0.bestScore f4 [4]
0	0x3ac1eae7	0.0014794738
1	0x3b00e887	0.0019669847
2	0x3b37752c	0.0027993424
3	0x3ac06fdd	0.0014681775

model.layer_1.pb.pbValues.0.previousBestScore f4 [4]
0	0x3ab4dc4b	0.0013798563
1	0x3afa701e	0.00191069
2	0x3b37752c	0.0027993424
3	0x3ac06fdd	0.0014681775

model.layer_1.pb.pbValues.0.PrevPBCandidateAverage f4 [4]
0	0x3f6811d9	0.90652233
1	0x3f7abc4f	0.97943586
2	0x3f5b2594	0.85604215
3	0x3ee25162	0.44202715

model.layer_1.pb.pbValues.0.mainGradAverageForScaling f4 [4]
0	0x38770cf2	5.8901445e-05
1	0x388c6d0f	6.696034e-05
2	0x38c47f4e	9.369721e-05
3	0x38aa7591	8.12813e-05

model.layer_1.pb.pbValues.0.candidateGradAverageForScaling f4 [4]
0	0x37704453	1.4321023e-05
1	0x37832f33	1.5638396e-05
2	0x37ba489d	2.2206741e-05
3	0x37a3aab4	1.9510604e-05

model.layer_1.pb.pbValues.0.indexesOfbest f4 [4]
0	0x00000000	0.0
1	0x00000000	0.0
2	0x00000000	0.0
3	0x00000000	0.0

model.layer_1.pb.pbValues.0.nodesBestImprovedThisEpoch f4 [4]
0	0x00000000	0.0
1	0x00000000	0.0
2	0x00000000	0.0
3	0x00000000	0.0

model.layer_1.pb.pbValues.0.parentsAverageDvector f4 [4]
0	0xb6527d78	-3.136547e-06
1	0x367373c4	3.6277206e-06
2	0xb65c1391	-3.2793944e-06
3	0xb68f1375	-4.263997e-06

model.layer_1.pb.pbValues.0.normalPassAverageD f4 [4]
0	0xb451877c	-1.9513931e-07
1	0xb48b3897	-2.5931942e-07
2	0x35e505e6	1.7063546e-06
3	0xb6dc4a9e	-6.5651975e-06

model.layer_2.mainModule.weight f4 [8, 4]
0	0x3f90d3b9	1.1314613
1	0xbf37556c	-0.7161472
2	0xbe2807c3	-0.16409211
3	0x3f78a3ce	0.97124946
4	0xbf044592	-0.51668656
5	0x3eb674e8	0.35636067
6	0x3fa3fc84	1.2811437
7	0x3fbb54b9	1.463523
8	0x3e236a89	0.15958609
9	0x3fb31615	1.3991114
10	0x3ee54bcf	0.447844
11	0xbf2625e9	-0.64901596
12	0x3f92234c	1.1417022
13	0x3e781771	0.24227692
14	0x3c083750	0.008313969
15	0x3e0a7c93	0.13524084
16	0x3db737f1	0.08946217
17	0xbef3e52e	-0.47635788
18	0x3efc5656	0.4928462
19	0x3f339561	0.7014981
20	0xbea3d761	-0.3200026
21	0xc01451fe	-2.3175044
22	0xbdf93e83	-0.12170126
23	0x3f3f4ea2	0.7472936
24	0x3db28231	0.08716238
25	0x3f4ee7b9	0.8082233
26	0xbf32bb34	-0.698169
27	0x3e97d0aa	0.29651386
28	0x3f808934	1.0041871
29	0xbe634afe	-0.22196576
30	0x3fa0173b	1.2507089
31	0xbf274e31	-0.65353686

model.layer_2.mainModule.bias f4 [8]
0	0x3f27fc96	0.6561979
1	0xc01e3ca2	-2.4724507
2	0xc03f6104	-2.9902964
3	0xc0b3a175	-5.613459
4	0x4085e96a	4.184743
5	0x3e14574b	0.14486425
6	0x406c4db7	3.6922433
7	0x402518a3	2.5796287

model.layer_2.PBtoTop.0 f4 [1, 8]
0	0x3362dd23	5.2820848e-08
1	0xb3381369	-4.2858492e-08
2	0x3325393a	3.8469103e-08
3	0xb4e63691	-4.288054e-07
4	0x3437832b	1.7090922e-07
5	0x34152bc5	1.389263e-07
6	0x34e5a5e2	4.277527e-07
7	0xb0c97291	-1.4657237e-09

model.layer_2.PBtoTop.1 f4 [2, 8]
0	0xba6a0ab2	-0.00089279853
1	0xbafd525c	-0.0019326913
2	0xbb673119	-0.0035277067
3	0xbc6102d3	-0.0137335835
4	0x3c0a5cb9	0.008444958
5	0x3bf780cd	0.007553196
6	0x3bb94987	0.005654517
7	0x3ba2c626	0.004967469
8	0xba728f7e	-0.00092529494
9	0xbb01c018	-0.0019798335
10	0xbb531721	-0.003220983
11	0xbc61220e	-0.013741029
12	0x3c089873	0.008337128
13	0x3c052288	0.008125909
14	0x3bb6b7d8	0.005576115
15	0x3b99cbca	0.004693483

model.layer_2.pb.layers.0.weight f4 [8, 4]
0	0x3d92d548	0.071695864
1	0x3d471c0e	0.04861074
2	0x3d747ab1	0.05968732
3	0x3d1068ff	0.035256382
4	0x3d9401d3	0.072269104
5	0x3d719702	0.058981903
6	0x3d83bad3	0.06432118
7	0x3ca94b22	0.020665709
8	0x3d3474ea	0.04405681
9	0x3dbbe5e0	0.091747046
10	0x3d5815e2	0.052755244
11	0x3d4a6706	0.049414657
12	0x3da9d997	0.08293455
13	0x3cc84e2d	0.02445134
14	0x3d36c630	0.0446226
15	0x3d4f76f2	0.050650544
16	0x3d8053a4	0.06265953
17	0x3dc2d490	0.09513199
18	0x3d97a22b	0.07403978
19	0x3cf36610	0.029711753
20	0x3d64c957	0.055856075
21	0x3dba240d	0.090889074
22	0x3dc7d070	0.09756553
23	0x3ccc7f67	0.024963094
24	0x3daeb834	0.08531228
25	0x3dd3637d	0.1032171
26	0x3daa27ac	0.08308348
27	0x3d68b029	0.056808624
28	0x3d9460d0	0.07245028
29	0x3d97c702	0.074110046
30	0x3d57d78d	0.0526958
31	0x3d3d4712	0.046210356

model.layer_2.pb.layers.0.bias f4 [8]
0	0x3da23a1e	0.07921241
1	0x3d92c482	0.07166387
2	0x3de04d0d	0.10952196
3	0x3d002028	0.031280667
4	0x3e0c206d	0.13684244
5	0x3d848058	0.06469792
6	0x3ddae18a	0.106875494
7	0x3dd07faa	0.101806

model.layer_2.pb.layers.1.weight f4 [8, 4]
0	0x3d8ff08f	0.07028305
1	0x3d75005e	0.059814803
2	0x3d4eb478	0.050465077
3	0x3d5a3165	0.053269763
4	0x3da54e30	0.08071554
5	0x3d632b12	0.055460997
6	0x3d0b5c0b	0.034023326
7	0x3d15918a	0.03651575
8	0x3d12deff	0.035857197
9	0x3dad6daa	0.084681824
10	0x3d0e10f9	0.034684155
11	0x3d5d553c	0.054036364
12	0x3daa61e1	0.0831945
13	0x3cb943b6	0.022615295
14	0x3d26577b	0.04061077
15	0x3d73b7dc	0.059501514
16	0x3d70bce7	0.0587739
17	0x3dd0a7bc	0.10188243
18	0x3d93edf3	0.072231196
19	0x3d026197	0.03183135
20	0x3d4c9186	0.04994347
21	0x3db32c3e	0.08748673
22	0x3ddece5a	0.10879202
23	0x3bd15532	0.00638833
24	0x3d1b3651	0.037893597
25	0x3da34565	0.0797222
26	0x3d9d579f	0.07682728
27	0x3d2521fe	0.04031562
28	0x3d80beaa	0.06286366
29	0x3db15f9a	0.08660813
30	0x3dd44755	0.10365168
31	0x3d3de69d	0.046362508

model.layer_2.pb.layers.1.bias f4 [8]
0	0x3dafd3cb	0.08585318
1	0x3d34574b	0.04402856
2	0x3da61f45	0.08111433
3	0x3cc26d54	0.023733772
4	0x3dd23b76	0.102652475
5	0x3d412612	0.047155447
6	0x3ddf2dda	0.10897417
7	0x3dc6a5db	0.09699603

model.layer_2.pb.parentModule.weight f4 [8, 4]
0	0x3ec60724	0.38677323
1	0xbeb3bbce	-0.3510422
2	0x3d25f7a0	0.040519357
3	0x3ed702ee	0.41994423
4	0x3b36f000	0.0027914047
5	0xbd2b4580	-0.041814327
6	0x3efe7ae2	0.49703127
7	0x3e94ba5e	0.29048437
8	0x3e0bc7dc	0.13650459
9	0x3ef39c38	0.47580123
10	0x3ed00c42	0.40634352
11	0xbe4eaecc	-0.20183867
12	0x3e23d7c4	0.16000277
13	0x3cd23280	0.025658846
14	0xbdca2598	-0.09870452
15	0x3da745a0	0.08167577
16	0x3e8cc598	0.27494502
17	0xbe344a6c	-0.17606515
18	0x3e8d745c	0.27627838
19	0x3ee366d0	0.44414377
20	0xbea33c22	-0.31881815
21	0xbeb2fc92	-0.3495832
22	0xbd728220	-0.059206128
23	0x3db0adf0	0.08626926
24	0xbe6809e0	-0.22660017
25	0x3df818f8	0.121141374
26	0xbeed6c74	-0.46371806
27	0xbe78bf64	-0.2429176
28	0x3e7aee38	0.24504936
29	0xbe004ffc	-0.12530512
30	0x3ec00cb6	0.37509698
31	0xbe9a0110	-0.30078936

model.layer_2.pb.parentModule.bias f4 [8]
0	0x3e0b52c8	0.13605797
1	0xbef9d906	-0.48798388
2	0xbe73e3f4	-0.23817426
3	0xbe047894	-0.12936622
4	0x3cab22e0	0.020890653
5	0xbee0df8c	-0.43920553
6	0xbe570e18	-0.2100147
7	0x3ec22022	0.3791514

model.layer_2.pb.PBtoCandidates.0 f4 [1, 8]
0	0x3e4cb763	0.19991831
1	0x3dce59e7	0.10075741
2	0x3dc0a784	0.09406951
3	0x3d2f4a91	0.04279572
4	0x3e5d335c	0.21601623
5	0x3d01fba2	0.031734116
6	0x3e8d3713	0.2758108
7	0x3e676b80	0.22599602

model.layer_2.pb.PBtoPB.1 f4 [1, 8]
0	0x3e4cb763	0.19991831
1	0x3dce59e7	0.10075741
2	0x3dc0a784	0.09406951
3	0x3d2f4a91	0.04279572
4	0x3e5d335c	0.21601623
5	0x3d01fba2	0.031734116
6	0x3e8d3713	0.2758108
7	0x3e676b80	0.22599602

model.layer_2.pb.pbValues.0.topPBCandidateAverage f4 [8]
0	0x3f7ffccf	0.9999513
1	0x3f6b94a4	0.9202368
2	0x3f67b378	0.9050822
3	0x3f7f4017	0.9970717
4	0x3f7ff1cf	0.99978346
5	0x3f7b65eb	0.9820239
6	0x3f7ffc2e	0.9999417
7	0x3f7fed6a	0.9997164

model.layer_2.pb.pbValues.0.PrevPBCandidateCorrelation f4 [8]
0	0xb652000c	-3.1292466e-06
1	0x37a4ef87	1.9661862e-05
2	0xb6d78bad	-6.4237597e-06
3	0xb714836d	-8.852087e-06
4	0x37122b60	8.712377e-06
5	0xb70d201e	-8.411733e-06
6	0x359fa4d6	1.1894397e-06
7	0x36cc6f3e	6.092624e-06

model.layer_2.pb.pbValues.0.currentCorrelationsForParallel f4 [8]
0	0x00000000	0.0
1	0x00000000	0.0
2	0x00000000	0.0
3	0x00000000	0.0
4	0x00000000	0.0
5	0x00000000	0.0
6	0x00000000	0.0
7	0x00000000	0.0

model.layer_2.pb.pbValues.0.bestScore f4 [8]
0	0x3a2fe6e6	0.0006710127
1	0x3a29cb75	0.0006477156
2	0x3a06c4da	0.00051410275
3	0x3a21f2b6	0.00061778293
4	0x3a5e0558	0.0008469424
5	0x3922c749	0.00015523763
6	0x3a965102	0.0011468234
7	0x3a94528a	0.0011316102

model.layer_2.pb.pbValues.0.previousBestScore f4 [8]
0	0x3a2266d6	0.00061951333
1	0x3a249c8a	0.00062794297
2	0x3a00cb86	0.000491314
3	0x3a167eb2	0.0005740925
4	0x3a589176	0.00082614215
5	0x39228137	0.0001549766
6	0x3a928b4b	0.0011180429
7	0x3a927dc8	0.0011176402

model.layer_2.pb.pbValues.0.PrevPBCandidateAverage f4 [8]
0	0x3f7fc387	0.99907726
1	0x3f5fd0bc	0.8742788
2	0x3f710709	0.9415136
3	0x3f7d2956	0.988912
4	0x3f7f3b5c	0.9969995
5	0x3f7846e6	0.9698318
6	0x3f7fa695	0.9986356
7	0x3f7f0c89	0.996285

model.layer_2.pb.pbValues.0.mainGradAverageForScaling f4 [8]
0	0x381cf200	3.741868e-05
1	0x3816666d	3.585818e-05
2	0x37de2824	2.6483154e-05
3	0x38317d5f	4.231685e-05
4	0x380d48ff	3.3685003e-05
5	0x367bbf25	3.7513175e-06
6	0x382e243b	4.1518575e-05
7	0x3854842c	5.0667833e-05

model.layer_2.pb.pbValues.0.candidateGradAverageForScaling f4 [8]
0	0x3709d27a	8.214842e-06
1	0x36f7666a	7.373096e-06
2	0x36cafa9d	6.0492443e-06
3	0x370d76ee	8.431945e-06
4	0x36f73745	7.367608e-06
5	0x357581e8	9.145865e-07
6	0x370e558f	8.48378e-06
7	0x36f348fc	7.250461e-06

model.layer_2.pb.pbValues.0.indexesOfbest f4 [8]
0	0x00000000	0.0
1	0x00000000	0.0
2	0x00000000	0.0
3	0x00000000	0.0
4	0x00000000	0.0
5	0x00000000	0.0
6	0x00000000	0.0
7	0x00000000	0.0

model.layer_2.pb.pbValues.0.nodesBestImprovedThisEpoch f4 [8]
0	0x00000000	0.0
1	0x00000000	0.0
2	0x00000000	0.0
3	0x00000000	0.0
4	0x00000000	0.0
5	0x00000000	0.0
6	0x00000000	0.0
7	0x00000000	0.0

model.layer_2.pb.pbValues.0.parentsAverageDvector f4 [8]
0	0xb65ff54c	-3.337237e-06
1	0xb622d3ff	-2.426328e-06
2	0x35c22ce6	1.4467194e-06
3	0x35b214a2	1.3268038e-06
4	0x358f565c	1.0679464e-06
5	0x359768b9	1.1280855e-06
6	0x362616c8	2.4749188e-06
7	0xb49f318a	-2.9652102e-07

model.layer_2.pb.pbValues.0.normalPassAverageD f4 [8]
0	0xb65d7ad8	-3.300307e-06
1	0xb61cb023	-2.3348337e-06
2	0x35ca9e6a	1.5096277e-06
3	0x35e57977	1.709718e-06
4	0x358d2b3c	1.0517902e-06
5	0x35c52c17	1.4690476e-06
6	0x3485e7d4	2.4941858e-07
7	0x3627389a	2.4917886e-06

model.layer_3.mainModule.weight f4 [10, 8]
0	0x3e9df5dc	0.30851638
1	0xc0280042	-2.6250157
2	0x3c71bf8a	0.014755139
3	0x3f03df4b	0.51512593
4	0xbf006b4a	-0.5016371
5	0xc053e125	-3.3106167
6	0x3e77cb9b	0.24198763
7	0xbcdb496a	-0.026768405
8	0xbd55cc0c	-0.052196547
9	0xbd9599f1	-0.073047526
10	0x3eed322e	0.46327347
11	0x3ef84271	0.4848819
12	0xbdf056b4	-0.11735287
13	0xc020fcdb	-2.515433
14	0x3d98244e	0.074287996
15	0xbf9f193c	-1.2429576
16	0x3e6e8dc5	0.23296268
17	0xbf6d917a	-0.92800105
18	0xbec543cf	-0.38528296
19	0xbf26d5b1	-0.6516982
20	0x3eead584	0.45866024
21	0xbeaf6799	-0.34258726
22	0xbe979e4d	-0.2961296
23	0x3f8b01d3	1.0859932
24	0xbf457b67	-0.7714142
25	0xbe2e29ae	-0.17008087
26	0x3ebc77f1	0.36810258
27	0xbe037287	-0.12836657
28	0x3e10f229	0.14154877
29	0xc054cd5d	-3.3250344
30	0xbf9f0a4e	-1.242502
31	0x3f44639a	0.7671448
32	0x3e0d4712	0.13796642
33	0x3f7eabd9	0.9948097
34	0xbf60293a	-0.87562907
35	0xc01203c1	-2.2814791
36	0x3f389450	0.72101307
37	0xbf7955a6	-0.97396314
38	0x3e6640fd	0.22485729
39	0xbfc39de0	-1.5282555
40	0xbf442bd4	-0.76629376
41	0xbf1f562e	-0.62240875
42	0xbf07c2b4	-0.5303147
43	0xbccb5a18	-0.024823233
44	0xbfcdd460	-1.6080437
45	0xbe9b18d1	-0.3029237
46	0xbfbb0d14	-1.4613366
47	0xbfb6820c	-1.4258437
48	0x3f9d0d0b	1.2269605
49	0xbf16db39	-0.5892826
50	0xbfb35342	-1.4009783
51	0x3ea3b588	0.31974435
52	0xbdd4b0bd	-0.10385273
53	0x3fa03f16	1.2519252
54	0xbd9168fa	-0.07100101
55	0xbf531e0f	-0.8246774
56	0xc032645e	-2.787376
57	0xbd68affb	-0.056808453
58	0x3f7b783f	0.98230356
59	0xbfe8577d	-1.8151699
60	0xbfa745c8	-1.306817
61	0xbf3c9fc9	-0.7368131
62	0x3fa3a6fb	1.2785333
63	0xbf3243a8	-0.69634485
64	0xbe1c1e05	-0.15245827
65	0x3eacd18d	0.33753625
66	0x3e9f7c1d	0.31149378
67	0x3ef76dbe	0.48325914
68	0xbf141c28	-0.57855463
69	0xbfb9ad8e	-1.450609
70	0xbfc36eec	-1.5268226
71	0x3c252fff	0.010082244
72	0xbf8993a6	-1.0748184
73	0x3f0b7453	0.5447437
74	0xbda36203	-0.079776786
75	0xbf9358c8	-1.1511469
76	0x3f19d044	0.60083413
77	0xc0501e42	-3.2518468
78	0x3ddf22f3	0.10895338
79	0x3e866c4b	0.26254496

model.layer_3.mainModule.bias f4 [10]
0	0xbf3ae2a7	-0.73002094
1	0xbf85cf74	-1.0453935
2	0x4093e51c	4.6217175
3	0x3f850421	1.0391885
4	0x3f69788a	0.91199553
5	0xbf35a128	-0.7094903
6	0x3f2cded1	0.6752749
7	0x3fcf582c	1.6198783
8	0xc0dab94f	-6.8351207
9	0x3fd6d8c0	1.6784897

model.layer_3.PBtoTop.0 f4 [1, 10]
0	0x32fc85c1	2.9397485e-08
1	0x334b08c3	4.727259e-08
2	0x3405f423	1.2475407e-07
3	0xb3320281	-4.1446132e-08
4	0x33fa807a	1.1664902e-07
5	0xab9ef0e8	-1.129344e-12
6	0xb42ffa7d	-1.6389272e-07
7	0x34caabf9	3.775056e-07
8	0xb4b8ab4e	-3.439731e-07
9	0x34633460	2.1160076e-07

model.layer_3.PBtoTop.1 f4 [2, 10]
0	0xbb8d92b7	-0.0043204683
1	0xba676481	-0.0008826927
2	0x3c1b748c	0.009488236
3	0xb855e5f7	-5.099733e-05
4	0x3b26a289	0.0025426468
5	0xb3142a3f	-3.4497358e-08
6	0xbb74e32d	-0.0037366853
7	0x3bc187cd	0.0059060813
8	0xbc1e5c71	-0.009665594
9	0x3b836a0b	0.004010444
10	0xbaa03db1	-0.0012225417
11	0xba6d9324	-0.0009062758
12	0x3beda85a	0.007252735
13	0x3b66ff96	0.0035247556
14	0xbba01383	-0.0048851385
15	0xb31f4931	-3.708664e-08
16	0xbb8c779e	-0.0042867204
17	0x3bcc92fa	0.006243107
18	0xbc1e5af4	-0.00966524
19	0x3beb68e7	0.007184136

model.layer_3.pb.layers.0.weight f4 [10, 8]
0	0x3d9bfd20	0.07616639
1	0x3da7996a	0.08183558
2	0xbcd5deb5	-0.026107172
3	0x3cd3dd2a	0.025862295
4	0x3dc1d045	0.094635524
5	0x3e09aafa	0.13444129
6	0xbbef5c85	-0.0073047304
7	0x3cca416a	0.024689395
8	0x3cddbe6f	0.027068345
9	0x3d0c5a9b	0.034266096
10	0x3d28f559	0.041249607
11	0x3cd11f1f	0.025527535
12	0x3d06c0ee	0.032898836
13	0x3e465725	0.1936918
14	0x3d10b932	0.035332866
15	0x3d254a88	0.04035428
16	0x3d49d2a9	0.049273167
17	0x3d419fbc	0.047271475
18	0x3d12ee40	0.035871744
19	0x3d0588af	0.032601055
20	0x3c6bbec9	0.014388748
21	0x3d59c64e	0.053167634
22	0x3bb052f3	0.005380982
23	0x3c2a8c8b	0.010409485
24	0x3d341fe8	0.04397574
25	0x3cb65b7f	0.022260426
26	0x3d1b8259	0.037966106
27	0x3d15929c	0.03651677
28	0x3d039836	0.03212758
29	0x3e537c84	0.20652968
30	0x3db11916	0.08647363
31	0x3d0a7c15	0.03380974
32	0x3cb1a9b1	0.02168736
33	0x3d2333ed	0.039844442
34	0x3d63409d	0.055481542
35	0x3cb4552a	0.022013266
36	0x3d4425f5	0.04788776
37	0x3d8f7362	0.070044294
38	0x3d43de95	0.047819693
39	0x3d8f227a	0.06988998
40	0xbb404ed3	-0.0029343858
41	0xba2fd925	-0.0006708077
42	0x3c296c52	0.010340767
43	0xbb3047e9	-0.002689833
44	0xbc147fc4	-0.009063665
45	0x3c34c4fe	0.011033295
46	0xbcaa3d94	-0.020781316
47	0xbb19a101	-0.0023441913
48	0x3c0d79b1	0.0086349705
49	0x3bc285bc	0.0059363525
50	0x3d665ecb	0.056242745
51	0x3d64f037	0.05589315
52	0xbb763f61	-0.0037574398
53	0xbd702b33	-0.058634948
54	0xbceb568d	-0.028727794
55	0x3d5cf333	0.05394287
56	0xbcee6a1b	-0.02910333
57	0x3d383261	0.04496992
58	0x3d75b77b	0.059989434
59	0x3c969bf8	0.018384919
60	0x3dbe9d9c	0.09307405
61	0x3df4ab76	0.11946766
62	0x3d54eb4e	0.051982217
63	0x3d59f1e4	0.0532092
64	0x3d3ea1c8	0.046541005
65	0x3d3b9359	0.04579482
66	0x3d6fe95d	0.058572162
67	0x3d2db7c3	0.042411577
68	0x3cda0e95	0.026618281
69	0x3e5ae831	0.21377636
70	0x3df6dcb9	0.12053818
71	0x3d1081ec	0.035280153
72	0x3cd438ed	0.02590605
73	0x3c1436a8	0.009046234
74	0x3d359387	0.044330146
75	0x3d1d4e2e	0.038404636
76	0x3b411e35	0.0029467468
77	0x3d74dc96	0.05978068
78	0x3c1c4a8d	0.009539259
79	0x3d9a9ac1	0.07549048

model.layer_3.pb.layers.0.bias f4 [10]
0	0xbc15f1e5	-0.00915191
1	0x3d90338c	0.07041082
2	0xbd7bc812	-0.0614701
3	0x3d88ccdb	0.06679698
4	0x3dcb0379	0.09912772
5	0x3c641975	0.013922085
6	0xbd54c472	-0.051945157
7	0x3dc8ce5b	0.09804984
8	0x3e053423	0.1300817
9	0x3c2b3c1f	0.010451346

model.layer_3.pb.layers.1.weight f4 [10, 8]
0	0x3d9b41ea	0.075809315
1	0x3df6a7f4	0.12043753
2	0xbd15931f	-0.03651726
3	0x3d150aa0	0.036387086
4	0x3d998a11	0.07497037
5	0x3e6ba59d	0.23012395
6	0xbd61c5bc	-0.055120215
7	0x3bb2f0e4	0.0054608453
8	0x3d26980a	0.04067234
9	0x3d4dbd8e	0.0502296
10	0x3d903e23	0.07043102
11	0x3d5cfe49	0.053953443
12	0x3d77c094	0.06048639
13	0x3eb48e57	0.35264847
14	0x3da5f45f	0.08103251
15	0x3d12ffe7	0.03588858
16	0x3d74a840	0.05973077
17	0x3da88353	0.08228173
18	0x3cb409ee	0.021977391
19	0x3d58ff04	0.052977577
20	0xbcaac2b4	-0.020844795
21	0x3c8c3ef4	0.017119862
22	0xbd877462	-0.06613995
23	0xbc6053b3	-0.01369183
24	0x3de901f0	0.11377323
25	0xbc5f9517	-0.013646386
26	0xbccad4c2	-0.024759654
27	0x3de0315a	0.10946913
28	0x3d978ec1	0.07400275
29	0x3f64f1e2	0.89431584
30	0x3e71d16a	0.23615041
31	0xbcae2c26	-0.021261286
32	0xbd45e407	-0.048313167
33	0xbc9ea410	-0.01936534
34	0x3d36cb78	0.044627637
35	0x3d90e9cd	0.07075844
36	0xbd373c06	-0.044734977
37	0xbe16213f	-0.1466112
38	0xbbf669cc	-0.007519936
39	0x3dd1dc1d	0.102470614
40	0x3c515a24	0.012777839
41	0xbc49ff18	-0.0123288855
42	0x3c924eaf	0.017859785
43	0x3a860499	0.0010224759
44	0x3bbb9ebc	0.0057257097
45	0x3c42cae1	0.01188919
46	0x3c69ddfe	0.0142741185
47	0xbca0ba58	-0.019620106
48	0x3c06e174	0.008232463
49	0x3d35707f	0.044296738
50	0x3db03117	0.08603113
51	0x3e165c66	0.14683685
52	0xbd67d535	-0.056599814
53	0xbe084a20	-0.13309526
54	0xbdbd196d	-0.09233365
55	0x3dedd605	0.116130866
56	0xbc3c74ea	-0.011502484
57	0x3d8c5f2a	0.068540886
58	0x3dd193a5	0.10233239
59	0x3c9ddad5	0.019269386
60	0x3e445845	0.19174297
61	0x3e3560dd	0.17712732
62	0x3e1e3621	0.15450336
63	0x3dd968c0	0.106156826
64	0x3d7caae2	0.061686404
65	0x3d55c1ae	0.05218666
66	0x3d9aa919	0.07551784
67	0x3d64cec0	0.055861235
68	0x3d9f1891	0.077683575
69	0x3ed05ee6	0.40697402
70	0x3e3c0a9a	0.18363419
71	0x3d843b88	0.06456667
72	0x3d83b540	0.06431055
73	0xbbe00b06	-0.0068372516
74	0x3c85ac4e	0.016317513
75	0x3df6d11e	0.12051605
76	0xbc992129	-0.01869257
77	0x3a0a1cd6	0.0005268579
78	0xbda7724a	-0.08176096
79	0x3dabc14d	0.083864786

model.layer_3.pb.layers.1.bias f4 [10]
0	0xbd9ac0a2	-0.07556273
1	0x3e067915	0.13132127
2	0xbe379c42	-0.17930701
3	0x3d507706	0.05089476
4	0x3b30b6ba	0.0026964382
5	0xbb99d0f6	-0.0046940995
6	0xbe6542ee	-0.22388813
7	0x3e6ca554	0.23109943
8	0x3e8d312b	0.27576575
9	0xbdb854a2	-0.090005174

model.layer_3.pb.parentModule.weight f4 [10, 8]
0	0x3cd9f18d	0.026604438
1	0xbead04d2	-0.3379274
2	0x3d47045e	0.04858815
3	0x3cf33685	0.029689083
4	0x3e826913	0.2547079
5	0x3e0bf202	0.13666537
6	0x3dbbfc79	0.09179015
7	0x3d4a6145	0.04940917
8	0x3e78285d	0.24234147
9	0xbe94e8ca	-0.29083854
10	0x3e124d67	0.14287339
11	0x3e55f080	0.20892525
12	0x3e3101e6	0.1728588
13	0x3e3a0971	0.18167664
14	0x3e44a28e	0.19202635
15	0xbe219c69	-0.15782322
16	0xbdd3d662	-0.10343625
17	0xbe919fd1	-0.28442243
18	0x3d7c28ed	0.061562467
19	0xbea799bb	-0.32734475
20	0x3d1b2800	0.037879944
21	0xbeb45825	-0.352235
22	0x3d3379b9	0.043817256
23	0x3d305c48	0.043056756
24	0xbe4763b5	-0.19471629
25	0xbd35ef44	-0.044417635
26	0x3e66c0dc	0.22534508
27	0xbe7e5ded	-0.24840517
28	0x3cc229a1	0.02370149
29	0x3e820e3e	0.2540149
30	0xbc8324a2	-0.016008679
31	0x3e2d901d	0.16949506
32	0x3ab9d625	0.00141782
33	0x3dc4e8bc	0.09614703
34	0x3e788107	0.2426797
35	0xbe6a2749	-0.22866549
36	0x3c181d6e	0.00928436
37	0xbe848d42	-0.2588902
38	0x3e85d883	0.26141748
39	0xbe9455ad	-0.28971615
40	0x3e2a6c3f	0.16642855
41	0xbdeb381c	-0.114853114
42	0xbdd11144	-0.10208371
43	0x3e5e8a99	0.21732558
44	0xbeb19ff7	-0.34692356
45	0x3c7b1511	0.015324847
46	0x3dab7ee9	0.083738156
47	0xbe827bf6	-0.254852
48	0x3ea9ab81	0.3313866
49	0x3e44ba58	0.1921171
50	0x3ca53d83	0.020170933
51	0xbe5bc2fc	-0.214611
52	0xbe641d98	-0.22276914
53	0xbe0b7c9b	-0.13621752
54	0x3e82a351	0.25515226
55	0xbded3a05	-0.11583332
56	0xbe7dc91a	-0.24783745
57	0x3e86b5a0	0.26310444
58	0x3ea5176b	0.3224443
59	0xbeb2335d	-0.34804812
60	0xbbc4656a	-0.005993535
61	0xbdf45d13	-0.11931815
62	0xbb9f6ff8	-0.0048656426
63	0xbeaa6a9b	-0.3328446
64	0xbdfee5c7	-0.1244617
65	0x3e4adcbd	0.19810767
66	0x3e351ae1	0.17686035
67	0x3e0e8c9c	0.13920826
68	0xbe9b8141	-0.3037205
69	0x3e20252b	0.15639178
70	0xbe9fa650	-0.31181574
71	0x3d6cdd0f	0.057828005
72	0xbeaf2b61	-0.34212783
73	0x3e4be7ba	0.19912615
74	0xbe9dff8d	-0.30859032
75	0xbe920e31	-0.28526452
76	0x3e57ab13	0.21061353
77	0x3d95b8ae	0.073106155
78	0x3e9b3572	0.30314213
79	0x3eaaabeb	0.33334288

model.layer_3.pb.parentModule.bias f4 [10]
0	0xbeb39222	-0.35072428
1	0x3eabc268	0.33546758
2	0xbc14b263	-0.009075734
3	0x3e98a9b1	0.29816964
4	0xbd6a6e68	-0.057234198
5	0x3e8e6841	0.27813914
6	0xbe3241d5	-0.17407925
7	0x3e193f1d	0.14965482
8	0xbe98b878	-0.29828238
9	0xbe9406ad	-0.28911343

model.layer_3.pb.PBtoCandidates.0 f4 [1, 10]
0	0xbd64903f	-0.055801626
1	0x3e0d4db3	0.13799171
2	0xbe1ea87e	-0.15493962
3	0x3d3296d3	0.04360087
4	0xbb839fc7	-0.0040168497
5	0x344468a6	1.8291993e-07
6	0xbdf6edeb	-0.12057098
7	0x3e6679f8	0.22507465
8	0x3e89ce96	0.26915425
9	0xbd9450cc	-0.07241973

model.layer_3.pb.PBtoPB.1 f4 [1, 10]
0	0xbd64903f	-0.055801626
1	0x3e0d4db3	0.13799171
2	0xbe1ea87e	-0.15493962
3	0x3d3296d3	0.04360087
4	0xbb839fc7	-0.0040168497
5	0x344468a6	1.8291993e-07
6	0xbdf6edeb	-0.12057098
7	0x3e6679f8	0.22507465
8	0x3e89ce96	0.26915425
9	0xbd9450cc	-0.07241973

model.layer_3.pb.pbValues.0.topPBCandidateAverage f4 [10]
0	0x3f781bcc	0.96917415
1	0x3f7fffd2	0.99999726
2	0x3f7dcc5e	0.99139965
3	0x3f7fc822	0.99914753
4	0x3f4fa918	0.8111739
5	0x3ef2d4cb	0.47427973
6	0x3f792484	0.97321343
7	0x3f800000	1.0
8	0x3f800000	1.0
9	0x3f6e9a22	0.9320394

model.layer_3.pb.pbValues.0.PrevPBCandidateCorrelation f4 [10]
0	0xb672e084	-3.6191495e-06
1	0xb53dbf5b	-7.0686445e-07
2	0x36016b1e	1.9284848e-06
3	0x33e87d00	1.0826079e-07
4	0x3811c8b3	3.475761e-05
5	0xa413f109	-3.207971e-17
6	0xb6e51a85	-6.827819e-06
7	0x33b5f510	8.473046e-08
8	0xb6f78d18	-7.377599e-06
9	0xb82c7e25	-4.1125477e-05

model.layer_3.pb.pbValues.0.currentCorrelationsForParallel f4 [10]
0	0x00000000	0.0
1	0x00000000	0.0
2	0x00000000	0.0
3	0x00000000	0.0
4	0x00000000	0.0
5	0x00000000	0.0
6	0x00000000	0.0
7	0x00000000	0.0
8	0x00000000	0.0
9	0x00000000	0.0

model.layer_3.pb.pbValues.0.bestScore f4 [10]
0	0x39a3b5c3	0.00031225206
1	0x39a2fe5f	0.0003108857
2	0x3a06805d	0.0005130822
3	0x3a4989b2	0.00076880597
4	0x38ff963f	0.00012187333
5	0x2703e489	1.8303791e-15
6	0x3971c932	0.00023058502
7	0x3994d9b2	0.00028390955
8	0x3a50a695	0.0007959393
9	0x39cb3275	0.0003875677

model.layer_3.pb.pbValues.0.previousBestScore f4 [10]
0	0x39a3b5c3	0.00031225206
1	0x39a2fbdb	0.00031086695
2	0x3a06805d	0.0005130822
3	0x3a4989b2	0.00076880597
4	0x38ff963f	0.00012187333
5	0x2703e489	1.8303791e-15
6	0x3971c932	0.00023058502
7	0x3994cdd8	0.00028382125
8	0x3a50a59b	0.00079592475
9	0x39cb3275	0.0003875677

model.layer_3.pb.pbValues.0.PrevPBCandidateAverage f4 [10]
0	0x3f73baac	0.95206714
1	0x3f7fe25b	0.99954766
2	0x3f795dfd	0.9740904
3	0x3f7cc591	0.9873896
4	0x3f52e803	0.8238527
5	0x3f0660a3	0.52491206
6	0x3f75d30b	0.9602515
7	0x3f7ffa72	0.99991524
8	0x3f7ff930	0.99989605
9	0x3f605f6a	0.8764559

model.layer_3.pb.pbValues.0.mainGradAverageForScaling f4 [10]
0	0x36dbd832	6.551877e-06
1	0x3757f580	1.2872159e-05
2	0x378d1931	1.682024e-05
3	0x37cb3d4d	2.4228031e-05
4	0x36e46625	6.8068207e-06
5	0x24178013	3.285139e-17
6	0x36f81ce6	7.39434e-06
7	0x3620edc4	2.3980256e-06
8	0x37fc81a9	3.0101119e-05
9	0x375f8805	1.3323505e-05

model.layer_3.pb.pbValues.0.candidateGradAverageForScaling f4 [10]
0	0x35cf78cc	1.5457858e-06
1	0x364f5ccd	3.089942e-06
2	0x36708253	3.5838646e-06
3	0x36a46094	4.898824e-06
4	0x35d782cd	1.6056816e-06
5	0x230d1534	7.648115e-18
6	0x35c3b7a4	1.4582079e-06
7	0x35169861	5.6101095e-07
8	0x36d18d17	6.2451104e-06
9	0x3650c980	3.1111704e-06

model.layer_3.pb.pbValues.0.indexesOfbest f4 [10]
0	0x00000000	0.0
1	0x00000000	0.0
2	0x00000000	0.0
3	0x00000000	0.0
4	0x00000000	0.0
5	0x00000000	0.0
6	0x00000000	0.0
7	0x00000000	0.0
8	0x00000000	0.0
9	0x00000000	0.0

model.layer_3.pb.pbValues.0.nodesBestImprovedThisEpoch f4 [10]
0	0x00000000	0.0
1	0x00000000	0.0
2	0x00000000	0.0
3	0x00000000	0.0
4	0x00000000	0.0
5	0x00000000	0.0
6	0x00000000	0.0
7	0x00000000	0.0
8	0x00000000	0.0
9	0x00000000	0.0

model.layer_3.pb.pbValues.0.parentsAverageDvector f4 [10]
0	0x357695a3	9.185989e-07
1	0x35a54f46	1.231653e-06
2	0xb60c8b30	-2.0942643e-06
3	0x366d3329	3.5345531e-06
4	0xb57fb9d3	-9.526531e-07
5	0x23d56cb6	2.3139547e-17
6	0x35605f55	8.358523e-07
7	0xb4469dd9	-1.8497612e-07
8	0xb688b8e1	-4.0746386e-06
9	0x3552f5db	7.8588863e-07
