libraryExamples/mnist_lightning/.mnist_{epoch}-{val_loss:.2f}/epoch=783-step=674240.ckpt (torch, 710160 bytes, 60 tensors)

model.layer_1.mainModule.weight f4 [4, 784]
00000000: b238 06bd c499 52bd 5212 52bd d0f2 8fbd
00000010: f17a 39bd 884d 99bd 3792 10bd 74e6 33bd
00000020: 2dd0 96bd 4046 8abd 2733 a6bd 827b 88bd
00000030: ef52 2cbd 5e73 0ebd 274f 98bd 4736 8bbd
00000040: f513 1fbd 6d99 c2bd cb70 b6bd 3f44 b0bd
00000050: 4bcf 99bd 5c92 8ebd 9c77 0abd 663d 99bd
00000060: 2ff3 70bd 0c6f aebd 88f9 02bd 2b43 cebd
00000070: 5ed4 a7bd ed28 95bd d91a b3bd 1330 3dbd
00000080: 3938 89bd 2dc6 89bd 8b00 cd3b cb79 563d
00000090: 62fc 22bc e9a8 793b 14e1 b83e cb9a 943d
000000a0: fb7b 6b3e 9ef7 be3a dc9a 44be d0fb 7bbd
000000b0: bd4e d33e 6fdb 863e 12fe b13d 902b 5a3e
000000c0: 6aab db3d 6d84 cabc d032 38bd 68c2 89b9
000000d0: 60f8 bbbd 0481 48bd 78bb 8dbd 08ba 1ebd
000000e0: d6ec 88bd f541 77bd 76d0 97bd 7593 34bd
000000f0: 9659 b6bd 4c5b 47bd 2f7b 643c a516 e53d
00000100: 4bb5 a93c 1b82 913e 3967 273e f37b ec3e
00000110: c015 093e e27d e43e f262 2c3e cf36 183e
00000120: dbea 4e3e 1377 1a3f b995 d23e 0655 f03e
00000130: e8de 1b3e 75ab 0c3e 1310 7a3c 60c7 cd3d
00000140: ae7a 513e 5ff4 ff3d 0498 9cbd 5fe4 17bd
00000150: b16b a8bd 1e0a 4dbd 26f6 72bd 3b45 813c
00000160: f38d 8dbd 723a 1dbe d605 12be 7dcc ae3e
00000170: a4cf 09bf 611b a63b 1291 373e d215 9c3e
00000180: b7eb 753f a8e0 a83e b0b1 ff3d 49af 6e3d
00000190: 6d85 d7bb 0817 953e 61fc a1be bcc8 0cbe
000001a0: e08e 69be e724 643e e793 4e3e 008c 663e
000001b0: 85dd 813e 36b7 963d c7c0 e53c d37f 44bd
000001c0: 473b bfbd 6133 acbd 7285 c5bd 3ba2 a1bb
000001d0: 22ef 95be 35e9 f8be ec52 b23e 16f8 383e
000001e0: a227 573e 72e3 a5be 9eb0 773f 4099 233e
000001f0: 659d 203e faff 2d3f 0fcc 123f 3c62 0a3f
00000200: 7304 50bc 984a d3be e90e b73e 0951 8abd
00000210: 862c 6c3e aad5 c1be 26d8 b3be 39bc 6abf
00000220: 308b 61be 0b60 1f3d 5dd5 c4ba f620 8ebd
00000230: e191 9dbd 674f a8bd fadd d5bb 94aa cabd
00000240: 1c1d 01be dfc8 d6be bdb9 963e 996f 263f
00000250: a4cc 103f 631e 053e f386 153f a5c2 263f
00000260: 93d9 203f 1260 803d 043c cbbc 5c1b f73e
00000270: 5e60 0dba 1504 aabe 7952 243e 8213 0cbe
00000280: 7b90 8abe 66c5 ffbe 53e7 cd3d 9fa8 adbf
00000290: db89 2bbf 322f e3be b703 29be 00bb c6bd
000002a0: 5979 53bd 8f6f 35bd 04f5 8bbd 88fe 34be
000002b0: f224 203f 3ca6 993d 04ab da3d fef6 013f
000002c0: 3ff2 9a3e 3f0d d1be 2d12 8e3e 6ba1 b53e
000002d0: 011a 133f f0fc e33e ff6b e33e 0bdb 57bd
000002e0: f547 b93e 7c18 9c3d 7d93 c03c 2052 a3be
000002f0: 6128 893e 2180 3cbe bc17 0bbe bbce 4ebe
00000300: 804c 7bbf 3c01 b9be 3be2 6dbe 0845 9fbd
00000310: cca0 34bd fb47 1cbd 6203 313d d7b7 0d3e
00000320: 010d 883f 9e31 ef3e e4d6 fd3e 86bf dabe
00000330: 0d96 c4ba ac6b 8fbe c9cc 0ebe 3fbe 26be
00000340: 3d6f b23e 63d5 af3e 9b3d 523e 5585 8b3e
00000350: 6dd8 0a3f 3f98 653e 3a3e c0be 06eb 70be
00000360: 3223 12be bd94 87be f4d4 1abf 9b2c 92be
00000370: 6b05 8fbf 41f5 ddbe 3f09 f2be f2d7 5cbd
00000380: e5f0 bbbd bed8 3fbd 54ab 4abc 9b62 18be
00000390: c3cb 553f 4b69 a93e 0318 393f 9110 843e
000003a0: 381b b13d 9d4a 0d3f 86b7 733e 6b16 423e
000003b0: 22d9 823d 6a23 1e3f 96da 90bd f161 8f3e
000003c0: 9b51 2bbd 9705 8e3d 18f3 2a3f bfaa 1c3f
000003d0: 07eb babd 0a12 053f ac22 87be 673c 9dbf
000003e0: 649c 37bf 2d30 0dbf 3d3a a3be bb5b 9f3c
000003f0: fb95 e2bd 9f14 c2bd 6c1b 033c 7044 27be
-0.032768913 -0.051416174 -0.051287003 -0.07028735 -0.04528326 -0.07485491 -0.03529569 -0.04392095
-0.07363925 -0.067516804 -0.08115225 -0.06664182 -0.04207128 -0.03477799 -0.07436972 -0.06797462
-0.038837392 -0.0950192 -0.08908232 -0.08606767 -0.07510241 -0.069615096 -0.033805475 -0.07482414
-0.058825668 -0.08517274 -0.031976253 -0.10071405 -0.08194803 -0.072831966 -0.08745355 -0.046188425
-0.06700177 -0.06727252 0.0062561682 0.052362245 -0.009947868 0.0038095063 0.3610922 0.07256087
0.22996514 0.0014569645 -0.19199699 -0.061519444 0.4127101 0.2633929 0.08691038 0.2130568
0.10726054 -0.024721349 -0.044970334 -0.0002627552 -0.09178233 -0.048951164 -0.069205225 -0.038751632
-0.06685798 -0.060365636 -0.07412808 -0.04408594 -0.08903806 -0.04867105 0.013945385 0.1118596
0.02071633 0.28419575 0.1634797 0.46188316 0.13387203 0.4462729 0.1683462 0.14864658
0.20206778 0.6033794 0.41129854 0.46939868 0.1522175 0.1373728 0.015262621 0.100477934
0.20456955 0.12497782 -0.07646182 -0.037083026 -0.082236655 -0.050058477 -0.059316777 0.015780082
-0.0691184 -0.15354326 -0.14260039 0.34140387 -0.5383246 0.005069182 0.17926434 0.30485398
0.960628 0.329839 0.12485063 0.058272634 -0.006577185 0.29119134 -0.31637862 -0.13748449
-0.22808409 0.22279702 0.20173608 0.22514343 0.25364318 0.073591635 0.028046025 -0.047973465
-0.09337478 -0.08408237 -0.09644593 -0.0049326695 -0.29284006 -0.48615423 0.3482889 0.18063387
0.21011212 -0.3240009 0.9675387 0.15976429 0.15685041 0.67968714 0.5734262 0.54056144
-0.012696373 -0.41267848 0.35753563 -0.067537375 0.2306386 -0.37858325 -0.35125846 -0.91693455
-0.22025752 0.038909953 -0.00150172 -0.069398805 -0.0769384 -0.0821827 -0.006526706 -0.098958164
-0.1260876 -0.41950127 0.29438582 0.65014035 0.56562257 0.12999873 0.5840904 0.65140754
0.6283199 0.06268324 -0.024808891 0.4826306 -0.0005393083 -0.3320624 0.16047086 -0.13679317
-0.27063355 -0.4995529 0.10053887 -1.3567084 -0.67007226 -0.44371945 -0.16505323 -0.09703636
-0.051629398 -0.044295844 -0.068338424 -0.17675221 0.62556374 0.0750241 0.1067715 0.50767505
0.30262944 -0.40830418 0.27748242 0.35474715 0.57461554 0.44528913 0.44418332 -0.05269913
0.3618771 0.076218575 0.023507828 -0.31898594 0.2678862 -0.18408252 -0.13583273 -0.20196049
-0.98163605 -0.36133754 -0.23230831 -0.077768385 -0.04409866 -0.038154583 0.043216117 0.1383966
1.0628968 0.46717542 0.4957801 -0.42724246 -0.0014998332 -0.28011835 -0.13945307 -0.1628351
0.34850493 0.3434249 0.20531313 0.27250162 0.5423649 0.22421359 -0.37547475 -0.23527154
-0.14271238 -0.26480666 -0.6048119 -0.28549656 -1.1173528 -0.43351176 -0.4727268 -0.05391688
-0.09176806 -0.04683756 -0.012369949 -0.14881365 0.8351404 0.33088145 0.72302264 0.2579389
0.0864777 0.55191976 0.23800477 0.18953864 0.06389071 0.6177279 -0.07072942 0.2800441
-0.041825872 0.0693466 0.6677718 0.6119804 -0.09126859 0.5198065 -0.2639364 -1.2284058
-0.7172301 -0.55151635 -0.3188037 0.01945292 -0.11063763 -0.094765894 0.008002143 -0.163347

model.layer_1.mainModule.bias f4 [4]
00000000: bf2c 2e3d ab18 b33e c2c9 0e3d 61a4 fcbd
0.042523142 0.34979758 0.03486038 -0.1233604

model.layer_1.pb.parentModule.weight f4 [4, 784]
00000000: cf64 093d 810d 743c 1c2b 763c 2571 80bb
00000010: 3a45 ac3c f30d 0bbc d816 fe3c 8a6e b73c
00000020: 9c48 eebb 6ea3 96ba 3c39 72bc 4a8e 8fb9
00000030: 4ee6 c63c 8586 ee3c 01c9 2fbc 4a7b dfba
00000040: da13 e13c 01b6 eabc 7c13 babc 4a61 a1bc
00000050: b71b 0fbc 25d2 54bb 0026 053d f38c 0abc
00000060: d34f f53b 800c 9abc 0ea4 0c3d 7dae 0cbd
00000070: fc42 7fbc 65d5 d3bb b5bb acbc 9eda a43c
00000080: b763 24ba 939a 98ba f8be 723c 63b9 cabc
00000090: fcd0 30bc be88 ad3c da7f 96bc 6711 0fbd
000000a0: 5a59 b33c 7ae8 8d3c e040 14bc a5ba bc3c
000000b0: 3ca6 9ebc ae4f 793c 2013 9cbc a1e8 6cbc
000000c0: 1cf1 00bd ae8e 96bc 25c9 6dbb 9215 043d
000000d0: cc31 d0bc 8338 8e3c 5cfa 39bb eac7 e13c
000000e0: dc82 00ba 81d9 c23b dcba ffbb c19d b43c
000000f0: 65b8 b2bc f583 bd3c cf6e 113d f0cd 9dbc
00000100: 41f0 31bc aeb6 933b 801d 23bb b746 3e3b
00000110: fa72 bebc 739f ee3c eef7 193c 6e8a fbbb
00000120: 0125 2cbc 4e4d 9b3c 6169 c73c ee4f f43b
00000130: 25dd a5b9 a49b 083d baeb ddbc 03a0 f63c
00000140: c71b a6bc 73e0 3b3c d360 25bc 5573 ef3c
00000150: e5fe 81bc 3c26 853c da18 933c 2af7 ffbc
00000160: 814b 4abb da0c ebbc 2893 f6bc c334 a6bc
00000170: 04d2 043d 80a0 18bb 43d0 9fbc b733 cb3a
00000180: aa24 b03c aa5c 903c 2e39 023c e5fc 95bb
00000190: dc75 a33b d38d 91bc b7bd 56bc 01a7 67bc
000001a0: 7707 c9bb d7db 9dbc 0c3b d03c 0ea7 4f3c
000001b0: 0e2f e73c 8a07 a4bc 98a6 66bc e33a 963c
000001c0: 683d ddbc da5d 8cbc c1b9 ff3b 8e81 f83c
000001d0: 135a edbc dcf2 6a3a 6ef8 24bc fa21 9cbc
000001e0: 9518 94bc fcf8 e6bc e1b9 e3bc 8579 3ebc
000001f0: 0a3a 6ebc ec13 e63c 8570 3b3c d15c fd3c
00000200: 458a 283c eace f33c eaf2 17bc 4038 83bb
00000210: e5fa 513c 6e0d a23b 3321 6abc 3313 b0bc
00000220: 3358 05bd 53b3 2cbc f767 3abc b3da 3bbc
00000230: 732f 2dbc d58d 81bc 2f8c 083d e4ab 103d
00000240: 2541 47bc 3c36 6ebc 4136 ab3b 05de ce3c
00000250: 9346 bebb 01b5 db3a cab3 463b fcb5 423c
00000260: aaf6 16bc 4a0f d7bc f5f1 0e3d 4553 6fbc
00000270: e782 883c d3b5 11bd 6e24 5dbb f5d5 04bd
00000280: caa2 4a3c 8566 12bc e315 9d3c a147 b33c
00000290: 175b 513c 6536 eb3c 7f58 0ebd d3f1 3fbc
000002a0: 138f 703c 7525 ae3c 65b0 793c e04c 06bd
000002b0: 77f5 4e3c 7306 0cbd 2545 6ebb 018f 6a3b
000002c0: 05a3 9f3c d000 043d 6ee1 36bc 0065 26bb
000002d0: 83db b33c 7c3e cf3c d508 f53c 3706 cf3c
000002e0: 5ce5 093d 2558 303b ae0a 973c 7ebf c1bc
000002f0: a503 38bb 446d 05bd 2507 843a 9e5a 08bd
00000300: baf3 95bc cebf 59bc 8acc 8abb 8c9d de3c
00000310: ccf9 b53c 33c1 6d3c 93bc ec3b cabf 833b
00000320: 91bf c1bc ea87 d5bc 0071 273c 130d 993b
00000330: 1c5d 4f3c 6e83 4d3a 2546 a73a eeb3 f93c
00000340: 66dc 04bd 3a4b b63c b8d5 783a 0b13 103d
00000350: 3c81 d0bc 0e61 9bbc b721 a63c 6309 0bbd
00000360: 01ac faba 650e 7c3c 7599 df3c 3784 ae3b
00000370: f7b4 923c 7a6d d6bc 2e1a 953b 253a 6d3b
00000380: 717f edbc ab16 0a3d 5bac 00bd b3e7 893c
00000390: b167 e13c 6e2a c33a 5caa d6bb 25ad e9b9
000003a0: 53fa aebc b34c 1a3c 1cae ba3c 4a51 893a
000003b0: 6e3b a7bb 9cdc b8bc 51ce e3bc 4a68 26bc
000003c0: 4e1d 67bc 4e66 0a3d 2ae2 f63c 1334 71bb
000003d0: 2e17 62bc 214f bcbc 9138 c23c 77db cb3b
000003e0: 8b51 083d fcab a13c 6e3b 68b8 8a3e 21bc
000003f0: aa1c 9ebc 0082 033a a5f9 5dbb 818a ec3b
0.033543404 0.014895798 0.0150249265 -0.003919738 0.021029104 -0.0084872125 0.031016752 0.022391576
-0.0072718393 -0.0011492798 -0.014784154 -0.000273811 0.02427974 0.029116878 -0.010729075 -0.0017050293
0.027475286 -0.02865124 -0.022714369 -0.019699711 -0.008734635 -0.0032473889 0.032506943 -0.0084564565
0.0074863224 -0.018804789 0.034336142 -0.034346092 -0.015579935 -0.0064646476 -0.0210856 0.020123776
-0.0006270962 -0.0011642746 0.014816038 -0.024746602 -0.010792013 0.021183368 -0.018371511 -0.034928706
0.021893192 0.017322768 -0.0090486705 0.023038218 -0.019366376 0.015216751 -0.019052088 -0.01445976
-0.03147994 -0.018378582 -0.0036283222 0.032247134 -0.02541437 0.017360931 -0.0028377986 0.027561147
-0.0004902312 0.0059463386 -0.007804258 0.02204788 -0.021816442 0.023134211 0.035506066 -0.019263238
-0.010860504 0.004507861 -0.002488941 0.0029033849 -0.023248184 0.029128766 0.00939749 -0.007676414
-0.010506869 0.01895776 0.02434224 0.0074558174 -0.00031636018 0.033351555 -0.027089942 0.030105596
-0.020276917 0.011467087 -0.0100938855 0.0292298 -0.015868613 0.016253583 0.017956186 -0.031245787
-0.0030867758 -0.028692652 -0.030099466 -0.02028883 0.03242685 -0.0023289025 -0.019508487 0.0015503083
0.021501858 0.01762231 0.007948203 -0.0045772665 0.004988415 -0.017767822 -0.013106755 -0.014138938
-0.006134923 -0.019269867 0.02541878 0.012674106 0.02822068 -0.020023126 -0.014077805 0.018338626
-0.02700682 -0.017134596 0.007804126 0.030335214 -0.028973615 0.00089625805 -0.010068996 -0.01905917
-0.018078128 -0.028194897 -0.027798595 -0.011625652 -0.014540205 0.028085671 0.011440401 0.030928047
0.010286872 0.02976175 -0.009274224 -0.0040045083 0.012816166 0.0049454486 -0.014290142 -0.02149353
-0.032554816 -0.010540801 -0.011377326 -0.011465716 -0.010570395 -0.015814701 0.033336814 0.035320178
-0.012161528 -0.014539298 0.0052249734 0.025252352 -0.005806753 0.0016762317 0.0030319565 0.011884209
-0.009214083 -0.026252408 0.034898717 -0.014607255 0.016663982 -0.03557379 -0.0033743638 -0.032430608
0.0123679135 -0.008935575 0.019175475 0.021884741 0.012778065 0.02871246 -0.034752365 -0.01171537
0.014682549 0.021258095 0.01523981 -0.032788157 0.012631766 -0.034185838 -0.0036357131 0.0035790803
0.019486913 0.032227337 -0.011162145 -0.002538979 0.021955257 0.02529835 0.029911438 0.025271518
0.033666 0.0026908007 0.01843771 -0.02365088 -0.0028078344 -0.032574907 0.001007293 -0.033289544
-0.018304694 -0.013290359 -0.0042358087 0.027174734 0.022213839 0.014511394 0.0072246282 0.004020666
-0.023650916 -0.026065785 0.010219812 0.004670748 0.012656476 0.0007839714 0.0012761994 0.030481305
-0.03243675 0.022252668 0.0009492296 0.03517441 -0.025452249 -0.018967178 0.020279748 -0.0339445
-0.0019124747 0.015384291 0.027294854 0.00532582 0.017908556 -0.02617525 0.00455024 0.0036197987
-0.028991433 0.033713024 -0.03141437 0.016834116 0.027515264 0.0014889964 -0.00655107 -0.00044570226
-0.021359598 0.009417701 0.0227881 0.0010476497 -0.00510352 -0.022566132 -0.02780834 -0.0101567
-0.014106108 0.03378897 0.03013714 -0.003680472 -0.013799472 -0.02298695 0.023708614 0.0062212306
0.03328089 0.019735329 -5.536846e-05 -0.009841571 -0.019300777 0.0005016625 -0.0033870724 0.0072186594

model.layer_1.pb.parentModule.bias f4 [4]
00000000: d1e2 c2bc 8acc 463c 815d c0bc 73bc 3f3c
-0.023789795 0.012133727 -0.023482086 0.011702645

model.layer_1.pb.pbValues.0.topPBCandidateAverage f4 [4]
00000000: 0000 0000 0000 0000 0000 0000 0000 0000
0.0 0.0 0.0 0.0

model.layer_1.pb.pbValues.0.PrevPBCandidateCorrelation f4 [4]
00000000: 0000 0000 0000 0000 0000 0000 0000 0000
0.0 0.0 0.0 0.0

model.layer_1.pb.pbValues.0.currentCorrelationsForParallel f4 [4]
00000000: 0000 0000 0000 0000 0000 0000 0000 0000
0.0 0.0 0.0 0.0

model.layer_1.pb.pbValues.0.bestScore f4 [4]
00000000: 0000 0000 0000 0000 0000 0000 0000 0000
0.0 0.0 0.0 0.0

model.layer_1.pb.pbValues.0.previousBestScore f4 [4]
00000000: 0000 0000 0000 0000 0000 0000 0000 0000
0.0 0.0 0.0 0.0

model.layer_1.pb.pbValues.0.PrevPBCandidateAverage f4 [4]
00000000: 0000 0000 0000 0000 0000 0000 0000 0000
0.0 0.0 0.0 0.0

model.layer_1.pb.pbValues.0.mainGradAverageForScaling f4 [4]
00000000: 0000 0000 0000 0000 0000 0000 0000 0000
0.0 0.0 0.0 0.0

model.layer_1.pb.pbValues.0.candidateGradAverageForScaling f4 [4]
00000000: 0000 0000 0000 0000 0000 0000 0000 0000
0.0 0.0 0.0 0.0

model.layer_1.pb.pbValues.0.indexesOfbest f4 [4]
00000000: 0000 0000 0000 0000 0000 0000 0000 0000
0.0 0.0 0.0 0.0

model.layer_1.pb.pbValues.0.nodesBestImprovedThisEpoch f4 [4]
00000000: 0000 0000 0000 0000 0000 0000 0000 0000
0.0 0.0 0.0 0.0

model.layer_1.pb.pbValues.0.parentsAverageDvector f4 [4]
00000000: 0000 0000 0000 0000 0000 0000 0000 0000
0.0 0.0 0.0 0.0

model.layer_1.pb.pbValues.0.normalPassAverageD f4 [4]
00000000: f4d9 7336 3ec4 1cb7 762c 9d36 8fc2 9c37
3.6336687e-06 -9.344016e-06 4.6841405e-06 1.8687248e-05

model.layer_2.mainModule.weight f4 [8, 4]
00000000: a103 a23f dc54 993b f34a 44bf 2736 57be
00000010: 474e e43e 5a48 b03f 6e22 523e f58e 82bf
00000020: 921d dfbe 7cf6 bfbe 0dd6 763e 1204 2ac0
00000030: bfae 2d3f caa8 703f f988 fdbe 607e c93f
00000040: f0e7 0fbe eb39 783f e693 a2be 8366 23be
00000050: f897 1ebe af1a 833f 49fc edbd f020 68bf
00000060: c9b3 a63f 1f54 f93b 7ead 06bd 63cb 3abf
00000070: f388 89be 53a4 203e d9b0 da3f 6181 16bf
1.2657357 0.0046793055 -0.76676863 -0.21016751 0.4459097 1.377208 0.20520946 -1.0199877
-0.43577248 -0.3749274 0.24105091 -2.6564984 0.67844766 0.9400755 -0.49518564 1.5741692
-0.14053321 0.96963376 -0.31753463 -0.15957074 -0.15487659 1.0242518 -0.11620385 -0.9067526
1.3023616 0.007608905 -0.0328803 -0.72966594 -0.26862296 0.15687685 1.708522 -0.58791167

model.layer_2.mainModule.bias f4 [8]
00000000: efdf 913f 2a92 cbc0 fdc1 3940 7c40 51c0
00000010: c20a 7abe dad6 e040 3cb7 fe3f f7f6 52bf
1.1396464 -6.3615923 2.902465 -3.2695608 -0.24418166 7.026227 1.9899669 -0.8240809

model.layer_2.pb.parentModule.weight f4 [8, 4]
00000000: 1c6f 9f3e a4c4 723e e080 c1bd 8098 283d
00000010: f0e7 9a3d 0c87 ef3e 1073 f8bd 586b 80be
00000020: 360e aebe 8813 48be 2415 103e cc68 56be
00000030: d05d 443d 5ca6 ea3e 2097 b0be f0be 053e
00000040: 3069 61be f0f3 a63e f875 f03d 10a1 44bd
00000050: ae86 c6be 827f 873e 4476 3cbe c6f4 83be
00000060: f865 853e b012 82be ae3c e7be a80d 9cbe
00000070: 607b cdbd 70ad 773d e67e ec3e d0d0 91be
0.31139457 0.23707825 -0.09448409 0.04116106 0.0756377 0.4678272 -0.121313214 -0.25081897
-0.33995217 -0.195387 0.14070565 -0.20938414 0.04794103 0.45830047 -0.344903 0.13061118
-0.22012782 0.32607985 0.11741251 -0.048005164 -0.38774627 0.26464468 -0.1840449 -0.25772685
0.26054358 -0.25404882 -0.45163482 -0.3047917 -0.100332975 0.060468137 0.46190566 -0.28479624

model.layer_2.pb.parentModule.bias f4 [8]
00000000: e0a5 253d 608b 95bc 4898 0e3e 4cf7 73be
00000010: 7098 46be 0493 74be 702e e03e dc83 63be
0.040441394 -0.018254936 0.13925278 -0.23824805 -0.19394088 -0.23884207 0.4378543 -0.22218269

model.layer_2.pb.pbValues.0.topPBCandidateAverage f4 [8]
00000000: 0000 0000 0000 0000 0000 0000 0000 0000
00000010: 0000 0000 0000 0000 0000 0000 0000 0000
0.0 0.0 0.0 0.0 0.0 0.0 0.0 0.0

model.layer_2.pb.pbValues.0.PrevPBCandidateCorrelation f4 [8]
00000000: 0000 0000 0000 0000 0000 0000 0000 0000
00000010: 0000 0000 0000 0000 0000 0000 0000 0000
0.0 0.0 0.0 0.0 0.0 0.0 0.0 0.0

model.layer_2.pb.pbValues.0.currentCorrelationsForParallel f4 [8]
00000000: 0000 0000 0000 0000 0000 0000 0000 0000
00000010: 0000 0000 0000 0000 0000 0000 0000 0000
0.0 0.0 0.0 0.0 0.0 0.0 0.0 0.0

model.layer_2.pb.pbValues.0.bestScore f4 [8]
00000000: 0000 0000 0000 0000 0000 0000 0000 0000
00000010: 0000 0000 0000 0000 0000 0000 0000 0000
0.0 0.0 0.0 0.0 0.0 0.0 0.0 0.0

model.layer_2.pb.pbValues.0.previousBestScore f4 [8]
00000000: 0000 0000 0000 0000 0000 0000 0000 0000
00000010: 0000 0000 0000 0000 0000 0000 0000 0000
0.0 0.0 0.0 0.0 0.0 0.0 0.0 0.0

model.layer_2.pb.pbValues.0.PrevPBCandidateAverage f4 [8]
00000000: 0000 0000 0000 0000 0000 0000 0000 0000
00000010: 0000 0000 0000 0000 0000 0000 0000 0000
0.0 0.0 0.0 0.0 0.0 0.0 0.0 0.0

model.layer_2.pb.pbValues.0.mainGradAverageForScaling f4 [8]
00000000: 0000 0000 0000 0000 0000 0000 0000 0000
00000010: 0000 0000 0000 0000 0000 0000 0000 0000
0.0 0.0 0.0 0.0 0.0 0.0 0.0 0.0

model.layer_2.pb.pbValues.0.candidateGradAverageForScaling f4 [8]
00000000: 0000 0000 0000 0000 0000 0000 0000 0000
00000010: 0000 0000 0000 0000 0000 0000 0000 0000
0.0 0.0 0.0 0.0 0.0 0.0 0.0 0.0

model.layer_2.pb.pbValues.0.indexesOfbest f4 [8]
00000000: 0000 0000 0000 0000 0000 0000 0000 0000
00000010: 0000 0000 0000 0000 0000 0000 0000 0000
0.0 0.0 0.0 0.0 0.0 0.0 0.0 0.0

model.layer_2.pb.pbValues.0.nodesBestImprovedThisEpoch f4 [8]
00000000: 0000 0000 0000 0000 0000 0000 0000 0000
00000010: 0000 0000 0000 0000 0000 0000 0000 0000
0.0 0.0 0.0 0.0 0.0 0.0 0.0 0.0

model.layer_2.pb.pbValues.0.parentsAverageDvector f4 [8]
00000000: 0000 0000 0000 0000 0000 0000 0000 0000
00000010: 0000 0000 0000 0000 0000 0000 0000 0000
0.0 0.0 0.0 0.0 0.0 0.0 0.0 0.0

model.layer_2.pb.pbValues.0.normalPassAverageD f4 [8]
00000000: fa7a 8eb6 313f 6136 c852 6736 27e5 cc36
00000010: fd24 a5b6 a781 4ab7 b7bb cf35 2dc6 1f35
-4.246246e-06 3.3564395e-06 3.4469867e-06 6.1063506e-06 -4.921689e-06 -1.2070325e-05 1.5477334e-06 5.95205e-07

model.layer_3.mainModule.weight f4 [10, 8]
00000000: 8286 983e 4f48 4cbe 2865 5dc0 5d14 85bf
00000010: 53ab 123f f3c5 cf3f 9411 25bf d64a 64bf
00000020: d6c2 df3d 665a 2f3f d579 cec0 6fdc 50be
00000030: 481d 15c0 22c1 9bc0 22a7 1b3e d2a7 203e
00000040: 1d7a a63f 11c6 67bf 261b 1ec0 0482 74bf
00000050: 3757 953d 58c3 bd3e 0422 aa3f 5439 52bf
00000060: 8316 d73b 3436 143f c381 c1c0 51bf 09be
00000070: 0e4c ca3e 69bb b0be ee28 563e 9091 d4be
00000080: b73b f63b 75bd 92bf 41f7 19be 5a30 4f3e
00000090: dde6 13bf 490c e6bf 9b56 e5bf 1e7c 833f
000000a0: 4d2c 30c0 9135 683e b0fd c5bf d7ce cfbe
000000b0: 1e96 bc3e b565 a23e 7687 f7be 14e1 3a3e
000000c0: 6527 f3be d1f5 adbf 46f8 6840 802d a3bf
000000d0: adad a23d 5eb3 733c eb6d 793f e0c6 f73e
000000e0: 84d0 f23e 90b9 57bf 5721 82c0 c369 553f
000000f0: 1a3f 5b3f d360 0bbf 29f2 edbe cfb7 8abf
00000100: fd32 91be 78ab b13f 4544 2ec0 7253 ffbe
00000110: de3a 1b3e 7267 d8bf 838a a5be e0c1 d83e
00000120: 38e2 0bc0 d327 0fbf f3d3 e4bf 7dee 8f3f
00000130: e9d7 3ebf 6cbd 01c0 e37a 8cbf 6e26 65be
0.2979012 -0.19949459 -3.459299 -1.0396839 0.5729267 1.6232284 -0.6447995 -0.8917669
0.10925834 0.6849731 -6.452372 -0.20396589 -2.3299122 -4.867326 0.15200475 0.15689018
1.3006016 -0.905366 -2.470407 -0.9551089 0.072920255 0.37063098 1.3291631 -0.82118726
0.006563963 0.5789521 -6.04709 -0.13451888 0.3951115 -0.34517983 0.20914051 -0.41517305
0.007514443 -1.1464068 -0.15035726 0.20233288 -0.57774144 -1.7972499 -1.7917055 1.0272253
-2.752704 0.22676684 -1.5468044 -0.40587494 0.3683328 0.3171822 -0.48345536 0.18249923
-0.47490993 -1.3590642 3.6401534 -1.274826 0.07943282 0.014874307 0.97433347 0.48393917
0.4742471 -0.8426752 -4.06657 0.83364505 0.8564316 -0.5444462 -0.46473816 -1.0837344
-0.28359213 1.3880453 -2.7229168 -0.4986835 0.15159175 -1.6906569 -0.3233224 0.42335415
-2.1856823 -0.5592014 -1.7877182 1.1244656 -0.745482 -2.0271864 -1.0975002 -0.22377941

model.layer_3.mainModule.bias f4 [10]
00000000: b928 b540 ee24 e7be cc5f 6e40 9623 fcbf
00000010: b82b bb40 2a49 2c40 e185 583f e59d e7bf
00000020: c36b d4c0 57de 01c0
5.661221 -0.45145363 3.724597 -1.969836 5.8490868 2.6919656 0.84579283 -1.809506
-6.6381545 -2.0291955

model.layer_3.pb.parentModule.weight f4 [10, 8]
00000000: 0b6c b7bc e20c 3b3e b6f2 cf3c 659e 0a3e
00000010: 06d3 7b3e 6ff3 353e 73ac b33e b3fa 1a3c
00000020: 18b9 8b3e 0c86 163d 6e39 a03d 39d6 043d
00000030: 53ec 0ebe 26ff 8cbe 9723 673e 9822 223d
00000040: e1a2 a63e 7d03 9cbd 5862 8dbe 5ee1 18be
00000050: ac10 b43e a372 6c3d a012 b13e 7b97 49ba
00000060: e234 efbd 5a1b dc3d d77b 2f3e 4bc4 08be
00000070: 0602 953e af07 a1be 466c 0b3e 272c c1bd
00000080: bc99 433e dbc1 053e 22b9 71be 088b 14be
00000090: d147 923e e2d5 873e 5023 96be 9764 c9bd
000000a0: 7396 913c 64bb 623e d60b 2cbe 8295 0bbd
000000b0: 9f74 ae3d 99c3 a8be fb06 cabd 636b 90be
000000c0: e05d a0be 250d 90be a81b 83be ad81 d93d
000000d0: 5e7d 5b3e c31c 69bd 3f16 a33e 751f 2e3e
000000e0: 930e 94be 8fd5 3b3e e491 7b3e a848 a83e
000000f0: 6542 823e 7493 90be 5dfa 81be 5a74 4c3d
00000100: 423f 58be b1bf 763e 28a4 a73e 7da8 9dbe
00000110: 98e9 a43e f0cf a3bc eb21 c23d 6fca ce3d
00000120: 92cb 00be 6641 52be a3d5 2abe 4d3f 873e
00000130: e765 63be c692 afbe 8e2b a83d 6ab7 abbd
-0.022390386 0.18266633 0.025384288 0.13536985 0.24592218 0.17768644 0.35092506 0.009459185
0.27289653 0.03674893 0.07823454 0.03243086 -0.13957338 -0.27538413 0.2257217 0.039583772
0.32546142 -0.07617853 -0.27614093 -0.14929721 0.3516897 0.057726514 0.34584522 -0.0007690114
-0.116800085 0.107474044 0.17137085 -0.1335613 0.29103106 -0.31451175 0.13615522 -0.094322495
0.19101614 0.13062231 -0.23605779 -0.14506161 0.28570417 0.26530367 -0.29323816 -0.09833639
0.017771935 0.22141796 -0.1680139 -0.03407813 0.085183375 -0.3296173 -0.09864613 -0.2820693
-0.3132162 -0.28135028 -0.25607038 0.10620437 0.21434543 -0.056912195 0.3185291 0.17004187
-0.2891737 0.18343185 0.24567372 0.32867932 0.2544128 -0.28237498 -0.25386325 0.04991565
-0.21117881 0.24096562 0.3274243 -0.3079261 0.32209468 -0.019996613 0.094791256 0.10097205
-0.12577656 -0.2053276 -0.16683058 0.26415482 -0.22206841 -0.34291667 0.082114324 -0.08384593

model.layer_3.pb.parentModule.bias f4 [10]
00000000: 25ca 11be e004 9cbe 2887 37be a885 173e
00000010: 310a 9bbe f158 373e e38b 24be a1cb 4b3e
00000020: 2261 a63e 8788 b33e
-0.14237268 -0.3047247 -0.17922652 0.1479708 -0.30281213 0.17905022 -0.16068988 0.19901897
0.3249598 0.350651

model.layer_3.pb.pbValues.0.topPBCandidateAverage f4 [10]
00000000: 0000 0000 0000 0000 0000 0000 0000 0000
00000010: 0000 0000 0000 0000 0000 0000 0000 0000
00000020: 0000 0000 0000 0000
0.0 0.0 0.0 0.0 0.0 0.0 0.0 0.0
0.0 0.0

model.layer_3.pb.pbValues.0.PrevPBCandidateCorrelation f4 [10]
00000000: 0000 0000 0000 0000 0000 0000 0000 0000
00000010: 0000 0000 0000 0000 0000 0000 0000 0000
00000020: 0000 0000 0000 0000
0.0 0.0 0.0 0.0 0.0 0.0 0.0 0.0
0.0 0.0

model.layer_3.pb.pbValues.0.currentCorrelationsForParallel f4 [10]
00000000: 0000 0000 0000 0000 0000 0000 0000 0000
00000010: 0000 0000 0000 0000 0000 0000 0000 0000
00000020: 0000 0000 0000 0000
0.0 0.0 0.0 0.0 0.0 0.0 0.0 0.0
0.0 0.0

model.layer_3.pb.pbValues.0.bestScore f4 [10]
00000000: 0000 0000 0000 0000 0000 0000 0000 0000
00000010: 0000 0000 0000 0000 0000 0000 0000 0000
00000020: 0000 0000 0000 0000
0.0 0.0 0.0 0.0 0.0 0.0 0.0 0.0
0.0 0.0

model.layer_3.pb.pbValues.0.previousBestScore f4 [10]
00000000: 0000 0000 0000 0000 0000 0000 0000 0000
00000010: 0000 0000 0000 0000 0000 0000 0000 0000
00000020: 0000 0000 0000 0000
0.0 0.0 0.0 0.0 0.0 0.0 0.0 0.0
0.0 0.0

model.layer_3.pb.pbValues.0.PrevPBCandidateAverage f4 [10]
00000000: 0000 0000 0000 0000 0000 0000 0000 0000
00000010: 0000 0000 0000 0000 0000 0000 0000 0000
00000020: 0000 0000 0000 0000
0.0 0.0 0.0 0.0 0.0 0.0 0.0 0.0
0.0 0.0

model.layer_3.pb.pbValues.0.mainGradAverageForScaling f4 [10]
00000000: 0000 0000 0000 0000 0000 0000 0000 0000
00000010: 0000 0000 0000 0000 0000 0000 0000 0000
00000020: 0000 0000 0000 0000
0.0 0.0 0.0 0.0 0.0 0.0 0.0 0.0
0.0 0.0

model.layer_3.pb.pbValues.0.candidateGradAverageForScaling f4 [10]
00000000: 0000 0000 0000 0000 0000 0000 0000 0000
00000010: 0000 0000 0000 0000 0000 0000 0000 0000
00000020: 0000 0000 0000 0000
0.0 0.0 0.0 0.0 0.0 0.0 0.0 0.0
0.0 0.0

model.layer_3.pb.pbValues.0.indexesOfbest f4 [10]
00000000: 0000 0000 0000 0000 0000 0000 0000 0000
00000010: 0000 0000 0000 0000 0000 0000 0000 0000
00000020: 0000 0000 0000 0000
0.0 0.0 0.0 0.0 0.0 0.0 0.0 0.0
0.0 0.0

model.layer_3.pb.pbValues.0.nodesBestImprovedThisEpoch f4 [10]
00000000: 0000 0000 0000 0000 0000 0000 0000 0000
00000010: 0000 0000 0000 0000 0000 0000 0000 0000
00000020: 0000 0000 0000 0000
0.0 0.0 0.0 0.0 0.0 0.0 0.0 0.0
0.0 0.0

model.layer_3.pb.pbValues.0.parentsAverageDvector f4 [10]
00000000: 0000 0000 0000 0000 0000 0000 0000 0000
00000010: 0000 0000 0000 0000 0000 0000 0000 0000
00000020: 0000 0000 0000 0000
0.0 0.0 0.0 0.0 0.0 0.0 0.0 0.0
0.0 0.0

model.layer_3.pb.pbValues.0.normalPassAverageD f4 [10]
00000000: e1d1 51b6 4459 3b34 37b9 f2b4 b316 d535
00000010: 5407 5fb6 0dbe 2733 6ed8 5a35 437b 2db6
00000020: 8da4 0b35 5016 d536
-3.1265592e-06 1.7448207e-07 -4.5210774e-07 1.5876343e-06 -3.3233855e-06 3.9055568e-08 8.1526275e-07 -2.5850757e-06
5.202099e-07 6.350492e-06

exp_avg f4 [4, 784]
00000000: ca78 083a ca78 083a ca78 083a ca78 083a
00000010: ca78 083a ca78 083a ca78 083a ca78 083a
00000020: ca78 083a ca78 083a ca78 083a ca78 083a
00000030: ca78 083a ca78 083a ca78 083a ca78 083a
00000040: ca78 083a ca78 083a ca78 083a ca78 083a
00000050: ca78 083a ca78 083a ca78 083a ca78 083a
00000060: ca78 083a ca78 083a ca78 083a ca78 083a
00000070: ca78 083a ca78 083a ca78 083a ca78 083a
00000080: ca78 083a ca78 083a ca78 083a ca78 083a
00000090: ca78 083a 7279 083a 997a 083a a07a 083a
000000a0: 7379 083a ce78 083a cd78 083a ca78 083a
000000b0: ca78 083a ca78 083a ca78 083a ca78 083a
000000c0: ca78 083a ca78 083a ca78 083a ca78 083a
000000d0: ca78 083a ca78 083a ca78 083a ca78 083a
000000e0: ca78 083a ca78 083a ca78 083a ca78 083a
000000f0: ca78 083a ca78 083a ca78 083a 637a 083a
00000100: 5483 083a 457a 083a a07a 083a a87a 083a
00000110: 017a 083a c478 083a bd78 083a bf78 083a
00000120: c378 083a c378 083a d478 083a f578 083a
00000130: 9679 083a e37a 083a fa78 083a ca78 083a
00000140: ca78 083a ca78 083a ca78 083a ca78 083a
00000150: ca78 083a ca78 083a ca78 083a ca78 083a
00000160: ca78 083a 627e 083a a895 083a 80ba 083a
00000170: 0305 093a 9ea4 083a a587 083a 268f 083a
00000180: 9085 083a 0e9d 0b3a f828 093a f8ae fd39
00000190: 5004 f639 8323 f739 9793 f139 d870 f739
000001a0: 8551 013a 2a5d 083a 4878 083a ca78 083a
000001b0: ca78 083a ca78 083a ca78 083a ca78 083a
000001c0: ca78 083a ca78 083a ca78 083a ca78 083a
000001d0: cc78 083a 2886 083a 8baa 083a f698 073a
000001e0: aa27 403a 2ac1 973a 82a5 953a f646 9f3a
000001f0: 2d4b 3c3a f8cf 82b8 76b4 bcba e937 d1ba
00000200: e3d1 ecba 70b3 a3ba d9e5 06ba 49a4 f439
00000210: fbfd f839 4a98 f839 23f0 063a 71f6 073a
00000220: 1858 083a c878 083a ca78 083a ca78 083a
00000230: ca78 083a ca78 083a ca78 083a 296f 083a
00000240: c44b 083a 9921 083a 07d8 043a fe76 f539
00000250: 98e2 683a 17ed 873a a35f ad39 f639 25ba
00000260: 92a7 8dba 66e5 5eba 54fc 0abb c219 4fbb
00000270: 4fa6 34bb a892 03bb 5896 7dba 9499 a7b9
00000280: 8f07 ac39 90f9 9839 ca00 d939 c214 003a
00000290: 6e88 083a 3b90 083a ca78 083a ca78 083a
000002a0: ca78 083a ca78 083a ca78 083a 44b7 073a
000002b0: c428 083a 1dda 053a a123 0d3a ace7 8c39
000002c0: bf5c 1c3a 831a 643a f9fb c638 edcb 95ba
000002d0: b0e3 abba 508c b6ba e8aa 25bb ff66 78bb
000002e0: f3e3 6dbb ff3b 70bb 966d 28bb 7e33 f6ba
000002f0: f623 42ba 9a1b ca38 971a 9d38 cb83 bf39
00000300: c51e 0d3a 4cf8 0c3a dc0c 0b3a ca78 083a
00000310: ca78 083a 0b7a 083a 46ab 083a 1e6b 083a
00000320: 87c8 083a 8e41 083a f557 f139 0d75 8d39
00000330: 0e4c 173a c0bb 6c3a 27b2 263a f1f1 94ba
00000340: 5d43 edba de6a 32bb c959 5bbb 2c1d 69bb
00000350: 01e3 48bb 05fd 6cbb 8a0a 69bb 3d62 2dbb
00000360: a499 0cbb 44e6 05b8 cb37 5037 4559 e739
00000370: 8d6b 0c3a 12e4 0c3a fc35 0b3a ca78 083a
00000380: ca78 083a d079 083a 82f8 093a a545 0a3a
00000390: 509b 0e3a 6c67 433a 2dfb 533a b464 103a
000003a0: 4aee 403a 1e0e 2d3a 5880 0439 0b72 8fba
000003b0: 3313 02bb 8934 13bb 1a2f 47bb 7c3d 5dbb
000003c0: 641a 26bb 1da3 37ba fff0 d2ba 7559 2fbb
000003d0: 2ce3 e9ba d7f4 4139 92b1 c139 0c89 db39
000003e0: 165f 0c3a 4690 0a3a 0f99 083a ca78 083a
000003f0: ca78 083a ca78 083a 340a 093a 354c 0a3a
0.0005205987 0.0005205987 0.0005205987 0.0005205987 0.0005205987 0.0005205987 0.0005205987 0.0005205987
0.0005205987 0.0005205987 0.0005205987 0.0005205987 0.0005205987 0.0005205987 0.0005205987 0.0005205987
0.0005205987 0.0005205987 0.0005205987 0.0005205987 0.0005205987 0.0005205987 0.0005205987 0.0005205987
0.0005205987 0.0005205987 0.0005205987 0.0005205987 0.0005205987 0.0005205987 0.0005205987 0.0005205987
0.0005205987 0.0005205987 0.0005205987 0.0005205987 0.0005205987 0.0005206085 0.0005206257 0.0005206261
0.00052060856 0.00052059896 0.0005205989 0.0005205987 0.0005205987 0.0005205987 0.0005205987 0.0005205987
0.0005205987 0.0005205987 0.0005205987 0.0005205987 0.0005205987 0.0005205987 0.0005205987 0.0005205987
0.0005205987 0.0005205987 0.0005205987 0.0005205987 0.0005205987 0.0005205987 0.0005205987 0.00052062253
0.00052075577 0.0005206208 0.0005206261 0.00052062655 0.0005206168 0.0005205984 0.00052059797 0.0005205981
0.0005205983 0.0005205983 0.0005205993 0.0005206012 0.0005206106 0.00052063 0.0005206015 0.0005205987
0.0005205987 0.0005205987 0.0005205987 0.0005205987 0.0005205987 0.0005205987 0.0005205987 0.0005205987
0.0005205987 0.0005206821 0.0005210289 0.0005215779 0.0005226882 0.0005212518 0.0005208201 0.0005209319
0.00052078906 0.0005325832 0.000523224 0.00048386282 0.0004692399 0.0004713797 0.00046077065 0.00047195586
0.0004933107 0.0005201871 0.00052059116 0.0005205987 0.0005205987 0.0005205987 0.0005205987 0.0005205987
0.0005205987 0.0005205987 0.0005205987 0.0005205987 0.00052059884 0.0005207979 0.0005213401 0.0005172634
0.0007330129 0.0011577953 0.0011417123 0.0012151885 0.0007182833 -6.23762e-05 -0.0014397043 -0.0015962097
-0.0018067922 -0.001248939 -0.00051459443 0.0004666171 0.00047491476 0.0004741571 0.00051474775 0.0005186564
0.0005201115 0.0005205986 0.0005205987 0.0005205987 0.0005205987 0.0005205987 0.0005205987 0.00052045524
0.0005199278 0.0005192995 0.0005067591 0.00046818698 0.0008883863 0.0010370341 0.00033068386 -0.00063028873
-0.0010807386 -0.0008502811 -0.0021207528 -0.0031601046 -0.0027564948 -0.0020076428 -0.0009673587 -0.00031967147
0.00032812028 0.00029177638 0.00041390053 0.00048859057 0.0005208318 0.00052094803 0.0005205987 0.0005205987
0.0005205987 0.0005205987 0.0005205987 0.000517715 0.0005194063 0.0005106049 0.0005384032 0.0002687549
0.0005964748 0.00087014603 9.488309e-05 -0.0011428572 -0.0013114121 -0.0013927314 -0.002527887 -0.0037903187
-0.0036299198 -0.0036656854 -0.0025700084 -0.0018783656 -0.00074058713 9.637252e-05 7.491296e-05 0.00036528552
0.0005383308 0.0005377575 0.00053043454 0.0005205987 0.0005205987 0.0005206174 0.000521351 0.000520395
0.0005217869 0.00051977567 0.00046032635 0.00026980825 0.0005771526 0.00090306625 0.0006358944 -0.0011363608
-0.0018101741 -0.0027224342 -0.0033470264 -0.0035570366 -0.0030652883 -0.0036161554 -0.003555926 -0.002645626
-0.0021453882 -3.1924123e-05 1.2410756e-05 0.00044126264 0.00053566025 0.00053745613 0.00053104735 0.0005205987
0.0005205987 0.000520614 0.0005263166 0.000527466 0.00054400135 0.0007454071 0.00080864393 0.000550817
0.00073597266 0.000660153 0.00012636313 -0.0010944022 -0.001984787 -0.0022461733 -0.0030393065 -0.0033758571
-0.002534532 -0.0007005202 -0.0016093551 -0.0026756201 -0.0017844192 0.00018497124 0.0003694413 0.00041873043
0.0005354745 0.00052857806 0.0005210796 0.0005205987 0.0005205987 0.0005205987 0.00052276556 0.0005275638

exp_avg_sq f4 [4, 784]
00000000: f858 9e36 f858 9e36 f858 9e36 f858 9e36
00000010: f858 9e36 f858 9e36 f858 9e36 f858 9e36
00000020: f858 9e36 f858 9e36 f858 9e36 f858 9e36
00000030: f858 9e36 f858 9e36 f858 9e36 f858 9e36
00000040: f858 9e36 f858 9e36 f858 9e36 f858 9e36
00000050: f858 9e36 f858 9e36 f858 9e36 f858 9e36
00000060: f858 9e36 f858 9e36 f858 9e36 f858 9e36
00000070: f858 9e36 f858 9e36 f858 9e36 f858 9e36
00000080: f858 9e36 f858 9e36 f858 9e36 f858 9e36
00000090: f758 9e36 93a5 9e36 d811 a036 6615 9e36
000000a0: 58e8 9d36 dd50 9e36 e858 9e36 f055 9e36
000000b0: 0c54 9e36 9055 9e36 ef58 9e36 0f59 9e36
000000c0: fe58 9e36 f958 9e36 f858 9e36 f858 9e36
000000d0: f858 9e36 f858 9e36 f858 9e36 f858 9e36
000000e0: f858 9e36 f858 9e36 f858 9e36 f858 9e36
000000f0: f858 9e36 f858 9e36 f858 9e36 d358 9e36
00000100: 7a58 9e36 c4b9 9f36 00cb a136 b693 a336
00000110: fbfe a236 b038 b436 00ae da36 ae09 bc36
00000120: 591a a936 1b60 a536 9322 a036 9fb1 9f36
00000130: ff52 9e36 abf7 9d36 2659 9e36 c161 9e36
00000140: 2699 9e36 3168 9e36 f858 9e36 f858 9e36
00000150: f858 9e36 f858 9e36 f858 9e36 5564 9e36
00000160: f858 9e36 3f59 9e36 755d 9e36 7e99 9e36
00000170: 4707 9e36 0293 a036 33dd ab36 357e b936
00000180: 514c f536 953d 3037 67a4 5537 a663 5b37
00000190: c98a 3c37 e1c5 e136 bfba bd36 245a b436
000001a0: 612c a436 408d a336 871f a136 2fde 9e36
000001b0: 0e65 9e36 4158 9e36 f159 9e36 f858 9e36
000001c0: f858 9e36 f858 9e36 f858 9e36 8465 9e36
000001d0: 1b55 9e36 e990 9e36 23b3 a336 b488 b636
000001e0: 53f8 cc36 bab5 0237 1e44 3f37 a258 8d37
000001f0: 0e82 e837 e78b 1838 8f9e 1e38 744d 5c38
00000200: ec74 5038 d344 1438 72c8 8f37 7c91 4137
00000210: 75b3 6137 6233 f636 5376 c436 3ca5 da36
00000220: 884c c436 a090 9e36 0658 9e36 6758 9e36
00000230: f858 9e36 f858 9e36 f858 9e36 5d67 9e36
00000240: 3503 a036 5296 a536 d258 c336 650c 1d37
00000250: 22c0 6c37 63fd 9837 d118 d237 7011 1f38
00000260: e2e4 6a38 f735 8b38 9fdc af38 5d0f b738
00000270: 72aa 9938 43b9 8438 86a6 4738 76e5 f837
00000280: a6ed b137 b1ac 7437 ace4 3037 7780 ec36
00000290: eb7d c536 117a 9e36 0157 9e36 3958 9e36
000002a0: f858 9e36 f858 9e36 f758 9e36 38f7 9e36
000002b0: 27c7 a836 06dd c536 59a7 0e37 e1a4 7e37
000002c0: 4d15 ba37 08d6 0438 9a0b 5838 c4d9 9c38
000002d0: 15e6 af38 f378 c538 32c7 ed38 99e4 de38
000002e0: 2cf9 b038 bc8b a338 6a3b 8338 f139 2638
000002f0: 644a d637 c373 8637 fa3a 3e37 307f d936
00000300: 0fdf c436 0d13 9f36 9d5d 9e36 cc58 9e36
00000310: f858 9e36 ff58 9e36 eb50 9e36 7103 ad36
00000320: b5ba bb36 496f ed36 ac31 4a37 adba 9637
00000330: 758c c937 1a6c 2e38 e2be 8c38 d330 ab38
00000340: 5f0e aa38 fb55 ba38 4065 d238 d9c8 b938
00000350: 59fc ad38 6e6f b238 1363 a038 d789 6538
00000360: 9051 1c38 4928 b137 788f 7237 e37e 2037
00000370: 7fbf e136 1154 9e36 b853 9f36 811f 9e36
00000380: 2a59 9e36 135b 9e36 36d6 9e36 56b3 b036
00000390: a1be d036 954a 0a37 7fe5 5137 2d26 9137
000003a0: 2537 bd37 75b6 4138 ce50 8238 8034 8d38
000003b0: 372b 9b38 1683 b438 3b09 a138 8e1b 9538
000003c0: 44f8 9538 b2c7 a038 d37a a438 17ea 7d38
000003d0: 1711 3338 8440 e137 e731 5f37 8a8b 0e37
000003e0: badf ac36 08e9 a036 5fc1 9d36 80f3 9d36
000003f0: ea58 9e36 eb58 9e36 da55 9e36 4b64 a136
4.7191243e-06 4.7191243e-06 4.7191243e-06 4.7191243e-06 4.7191243e-06 4.7191243e-06 4.7191243e-06 4.7191243e-06
4.7191243e-06 4.7191243e-06 4.7191243e-06 4.7191243e-06 4.7191243e-06 4.7191243e-06 4.7191243e-06 4.7191243e-06
4.7191243e-06 4.7191243e-06 4.7191243e-06 4.7191243e-06 4.7191243e-06 4.7191243e-06 4.7191243e-06 4.7191243e-06
4.7191243e-06 4.7191243e-06 4.7191243e-06 4.7191243e-06 4.7191243e-06 4.7191243e-06 4.7191243e-06 4.7191243e-06
4.7191243e-06 4.7191243e-06 4.7191243e-06 4.7191243e-06 4.719124e-06 4.7280423e-06 4.770449e-06 4.711258e-06
4.706013e-06 4.7181807e-06 4.719117e-06 4.7187714e-06 4.7185513e-06 4.7187277e-06 4.71912e-06 4.7191347e-06
4.719127e-06 4.7191247e-06 4.7191243e-06 4.7191243e-06 4.7191243e-06 4.7191243e-06 4.7191243e-06 4.7191243e-06
4.7191243e-06 4.7191243e-06 4.7191243e-06 4.7191243e-06 4.7191243e-06 4.7191243e-06 4.7191243e-06 4.7191074e-06
4.719067e-06 4.760195e-06 4.821806e-06 4.8749744e-06 4.85766e-06 5.3710173e-06 6.5171625e-06 5.6039635e-06
5.0396598e-06 4.9285713e-06 4.7723966e-06 4.759247e-06 4.718429e-06 4.707797e-06 4.719145e-06 4.720147e-06
4.7265958e-06 4.7208964e-06 4.7191243e-06 4.7191243e-06 4.7191243e-06 4.7191243e-06 4.7191243e-06 4.720447e-06
4.7191243e-06 4.7191565e-06 4.7196468e-06 4.726636e-06 4.709614e-06 4.7854855e-06 5.121948e-06 5.528122e-06
7.3104534e-06 1.0504756e-05 1.2734067e-05 1.3076618e-05 1.1237987e-05 6.7285587e-06 5.654379e-06 5.374912e-06
4.8927473e-06 4.874222e-06 4.801844e-06 4.7346325e-06 4.7205313e-06 4.719041e-06 4.7192375e-06 4.7191243e-06
4.7191243e-06 4.7191243e-06 4.7191243e-06 4.720585e-06 4.7186745e-06 4.7256367e-06 4.878633e-06 5.439937e-06
6.1085825e-06 7.790915e-06 1.1400347e-05 1.6849783e-05 2.7717117e-05 3.636992e-05 3.7817805e-05 5.252422e-05
4.9699956e-05 3.5350047e-05 1.7140268e-05 1.153757e-05 1.3452828e-05 7.337353e-06 5.85503e-06 6.516142e-06
5.8501646e-06 4.7256035e-06 4.719014e-06 4.7190583e-06 4.7191243e-06 4.7191243e-06 4.7191243e-06 4.7208e-06
4.768745e-06 4.934883e-06 5.821793e-06 9.360815e-06 1.4111431e-05 1.8237804e-05 2.5045507e-05 3.7924794e-05
5.600311e-05 6.638088e-05 8.385744e-05 8.7289816e-05 7.3273564e-05 6.328758e-05 4.7600384e-05 2.9670755e-05
2.1210708e-05 1.4583741e-05 1.0543659e-05 7.0483034e-06 5.8857163e-06 4.7229773e-06 4.7188955e-06 4.7190374e-06
4.7191243e-06 4.7191243e-06 4.719124e-06 4.737547e-06 5.0299745e-06 5.896788e-06 8.502823e-06 1.5177969e-05
2.2182847e-05 3.1670585e-05 5.1509218e-05 7.479222e-05 8.3875064e-05 9.4162206e-05 0.00011338144 0.000106283645
8.438746e-05 7.798473e-05 6.2576335e-05 3.9631446e-05 2.5545429e-05 1.602795e-05 1.1338614e-05 6.4819105e-06
5.8672226e-06 4.740787e-06 4.719665e-06 4.7191043e-06 4.7191243e-06 4.7191274e-06 4.718187e-06 5.1562024e-06
5.59477e-06 7.0761057e-06 1.2051703e-05 1.7968321e-05 2.4026473e-05 4.158551e-05 6.711275e-05 8.1630096e-05
8.1089085e-05 8.885186e-05 0.000100324396 8.858898e-05 8.296286e-05 8.508457e-05 7.6478485e-05 5.4726228e-05
3.726926e-05 2.1118803e-05 1.4457728e-05 9.566286e-06 6.7278156e-06 4.7185536e-06 4.7483154e-06 4.7124345e-06
4.719147e-06 4.7193694e-06 4.7337044e-06 5.266086e-06 6.221075e-06 8.242806e-06 1.25108045e-05 1.7303124e-05
2.2556234e-05 4.6184712e-05 6.213934e-05 6.733183e-05 7.399025e-05 8.6074855e-05 7.6787976e-05 7.110006e-05
7.151117e-05 7.666591e-05 7.843007e-05 6.0537914e-05 4.269284e-05 2.6852133e-05 1.3303455e-05 8.4963485e-06
5.1520447e-06 4.7955e-06 4.701476e-06 4.7073117e-06 4.719118e-06 4.7191184e-06 4.7187614e-06 4.8098495e-06

exp_avg f4 [4]
00000000: 5cda a0ba 6b07 d23a c24e b03a e5a8 e4ba
-0.0012272107 0.0016023939 0.0013451206 -0.0017445354

exp_avg_sq f4 [4]
00000000: f2fa db37 a6eb a237 ee9a fc37 bf25 f737
2.622369e-05 1.9421637e-05 3.0112886e-05 2.9462271e-05

exp_avg f4 [8, 4]
00000000: 6d2d e3bc 85f1 98bc a3a7 cebc df8e acbb
00000010: 4653 c43c fc85 9b3c 92e7 b33c e821 8c3c
00000020: 1e61 ecb9 8fe2 1d3a 1419 17bb dc2a e8b8
00000030: 08d5 65bc d910 6abb d3f2 24bc 62c5 19bc
00000040: dd68 153b 7534 98bb a478 18bb 982d febb
00000050: c8a3 393d b210 cb3c 9650 233d 9015 0a3c
00000060: 2bc6 0fba 781f 473a 98d0 4c3b 98bd 163c
00000070: 9a6e 733c b04d a03b 6322 553c 05fe 0b3c
-0.027731622 -0.018669853 -0.02522642 -0.005266055 0.02396549 0.018984787 0.021961007 0.017106012
-0.00045085786 0.00060228346 -0.002305572 -0.00011070605 -0.014027841 -0.0035715608 -0.010067659 -0.009385439
0.00227981 -0.0046449252 -0.0023265267 -0.0077569 0.04532221 0.024788234 0.039871775 0.008427992
-0.00054845464 0.0007595937 0.0031252261 0.009200476 0.014857912 0.0048920736 0.013008687 0.00854445

exp_avg_sq f4 [8, 4]
00000000: e918 d73b cf19 2a3c 1741 cd3b e486 193b
00000010: 5774 173c 79fc 0a3c 3b30 383c 720d 113b
00000020: f088 1639 e322 8e39 773e d63a 1cc0 a035
00000030: 54d1 483b 4183 723b f89e 803b e9a7 173b
00000040: 17b7 153b c722 a83b 817e 743b cc3f 833b
00000050: 579e 633c 2baa a13c 58c5 a03c 9c3d 933b
00000060: 49c0 923b 6f6e 4a3b 4762 853b df35 863a
00000070: 9079 6f3b 71e2 ba3b 8faa c73b 3a89 7d3b
0.006564249 0.01038213 0.006263863 0.0023426348 0.009244046 0.008483046 0.011241968 0.0022133258
0.00014356128 0.00027110343 0.001634552 1.197684e-06 0.0030642347 0.0037004503 0.0039252006 0.0023140854
0.0022844726 0.005131099 0.0037306848 0.004005408 0.013892732 0.019734463 0.01962535 0.0044934284
0.0044784886 0.0030888577 0.0040705535 0.0010239444 0.0036540963 0.0057032635 0.00609333 0.003868653

exp_avg f4 [8]
00000000: 828c 58ba de40 333a dfd9 5e38 4aef 2ab9
00000010: 75d0 87b8 7ca5 7b3a 6899 46b8 c6b0 ac39
-0.00082606834 0.0006837974 5.3131833e-05 -0.00016301606 -6.47613e-05 0.0009599549 -4.734975e-05 0.00032938103

exp_avg_sq f4 [8]
00000000: 0b40 e936 4636 e536 598d af36 4cb9 5336
00000010: 65c0 4236 7485 6c37 2cf5 7c36 b143 9736
6.9513967e-06 6.83105e-06 5.2318615e-06 3.1549307e-06 2.902024e-06 1.4097768e-05 3.7693635e-06 4.508031e-06

exp_avg f4 [10, 8]
00000000: 5cb5 153b d505 543b effb e5b7 2ea9 363b
00000010: b8e7 d93a 9736 133b bac8 2b3b d7ec bab9
00000020: ba66 63bb ded1 fbbb 2b9e 8829 555a 22bc
00000030: ed6e 72b8 d59b 46ba 7669 00bc 864e 1cbc
00000040: bf5d ddbb 1789 3ebc 6f43 3636 04bb 7cbb
00000050: 05e0 6ebb 1a2c c1bb 8b17 57bc d98b 2dbc
00000060: 8a2e 0f3c 8ecf 973c c17a 9926 8741 e73c
00000070: a231 bf3b 4af7 e33b 572d 823c 71de 873c
00000080: c804 45b6 8144 5cbb 2dfe bc38 8d08 62bb
00000090: c405 eeba a76f b0ba c3bf f0b9 3b00 5abb
000000a0: a79b 0639 25ef bf3b 6830 f6b6 2fe3 333b
000000b0: dda6 3f3b 4a79 873b 1ddd c93a 74d4 743b
000000c0: 1034 363b 751f 3a3b 1a10 7bb8 0563 503a
000000d0: 34b3 8e38 aafb b439 7f37 dc3b 3ba7 ce3b
000000e0: ea22 01bc 5fc0 12bc 2f9f 3a27 de1e 09bd
000000f0: f783 aabb bcc9 10bb 4e40 28bc 62cd 32bc
00000100: be37 7b3b 7069 07bb 4557 ee35 e49a ac3b
00000110: 9bc9 7cbb 720e b8bb 7d8f 8f3b 5ddd 8a3b
00000120: ddd1 b439 5ef8 533b ad39 a820 240d 323c
00000130: 6d05 863b be66 0c3b 6ab7 0d3a f92c 7d3b
0.0022843694 0.003235211 -2.7416243e-05 0.0027871835 0.0016624844 0.0022462958 0.0026212172 -0.00035653144
-0.003469868 -0.00768493 6.067051e-14 -0.009909232 -5.7800604e-05 -0.00075763214 -0.007837644 -0.009540206
-0.00675556 -0.011629364 2.7159365e-06 -0.0038563618 -0.0036449444 -0.00589515 -0.013128172 -0.010592424
0.008739123 0.018531587 1.064978e-15 0.028229488 0.005834774 0.0069569694 0.01589076 0.01658556
-2.935807e-06 -0.0033610167 9.0118825e-05 -0.003448996 -0.0018159677 -0.0013461009 -0.0004591924 -0.0033264298
0.00012837221 0.0058573657 -7.3370065e-06 0.0027448644 0.0029243745 0.004134332 0.001540098 0.0037358077
0.0027802028 0.0028400098 -5.985806e-05 0.00079493254 6.804467e-05 0.0003451978 0.006720483 0.0063065565
-0.007881859 -0.008956998 2.5898979e-15 -0.033476703 -0.0052037197 -0.00220929 -0.010269238 -0.010913225
0.0038332785 -0.002066221 1.7757781e-06 0.005267488 -0.0038572315 -0.0056169564 0.004381119 0.0042378143
0.00034488636 0.0032344083 2.8498474e-19 0.010867391 0.0040900023 0.0021423544 0.0005406054 0.0038631542

exp_avg_sq f4 [10, 8]
00000000: ef24 8138 7fa1 123b 92b0 a234 add5 743a
00000010: 2900 713a 85d7 ca3a ad58 0739 4209 ca39
00000020: b484 a339 7a73 373a 0f62 f01a ee32 013b
00000030: 6723 d935 a2dc 1336 6659 c83a 6e45 233b
00000040: 362a c83a 83b5 373b c768 da31 1a6b 0a3b
00000050: b4b7 9639 d8af 253a ab59 4a3b fdb1 8c3a
00000060: 57b0 123b ccac 443c 72af 9f19 0311 483c
00000070: 565c 023b 312d 573b 0930 c53b b648 ba3b
00000080: 1e8b 5936 6a8a 9239 3d2c 0435 cd11 b23b
00000090: 451b 9238 18b2 bd37 30b4 d238 25e1 603b
000000a0: 4c2d 9736 333b cd3b 95df 6235 1590 623b
000000b0: 84a8 d03a 6f91 3e3b 1430 163a c06e be3b
000000c0: 1b49 0638 8f71 a338 9e07 ab35 3ee0 8e37
000000d0: 100e 8135 f0f5 b837 ed4c 9c39 6fb7 613a
000000e0: bacd 7539 474b a73a fa73 bb15 373f 183c
000000f0: 0cae 393a f690 8c39 8597 e839 c2d4 803a
00000100: 186d 673a e7dc 223c 20c7 bb34 dbb9 0c3c
00000110: f9d1 893a 681d 1f3b d7f3 9b3b b815 443c
00000120: 4ee5 6537 9b86 5f3a c9f1 4e11 e2e0 533c
00000130: 5bf1 0f3a a870 e038 8c39 0b39 c91f 783b
6.158079e-05 0.0022374091 3.0303323e-07 0.00093397015 0.0009193444 0.0015475607 0.00012907638 0.0003853534
0.00031188654 0.00069981033 9.9420096e-23 0.0019714194 1.6178063e-06 2.2033132e-06 0.0015285432 0.002491321
0.0015271369 0.0028031773 6.356547e-09 0.0021120966 0.000287471 0.0006320453 0.00308762 0.0010734197
0.0022382939 0.012004089 1.6511076e-23 0.012211087 0.0019891462 0.0032833333 0.006017689 0.0056849374
3.2416497e-06 0.00027950417 4.9238207e-07 0.005434251 6.966902e-05 2.2613487e-05 0.00010047143 0.0034313884
4.505424e-06 0.0062631606 8.4516915e-07 0.0034570743 0.0015919362 0.0029078384 0.000572921 0.0058115423
3.2016174e-05 7.7935976e-05 1.274271e-06 1.703214e-05 9.615342e-07 2.2049033e-05 0.00029811953 0.00086104026
0.0002344166 0.0012763523 7.571168e-26 0.009292415 0.0007083125 0.00026810885 0.0004436338 0.0009829032
0.0008828207 0.009940363 3.4976347e-07 0.008589233 0.0010514847 0.0024279002 0.0047592926 0.011968069
1.3702853e-05 0.00085268327 1.632504e-28 0.012932034 0.0005490982 0.00010702136 0.00013277511 0.0037860742

exp_avg f4 [10]
00000000: f346 7f38 4184 26b9 903d 9eb9 fa7d 033a
00000010: eb20 a3b8 b19e 8938 1de5 f438 eced c7b9
00000020: aaf6 7937 f5c0 2739
6.0862814e-05 -0.00015880262 -0.00030181976 0.00050160254 -7.778577e-05 6.562228e-05 0.00011677502 -0.00038133503
1.48989875e-05 0.00015998243

exp_avg_sq f4 [10]
00000000: 2801 5035 c4e8 2135 1357 5d35 42b0 3b36
00000010: 9048 bf35 1bb2 f335 5796 cb34 ecc3 8235
00000020: 9058 3f36 71c9 0b36
7.748772e-07 6.031589e-07 8.2455625e-07 2.7967767e-06 1.4251727e-06 1.8156746e-06 3.7921083e-07 9.742776e-07
2.8512768e-06 2.0829868e-06
