libraryExamples/mnist_lightning/.mnist_{epoch}-{val_loss:.2f}/epoch=12-step=11180.ckpt (torch, 111888 bytes, 60 tensors)

model.layer_1.mainModule.weight f4 [4, 784]
0	0x3f217f6c	0.63085055
1	0x3f137507	0.57600445
2	0x3f18f8b7	0.5975451
3	0x3f15de50	0.58542347
4	0x3f1d5b18	0.61467123
5	0x3f1d1ad3	0.61369056
6	0x3f149a79	0.58048207
7	0x3f1893d3	0.5960056
8	0x3f188b86	0.59587896
9	0x3f2125ca	0.62948287
10	0x3f200101	0.6250153
11	0x3f1caaba	0.6119801
12	0x3f21e974	0.63246846
13	0x3f19f32b	0.6013667
14	0x3f1a48e8	0.60267496
15	0x3f14705a	0.57983935
16	0x3f1fccbc	0.62421775
17	0x3f1eb7b8	0.6199908
18	0x3f1a802a	0.6035181
19	0x3f143ea0	0.5790806
20	0x3f202dcc	0.6256988
21	0x3f1c7a1b	0.6112382
22	0x3f21d996	0.63222635
23	0x3f218dfb	0.6310727
24	0x3f1f1d4d	0.62154084
25	0x3f149280	0.5803604
26	0x3f1b3b64	0.606375
27	0x3f13d895	0.5775235
28	0x3f1a76f5	0.60337764
29	0x3f223748	0.633656
30	0x3f1d912c	0.6154964
31	0x3f189350	0.5959978
32	0x3f188678	0.59580183
33	0x3f12d21d	0.5735186
34	0x3f149bb3	0.5805008
35	0x3f12a682	0.5728532
36	0x3f1b5537	0.606769
37	0x3f21a8d5	0.6314824
38	0x3f1b56fb	0.60679597
39	0x3f12e343	0.57378024
40	0x3f19e6a3	0.6011755
41	0x3f20c8c0	0.6280632
42	0x3f1b81e6	0.60745084
43	0x3f1ced83	0.61299914
44	0x3f12e41b	0.5737931
45	0x3f1294d1	0.57258326
46	0x3f1a38eb	0.602431
47	0x3f1c84a2	0.6113988
48	0x3f1e04f1	0.6172629
49	0x3f128b23	0.57243556
50	0x3f14e3aa	0.5815989
51	0x3f181448	0.59405947
52	0x3f206993	0.62661093
53	0x3f22c75b	0.6358544
54	0x3f1adb19	0.60490566
55	0x3f170bfa	0.5900265
56	0x3f1f8d29	0.6232477
57	0x3f1cdcf9	0.6127468
58	0x3f1550fa	0.58326685
59	0x3f122c5c	0.5709894
60	0x3f11ea06	0.56997716
61	0x3f1b26ff	0.6060638
62	0x3f139c99	0.57660824
63	0x3f18bbd9	0.5966163
64	0x3f1720ee	0.5903462
65	0x3f159a1a	0.58438265
66	0x3f11031b	0.56645364
67	0x3f2164bb	0.6304433
68	0x3f156b29	0.5836664
69	0x3f14e6db	0.5816476
70	0x3f16963b	0.58822984
71	0x3f1512b6	0.58231676
72	0x3f116c67	0.56806034
73	0x3f1283fe	0.57232654
74	0x3f1efdbe	0.6210593
75	0x3f12cd4e	0.5734452
76	0x3f1e1be0	0.61761284
77	0x3f1a9736	0.6038698
78	0x3f1946a8	0.5987344
79	0x3f1c420f	0.610383
80	0x3f21709e	0.63062465
81	0x3f1d19ae	0.6136731
82	0x3f210ab9	0.62906986
83	0x3f20b8fb	0.6278226
84	0x3f119f45	0.5688365
85	0x3f133384	0.5750048
86	0x3f1a3af9	0.60246235
87	0x3f1e305d	0.61792547
88	0x3f1f3ee7	0.62205356
89	0x3f129836	0.57263505
90	0x3f125c78	0.57172346
91	0x3f1b6419	0.6069961
92	0x3f21eb32	0.63249505
93	0x3f12e812	0.5738536
94	0x3f1cc739	0.6124149
95	0x3f15c2c0	0.5850029
96	0x3f15d9bd	0.5853537
97	0xbf12a596	-0.57283914
98	0x3f1745f3	0.5909111
99	0x3f20eb93	0.6285946
100	0x3f162c29	0.58661133
101	0x3f13610e	0.5756997
102	0x3f14ba58	0.5809684
103	0x3f157ee2	0.5839673
104	0x3f186e35	0.5954316
105	0x3f1c1347	0.60966915
106	0x3f1b9245	0.60770065
107	0x3f1f94ee	0.62336624
108	0x3f215fed	0.63036996
109	0x3f11a5d2	0.56893647
110	0x3f13f72d	0.57799035
111	0x3f20a66b	0.62753934
112	0x3f1f7ffb	0.6230466
113	0x3f20fcba	0.6288563
114	0x3f159aeb	0.5843951
115	0x3f1864ab	0.5952861
116	0x3f11dd5e	0.56978405
117	0x3f1bf515	0.6092084
118	0x3f147507	0.5799107
119	0x3f17fe9b	0.5937287
120	0x3f1cf5cb	0.6131255
121	0x3f1f3876	0.6219553
122	0x3f1dbf50	0.61620045
123	0xbf17ccdc	-0.59296966
124	0xbf14ec0b	-0.58172673
125	0xbf11154a	-0.5667311
126	0xbf1d091b	-0.6134202
127	0xbf1483e0	-0.58013725
128	0xbf125e54	-0.57175183
129	0xbf1dc55a	-0.6162926
130	0x3f194ff2	0.5988761
131	0x3f15ad08	0.5846715
132	0x3f140d7e	0.5783309
133	0x3f1dcb0f	0.6163797
134	0x3f1195ee	0.568694
135	0x3f146b7f	0.57976526
136	0x3f21bf01	0.63182074
137	0x3f186c10	0.5953989
138	0x3f1fc2a6	0.62406385
139	0x3f1db05a	0.61597216
140	0x3f11874b	0.56847066
141	0x3f1e49a5	0.6183112
142	0x3f212d79	0.6296001
143	0x3f207bbf	0.6268882
144	0x3f225fda	0.6342751
145	0x3f18348c	0.5945518
146	0x3f1914d7	0.59797424
147	0x3f14ace2	0.580763
148	0x3f10c797	0.5655455
149	0xbf16b6e8	-0.5887284
150	0xbf19d1ea	-0.6008593
151	0xbf14fdcd	-0.5819977
152	0xbf186feb	-0.59545773
153	0xbf13307f	-0.57495874
154	0xbf189738	-0.5960574
155	0xbf1ab16a	-0.6042696
156	0xbf158335	-0.5840333
157	0xbf18a1fe	-0.5962218
158	0xbf151ef9	-0.58250386
159	0xbf1868d8	-0.5953498
160	0xbf13c172	-0.5771705
161	0x3f1f589b	0.62244576
162	0x3f14bab1	0.5809737
163	0x3f13311a	0.574968
164	0x3f1a2496	0.60212076
165	0x3f165876	0.5872873
166	0x3f1d990a	0.61561644
167	0x3f1c4903	0.6104891
168	0x3f16fa7c	0.5897596
169	0x3f1dfc05	0.61712676
170	0x3f1fe770	0.6246252
171	0x3f122ac1	0.5709649
172	0x3f17eaed	0.59342843
173	0x3f191ab5	0.59806377
174	0x3f222183	0.63332385
175	0x3f204911	0.6261149
176	0xbf1b229c	-0.60599685
177	0xbf1547ed	-0.58312875
178	0xbf193734	-0.5984986
179	0xbf1b05e3	-0.6055586
180	0xbf1b8e21	-0.60763747
181	0xbf1e6558	-0.6187339
182	0xbf216488	-0.63044024
183	0xbf1b27d3	-0.6060764
184	0xbf1a7a30	-0.60342693
185	0xbf19f1f2	-0.60134804
186	0xbf138147	-0.57619137
187	0xbf18ffbb	-0.59765214
188	0xbf159b9a	-0.58440554
189	0xbf1f4188	-0.6220937
190	0xbf1ccbf2	-0.61248696
191	0x3f11d9dc	0.5697305
192	0x3f109cd7	0.5648932
193	0x3f16fb5d	0.589773
194	0x3f19d4b1	0.60090166
195	0x3f18d414	0.59698606
196	0x3f1b8017	0.60742325
197	0x3f16cb66	0.5890411
198	0x3f1d6378	0.614799
199	0x3f1d524e	0.6145371
200	0x3f207b04	0.62687707
201	0x3f182144	0.5942576
202	0x3f22afb3	0.63549346
203	0x3f172ad7	0.59049743
204	0xbf11937a	-0.56865656
205	0xbf19d2bb	-0.60087174
206	0xbf187d50	-0.5956621
207	0xbf2141e2	-0.62991154
208	0xbf20bb32	-0.6278564
209	0x3f155cd7	0.5834479
210	0xbf1168f6	-0.5680078
211	0xbf10ecda	-0.56611407
212	0xbf20708b	-0.62671727
213	0xbf21c88e	-0.6319665
214	0xbf14bedc	-0.5810373
215	0xbf1e0fb2	-0.617427
216	0xbf2029f1	-0.62564
217	0xbf10a43d	-0.5650061
218	0xbf1ce555	-0.6128743
219	0x3f21713f	0.63063425
220	0x3f1afed3	0.6054508
221	0x3f13b5c7	0.57699245
222	0x3f1d8e78	0.61545515
223	0x3f127234	0.5720551
224	0x3f114a75	0.5675424
225	0x3f1a09a9	0.6017099
226	0x3f1e75e1	0.6189862
227	0x3f1d701c	0.6149919
228	0x3f192039	0.5981479
229	0x3f2229aa	0.63344824
230	0x3f176b13	0.5914776
231	0x3f1787ab	0.5919139
232	0x3f1cec53	0.612981
233	0xbf1555b1	-0.5833388
234	0xbf2053a6	-0.6262764
235	0x3f12f22f	0.5740079
236	0x3f15e481	0.58551794
237	0x3f1704b8	0.58991575
238	0x3f1bf1d9	0.60915905
239	0xbf214960	-0.63002586
240	0xbf1d5436	-0.6145662
241	0x3f1c57bf	0.6107139
242	0xbf193055	-0.59839374
243	0xbf1e41db	-0.6181924
244	0xbf11f3d4	-0.5701268
245	0xbf11d92e	-0.56972015
246	0xbf128f6d	-0.572501
247	0x3f1484ff	0.58015436
248	0x3f18192f	0.5941343
249	0x3f1a8bdf	0.60369676
250	0x3f1505f2	0.58212197
251	0x3f22618f	0.6343011
252	0x3f1978e5	0.59950095
253	0x3f17dec2	0.59324276
254	0x3f160ead	0.58616143
255	0x3f20b04e	0.6276902

model.layer_1.mainModule.bias f4 [4]
0	0xbf11ea0d	-0.5699776
1	0xbf5293db	-0.8225686
2	0x3fd88cc3	1.6917957
3	0xbf01fb48	-0.5077405

model.layer_1.pb.parentModule.weight f4 [4, 784]
0	0x3cf8a26e	0.03035089
1	0xbcc8aa33	-0.02449522
2	0xbb41a24a	-0.0029546195
3	0xbc77023c	-0.015076216
4	0x3c682fd3	0.014171558
5	0x3c581e8e	0.013190879
6	0xbca3fc00	-0.020017624
7	0xbb9342ca	-0.004494046
8	0xbb976993	-0.0046207397
9	0x3ced6e23	0.028983181
10	0x3cc8d50e	0.024515655
11	0x3c3c1825	0.011480366
12	0x3d02f1a7	0.03196874
13	0x3a634893	0.0008670177
14	0x3b0e8f13	0.002175276
15	0xbca93fd0	-0.020660311
16	0x3cc24c61	0.02371806
17	0x3c9fabde	0.019491132
18	0x3b45d16e	0.0030184644
19	0xbcaf7721	-0.02141911
20	0x3cce6e53	0.025199091
21	0x3c2ff093	0.01073851
22	0x3d01f3ca	0.031726636
23	0x3cfa744c	0.030573033
24	0x3cac5e8e	0.021041181
25	0xbca4fb0e	-0.020139243
26	0x3bc085b7	0.005875315
27	0xbcbc387c	-0.022976153
28	0x3b3c9c37	0.0028779635
29	0x3d07cee7	0.0331563
30	0x3c75b4ca	0.014996717
31	0xbb938465	-0.0045018666
32	0xbb99f09c	-0.0046978723
33	0xbcdd0773	-0.026981091
34	0xbca3d4bc	-0.0199989
35	0xbce27aca	-0.027646441
36	0x3bcd6eee	0.0062693274
37	0x3cfdcf78	0.030982718
38	0x3bce50ee	0.0062962687
39	0xbcdae2b5	-0.02671943
40	0x3a312725	0.0006757847
41	0x3ce1ccee	0.027563538
42	0x3be3c69c	0.0069511663
43	0x3c4cca8a	0.012499461
44	0xbcdac7bc	-0.026706569
45	0xbce4b0e5	-0.027916381
46	0x3afd2325	0.0019312842
47	0x3c32922a	0.010899106
48	0x3c895305	0.01676322
49	0xbce5e6b1	-0.028064104
50	0xbc9ad5d3	-0.018900787
51	0xbbd30853	-0.0064402013
52	0x3cd5e74e	0.026111271
53	0x3d10d01c	0.03535472
54	0x3b90602e	0.0044059968
55	0xbc2b97ca	-0.010473201
56	0x3cba5a0c	0.022748016
57	0x3c48a801	0.0122470865
58	0xbc8d2bd5	-0.017232815
59	0xbcf1bf91	-0.029510291
60	0xbcfa0a43	-0.030522471
61	0x3bb65325	0.005564111
62	0xbcc3b7e3	-0.023891395
63	0xbb7e7fdc	-0.0038833534
64	0xbc265ae0	-0.010153502
65	0xbc840355	-0.01611487
66	0xbd0b6c44	-0.034038797
67	0x3cf55b41	0.02995074
68	0xbc89e4f3	-0.016832804
69	0xbc9a6fa5	-0.018852064
70	0xbc4907a1	-0.012269885
71	0xbc94f447	-0.018182887
72	0xbd04df0a	-0.03243927
73	0xbce6cb5c	-0.028173141
74	0x3ca86c9c	0.020559601
75	0xbcdda15e	-0.027054485
76	0x3c8c30ea	0.017113168
77	0x3b5cdd25	0.0033701148
78	0xbae76201	-0.0017653109
79	0x3c21ed8a	0.009883294
80	0x3cf6c893	0.030124938
81	0x3c57d533	0.013173389
82	0x3cea0bfc	0.028570168
83	0x3cdfd435	0.027322868
84	0xbd01b12c	-0.031663105
85	0xbcd0da8e	-0.02549484
86	0x3b009f93	0.0019626364
87	0x3c8ec080	0.017425776
88	0x3cb091b3	0.02155385
89	0xbce4445c	-0.027864628
90	0xbcebbc08	-0.028776184
91	0x3bd4dfee	0.006496421
92	0x3d030d8c	0.03199534
93	0xbcda41d5	-0.02664272
94	0x3c435621	0.01192239
95	0xbc7db94a	-0.015486071
96	0xbc720cb8	-0.01477354
97	0x3cdeb0a8	0.027183846
98	0xbc1ac40a	-0.009446153
99	0x3ce640ea	0.028107125
100	0xbc638985	-0.013887768
101	0xbccb295e	-0.024799999
102	0xbca00013	-0.019531285
103	0xbc876ec3	-0.016532307
104	0xbba6120a	-0.0050680684
105	0x3c163b85	0.009169464
106	0x3bebf5f8	0.0072009526
107	0x3cbb52a5	0.022866556
108	0x3cf4b285	0.029870281
109	0xbd01485f	-0.03156316
110	0xbcb8656e	-0.022509303
111	0x3cdd8235	0.027039627
112	0x3cb8b443	0.022546893
113	0x3ce84c28	0.028356627
114	0xbc83edaa	-0.016104538
115	0xbbaad725	-0.0052136355
116	0xbcfb9f48	-0.0307156
117	0x3c0eaf13	0.008708733
118	0xbca8aa3a	-0.020588983
119	0xbbdddf13	-0.0067709773
120	0x3c4edc6e	0.012625797
121	0x3cafcd83	0.0214603
122	0x3c813875	0.015773991
123	0x3bf74713	0.0075463145
124	0x3c99eff0	0.018791169
125	0x3d0a6e8c	0.033796832
126	0xbc5323b3	-0.012886929
127	0x3ca7156c	0.020395957
128	0x3cebbcec	0.028776608
129	0xbc814ce3	-0.015783733
130	0xbacbb94a	-0.0015542891
131	0xbc819125	-0.01581628
132	0xbcb58271	-0.022156926
133	0x3c821b4a	0.015882153
134	0xbd02469d	-0.031805623
135	0xbca9db35	-0.020734409
136	0x3d004a77	0.031321015
137	0xbba7246e	-0.0051007783
138	0x3cc10991	0.023564132
139	0x3c7d8058	0.015472494
140	0xbd0330ce	-0.032028966
141	0x3c91e97e	0.017811533
142	0x3cee63f3	0.029100394
143	0x3cd82cbc	0.026388519
144	0x3d0a5806	0.033775352
145	0xbbc2e653	-0.005947867
146	0xbb258280	-0.0025254786
147	0xbca1aed7	-0.01973669
148	0xbd0f2bf3	-0.034954023
149	0x3c413c5c	0.011794176
150	0xb9a9a400	-0.0003235638
151	0x3c97e7ac	0.018543087
152	0x3ba68d5c	0.0050827693
153	0x3cd18923	0.025578087
154	0x3b929893	0.0044737547
155	0xbb74ea81	-0.003737122
156	0x3c872c0c	0.016500495
157	0x3b8d6bdc	0.0043158364
158	0x3c93b38e	0.018029954
159	0x3ba9a6e5	0.005177366
160	0x3cbf261e	0.023333605
161	0x3cbf0857	0.023319406
162	0xbc9fe6d3	-0.019519245
163	0xbcd127e1	-0.025531711
164	0x3ad4796e	0.0016210505
165	0xbc5878bc	-0.013212379
166	0x3c77ac2e	0.015116734
167	0x3c23aa60	0.009989351
168	0xbc2ff74a	-0.010740111
169	0x3c883573	0.01662705
170	0x3cc5a2ee	0.024125542
171	0xbcf1f24a	-0.029534478
172	0xbbe7b39c	-0.0070709717
173	0xbb1f4c37	-0.0024306902
174	0x3d067df3	0.03283496
175	0x3cd20707	0.025638117
176	0xbbb3c6ca	-0.005486344
177	0x3c8e9f75	0.01741002
178	0x3b05cbca	0.0020415657
179	0xbba48213	-0.005020389
180	0xbbe8c4d3	-0.0071035414
181	0xbc9519f0	-0.018200845
182	0xbcf4fbfe	-0.029905315
183	0xbbb5a993	-0.0055438965
184	0xbb3d755c	-0.0028909063
185	0xba545e93	-0.0008101251
186	0x3cc76e5a	0.024344612
187	0x3b3d396e	0.0028873342
188	0x3c84256a	0.016131122
189	0xbcb09d77	-0.02155946
190	0xbc448c7c	-0.011996385
191	0xbcfb9578	-0.03071092
192	0xbd11d814	-0.03560646
193	0xbc2fbf0a	-0.0107267
194	0x39d2c001	0.00040197375
195	0xbb664581	-0.0035136642
196	0x3be2df01	0.006923557
197	0xbc3bbcd7	-0.011458597
198	0x3c6a47ae	0.014299316
199	0x3c665d78	0.014060371
200	0x3cd8450e	0.026400115
201	0xbbcbcc0a	-0.0062193917
202	0x3d0f6d6a	0.035016455
203	0xbc2386d3	-0.009980875
204	0x3d02919e	0.031877153
205	0xb9aea801	-0.0003331304
206	0x3b9fad4a	0.0048729526
207	0xbcf0c6c5	-0.029391656
208	0xbce78641	-0.02826226
209	0xbc8b8d57	-0.01703517
210	0x3d05280e	0.032508902
211	0x3d0cee4f	0.034406956
212	0xbcd69ef7	-0.026198847
213	0xbd00bc36	-0.031429492
214	0x3c9fbc7e	0.01949906
215	0xbc8a5750	-0.016887337
216	0xbccda98c	-0.02510526
217	0x3d118422	0.035526402
218	0xbc4a80ca	-0.012359807
219	0x3cf6dfa1	0.030135931
220	0x3ba2185c	0.0049467515
221	0xbcc0923c	-0.02350723
222	0x3c7507c5	0.014955466
223	0xbce90493	-0.028444564
224	0xbd06fe2a	-0.032957233
225	0x3a9ea0b7	0.001210234
226	0x3c97710e	0.018486526
227	0x3c6dc84a	0.014513085
228	0xbb18cfee	-0.0023317295
229	0x3d06fd53	0.032956433
230	0xbc13b32a	-0.009014884
231	0xbc0cadea	-0.008586386
232	0x3c8b0bd3	0.016973412
233	0x3c8cd850	0.01719299
234	0xbcd318fe	-0.025768753
235	0xbcd8fe43	-0.026488429
236	0xbc75af61	-0.014995427
237	0xbc2d90d7	-0.010593615
238	0x3c0f1673	0.00873338
239	0xbcf1b58a	-0.02950551
240	0xbc686b9c	-0.014185812
241	0x3c28684e	0.010278774
242	0x3b0a6f93	0.0021123632
243	0xbc913a60	-0.01772803
244	0x3cf8d83c	0.030376546
245	0x3cfc0d5a	0.030768085
246	0x3ce054ae	0.027384128
247	0xbca6dc53	-0.02036873
248	0xbbd17c13	-0.0063929646
249	0x3b51266e	0.0031913775
250	0xbc968cc3	-0.018377667
251	0x3d0a735c	0.03380142
252	0xba82e900	-0.0009987652
253	0xbbedcb5c	-0.0072569083
254	0xbc6aeb1c	-0.014338281
255	0x3cdebea1	0.027190508

model.layer_1.pb.parentModule.bias f4 [4]
0	0x3cfa46b1	0.030551286
1	0xbcc86e05	-0.024466524
2	0x3d045bf7	0.032314267
3	0xb9631801	-0.00021657349

model.layer_1.pb.pbValues.0.topPBCandidateAverage f4 [4]
0	0x00000000	0.0
1	0x00000000	0.0
2	0x00000000	0.0
3	0x00000000	0.0

model.layer_1.pb.pbValues.0.PrevPBCandidateCorrelation f4 [4]
0	0x00000000	0.0
1	0x00000000	0.0
2	0x00000000	0.0
3	0x00000000	0.0

model.layer_1.pb.pbValues.0.currentCorrelationsForParallel f4 [4]
0	0x00000000	0.0
1	0x00000000	0.0
2	0x00000000	0.0
3	0x00000000	0.0

model.layer_1.pb.pbValues.0.bestScore f4 [4]
0	0x00000000	0.0
1	0x00000000	0.0
2	0x00000000	0.0
3	0x00000000	0.0

model.layer_1.pb.pbValues.0.previousBestScore f4 [4]
0	0x00000000	0.0
1	0x00000000	0.0
2	0x00000000	0.0
3	0x00000000	0.0

model.layer_1.pb.pbValues.0.PrevPBCandidateAverage f4 [4]
0	0x00000000	0.0
1	0x00000000	0.0
2	0x00000000	0.0
3	0x00000000	0.0

model.layer_1.pb.pbValues.0.mainGradAverageForScaling f4 [4]
0	0x00000000	0.0
1	0x00000000	0.0
2	0x00000000	0.0
3	0x00000000	0.0

model.layer_1.pb.pbValues.0.candidateGradAverageForScaling f4 [4]
0	0x00000000	0.0
1	0x00000000	0.0
2	0x00000000	0.0
3	0x00000000	0.0

model.layer_1.pb.pbValues.0.indexesOfbest f4 [4]
0	0x00000000	0.0
1	0x00000000	0.0
2	0x00000000	0.0
3	0x00000000	0.0

model.layer_1.pb.pbValues.0.nodesBestImprovedThisEpoch f4 [4]
0	0x00000000	0.0
1	0x00000000	0.0
2	0x00000000	0.0
3	0x00000000	0.0

model.layer_1.pb.pbValues.0.parentsAverageDvector f4 [4]
0	0x00000000	0.0
1	0x00000000	0.0
2	0x00000000	0.0
3	0x00000000	0.0

model.layer_1.pb.pbValues.0.normalPassAverageD f4 [4]
0	0x00000032	7e-44
1	0x00000032	7e-44
2	0x80000032	-7e-44
3	0x00000032	7e-44

model.layer_2.mainModule.weight f4 [8, 4]
0	0xbf82d695	-1.0221735
1	0xbf55f206	-0.83572423
2	0xbf8e712f	-1.1128291
3	0xbfa8083f	-1.3127517
4	0xbec728c3	-0.38898286
5	0xbf064cc7	-0.524609
6	0xbd5fe09e	-0.05465757
7	0xbdb2ac14	-0.087242275
8	0xbedd20ea	-0.43189174
9	0xbefd0fe2	-0.4942618
10	0xbf02c423	-0.5108053
11	0xbe840ade	-0.2578954
12	0x3f7534d6	0.95783746
13	0xbf8a4cd5	-1.0804697
14	0xc0019d67	-2.025232
15	0xbfb35b9c	-1.4012332
16	0xbf52f600	-0.82406616
17	0x3e5afc95	0.21385415
18	0xc0190a0a	-2.3912377
19	0xbfd6a320	-1.6768532
20	0x3f003c1d	0.50091726
21	0x3e867336	0.26259774
22	0xc002b218	-2.04212
23	0xbfb1aeb2	-1.3881438
24	0xbe40d8fc	-0.18832773
25	0xbe748703	-0.23879628
26	0xbf0e5cfa	-0.5561062
27	0xbf6bf7e5	-0.9217513
28	0xbe16fbf6	-0.14744553
29	0xbe727f71	-0.23681428
30	0xbe3b945c	-0.18318313
31	0xbf2892b7	-0.6584887

model.layer_2.mainModule.bias f4 [8]
0	0x3f968a4d	1.1760956
1	0xbf963a0e	-1.1736467
2	0xbf38c408	-0.7217412
3	0x3fc250eb	1.5180944
4	0x3fba0d9f	1.4535407
5	0x3fde88c7	1.7385491
6	0xbf308331	-0.6895018
7	0xbffeccb1	-1.9906217

model.layer_2.pb.parentModule.weight f4 [8, 4]
0	0xbed82fc6	-0.42223948
1	0xbe70d378	-0.23518169
2	0x3d9f8828	0.077896416
3	0xbeca02aa	-0.39455158
4	0x3e589bfc	0.21153253
5	0xbdb9f288	-0.09079462
6	0x3e02117c	0.12701982
7	0x3e97a62a	0.2961896
8	0x3e2c6d24	0.16838509
9	0xbefd0fe2	-0.4942618
10	0x3db4fdf8	0.08837503
11	0xbe840ade	-0.2578954
12	0x3eb6f118	0.35730815
13	0xbef5ba42	-0.47993666
14	0x3e95f6f8	0.29289985
15	0xbef9894c	-0.48737562
16	0xbe6510a0	-0.22369623
17	0xbec5e6dc	-0.38652694
18	0xbe5ed028	-0.21759093
19	0xbef1dda0	-0.472394
20	0xbdcbadb8	-0.099452436
21	0xbeacd31c	-0.33754814
22	0xbe805dd0	-0.25071573
23	0xbea4196c	-0.32050645
24	0x3ed30056	0.41211194
25	0x3eb936e6	0.36174697
26	0x3d360440	0.044437647
27	0xbea47a8a	-0.3212474
28	0x3ee7f9f2	0.4530788
29	0x3eba3a9a	0.36372834
30	0xbe601974	-0.2188471
31	0x3e86916a	0.26282817

model.layer_2.pb.parentModule.bias f4 [8]
0	0x3ea42604	0.32060254
1	0x3ec2566e	0.37956566
2	0xbdf88e58	-0.12136525
3	0x3e878b3a	0.2647341
4	0x3ec38b44	0.3819219
5	0x3e776db4	0.24162942
6	0xbdb63000	-0.08895874
7	0xbd9bc998	-0.0760681

model.layer_2.pb.pbValues.0.topPBCandidateAverage f4 [8]
0	0x00000000	0.0
1	0x00000000	0.0
2	0x00000000	0.0
3	0x00000000	0.0
4	0x00000000	0.0
5	0x00000000	0.0
6	0x00000000	0.0
7	0x00000000	0.0

model.layer_2.pb.pbValues.0.PrevPBCandidateCorrelation f4 [8]
0	0x00000000	0.0
1	0x00000000	0.0
2	0x00000000	0.0
3	0x00000000	0.0
4	0x00000000	0.0
5	0x00000000	0.0
6	0x00000000	0.0
7	0x00000000	0.0

model.layer_2.pb.pbValues.0.currentCorrelationsForParallel f4 [8]
0	0x00000000	0.0
1	0x00000000	0.0
2	0x00000000	0.0
3	0x00000000	0.0
4	0x00000000	0.0
5	0x00000000	0.0
6	0x00000000	0.0
7	0x00000000	0.0

model.layer_2.pb.pbValues.0.bestScore f4 [8]
0	0x00000000	0.0
1	0x00000000	0.0
2	0x00000000	0.0
3	0x00000000	0.0
4	0x00000000	0.0
5	0x00000000	0.0
6	0x00000000	0.0
7	0x00000000	0.0

model.layer_2.pb.pbValues.0.previousBestScore f4 [8]
0	0x00000000	0.0
1	0x00000000	0.0
2	0x00000000	0.0
3	0x00000000	0.0
4	0x00000000	0.0
5	0x00000000	0.0
6	0x00000000	0.0
7	0x00000000	0.0

model.layer_2.pb.pbValues.0.PrevPBCandidateAverage f4 [8]
0	0x00000000	0.0
1	0x00000000	0.0
2	0x00000000	0.0
3	0x00000000	0.0
4	0x00000000	0.0
5	0x00000000	0.0
6	0x00000000	0.0
7	0x00000000	0.0

model.layer_2.pb.pbValues.0.mainGradAverageForScaling f4 [8]
0	0x00000000	0.0
1	0x00000000	0.0
2	0x00000000	0.0
3	0x00000000	0.0
4	0x00000000	0.0
5	0x00000000	0.0
6	0x00000000	0.0
7	0x00000000	0.0

model.layer_2.pb.pbValues.0.candidateGradAverageForScaling f4 [8]
0	0x00000000	0.0
1	0x00000000	0.0
2	0x00000000	0.0
3	0x00000000	0.0
4	0x00000000	0.0
5	0x00000000	0.0
6	0x00000000	0.0
7	0x00000000	0.0

model.layer_2.pb.pbValues.0.indexesOfbest f4 [8]
0	0x00000000	0.0
1	0x00000000	0.0
2	0x00000000	0.0
3	0x00000000	0.0
4	0x00000000	0.0
5	0x00000000	0.0
6	0x00000000	0.0
7	0x00000000	0.0

model.layer_2.pb.pbValues.0.nodesBestImprovedThisEpoch f4 [8]
0	0x00000000	0.0
1	0x00000000	0.0
2	0x00000000	0.0
3	0x00000000	0.0
4	0x00000000	0.0
5	0x00000000	0.0
6	0x00000000	0.0
7	0x00000000	0.0

model.layer_2.pb.pbValues.0.parentsAverageDvector f4 [8]
0	0x00000000	0.0
1	0x00000000	0.0
2	0x00000000	0.0
3	0x00000000	0.0
4	0x00000000	0.0
5	0x00000000	0.0
6	0x00000000	0.0
7	0x00000000	0.0

model.layer_2.pb.pbValues.0.normalPassAverageD f4 [8]
0	0x2b929a6e	1.0416787e-12
1	0x00000032	7e-44
2	0x00000032	7e-44
3	0x2b9507ef	1.0589289e-12
4	0x2ba11dd7	1.144802e-12
5	0x2b935bb5	1.0470432e-12
6	0x00000032	7e-44
7	0x00000032	7e-44

model.layer_3.mainModule.weight f4 [10, 8]
0	0xbfbfcb14	-1.498385
1	0x3d3b4a29	0.04572502
2	0xbf2aabd0	-0.66668415
3	0xbf10e8dc	-0.56605315
4	0xbf1ff10f	-0.624772
5	0xbf03d211	-0.5149241
6	0x3ec727e2	0.38897616
7	0x3f869882	1.0515292
8	0x3fbbd2f1	1.4673749
9	0xbea531bc	-0.32264507
10	0xbf53d0b6	-0.8274034
11	0x3fee68f7	1.8625783
12	0x3ff7cdee	1.935972
13	0x3fef3fdc	1.8691363
14	0xbeaaf3fa	-0.33389264
15	0xbe3c3fb0	-0.1838367
16	0xbf8f3dfa	-1.1190789
17	0xbdcf6c84	-0.101281196
18	0xbf2fa81a	-0.6861588
19	0xbf3a4782	-0.7276536
20	0xbf11c7dd	-0.5694559
21	0xbf4a4cff	-0.79023737
22	0x3eeedcbd	0.46652785
23	0x3efed5be	0.49772447
24	0xbf300b59	-0.68767315
25	0x3b7f3d44	0.003894643
26	0xbf0c9f64	-0.5493071
27	0xbeb12087	-0.3459513
28	0xbf48f0a8	-0.7849221
29	0xbe3fc18d	-0.18726178
30	0x3f42274a	0.758412
31	0xbec1bdc3	-0.3784009
32	0xbe1ddb2c	-0.15415639
33	0x3e2d58ca	0.16928402
34	0xbf557805	-0.8338626
35	0xbf98c376	-1.193465
36	0xbf37b2e3	-0.71757334
37	0xbfabbce2	-1.3417017
38	0xbf32c303	-0.69828814
39	0xbf5032c7	-0.8132748
40	0xbf95f860	-1.1716423
41	0xbefaada8	-0.48960614
42	0xbf61357f	-0.87972254
43	0xbe93620a	-0.28785735
44	0xbf8328f6	-1.0246875
45	0xbf86bad7	-1.0525769
46	0xbf00030c	-0.5000465
47	0xbe91bc77	-0.284641
48	0x3dc73a5b	0.09727927
49	0x3f4461fd	0.7671202
50	0x3f15ccd5	0.58515674
51	0xbf7cff55	-0.98827106
52	0xbf944566	-1.1583679
53	0xbfd3d4e3	-1.6549343
54	0x3f0618c1	0.5238152
55	0x3f03f2ff	0.5154266
56	0xbf4bf373	-0.7966835
57	0xbed99e17	-0.42503425
58	0xbf0d9d89	-0.55318505
59	0xbfa381a7	-1.2773942
60	0xbf735cae	-0.9506329
61	0xbfda78fc	-1.7068172
62	0xbf604a10	-0.8761301
63	0x3eb54d7f	0.35410687
64	0xbf7d37bf	-0.98913187
65	0xbe34e314	-0.17664748
66	0xbeb00bf4	-0.3438412
67	0xbf8ff440	-1.1246414
68	0xbf9519d0	-1.1648502
69	0xbf800142	-1.0000384
70	0xbf3abea6	-0.72947156
71	0xbe44dd04	-0.19224936
72	0xbf882b7f	-1.0638274
73	0xbf12ffed	-0.5742176
74	0x3eb0f603	0.34562692
75	0xbfccef27	-1.6010484
76	0xbfb4c331	-1.4122068
77	0xbfc151eb	-1.5103124
78	0xbee9ec3a	-0.4568804
79	0xbe872e54	-0.26402533

model.layer_3.mainModule.bias f4 [10]
0	0x40278f43	2.618119
1	0x405d99ea	3.4625192
2	0x402eb9da	2.7300935
3	0x4035b47f	2.8391416
4	0x40173803	2.3627937
5	0xbf369e20	-0.7133503
6	0x4026a399	2.6037352
7	0x403f4640	2.9886627
8	0x4017a9f8	2.369749
9	0x40209914	2.5093431

model.layer_3.pb.parentModule.weight f4 [10, 8]
0	0xbea24e70	-0.31700468
1	0xbe4f3548	-0.20235169
2	0xbdae890a	-0.08522232
3	0x3ceda85a	0.02901094
4	0x3e7e07ae	0.24807617
5	0x3d00767a	0.031362988
6	0xbe58a51a	-0.21156731
7	0xbe27e87d	-0.16397281
8	0xbe31e593	-0.17372732
9	0xbea07642	-0.31340224
10	0xbe744f81	-0.23858453
11	0x3e359ab9	0.17734803
12	0x3e569b89	0.2095777
13	0x3ddb7178	0.10715002
14	0x3e888541	0.26664165
15	0x3dcebb95	0.10094372
16	0xbe484a17	-0.19559513
17	0xbe901776	-0.281429
18	0xbdce3ed8	-0.1007058
19	0x3c647062	0.01394281
20	0x3e9d3f5d	0.30712405
21	0x3d0ec5d2	0.034856625
22	0xbe092df3	-0.13396434
23	0xbe0d51a0	-0.13800669
24	0xbd7f24a5	-0.062290806
25	0xbd9d2534	-0.076731116
26	0x3cfd488b	0.03091838
27	0xbdfee8ad	-0.12446723
28	0xbdf1450c	-0.11780748
29	0xbce835d9	-0.028345989
30	0x3e21affc	0.15789789
31	0xbe5b5628	-0.21419585
32	0xbcfc2000	-0.030776978
33	0x3e73f181	0.23822595
34	0xbe806153	-0.25074252
35	0xbe22b858	-0.15890634
36	0xbd6a6e8a	-0.057234325
37	0xbe386503	-0.18007283
38	0xbdc838a5	-0.09776429
39	0xbe8b1353	-0.2716318
40	0xbdaf7257	-0.085667305
41	0xbe148f27	-0.14507733
42	0xbe942319	-0.28933027
43	0x3ea819a8	0.32832074
44	0x3e307cb0	0.17235065
45	0x3de90d07	0.11379438
46	0x3dcdcb25	0.10048512
47	0xbe18e3c3	-0.14930634
48	0xbe9b2acb	-0.30306086
49	0x3bef254e	0.0072981482
50	0xbc54d6a4	-0.012990627
51	0xbe5b347b	-0.21406738
52	0x3e8c23bb	0.2737101
53	0x3d342723	0.043982636
54	0xbd9d1dd9	-0.076717086
55	0xbd93ff50	-0.07226431
56	0x3d0a22e5	0.033724684
57	0x3db75a91	0.08952821
58	0x3d036923	0.032082688
59	0xbc62cce4	-0.013842795
60	0x3e9486d2	0.2900911
61	0xbeaf4dee	-0.34239143
62	0xbe8d1c19	-0.275605
63	0x3e8ec767	0.27886507
64	0xbdc772b9	-0.097386785
65	0xbe04ec06	-0.12980661
66	0x3e7969ee	0.24356815
67	0x3d32834b	0.043582242
68	0x3d5f94fa	0.054585434
69	0xbdc661e3	-0.09686639
70	0xbe040ec1	-0.12896253
71	0xbe6a3a06	-0.22873697
72	0xbe2a1603	-0.1660996
73	0x3df6e2a9	0.12054951
74	0xbe7c9b94	-0.24668723
75	0xbd81d495	-0.06339375
76	0xbdeca6e6	-0.11555271
77	0xbd19f885	-0.037590522
78	0x3e1313e6	0.1436306
79	0x3e8fe324	0.28102982

model.layer_3.pb.parentModule.bias f4 [10]
0	0xbca1a126	-0.019730162
1	0x3ea07c92	0.3134504
2	0x3e4659ca	0.1937019
3	0xbdf35b4f	-0.1188265
4	0xbe0fe545	-0.14052303
5	0x3e5a6867	0.21328889
6	0xbea240ba	-0.31690007
7	0xbdb3c79d	-0.087783076
8	0x3e46226a	0.19349065
9	0xbe87f6fc	-0.26555622

model.layer_3.pb.pbValues.0.topPBCandidateAverage f4 [10]
0	0x00000000	0.0
1	0x00000000	0.0
2	0x00000000	0.0
3	0x00000000	0.0
4	0x00000000	0.0
5	0x00000000	0.0
6	0x00000000	0.0
7	0x00000000	0.0
8	0x00000000	0.0
9	0x00000000	0.0

model.layer_3.pb.pbValues.0.PrevPBCandidateCorrelation f4 [10]
0	0x00000000	0.0
1	0x00000000	0.0
2	0x00000000	0.0
3	0x00000000	0.0
4	0x00000000	0.0
5	0x00000000	0.0
6	0x00000000	0.0
7	0x00000000	0.0
8	0x00000000	0.0
9	0x00000000	0.0

model.layer_3.pb.pbValues.0.currentCorrelationsForParallel f4 [10]
0	0x00000000	0.0
1	0x00000000	0.0
2	0x00000000	0.0
3	0x00000000	0.0
4	0x00000000	0.0
5	0x00000000	0.0
6	0x00000000	0.0
7	0x00000000	0.0
8	0x00000000	0.0
9	0x00000000	0.0

model.layer_3.pb.pbValues.0.bestScore f4 [10]
0	0x00000000	0.0
1	0x00000000	0.0
2	0x00000000	0.0
3	0x00000000	0.0
4	0x00000000	0.0
5	0x00000000	0.0
6	0x00000000	0.0
7	0x00000000	0.0
8	0x00000000	0.0
9	0x00000000	0.0

model.layer_3.pb.pbValues.0.previousBestScore f4 [10]
0	0x00000000	0.0
1	0x00000000	0.0
2	0x00000000	0.0
3	0x00000000	0.0
4	0x00000000	0.0
5	0x00000000	0.0
6	0x00000000	0.0
7	0x00000000	0.0
8	0x00000000	0.0
9	0x00000000	0.0

model.layer_3.pb.pbValues.0.PrevPBCandidateAverage f4 [10]
0	0x00000000	0.0
1	0x00000000	0.0
2	0x00000000	0.0
3	0x00000000	0.0
4	0x00000000	0.0
5	0x00000000	0.0
6	0x00000000	0.0
7	0x00000000	0.0
8	0x00000000	0.0
9	0x00000000	0.0

model.layer_3.pb.pbValues.0.mainGradAverageForScaling f4 [10]
0	0x00000000	0.0
1	0x00000000	0.0
2	0x00000000	0.0
3	0x00000000	0.0
4	0x00000000	0.0
5	0x00000000	0.0
6	0x00000000	0.0
7	0x00000000	0.0
8	0x00000000	0.0
9	0x00000000	0.0

model.layer_3.pb.pbValues.0.candidateGradAverageForScaling f4 [10]
0	0x00000000	0.0
1	0x00000000	0.0
2	0x00000000	0.0
3	0x00000000	0.0
4	0x00000000	0.0
5	0x00000000	0.0
6	0x00000000	0.0
7	0x00000000	0.0
8	0x00000000	0.0
9	0x00000000	0.0

model.layer_3.pb.pbValues.0.indexesOfbest f4 [10]
0	0x00000000	0.0
1	0x00000000	0.0
2	0x00000000	0.0
3	0x00000000	0.0
4	0x00000000	0.0
5	0x00000000	0.0
6	0x00000000	0.0
7	0x00000000	0.0
8	0x00000000	0.0
9	0x00000000	0.0

model.layer_3.pb.pbValues.0.nodesBestImprovedThisEpoch f4 [10]
0	0x00000000	0.0
1	0x00000000	0.0
2	0x00000000	0.0
3	0x00000000	0.0
4	0x00000000	0.0
5	0x00000000	0.0
6	0x00000000	0.0
7	0x00000000	0.0
8	0x00000000	0.0
9	0x00000000	0.0

model.layer_3.pb.pbValues.0.parentsAverageDvector f4 [10]
0	0x00000000	0.0
1	0x00000000	0.0
2	0x00000000	0.0
3	0x00000000	0.0
4	0x00000000	0.0
5	0x00000000	0.0
6	0x00000000	0.0
7	0x00000000	0.0
8	0x00000000	0.0
9	0x00000000	0.0

model.layer_3.pb.pbValues.0.normalPassAverageD f4 [10]
0	0xb705d51b	-7.977035e-06
1	0x351d767f	5.865949e-07
2	0xb62b45c6	-2.55216e-06
3	0x36143306	2.2083418e-06
4	0xb5e93142	-1.7374189e-06
5	0x34307b9c	1.6436246e-07
6	0xb57daa44	-9.4497614e-07
7	0x35bd8edf	1.4123178e-06
8	0x363fb104	2.8564255e-06
9	0x36c8c656	5.983554e-06

exp_avg f4 [4, 784]
0	0x80000004	-6e-45
1	0x80000004	-6e-45
2	0x80000004	-6e-45
3	0x80000004	-6e-45
4	0x80000004	-6e-45
5	0x80000004	-6e-45
6	0x80000004	-6e-45
7	0x80000004	-6e-45
8	0x80000004	-6e-45
9	0x80000004	-6e-45
10	0x80000004	-6e-45
11	0x80000004	-6e-45
12	0x80000004	-6e-45
13	0x80000004	-6e-45
14	0x80000004	-6e-45
15	0x80000004	-6e-45
16	0x80000004	-6e-45
17	0x80000004	-6e-45
18	0x80000004	-6e-45
19	0x80000004	-6e-45
20	0x80000004	-6e-45
21	0x80000004	-6e-45
22	0x80000004	-6e-45
23	0x80000004	-6e-45
24	0x80000004	-6e-45
25	0x80000004	-6e-45
26	0x80000004	-6e-45
27	0x80000004	-6e-45
28	0x80000004	-6e-45
29	0x80000004	-6e-45
30	0x80000004	-6e-45
31	0x80000004	-6e-45
32	0x80000004	-6e-45
33	0x80000004	-6e-45
34	0x80000004	-6e-45
35	0x80000004	-6e-45
36	0x80000004	-6e-45
37	0x80000004	-6e-45
38	0x80000004	-6e-45
39	0x80000004	-6e-45
40	0x80000004	-6e-45
41	0x80000004	-6e-45
42	0x80000004	-6e-45
43	0x80000004	-6e-45
44	0x80000004	-6e-45
45	0x80000004	-6e-45
46	0x80000004	-6e-45
47	0x80000004	-6e-45
48	0x80000004	-6e-45
49	0x80000004	-6e-45
50	0x80000004	-6e-45
51	0x80000004	-6e-45
52	0x80000004	-6e-45
53	0x80000004	-6e-45
54	0x80000004	-6e-45
55	0x80000004	-6e-45
56	0x80000004	-6e-45
57	0x80000004	-6e-45
58	0x80000004	-6e-45
59	0x80000004	-6e-45
60	0x80000004	-6e-45
61	0x80000004	-6e-45
62	0x80000004	-6e-45
63	0x80000004	-6e-45
64	0x80000004	-6e-45
65	0x80000004	-6e-45
66	0x80000004	-6e-45
67	0x80000004	-6e-45
68	0x80000004	-6e-45
69	0x80000004	-6e-45
70	0x80000004	-6e-45
71	0x80000004	-6e-45
72	0x80000004	-6e-45
73	0x80000004	-6e-45
74	0x80000004	-6e-45
75	0x80000004	-6e-45
76	0x80000004	-6e-45
77	0x80000004	-6e-45
78	0x80000004	-6e-45
79	0x80000004	-6e-45
80	0x80000004	-6e-45
81	0x80000004	-6e-45
82	0x80000004	-6e-45
83	0x80000004	-6e-45
84	0x80000004	-6e-45
85	0x80000004	-6e-45
86	0x80000004	-6e-45
87	0x80000004	-6e-45
88	0x80000004	-6e-45
89	0x80000004	-6e-45
90	0x80000004	-6e-45
91	0x80000004	-6e-45
92	0x80000004	-6e-45
93	0x80000004	-6e-45
94	0x80000004	-6e-45
95	0x80000004	-6e-45
96	0x80000004	-6e-45
97	0x00000004	6e-45
98	0x80000004	-6e-45
99	0x80000004	-6e-45
100	0x80000004	-6e-45
101	0x80000004	-6e-45
102	0x80000004	-6e-45
103	0x80000004	-6e-45
104	0x80000004	-6e-45
105	0x80000004	-6e-45
106	0x80000004	-6e-45
107	0x80000004	-6e-45
108	0x80000004	-6e-45
109	0x80000004	-6e-45
110	0x80000004	-6e-45
111	0x80000004	-6e-45
112	0x80000004	-6e-45
113	0x80000004	-6e-45
114	0x80000004	-6e-45
115	0x80000004	-6e-45
116	0x80000004	-6e-45
117	0x80000004	-6e-45
118	0x80000004	-6e-45
119	0x80000004	-6e-45
120	0x80000004	-6e-45
121	0x80000004	-6e-45
122	0x80000004	-6e-45
123	0x00000004	6e-45
124	0x00000004	6e-45
125	0x00000004	6e-45
126	0x00000004	6e-45
127	0x00000004	6e-45
128	0x00000004	6e-45
129	0x00000004	6e-45
130	0x80000004	-6e-45
131	0x80000004	-6e-45
132	0x80000004	-6e-45
133	0x80000004	-6e-45
134	0x80000004	-6e-45
135	0x80000004	-6e-45
136	0x80000004	-6e-45
137	0x80000004	-6e-45
138	0x80000004	-6e-45
139	0x80000004	-6e-45
140	0x80000004	-6e-45
141	0x80000004	-6e-45
142	0x80000004	-6e-45
143	0x80000004	-6e-45
144	0x80000004	-6e-45
145	0x80000004	-6e-45
146	0x80000004	-6e-45
147	0x80000004	-6e-45
148	0x80000004	-6e-45
149	0x00000004	6e-45
150	0x00000004	6e-45
151	0x00000004	6e-45
152	0x00000004	6e-45
153	0x00000004	6e-45
154	0x00000004	6e-45
155	0x00000004	6e-45
156	0x00000004	6e-45
157	0x00000004	6e-45
158	0x00000004	6e-45
159	0x00000004	6e-45
160	0x00000004	6e-45
161	0x80000004	-6e-45
162	0x80000004	-6e-45
163	0x80000004	-6e-45
164	0x80000004	-6e-45
165	0x80000004	-6e-45
166	0x80000004	-6e-45
167	0x80000004	-6e-45
168	0x80000004	-6e-45
169	0x80000004	-6e-45
170	0x80000004	-6e-45
171	0x80000004	-6e-45
172	0x80000004	-6e-45
173	0x80000004	-6e-45
174	0x80000004	-6e-45
175	0x80000004	-6e-45
176	0x00000004	6e-45
177	0x00000004	6e-45
178	0x00000004	6e-45
179	0x00000004	6e-45
180	0x00000004	6e-45
181	0x00000004	6e-45
182	0x00000004	6e-45
183	0x00000004	6e-45
184	0x00000004	6e-45
185	0x00000004	6e-45
186	0x00000004	6e-45
187	0x00000004	6e-45
188	0x00000004	6e-45
189	0x00000004	6e-45
190	0x00000004	6e-45
191	0x80000004	-6e-45
192	0x80000004	-6e-45
193	0x80000004	-6e-45
194	0x80000004	-6e-45
195	0x80000004	-6e-45
196	0x80000004	-6e-45
197	0x80000004	-6e-45
198	0x80000004	-6e-45
199	0x80000004	-6e-45
200	0x80000004	-6e-45
201	0x80000004	-6e-45
202	0x80000004	-6e-45
203	0x80000004	-6e-45
204	0x00000004	6e-45
205	0x00000004	6e-45
206	0x00000004	6e-45
207	0x00000004	6e-45
208	0x00000004	6e-45
209	0x80000004	-6e-45
210	0x00000004	6e-45
211	0x00000004	6e-45
212	0x00000004	6e-45
213	0x00000004	6e-45
214	0x00000004	6e-45
215	0x00000004	6e-45
216	0x00000004	6e-45
217	0x00000004	6e-45
218	0x00000004	6e-45
219	0x80000004	-6e-45
220	0x80000004	-6e-45
221	0x80000004	-6e-45
222	0x80000004	-6e-45
223	0x80000004	-6e-45
224	0x80000004	-6e-45
225	0x80000004	-6e-45
226	0x80000004	-6e-45
227	0x80000004	-6e-45
228	0x80000004	-6e-45
229	0x80000004	-6e-45
230	0x80000004	-6e-45
231	0x80000004	-6e-45
232	0x80000004	-6e-45
233	0x00000004	6e-45
234	0x00000004	6e-45
235	0x80000004	-6e-45
236	0x80000004	-6e-45
237	0x80000004	-6e-45
238	0x80000004	-6e-45
239	0x00000004	6e-45
240	0x00000004	6e-45
241	0x80000004	-6e-45
242	0x00000004	6e-45
243	0x00000004	6e-45
244	0x00000004	6e-45
245	0x00000004	6e-45
246	0x00000004	6e-45
247	0x80000004	-6e-45
248	0x80000004	-6e-45
249	0x80000004	-6e-45
250	0x80000004	-6e-45
251	0x80000004	-6e-45
252	0x80000004	-6e-45
253	0x80000004	-6e-45
254	0x80000004	-6e-45
255	0x80000004	-6e-45

exp_avg_sq f4 [4, 784]
0	0x26c54434	1.3688107e-15
1	0x26c54434	1.3688107e-15
2	0x26c54434	1.3688107e-15
3	0x26c54434	1.3688107e-15
4	0x26c54434	1.3688107e-15
5	0x26c54434	1.3688107e-15
6	0x26c54434	1.3688107e-15
7	0x26c54434	1.3688107e-15
8	0x26c54434	1.3688107e-15
9	0x26c54434	1.3688107e-15
10	0x26c54434	1.3688107e-15
11	0x26c54434	1.3688107e-15
12	0x26c54434	1.3688107e-15
13	0x26c54434	1.3688107e-15
14	0x26c54434	1.3688107e-15
15	0x26c54434	1.3688107e-15
16	0x26c54434	1.3688107e-15
17	0x26c54434	1.3688107e-15
18	0x26c54434	1.3688107e-15
19	0x26c54434	1.3688107e-15
20	0x26c54434	1.3688107e-15
21	0x26c54434	1.3688107e-15
22	0x26c54434	1.3688107e-15
23	0x26c54434	1.3688107e-15
24	0x26c54434	1.3688107e-15
25	0x26c54434	1.3688107e-15
26	0x26c54434	1.3688107e-15
27	0x26c54434	1.3688107e-15
28	0x26c54434	1.3688107e-15
29	0x26c54434	1.3688107e-15
30	0x26c54434	1.3688107e-15
31	0x26c54434	1.3688107e-15
32	0x26c54434	1.3688107e-15
33	0x26c54434	1.3688107e-15
34	0x26c54434	1.3688107e-15
35	0x26c54434	1.3688107e-15
36	0x26c54434	1.3688107e-15
37	0x26c54434	1.3688107e-15
38	0x26c54434	1.3688107e-15
39	0x26c54434	1.3688107e-15
40	0x26c54434	1.3688107e-15
41	0x26c54434	1.3688107e-15
42	0x26c54434	1.3688107e-15
43	0x26c54434	1.3688107e-15
44	0x26c54434	1.3688107e-15
45	0x26c54434	1.3688107e-15
46	0x26c54434	1.3688107e-15
47	0x26c54434	1.3688107e-15
48	0x26c54434	1.3688107e-15
49	0x26c54434	1.3688107e-15
50	0x26c54434	1.3688107e-15
51	0x26c54434	1.3688107e-15
52	0x26c54434	1.3688107e-15
53	0x26c54434	1.3688107e-15
54	0x26c54434	1.3688107e-15
55	0x26c54434	1.3688107e-15
56	0x26c54434	1.3688107e-15
57	0x26c54434	1.3688107e-15
58	0x26c54434	1.3688107e-15
59	0x26c54434	1.3688107e-15
60	0x26c54434	1.3688107e-15
61	0x26c54434	1.3688107e-15
62	0x26c54434	1.3688107e-15
63	0x26c54434	1.3688107e-15
64	0x26c54434	1.3688107e-15
65	0x26b5799d	1.2592361e-15
66	0x2698869b	1.0583604e-15
67	0x2698869b	1.0583604e-15
68	0x26c129e5	1.3403421e-15
69	0x26c54434	1.3688107e-15
70	0x26c54434	1.3688107e-15
71	0x26c54434	1.3688107e-15
72	0x26c54434	1.3688107e-15
73	0x26c54434	1.3688107e-15
74	0x26c54434	1.3688107e-15
75	0x26c54434	1.3688107e-15
76	0x26c54434	1.3688107e-15
77	0x26c54434	1.3688107e-15
78	0x26c54434	1.3688107e-15
79	0x26c54434	1.3688107e-15
80	0x26c54434	1.3688107e-15
81	0x26c54434	1.3688107e-15
82	0x26c54434	1.3688107e-15
83	0x26c54434	1.3688107e-15
84	0x26c54434	1.3688107e-15
85	0x26c54434	1.3688107e-15
86	0x26c54434	1.3688107e-15
87	0x26c54434	1.3688107e-15
88	0x26c54434	1.3688107e-15
89	0x26c54434	1.3688107e-15
90	0x26c54434	1.3688107e-15
91	0x26c54434	1.3688107e-15
92	0x26c54434	1.3688107e-15
93	0x26ad1f97	1.2012849e-15
94	0x2698b0f8	1.0595086e-15
95	0x26874d27	9.388419e-16
96	0x23b7f228	1.9943457e-17
97	0x236c9f3e	1.28273065e-17
98	0x24dcce6c	9.5759483e-17
99	0x26804b30	8.902164e-16
100	0x26c0356f	1.333716e-15
101	0x26c54434	1.3688107e-15
102	0x26c54434	1.3688107e-15
103	0x26c54434	1.3688107e-15
104	0x26c54434	1.3688107e-15
105	0x26c54434	1.3688107e-15
106	0x26c54434	1.3688107e-15
107	0x26c54434	1.3688107e-15
108	0x26c54434	1.3688107e-15
109	0x26c54434	1.3688107e-15
110	0x26c54434	1.3688107e-15
111	0x26c54434	1.3688107e-15
112	0x26c54434	1.3688107e-15
113	0x26c54434	1.3688107e-15
114	0x26c54434	1.3688107e-15
115	0x26c54434	1.3688107e-15
116	0x26c54434	1.3688107e-15
117	0x26c54434	1.3688107e-15
118	0x26c54434	1.3688107e-15
119	0x26c54434	1.3688107e-15
120	0x26c54434	1.3688107e-15
121	0x26a5a764	1.1494546e-15
122	0x2585f366	2.3236755e-16
123	0x2755b24c	2.9656343e-15
124	0x2770d460	3.342182e-15
125	0x27fa7014	6.9510454e-15
126	0x28558776	1.1853249e-14
127	0x2854f740	1.1821978e-14
128	0x28042271	7.33494e-15
129	0x2711978e	2.020495e-15
130	0x258f1921	2.4823574e-16
131	0x26819f15	8.994292e-16
132	0x26817244	8.982145e-16
133	0x26b53aac	1.2575301e-15
134	0x26c54434	1.3688107e-15
135	0x26c54434	1.3688107e-15
136	0x26c54434	1.3688107e-15
137	0x26c54434	1.3688107e-15
138	0x26c54434	1.3688107e-15
139	0x26c54434	1.3688107e-15
140	0x26c54434	1.3688107e-15
141	0x26c54434	1.3688107e-15
142	0x26c54434	1.3688107e-15
143	0x26c54434	1.3688107e-15
144	0x26c54434	1.3688107e-15
145	0x26c54434	1.3688107e-15
146	0x26c54434	1.3688107e-15
147	0x26c54434	1.3688107e-15
148	0x26c3952e	1.3571278e-15
149	0x27a1f1f2	4.4948794e-15
150	0x2890c9da	1.607475e-14
151	0x29222c63	3.6009725e-14
152	0x291ab647	3.435297e-14
153	0x28a94464	1.8792429e-14
154	0x2828d8d0	9.372887e-15
155	0x284131dd	1.07244646e-14
156	0x2864a92d	1.2693227e-14
157	0x28bfdee7	2.1301928e-14
158	0x286302b6	1.2601619e-14
159	0x27e99619	6.4833227e-15
160	0x26eb1111	1.6311027e-15
161	0x220159e2	1.7530344e-18
162	0x269aa8f9	1.0731697e-15
163	0x26c54434	1.3688107e-15
164	0x26c54434	1.3688107e-15
165	0x26c54434	1.3688107e-15
166	0x26c54434	1.3688107e-15
167	0x26c54434	1.3688107e-15
168	0x26c54434	1.3688107e-15
169	0x26c54434	1.3688107e-15
170	0x26c54434	1.3688107e-15
171	0x26c1e688	1.3454551e-15
172	0x26c1e688	1.3454551e-15
173	0x26a1d5b7	1.1229547e-15
174	0x2686a700	9.343383e-16
175	0x263b5921	6.499945e-16
176	0x271fca30	2.2175289e-15
177	0x28e1f470	2.5086026e-14
178	0x29117e8d	3.2306233e-14
179	0x28cf842f	2.3038942e-14
180	0x2867abd0	1.2860332e-14
181	0x284d28f0	1.1388663e-14
182	0x28812e0e	1.434185e-14
183	0x28423dfc	1.0782604e-14
184	0x2896c338	1.6738008e-14
185	0x28c673e8	2.2032682e-14
186	0x289696df	1.6718775e-14
187	0x28f94c95	2.7677765e-14
188	0x28a4e353	1.8306244e-14
189	0x286b0ff8	1.3048583e-14
190	0x268de9bf	9.847197e-16
191	0x25aced7b	2.9998167e-16
192	0x26c54434	1.3688107e-15
193	0x26c54434	1.3688107e-15
194	0x26c54434	1.3688107e-15
195	0x26c54434	1.3688107e-15
196	0x26c54434	1.3688107e-15
197	0x26c54434	1.3688107e-15
198	0x26c54434	1.3688107e-15
199	0x263b5921	6.499945e-16
200	0x263c03b9	6.523065e-16
201	0x263c03b9	6.523065e-16
202	0x263cae7d	6.546208e-16
203	0x264419db	6.80362e-16
204	0x285de0d3	1.2316715e-14
205	0x28ddbbd8	2.4617393e-14
206	0x288506ba	1.4768883e-14
207	0x2785e465	3.716254e-15
208	0x228fadda	3.89443e-18
209	0x2660169e	7.7746264e-16
210	0x275f4ff8	3.0990818e-15
211	0x278fb69c	3.988846e-15
212	0x27755550	3.4046828e-15
213	0x28ac5d78	1.9136372e-14
214	0x289ca0ae	1.7389163e-14
215	0x2901c3ca	2.8813574e-14
216	0x287d3273	1.4055261e-14
217	0x2843a836	1.0861149e-14
218	0x2744254a	2.7220679e-15
219	0x26b93262	1.285061e-15
220	0x26eb44b6	1.6325025e-15
221	0x26c54434	1.3688107e-15
222	0x26c54434	1.3688107e-15
223	0x26c54434	1.3688107e-15
224	0x26c54434	1.3688107e-15
225	0x26c54434	1.3688107e-15
226	0x26c54434	1.3688107e-15
227	0x2647854e	6.9222656e-16
228	0x264c5b7c	7.09007e-16
229	0x26934def	1.0221298e-15
230	0x2697ee22	1.0542276e-15
231	0x26c96701	1.3975096e-15
232	0x2048a3ef	1.69949e-19
233	0x28317771	9.8513735e-15
234	0x270b66f8	1.9345945e-15
235	0x26ae3b4f	1.2089751e-15
236	0x273837ed	2.5565447e-15
237	0x271664a2	2.0871235e-15
238	0x258445ca	2.294564e-16
239	0x2788d8a2	3.7982457e-15
240	0x250eb1c4	1.2376766e-16
241	0x259a4b5c	2.6765807e-16
242	0x2700ae7f	1.7858163e-15
243	0x2609e71a	4.7844624e-16
244	0x26e49b08	1.5862699e-15
245	0x268346d7	9.109152e-16
246	0x2314a305	8.057617e-18
247	0x27a8e8d2	4.688179e-15
248	0x27ee4412	6.613207e-15
249	0x26f7f602	1.7205748e-15
250	0x26c54434	1.3688107e-15
251	0x26c54434	1.3688107e-15
252	0x26c54434	1.3688107e-15
253	0x26c54434	1.3688107e-15
254	0x26c54434	1.3688107e-15
255	0x26c54434	1.3688107e-15

exp_avg f4 [4]
0	0x00000004	6e-45
1	0x00000004	6e-45
2	0x80000004	-6e-45
3	0x80000004	-6e-45

exp_avg_sq f4 [4]
0	0x2809062f	7.6063686e-15
1	0x27966bed	4.1750377e-15
2	0x2abd7e60	3.3660835e-13
3	0x2e829d8a	5.9397e-11

exp_avg f4 [8, 4]
0	0x00000004	6e-45
1	0x00000004	6e-45
2	0x00000004	6e-45
3	0x00000004	6e-45
4	0x00000004	6e-45
5	0x00000004	6e-45
6	0x00000004	6e-45
7	0x00000004	6e-45
8	0x00000004	6e-45
9	0x00000000	0.0
10	0x00000004	6e-45
11	0x00000000	0.0
12	0x80000004	-6e-45
13	0x00000004	6e-45
14	0x00000004	6e-45
15	0x00000004	6e-45
16	0x00000004	6e-45
17	0x80000004	-6e-45
18	0x00000004	6e-45
19	0x00000004	6e-45
20	0x80000004	-6e-45
21	0x80000004	-6e-45
22	0x00000004	6e-45
23	0x00000004	6e-45
24	0x00000004	6e-45
25	0x00000004	6e-45
26	0x00000004	6e-45
27	0x00000004	6e-45
28	0x00000004	6e-45
29	0x00000004	6e-45
30	0x00000004	6e-45
31	0x00000004	6e-45

exp_avg_sq f4 [8, 4]
0	0x232d1f74	9.385009e-18
1	0x296e1f1d	5.2873602e-14
2	0x2a2cf790	1.5362559e-13
3	0x2b5084be	7.408066e-13
4	0x2750d5e4	2.898175e-15
5	0x290941d5	3.047721e-14
6	0x2ef95b98	1.13394794e-10
7	0x30d0b72a	1.518605e-09
8	0x245c08e4	4.7712426e-17
9	0x00000000	0.0
10	0x220bc224	1.894079e-18
11	0x00000000	0.0
12	0x280b63e2	7.737709e-15
13	0x28562c8d	1.1889047e-14
14	0x2a377026	1.6292574e-13
15	0x2ba30130	1.1582176e-12
16	0x24fc986a	1.0954578e-16
17	0x250f54ba	1.2431979e-16
18	0x2a010b29	1.1461374e-13
19	0x2b1282a2	5.205091e-13
20	0x24fc18cf	1.09329606e-16
21	0x23c91698	2.1802032e-17
22	0x27156eb1	2.073791e-15
23	0x2baef53a	1.2431508e-12
24	0x25a7440b	2.901599e-16
25	0x299000c6	6.395019e-14
26	0x29ab6933	7.6121746e-14
27	0x26e9df7a	1.6228196e-15
28	0x27ba1b07	5.1654674e-15
29	0x297a7a6a	5.561733e-14
30	0x2dc856f5	2.2775984e-11
31	0x31895a7b	3.997511e-09

exp_avg f4 [8]
0	0x29a52a18	7.334774e-14
1	0x00000004	6e-45
2	0x00000004	6e-45
3	0x29a9f018	7.546757e-14
4	0x29b6bed6	8.1155284e-14
5	0x29a87642	7.481213e-14
6	0x00000004	6e-45
7	0x00000004	6e-45

exp_avg_sq f4 [8]
0	0x2cf22454	6.882087e-12
1	0x2c192739	2.176438e-12
2	0x25075717	1.173889e-16
3	0x2d4cb6fb	1.1636687e-11
4	0x2d35580b	1.0308208e-11
5	0x2d5603db	1.2165348e-11
6	0x29877e70	6.017138e-14
7	0x2ca781f7	4.7608545e-12

exp_avg f4 [10, 8]
0	0xa710eaaf	-2.0111237e-15
1	0x80000004	-6e-45
2	0x00000004	6e-45
3	0xa73b0e13	-2.5959093e-15
4	0xa73319fc	-2.4855326e-15
5	0xa75637d7	-2.9728737e-15
6	0x80000004	-6e-45
7	0x80000004	-6e-45
8	0x29255e1f	3.6718997e-14
9	0x00000004	6e-45
10	0x00000004	6e-45
11	0x295573d1	4.7395956e-14
12	0x294c6070	4.5380746e-14
13	0x297472e8	5.427855e-14
14	0x00000004	6e-45
15	0x80000004	-6e-45
16	0xa891fd50	-1.620809e-14
17	0x80000004	-6e-45
18	0x00000004	6e-45
19	0xa8bc708e	-2.0921006e-14
20	0xa8b46d6a	-2.0031465e-14
21	0xa8d7cdcc	-2.3959045e-14
22	0x80000004	-6e-45
23	0x80000004	-6e-45
24	0xa88ae8ea	-1.5422088e-14
25	0x80000004	-6e-45
26	0x00000004	6e-45
27	0xa8b34d29	-1.9906455e-14
28	0xa8abad7a	-1.9060047e-14
29	0xa8cd56aa	-2.2797157e-14
30	0x80000004	-6e-45
31	0x00000004	6e-45
32	0xa6666425	-7.9933e-16
33	0x00000004	6e-45
34	0x00000004	6e-45
35	0xa694b117	-1.0317563e-15
36	0xa68e5e91	-9.878862e-16
37	0xa6aa48ab	-1.1815816e-15
38	0x00000004	6e-45
39	0x00000004	6e-45
40	0xa44e4480	-4.472715e-17
41	0x00000004	6e-45
42	0x00000004	6e-45
43	0xa4851f5d	-5.773269e-17
44	0xa47eecb4	-5.5277966e-17
45	0xa4987436	-6.611636e-17
46	0x00000004	6e-45
47	0x80000004	-6e-45
48	0xa60a74b9	-4.8036557e-16
49	0x80000004	-6e-45
50	0x80000004	-6e-45
51	0xa632b72c	-6.20044e-16
52	0xa62b1de4	-5.936805e-16
53	0xa64caaf0	-7.100838e-16
54	0x80000004	-6e-45
55	0x00000004	6e-45
56	0xa572c6d2	-2.1057517e-16
57	0x00000004	6e-45
58	0x00000004	6e-45
59	0xa59caf5d	-2.7180517e-16
60	0xa59605dc	-2.6024823e-16
61	0xa5b37020	-3.112753e-16
62	0x00000004	6e-45
63	0x80000004	-6e-45
64	0xa5a5520a	-2.867853e-16
65	0x00000004	6e-45
66	0x00000004	6e-45
67	0xa5d5643e	-3.7017537e-16
68	0xa5cc5184	-3.5443596e-16
69	0xa5f4610e	-4.239302e-16
70	0x00000004	6e-45
71	0x00000004	6e-45
72	0xa43c00cd	-4.076668e-17
73	0x00000004	6e-45
74	0x80000004	-6e-45
75	0xa472ab81	-5.2620655e-17
76	0xa4685a10	-5.0383267e-17
77	0xa48af45e	-6.0261934e-17
78	0x00000004	6e-45
79	0x80000004	-6e-45

exp_avg_sq f4 [10, 8]
0	0x2a0c0575	1.2436391e-13
1	0x2d3779f7	1.0429427e-11
2	0x1e2a9e32	9.032439e-21
3	0x2bbe184b	1.3507055e-12
4	0x2b4a3e38	7.185116e-13
5	0x2bf1216b	1.7133355e-12
6	0x29a38b5e	7.2628305e-14
7	0x2e9a65c5	7.021187e-11
8	0x2b1fe081	5.679971e-13
9	0x2d584ffa	1.2295937e-11
10	0x1ee94859	2.4699757e-20
11	0x2d1783f7	8.612658e-12
12	0x2c59dd13	3.0960276e-12
13	0x2d2d7c04	9.8614485e-12
14	0x28784b09	1.3783036e-14
15	0x2d7b4aeb	1.4284333e-11
16	0x29119b6e	3.233128e-14
17	0x2d509010	1.1855419e-11
18	0x1e8accf6	1.4696088e-20
19	0x2b01fb43	4.61787e-13
20	0x2a0c33e2	1.2452498e-13
21	0x2b0b697c	4.952911e-13
22	0x26982d0c	1.0559329e-15
23	0x2da93059	1.9234546e-11
24	0x29a2204c	7.199848e-14
25	0x2d668f19	1.310576e-11
26	0x1e15ab6b	7.923443e-21
27	0x2b3eaa20	6.7737656e-13
28	0x2a6edddd	2.121562e-13
29	0x2b55efa4	7.600537e-13
30	0x273f647d	2.656105e-15
31	0x2d91c41d	1.6571683e-11
32	0x294e87ea	4.5859075e-14
33	0x3020373a	5.828614e-10
34	0x1e4e2300	1.0912787e-20
35	0x2af92007	4.425351e-13
36	0x2a12ab5d	1.3026859e-13
37	0x2b00d4d0	4.577007e-13
38	0x27b671d6	5.063857e-15
39	0x2f257de7	1.5051392e-10
40	0x286a89eb	1.3019516e-14
41	0x2d05bf32	7.602629e-12
42	0x1f1ca46f	3.31703e-20
43	0x2a24cbcd	1.4636834e-13
44	0x291e864b	3.5199528e-14
45	0x2a26121e	1.4750047e-13
46	0x2833a4b2	9.972209e-15
47	0x2bf58b89	1.7447026e-12
48	0x28ee8120	2.6479307e-14
49	0x2f89a233	2.5035404e-10
50	0x2134f83a	6.1314897e-19
51	0x2aab0a90	3.038303e-13
52	0x29a01bd4	7.110255e-14
53	0x2aab950d	3.0479127e-13
54	0x283c28fd	1.0444984e-14
55	0x304eb5bb	7.520062e-10
56	0x2842f4a8	1.0822215e-14
57	0x2d736051	1.3834337e-11
58	0x1e875698	1.4329495e-20
59	0x295d3f3d	4.9126708e-14
60	0x281f177a	8.831364e-15
61	0x2916724c	3.3405827e-14
62	0x27c74e79	5.5318676e-15
63	0x2bf5d2a0	1.7466757e-12
64	0x28a214d7	1.799465e-14
65	0x2e2e4f73	3.9633585e-11
66	0x1eb8c6a5	1.9563915e-20
67	0x2999f0a4	6.8363094e-14
68	0x28aa4866	1.890519e-14
69	0x294ac26a	4.5021638e-14
70	0x2712d8fe	2.0379202e-15
71	0x3006f6d1	4.9099663e-10
72	0x27eee7f9	6.6309775e-15
73	0x2c4379f3	2.7778862e-12
74	0x1f70494d	5.088261e-20
75	0x28af9bbd	1.9496444e-14
76	0x282bff86	9.547815e-15
77	0x28c32e4a	2.1669424e-14
78	0x27248de4	2.2836491e-15
79	0x2c035bd8	1.8667203e-12

exp_avg f4 [10]
0	0xbaae675f	-0.0013305953
1	0x3a38c249	0.0007047994
2	0x39e64e46	0.00043927337
3	0x3a3bbbfa	0.00071614946
4	0xba663626	-0.00087818725
5	0x37f15012	2.8766724e-05
6	0x38ee7fbc	0.00011372517
7	0xba8ad2ab	-0.0010591348
8	0xb797662c	-1.804818e-05
9	0x3aa832cc	0.0012832521

exp_avg_sq f4 [10]
0	0x3741947b	1.1538267e-05
1	0x3863ae7e	5.4283526e-05
2	0x3762cdf1	1.3518599e-05
3	0x37a66750	1.983685e-05
4	0x3709ab83	8.2057695e-06
5	0x32a66675	1.9371535e-08
6	0x375e05f8	1.3233621e-05
7	0x37e28081	2.7001139e-05
8	0x37222653	9.6648755e-06
9	0x3756b867	1.27983285e-05
