libraryExamples/mnist_lightning/.mnist_{epoch}-{val_loss:.2f}/epoch=3-step=3440.ckpt (torch, 105936 bytes, 60 tensors)

model.layer_1.mainModule.weight f4 [4, 784]
-0.04965181 -0.05898873 -0.07057338 -0.027578473 -0.046614997 -0.04895969 -0.008281759 -0.03745288
-0.0043015205 -0.0019310563 -0.017835319 -0.039279982 -0.032628678 -0.04393706 -0.0057987464 -0.03684771
-0.007290376 -0.036023304 -0.012825603 -0.024157247 -0.07144604 -0.047474124 -0.02741 -0.049595222
-0.06917628 -0.00523993 -0.05552764 -0.027023613 -0.0226416 -0.06691638 -0.0021991658 -0.016680919
-0.0035731671 -0.01673602 -0.013214319 -0.0558696 -0.011989593 -0.058269728 -0.02016359 -0.08008129
-0.044167142 -0.0459365 -0.037468098 -0.024506344 -0.0013654401 -0.019557383 -0.018785685 -0.046283457
-0.01938833 -0.058882695 -0.007737373 -0.057597283 -0.0016382567 -0.035525076 -0.011390983 -0.045272794
-0.016076995 -0.03394581 -0.07045551 -0.035950877 -0.07106834 -0.038578022 -0.06717465 -0.045823526
-0.039718673 -0.04981918 -0.13993149 -0.15862386 -0.21532612 -0.29231182 -0.2313017 -0.13178563
-0.12441866 -0.13583107 -0.17846772 -0.26041397 -0.22040798 -0.17668587 -0.07260625 -0.053366277
-0.08024832 -0.04378414 -0.009306544 -0.05048636 -0.013646036 -0.048879683 -0.0681842 -0.04208006
-0.023972962 -0.045770753 -0.052847058 -0.03567365 -0.018030524 -0.058455925 -0.0075684087 0.03108132
-0.007746403 0.028889423 0.04649093 0.061442085 -0.056633744 -0.118750274 -0.23701231 -0.3268489
-0.34501517 -0.2967206 -0.19918683 -0.15161417 -0.064096086 -0.045687262 -0.016836757 -0.0060064183
-0.061103012 -0.035208788 -0.06882139 -0.010508672 -0.019540858 0.016869469 0.022974206 0.08031326
0.16374843 0.14423813 0.20669912 0.21149327 0.20526502 0.09856766 0.12055218 0.09068871
0.06660222 0.044965386 0.051590495 -0.0069939718 0.015217846 -0.06742722 -0.050413944 -0.12849489
-0.06957216 -0.010221697 -0.010099797 -0.046310496 -0.04585257 -0.053087503 -0.024397234 0.0024637517
0.009803959 0.12336083 0.16225286 0.15577608 0.1367186 0.1142991 0.13184123 0.2133069
0.19468021 0.23697093 0.1846854 0.18083176 0.117250346 0.01083747 -0.009458325 0.06646984
0.06004801 0.060156677 0.019241383 -0.063050866 0.10546663 0.07656588 -0.02888228 -0.03640521
-0.018504431 -0.033862095 -0.058761086 0.006911975 0.071652785 0.15076974 0.1267638 0.07570829
0.11011324 0.083062045 0.0924745 0.12719823 0.20821907 0.24714586 0.19113429 0.114241496
0.08465965 0.04227161 0.057698105 0.03939237 0.05092289 0.05731131 0.016134836 0.023221074
0.20918736 0.22000006 0.03643792 -0.012153023 -0.009260392 0.00039587243 -0.04707626 0.04304555
0.1343534 0.14805844 0.1613471 0.0559316 0.0121389115 0.047023695 0.07766381 0.046411786
0.1570772 0.20872545 0.1158741 0.012585101 -0.018677121 -0.017924117 0.010929774 0.09466558
0.11546513 0.14129768 0.13366953 0.113942795 0.26576766 0.27181074 0.07062504 -0.03293431
-0.050097283 -0.050820395 -0.017924625 0.03462937 0.2068624 0.19631274 0.14287502 0.06257326
0.1329652 0.11211686 0.078374125 0.03453938 0.124604166 0.10487415 0.17876671 0.08615554
0.028132943 0.019839564 0.12992091 0.14032705 0.101910934 0.17811476 0.17726175 0.09659928
0.32503903 0.28869858 0.052995514 0.006768277 -0.06760481 -0.051396128 -0.019084722 0.051823635
00000000: b25f 4bbd 2b9e 71bd c788 90bd 40ec e1bc
00000010: 5eef 3ebd f589 48bd 37b0 07bc 3168 19bd
00000020: c5f3 8cbb 7f1b fdba 601b 92bc 0ce4 20bd
00000030: a6a5 05bd 59f7 33bd 6903 bebb a0ed 16bd
00000040: 1be4 eebb 2c8d 13bd 7a22 52bc 6be5 c5bc
00000050: 4d52 92bd 3a74 42bd f08a e0bc 5c24 4bbd
00000060: 4bac 8dbd b8b3 abbb f370 63bd a060 ddbc
00000070: e07a b9bc 740b 89bd e11f 10bb 6ca6 88bc
00000080: cc2b 6abb fa19 89bc df80 58bc 86d7 64bd
00000090: ff6f 44bc 3dac 6ebd 1d2e a5bc a901 a4bd
000000a0: 9be8 34bd e927 3cbd 2678 19bd 87c1 c8bc
000000b0: 91f8 b2ba ce36 a0bc 70e4 99bc b993 3dbd
000000c0: 46d4 9ebc fb2e 71bd ca89 fdbb 21eb 6bbd
000000d0: c6ba d6ba be82 11bd 3fa1 3abc f76f 39bd
000000e0: e7b3 83bc c30a 0bbd fa4a 90bd 3a41 13bd
000000f0: 478c 91bd fd03 1ebd dd92 89bd 73b1 3bbd
00000100: 0cb0 22bd 320f 4cbd 334a 0fbe 4b6e 22be
00000110: 737e 5cbe e5a9 95be 5ada 6cbe d0f2 06be
00000120: 36cf febd 4d17 0bbe 3ec0 36be fb54 85be
00000130: a1b2 61be 24ed 34be 96b2 94bd 9996 5abd
00000140: 3b59 a4bd 0057 33bd 7a7a 18bc c9ca 4ebd
00000150: a093 5fbc 1036 48bd 28a4 8bbd 245c 2cbd
00000160: f262 c4bc 1d7a 3bbd 2876 58bd 891e 12bd
00000170: c0b4 93bc 7b6f 6fbd 6a00 f8bb 419e fe3c
00000180: 8ad5 fdbb 83a9 ec3c 466d 3e3d b2aa 7b3d
00000190: c9f8 67bd 5833 f3bd 5bb3 72be bd58 a7be
000001a0: d4a5 b0be c3eb 97be a2f7 4bbe bf40 1bbe
000001b0: cf44 83bd 9122 3bbd 3ded 89bc 7dd1 c4bb
000001c0: 2747 7abd 1737 10bd 3bf2 8cbd 912c 2cbc
000001d0: 2614 a0bc d731 8a3c 6734 bc3c 477b a43d
000001e0: abad 273e 29b3 133e efa8 533e b191 583e
000001f0: fe30 523e d7dd c93d 10e4 f63d 01bb b93d
00000200: bf66 883d a02d 383d 8e50 533d b02d e5bb
00000210: 4654 793c 4817 8abd da7e 4ebd 2a94 03be
00000220: d97b 8ebd e878 27bc 9e79 25bc 13b0 3dbd
00000230: e8cf 3bbd 4872 59bd b5dc c7bc e576 213b
00000240: c9a0 203c 9aa4 fc3d 9d25 263e c483 1f3e
00000250: f6ff 0b3e a615 ea3d 6301 073e 206d 5a3e
00000260: 405a 473e 82a8 723e 2b1e 3d3e f62b 393e
00000270: f320 f03d a58f 313c 17f7 1abc 5721 883d
00000280: e7f4 753d d966 763d 1ba0 9d3c d020 81bd
00000290: e3fe d73d 92ce 9c3d 889a ecbc a11d 15bd
000002a0: 9b96 97bc fbb2 0abd 77af 70bd d97d e23b
000002b0: b2be 923d 6263 1a3e 5fce 013e f30c 9b3d
000002c0: 0d83 e13d 6f1c aa3d 4563 bd3d 4140 023e
000002d0: 6137 553e ce13 7d3e b5b8 433e 72f7 e93d
000002e0: 0a62 ad3d ff24 2d3d d954 6c3d e559 213d
000002f0: 8594 503d 44bf 6a3d 342d 843c 1f3a be3c
00000300: 3635 563e b247 613e ee3f 153d 791d 47bc
00000310: e6b8 17bc 198d cf39 09d3 40bd 8850 303d
00000320: f093 093e a29c 173e 2d38 253e 8918 653d
00000330: 49e2 463c eb9b 403d 340e 9f3d 491a 3e3d
00000340: d8d8 203e 20bc 553e 664f ed3d bd31 4e3c
00000350: c300 99bc 99d5 92bc cb12 333c 07e0 c13d
00000360: fb78 ec3d 57b0 103e aae0 083e d75a e93d
00000370: b312 883e c72a 8b3e dca3 903d 21e6 06bd
00000380: cf32 4dbd 0c29 50bd aad6 92bc 87d7 0d3d
00000390: bdd3 533e 3506 493e d44d 123e 6926 803d
000003a0: 0828 083e 869d e53d 9d82 a03d 2a79 0d3d
000003b0: 7830 ff3d 42c8 d63d 9f0e 373e 5172 b03d
000003c0: 0f77 e63c 9586 a23c fd09 053e e5b1 0f3e
000003d0: aeb6 d03d b763 363e 1b84 353e d8d5 c53d
000003e0: 846b a63e 4dd0 933e d311 593d 6cc8 dd3b
000003f0: 6474 8abd bf84 52bd 9057 9cbc 0545 543d

model.layer_1.mainModule.bias f4 [4]
0.002297364 -0.00034424927 0.078489505 0.0394528
00000000: 5f8f 163b 5b7c b4b9 1bbf a03d 4299 213d

model.layer_1.pb.parentModule.weight f4 [4, 784]
-0.012843128 -0.022180073 -0.033764586 0.009230171 -0.009806327 -0.012151008 0.028526917 -0.00064419
0.032507163 0.03487762 0.018973347 -0.0024713236 0.0088707 -0.0036577415 0.023607744 -0.0003456431
0.029518312 0.0007853849 0.02398307 0.012651405 -0.034637272 -0.010665447 0.009398652 -0.012786538
-0.032367554 0.03156875 -0.01871895 0.009785044 0.014167067 -0.030107683 0.03460951 0.02012777
0.033241533 0.020090321 0.023596756 -0.018948419 0.027364805 -0.017149419 0.02874988 -0.027377479
0.005341696 0.019641962 0.0040615755 0.008637574 0.005302174 0.009426458 0.0208779 -0.0015661079
0.025726397 -0.015970912 0.029863793 -0.020788623 0.035170425 0.0012836158 0.025417704 -0.008464111
0.020731688 0.002862892 -0.0336467 0.0008578088 -0.03423974 -0.001732656 -0.02856055 -0.0034428155
0.012707975 0.025265116 -0.0026432874 -0.016437884 0.010198887 -0.012095669 0.0068014096 0.006414967
-0.034164276 -0.021900408 0.02238206 -0.02552447 -0.033180945 -0.033374067 0.026745869 0.014854845
-0.032632586 -0.008588711 0.027502138 -0.013677674 0.023162639 -0.012071001 -0.031682383 -0.0053355442
0.012788969 -0.010823582 -0.01942469 -0.012339426 0.034185886 -0.011628369 0.03054816 0.0030606773
-0.007889335 0.003722042 -0.025581812 0.026597582 -0.022514272 0.010306661 -0.03314827 0.017885774
0.0069745868 -0.016358104 -0.013580212 -0.014934217 0.029855397 -0.010325858 0.018291036 0.030802255
-0.024294335 0.0015736308 -0.033240743 0.025146311 0.009013287 0.026588416 -0.026151909 -0.03201753
0.033274263 -0.022326356 -0.033487793 0.0017924054 0.019562846 -0.024764229 0.01247421 0.01203136
0.0052370303 -0.013699043 0.030668052 -0.00800814 -0.00980049 -0.020345595 0.002558423 -0.024477752
-0.028439613 -0.00019637177 -0.00033044818 -0.011724932 -0.009043894 -0.016278816 0.011881799 0.01834204
-0.0008506605 0.017276777 -0.0023600843 0.011502365 -0.028305162 0.0059240847 0.0014277144 0.025427619
-0.0009471987 0.016670108 -0.027713235 -0.026973495 0.008182446 -0.01980352 -0.028017143 0.014507116
0.00281818 0.0025958803 0.008126131 0.020460665 -0.004844989 0.011071772 -0.02381198 0.0008938994
0.018304229 0.0025850025 -0.021631893 0.0011984536 -0.008813245 0.000133706 -0.012041343 -0.006796897
-0.0044576954 0.007432806 0.007495808 -0.0018730505 0.022163013 0.011183786 0.00826917 0.002826299
0.029039951 0.0039795637 0.008662624 0.033670124 0.0104582105 -0.01575399 0.018096108 0.021680238
-0.024473958 0.01457509 0.003371622 0.022113064 0.027548157 0.028065104 -0.017494867 0.016211327
-0.021285845 -0.016618513 0.019053306 0.014603509 -0.035103258 0.0006861048 0.022912916 9.616358e-05
0.006769781 0.01858977 -0.009050723 -0.018969694 0.0076470887 -0.012050233 -0.030180085 -0.011589562
-0.019182075 -0.005765898 0.025147196 -0.009189406 -0.030678324 -0.01104862 0.0152660785 -0.005319174
-0.013289137 -0.016907983 0.014577066 -0.014752384 -0.022001123 -0.026398608 -0.017535355 -0.023131056
0.030873517 0.032533605 0.0319073 0.025250478 0.010584674 -0.0023049926 -0.0064684753 -0.010792631
0.02371534 -0.026239915 -0.019630944 -0.0136217605 -0.012019524 -0.015041033 0.013140892 0.00808311
0.026567455 -0.022695977 -0.032140452 0.029960817 -0.03035133 -0.014649669 0.004629182 0.0040229475
00000000: fc6b 52bc fcb2 b5bc bc4c 0abd 253a 173c
00000010: b7aa 20bc 0515 47bc 48b1 e93c dcde 28ba
00000020: 3b26 053d d6db 0e3d fe6d 9b3c eef5 21bb
00000030: 6a56 113c b8b6 6fbb 0765 c13c 6e37 b5b9
00000040: 63d0 f13c 4ae2 4d3a 2578 c43c d747 4f3c
00000050: d0df 0dbd 21be 2ebc cefc 193c a17e 51bc
00000060: d793 04bd 3c4e 013d 7c58 99bc 7351 203c
00000070: fc1c 683c 63a4 f6bc b4c2 0d3d fee2 a43c
00000080: 4628 083d 7594 a43c fc4d c13c b739 9bbc
00000090: 282c e03c f07c 8cbc de84 eb3c bc46 e0bc
000000a0: 6509 af3b 2ee8 a03c f716 853b 9c84 0d3c
000000b0: dcbd ad3b 6e71 1a3c 2108 ab3c dc45 cdba
000000c0: 2ac0 d23c 6ed5 82bc eaa4 f43c e74c aabc
000000d0: dd0e 103d 003f a83a ca38 d03c 0ead 0abc
000000e0: 80d5 a93c 5c9f 3b3b 1fd1 09bd 93de 603a
000000f0: f83e 0cbd 4a1a e3ba d1f7 e9bc dca0 61bb
00000100: 1c35 503c caf8 ce3c 013b 2dbb bea8 86bc
00000110: 3c19 273c ea2c 46bc 5cde de3b a534 d23b
00000120: d7ef 0bbd 7c68 b3bc 955a b73c b118 d1bc
00000130: bee8 07bd 3fb3 08bd 271a db3c bc61 733c
00000140: bfa9 05bd aab7 0cbc 2a4c e13c 5318 60bc
00000150: 93bf bd3c 73c5 45bc 63c5 01bd cad5 aebb
00000160: d388 513c 6555 31bc 8720 9fbc 4e2b 4abc
00000170: 8006 0c3d ea84 3ebc 2340 fa3c a595 483b
00000180: 4542 01bc 81ed 733b f390 d1bc 2ce3 d93c
00000190: da6f b8bc 45dd 283c 7bc6 07bd 3085 923c
000001a0: 138b e43b 6e01 86bc 8a7f 5ebc a5ae 74bc
000001b0: 4e93 f43c ca2d 29bc 15d7 953c 0355 fc3c
000001c0: ea04 c7bc 4a42 ce3a 7227 08bd a3ff cd3c
000001d0: 77ac 133c f3cf d93c 873c d6bc d024 03bd
000001e0: 984a 083d c3e5 b6bc 7f2a 09bd 25ef ea3a
000001f0: 4342 a03c 5ade cabc a160 4c3c 2e1f 453c
00000200: 659b ab3b f371 60bc 913b fb3c 9334 03bc
00000210: 3c92 20bc ceab a6bc 37ab 273b 9185 c8bc
00000220: 31fa e8bc 25e9 4db9 0140 adb9 ee19 40bc
00000230: d72c 14bc 275b 85bc e1ab 423c 0c42 963c
00000240: dcfe 5eba 0788 8d3c a5ab 1abb 6a74 3c3c
00000250: 3ae0 e7bc d31e c23b 2522 bb3a 954d d03c
00000260: 6e4d 78ba c08f 883c de06 e3bc 85f7 dcbc
00000270: aa0f 063c fe3a a2bc 3584 e5bc 41af 6d3c
00000280: 37b1 383b a51f 2a3b 7723 053c 209d a73c
00000290: b7c2 9ebb 6166 353c 5711 c3bc 9354 6a3a
000002a0: c0f2 953c 2569 293b 5e35 b1bc 6e15 9d3a
000002b0: 6e65 10bc 6e33 0c39 0e49 45bc 81b8 debb
000002c0: dc11 92bb e58e f33b 659f f53b 2581 f5ba
000002d0: 358f b53c 333c 373c 6a7b 073c 6e39 393b
000002e0: 31e5 ed3c 0067 823b aeed 0d3c afe9 093d
000002f0: ea58 2b3c 830e 81bc 4a3e 943c c19a b13c
00000300: 9c7d c8bc 5ccc 6e3c 6ef6 5c3b 7526 b53c
00000310: acac e13c cae8 e53c 6551 8fbc 9ecd 843c
00000320: a75f aebc 8c23 88bc ae15 9c3c 8e43 6f3c
00000330: 6fc8 0fbd b7db 333a deb3 bb3c 6eab c938
00000340: 0ad5 dd3b 9349 983c 7c49 14bc 5566 9bbc
00000350: 6e94 fa3b 576e 45bc 3a3c f7bc 25e2 3dbc
00000360: ba23 9dbc dcef bcbb 7e01 ce3c 2a8f 16bc
00000370: 1c51 fbbc 4505 35bc 931e 7a3c 774c aebb
00000380: aeba 59bc 9c82 8abc a5d4 6e3c fcb3 71bc
00000390: b33b b4bc e541 d8bc 4ea6 8fbc 577d bdbc
000003a0: 75ea fc3c f541 053d 3bb1 023d 17da ce3c
000003b0: 576b 2d3c 5c0f 17bb 81f5 d3bb 93d3 30bc
000003c0: ac46 c23c 17f5 d6bc 13d1 a0bc ce2d 5fbc
000003d0: 8aed 44bc aa6e 76bc e54c 573c 056f 043c
000003e0: fea3 d93c eaec b9bc b5a5 03bd 6370 f53c
000003f0: 5aa3 f8bc 2a05 70bc 65b0 973b eed2 833b

model.layer_1.pb.parentModule.bias f4 [4]
-0.034511488 -0.010488583 -0.022460593 -0.020765224
00000000: eb5b 0dbd 4ed8 2bbc 47ff b7bc d51b aabc

model.layer_1.pb.pbValues.0.topPBCandidateAverage f4 [4]
0.0 0.0 0.0 0.0
00000000: 0000 0000 0000 0000 0000 0000 0000 0000

model.layer_1.pb.pbValues.0.PrevPBCandidateCorrelation f4 [4]
0.0 0.0 0.0 0.0
00000000: 0000 0000 0000 0000 0000 0000 0000 0000

model.layer_1.pb.pbValues.0.currentCorrelationsForParallel f4 [4]
0.0 0.0 0.0 0.0
00000000: 0000 0000 0000 0000 0000 0000 0000 0000

model.layer_1.pb.pbValues.0.bestScore f4 [4]
0.0 0.0 0.0 0.0
00000000: 0000 0000 0000 0000 0000 0000 0000 0000

model.layer_1.pb.pbValues.0.previousBestScore f4 [4]
0.0 0.0 0.0 0.0
00000000: 0000 0000 0000 0000 0000 0000 0000 0000

model.layer_1.pb.pbValues.0.PrevPBCandidateAverage f4 [4]
0.0 0.0 0.0 0.0
00000000: 0000 0000 0000 0000 0000 0000 0000 0000

model.layer_1.pb.pbValues.0.mainGradAverageForScaling f4 [4]
0.0 0.0 0.0 0.0
00000000: 0000 0000 0000 0000 0000 0000 0000 0000

model.layer_1.pb.pbValues.0.candidateGradAverageForScaling f4 [4]
0.0 0.0 0.0 0.0
00000000: 0000 0000 0000 0000 0000 0000 0000 0000

model.layer_1.pb.pbValues.0.indexesOfbest f4 [4]
0.0 0.0 0.0 0.0
00000000: 0000 0000 0000 0000 0000 0000 0000 0000

model.layer_1.pb.pbValues.0.nodesBestImprovedThisEpoch f4 [4]
0.0 0.0 0.0 0.0
00000000: 0000 0000 0000 0000 0000 0000 0000 0000

model.layer_1.pb.pbValues.0.parentsAverageDvector f4 [4]
0.0 0.0 0.0 0.0
00000000: 0000 0000 0000 0000 0000 0000 0000 0000

model.layer_1.pb.pbValues.0.normalPassAverageD f4 [4]
2.1871047e-06 1.0178675e-06 -3.7686084e-06 -9.35116e-07
00000000: 2cc6 1236 a99d 8835 33e8 7cb6 af04 7bb5

model.layer_2.mainModule.weight f4 [8, 4]
-0.23804134 -0.0036119195 -0.28696412 0.70301294 0.42162472 -0.71340585 0.8583525 -0.14480829
1.0370259 0.62526685 -0.014880405 0.045186497 -0.122804485 -0.3330195 0.015565784 0.79114395
0.3477632 0.06931041 -0.121359855 0.70897925 -0.33022994 0.95885545 0.42295524 -0.019060764
-0.120000534 -0.24700475 0.35635453 0.23714451 -0.7181837 0.18437055 0.6895088 0.11421577
00000000: 1cc1 73be f4b5 6cbb f6ec 92be a8f8 333f
00000010: 32df d73e c4a1 36bf fdbc 5b3f a048 14be
00000020: 44bd 843f 7d11 203f f1cc 73bc 7a15 393d
00000030: eb80 fbbd 8881 aabe a107 7f3c 6988 4a3f
00000040: 050e b23e 9ef2 8d3d 848b f8bd aa7f 353f
00000050: e613 a9be 8d77 753f 978d d83e 5225 9cbc
00000060: d7c2 f5bd d0ee 7cbe 1a74 b63e 03d6 723e
00000070: e3da 37bf a2cb 3c3e a683 303f f5e9 e93d

model.layer_2.mainModule.bias f4 [8]
0.36721462 0.09024904 -0.3266779 -0.14528657 -0.019647207 0.41883263 -0.55782896 -0.0882584
00000000: 8e03 bc3e 7dd4 b83d 5342 a7be 01c6 14be
00000010: 2ef3 a0bc 3b71 d63e e1cd 0ebf d2c0 b4bd

model.layer_2.pb.parentModule.weight f4 [8, 4]
-0.43293154 -0.27391464 -0.3812623 0.36602747 0.11321783 -0.37049216 0.4978791 -0.18956661
0.49656308 0.11368412 -0.11897689 -0.16288316 -0.090637624 -0.4274723 -0.27958137 0.28183967
0.3386383 -0.06532639 0.018756092 0.4578182 -0.15228915 0.12242472 0.20832306 -0.15320545
-0.14247131 -0.17412293 0.12958908 0.0020148754 -0.46315438 0.24353969 0.2513398 0.09486461
00000000: 34a9 ddbe 8a3e 8cbe d034 c3be f467 bb3e
00000010: c0de e73d 26b1 bdbe 02ea fe3e c01d 42be
00000020: 843d fe3e 38d3 e83d 28aa f3bd d8ca 26be
00000030: 38a0 b9bd a6dd dabe 4a25 8fbe 4a4d 903e
00000040: 0062 ad3e d8c9 85bd 60a6 993c 2667 ea3e
00000050: b0f1 1bbe d0b9 fa3d a452 553e e4e1 1cbe
00000060: 00e4 11be 484d 32be 00b3 043e 000c 043b
00000070: 9222 edbe 7862 793e 9caf 803e 6048 c23d

model.layer_2.pb.parentModule.bias f4 [8]
-0.20958722 -0.25468242 -0.13124281 -0.40238112 0.4187106 0.48358786 -0.30621654 -0.45049983
00000000: 089e 56be bc65 82be 8464 06be e604 cebe
00000010: 3c61 d63e d498 f73e 6ac8 9cbe eaa7 e6be

model.layer_2.pb.pbValues.0.topPBCandidateAverage f4 [8]
0.0 0.0 0.0 0.0 0.0 0.0 0.0 0.0
00000000: 0000 0000 0000 0000 0000 0000 0000 0000
00000010: 0000 0000 0000 0000 0000 0000 0000 0000

model.layer_2.pb.pbValues.0.PrevPBCandidateCorrelation f4 [8]
0.0 0.0 0.0 0.0 0.0 0.0 0.0 0.0
00000000: 0000 0000 0000 0000 0000 0000 0000 0000
00000010: 0000 0000 0000 0000 0000 0000 0000 0000

model.layer_2.pb.pbValues.0.currentCorrelationsForParallel f4 [8]
0.0 0.0 0.0 0.0 0.0 0.0 0.0 0.0
00000000: 0000 0000 0000 0000 0000 0000 0000 0000
00000010: 0000 0000 0000 0000 0000 0000 0000 0000

model.layer_2.pb.pbValues.0.bestScore f4 [8]
0.0 0.0 0.0 0.0 0.0 0.0 0.0 0.0
00000000: 0000 0000 0000 0000 0000 0000 0000 0000
00000010: 0000 0000 0000 0000 0000 0000 0000 0000

model.layer_2.pb.pbValues.0.previousBestScore f4 [8]
0.0 0.0 0.0 0.0 0.0 0.0 0.0 0.0
00000000: 0000 0000 0000 0000 0000 0000 0000 0000
00000010: 0000 0000 0000 0000 0000 0000 0000 0000

model.layer_2.pb.pbValues.0.PrevPBCandidateAverage f4 [8]
0.0 0.0 0.0 0.0 0.0 0.0 0.0 0.0
00000000: 0000 0000 0000 0000 0000 0000 0000 0000
00000010: 0000 0000 0000 0000 0000 0000 0000 0000

model.layer_2.pb.pbValues.0.mainGradAverageForScaling f4 [8]
0.0 0.0 0.0 0.0 0.0 0.0 0.0 0.0
00000000: 0000 0000 0000 0000 0000 0000 0000 0000
00000010: 0000 0000 0000 0000 0000 0000 0000 0000

model.layer_2.pb.pbValues.0.candidateGradAverageForScaling f4 [8]
0.0 0.0 0.0 0.0 0.0 0.0 0.0 0.0
00000000: 0000 0000 0000 0000 0000 0000 0000 0000
00000010: 0000 0000 0000 0000 0000 0000 0000 0000

model.layer_2.pb.pbValues.0.indexesOfbest f4 [8]
0.0 0.0 0.0 0.0 0.0 0.0 0.0 0.0
00000000: 0000 0000 0000 0000 0000 0000 0000 0000
00000010: 0000 0000 0000 0000 0000 0000 0000 0000

model.layer_2.pb.pbValues.0.nodesBestImprovedThisEpoch f4 [8]
0.0 0.0 0.0 0.0 0.0 0.0 0.0 0.0
00000000: 0000 0000 0000 0000 0000 0000 0000 0000
00000010: 0000 0000 0000 0000 0000 0000 0000 0000

model.layer_2.pb.pbValues.0.parentsAverageDvector f4 [8]
0.0 0.0 0.0 0.0 0.0 0.0 0.0 0.0
00000000: 0000 0000 0000 0000 0000 0000 0000 0000
00000010: 0000 0000 0000 0000 0000 0000 0000 0000

model.layer_2.pb.pbValues.0.normalPassAverageD f4 [8]
-7.766154e-06 -5.479109e-06 3.8239373e-06 2.5992006e-06 1.7576408e-06 1.6169872e-06 2.5036798e-06 -2.501647e-06
00000000: 614b 02b7 30d9 b7b6 5f4f 8036 ed6d 2e36
00000010: 14e8 eb35 4207 d935 e404 2836 f8e1 27b6

model.layer_3.mainModule.weight f4 [10, 8]
-0.056629643 0.5127059 -0.88793826 -0.5207718 -0.516332 0.0508411 0.15144041 0.5432
-0.09989516 -0.319688 0.34023085 -0.30847728 0.4595043 -0.022611506 -0.45017192 -0.93892455
0.34228882 -0.05164344 0.24879368 0.19155093 0.3194748 -0.9825636 -0.3778538 -0.7265442
-1.2722989 0.48952124 0.5817506 -0.50675637 -0.20691521 -0.08486352 -0.4980833 -0.34701917
0.3463302 -0.7423812 -0.3894862 0.2668888 0.21936844 0.22256812 -0.10188936 -0.00449209
-0.4481814 0.35372603 -0.30015352 -0.3062576 0.033112325 0.1078559 0.41715845 0.089272425
0.50733775 0.14808543 -0.8790661 0.6572284 0.11645706 -0.6100859 -0.08411436 -0.03742598
-0.66053534 -0.7460113 0.3117345 -1.1925404 -0.13561825 0.6677455 -1.3501288 -0.014482214
-0.4246314 -0.15855697 0.10209495 0.16961046 0.18011211 0.11987189 0.1927878 -0.009755802
0.31189677 -0.50380236 0.08325637 -0.41511193 0.010860571 0.47784066 -0.81322527 0.11122568
00000000: 7cf4 67bd b240 033f ec4f 63bf 4d51 05bf
00000010: 552e 04bf c23e 503d 3213 1b3e 280f 0b3f
00000020: d595 ccbd 25ae a3be bd32 ae3e bcf0 9dbe
00000030: 2644 eb3e c43b b9bc ef7c e6be 5c5d 70bf
00000040: 7b40 af3e 1288 53bd c5c3 7e3e ed25 443e
00000050: 3392 a33e 4a89 7bbf 0e76 c1be cdfe 39bf
00000060: b1da a2bf 87a2 fa3e 9bed 143f c9ba 01bf
00000070: 95e1 53be edcc adbd c604 ffbe 7fac b1be
00000080: 3152 b13e b20c 3ebf bc6a c7be a6a5 883e
00000090: 1fa2 603e e6e8 633e 5eab d0bd 6232 93bb
000000a0: 0878 e5be 941b b53e b9ad 99be cccd 9cbe
000000b0: caa0 073d 8ee3 dc3d cb95 d53e 76d4 b63d
000000c0: e3e0 013f b5a3 173e 7a0a 61bf 1f40 283f
000000d0: 0a81 ee3d 972e 1cbf 2644 acbd fc4b 19bd
000000e0: d818 29bf 99fa 3ebf aa9b 9f3e 2aa5 98bf
000000f0: 83df 0abe 5ef1 2a3f 05d1 acbf cf46 6dbc
00000100: 4969 d9be c25c 22be 2817 d13d 5dae 2d3e
00000110: 4f6f 383e 657f f53d 2a6a 453e cdd6 1fbc
00000120: efb0 9f3e 31f9 00bf 5182 aa3d 8d89 d4be
00000130: 89f0 313c 88a7 f43e 882f 50bf 4aca e33d

model.layer_3.mainModule.bias f4 [10]
0.74036694 0.0070205736 0.21345346 0.10275374 0.86154824 -0.1438727 0.33151245 0.59237844
-1.068549 -0.05666598
00000000: b088 3d3f d70c e63b 8b93 5a3e 8e70 d23d
00000010: 6d8e 5c3f 5d53 13be 00bc a93e 1da6 173f
00000020: 37c6 88bf 961a 68bd

model.layer_3.pb.parentModule.weight f4 [10, 8]
-0.08993467 0.06792913 -0.085423864 -0.19314893 0.033329096 -0.057655074 -0.30857548 0.27030796
-0.051189117 0.098163635 0.269777 -0.30961505 0.3351907 0.25262728 -0.20435944 -0.26571274
0.30972013 -0.13191538 -0.09424849 0.07440558 0.10157513 -0.32729417 -0.08807431 -0.1533502
-0.11786754 0.3252115 0.32665825 -0.102183975 -0.28995737 0.08708458 -0.3439769 -0.07560137
-0.05490255 0.13966171 -0.116961464 0.02271066 0.07799641 -0.25674963 0.17760791 -0.19270079
0.34785855 0.19811328 -0.10144864 0.07001358 0.31546935 0.09384649 0.2343156 -0.02940577
-0.037240237 0.31919393 -0.060237158 0.21576315 -0.110274196 0.080763474 -0.29421997 0.108983405
-0.093636684 0.03603627 0.011405106 -0.14336866 0.09896404 0.13831824 -0.04656232 -0.26257393
-0.17752336 -0.060681347 0.1660705 0.2271672 0.14738373 0.15483221 0.23811468 -0.17225266
0.16529012 -0.24711607 0.050239675 -0.338368 -0.07587233 0.025107004 -0.20393881 -0.31535143
00000000: ab2f b8bd 6d1e 8b3d b5f2 aebd d5c8 45be
00000010: 1784 083d ba27 6cbd 9bfd 9dbe ce65 8a3e
00000020: aeab 51bd 040a c93d 3620 8a3e dd85 9ebe
00000030: 1e9e ab3e 5d58 813e 9a43 51be 800b 88be
00000040: a393 9e3e d314 07be 5a05 c1bd f461 983d
00000050: 9f06 d03d 1a93 a7be 4e60 b4bd d607 1dbe
00000060: 8964 f1bd 1f82 a63e c03f a73e d545 d1bd
00000070: 4b75 94be 6659 b23d be1d b0be e4d4 9abd
00000080: 7fe1 60bd 7b03 0f3e 7e89 efbd b50b ba3c
00000090: 95bc 9f3d b074 83be d9de 353e 5b53 45be
000000a0: 841a b23e 35de 4a3e 4ec4 cfbd 4863 8f3d
000000b0: 3385 a13e 9732 c03d 6ef0 6f3e 5fe4 f0bc
000000c0: 3889 18bd 636d a33e 3dbb 76bd 04f1 5c3e
000000d0: 70d7 e1bd 5267 a53d 00a4 96be b132 df3d
000000e0: 97c4 bfbd c59a 133d 7bdc 3a3c 3ccf 12be
000000f0: a9ad ca3d 4ca3 0d3e 22b8 3ebd 1770 86be
00000100: afc8 35be 018d 78bd 630e 2a3e 859e 683e
00000110: c3eb 163e 568c 1e3e 56d4 733e 0063 30be
00000120: d041 293e ff0b 7dbe 1ec8 4d3d 923e adbe
00000130: f462 9bbd 34ad cd3c 56d5 50be be75 a1be

model.layer_3.pb.parentModule.bias f4 [10]
0.16606873 0.23780276 0.010973184 0.150384 0.3145668 0.1405356 0.11030458 0.20243444
-0.24705859 -0.27841792
00000000: ec0d 2a3e 9182 733e dfc8 333c 43fe 193e
00000010: e60e a13e 90e8 0f3e 5ee7 e13d f94a 4f3e
00000020: edfc 7cbe cb8c 8ebe

model.layer_3.pb.pbValues.0.topPBCandidateAverage f4 [10]
0.0 0.0 0.0 0.0 0.0 0.0 0.0 0.0
0.0 0.0
00000000: 0000 0000 0000 0000 0000 0000 0000 0000
00000010: 0000 0000 0000 0000 0000 0000 0000 0000
00000020: 0000 0000 0000 0000

model.layer_3.pb.pbValues.0.PrevPBCandidateCorrelation f4 [10]
0.0 0.0 0.0 0.0 0.0 0.0 0.0 0.0
0.0 0.0
00000000: 0000 0000 0000 0000 0000 0000 0000 0000
00000010: 0000 0000 0000 0000 0000 0000 0000 0000
00000020: 0000 0000 0000 0000

model.layer_3.pb.pbValues.0.currentCorrelationsForParallel f4 [10]
0.0 0.0 0.0 0.0 0.0 0.0 0.0 0.0
0.0 0.0
00000000: 0000 0000 0000 0000 0000 0000 0000 0000
00000010: 0000 0000 0000 0000 0000 0000 0000 0000
00000020: 0000 0000 0000 0000

model.layer_3.pb.pbValues.0.bestScore f4 [10]
0.0 0.0 0.0 0.0 0.0 0.0 0.0 0.0
0.0 0.0
00000000: 0000 0000 0000 0000 0000 0000 0000 0000
00000010: 0000 0000 0000 0000 0000 0000 0000 0000
00000020: 0000 0000 0000 0000

model.layer_3.pb.pbValues.0.previousBestScore f4 [10]
0.0 0.0 0.0 0.0 0.0 0.0 0.0 0.0
0.0 0.0
00000000: 0000 0000 0000 0000 0000 0000 0000 0000
00000010: 0000 0000 0000 0000 0000 0000 0000 0000
00000020: 0000 0000 0000 0000

model.layer_3.pb.pbValues.0.PrevPBCandidateAverage f4 [10]
0.0 0.0 0.0 0.0 0.0 0.0 0.0 0.0
0.0 0.0
00000000: 0000 0000 0000 0000 0000 0000 0000 0000
00000010: 0000 0000 0000 0000 0000 0000 0000 0000
00000020: 0000 0000 0000 0000

model.layer_3.pb.pbValues.0.mainGradAverageForScaling f4 [10]
0.0 0.0 0.0 0.0 0.0 0.0 0.0 0.0
0.0 0.0
00000000: 0000 0000 0000 0000 0000 0000 0000 0000
00000010: 0000 0000 0000 0000 0000 0000 0000 0000
00000020: 0000 0000 0000 0000

model.layer_3.pb.pbValues.0.candidateGradAverageForScaling f4 [10]
0.0 0.0 0.0 0.0 0.0 0.0 0.0 0.0
0.0 0.0
00000000: 0000 0000 0000 0000 0000 0000 0000 0000
00000010: 0000 0000 0000 0000 0000 0000 0000 0000
00000020: 0000 0000 0000 0000

model.layer_3.pb.pbValues.0.indexesOfbest f4 [10]
0.0 0.0 0.0 0.0 0.0 0.0 0.0 0.0
0.0 0.0
00000000: 0000 0000 0000 0000 0000 0000 0000 0000
00000010: 0000 0000 0000 0000 0000 0000 0000 0000
00000020: 0000 0000 0000 0000

model.layer_3.pb.pbValues.0.nodesBestImprovedThisEpoch f4 [10]
0.0 0.0 0.0 0.0 0.0 0.0 0.0 0.0
0.0 0.0
00000000: 0000 0000 0000 0000 0000 0000 0000 0000
00000010: 0000 0000 0000 0000 0000 0000 0000 0000
00000020: 0000 0000 0000 0000

model.layer_3.pb.pbValues.0.parentsAverageDvector f4 [10]
0.0 0.0 0.0 0.0 0.0 0.0 0.0 0.0
0.0 0.0
00000000: 0000 0000 0000 0000 0000 0000 0000 0000
00000010: 0000 0000 0000 0000 0000 0000 0000 0000
00000020: 0000 0000 0000 0000

model.layer_3.pb.pbValues.0.normalPassAverageD f4 [10]
-7.509889e-07 2.1963256e-06 -5.4647926e-06 1.1610285e-06 8.2765723e-07 -9.079925e-06 -1.7860541e-06 -3.312758e-06
1.4499176e-05 1.7103598e-06
00000000: 9097 49b5 9664 1336 365e b7b6 a3d4 9b35
00000010: 2c2c 5e35 fb55 18b7 5ab8 efb5 c050 5eb6
00000020: 7d41 7337 848f e535

exp_avg f4 [4, 784]
-0.0005142706 -0.0005142706 -0.0005142706 -0.0005142706 -0.0005142706 -0.0005142706 -0.0005142706 -0.0005142706
-0.0005142706 -0.0005142706 -0.0005142706 -0.0005142706 -0.0005142706 -0.0005142706 -0.0005142706 -0.0005142706
-0.0005142706 -0.0005142706 -0.0005142706 -0.0005142706 -0.0005142706 -0.0005142706 -0.0005142706 -0.0005142706
-0.0005142706 -0.0005142706 -0.0005142706 -0.0005142706 -0.0005142706 -0.0005142706 -0.0005142706 -0.0005142706
-0.0005142706 -0.0005142706 -0.0005142706 -0.0005142706 -0.00051427004 -0.0005142702 -0.0005142781 -0.0005142991
-0.00051416573 -0.00051341276 -0.00051365554 -0.0005142761 -0.0005144916 -0.0005143388 -0.00051426946 -0.0005142706
-0.0005142706 -0.0005142706 -0.0005142706 -0.0005142706 -0.0005142706 -0.0005142706 -0.0005142706 -0.0005142706
-0.0005142706 -0.0005142706 -0.0005142706 -0.0005142706 -0.00051405607 -0.00051423215 -0.0005142706 -0.00051427033
-0.0005142702 -0.0005142237 -0.0005140569 -0.00051395287 -0.0005062752 -0.00046318115 -0.00047193994 -0.0005044472
-0.00050975505 -0.0005063573 -0.0005051724 -0.0005131105 -0.0005142102 -0.00051427115 -0.000514283 -0.00051428186
-0.00051427126 -0.0005142706 -0.0005142706 -0.0005142706 -0.0005142706 -0.0005142706 -0.0005142706 -0.0005142706
-0.00051423215 -0.0005142598 -0.0005142208 -0.0005141743 -0.00051412656 -0.000503673 -0.0004755408 -0.00045360817
-0.00042859858 -0.00039483805 1.2383052e-05 -0.00083423237 -0.0016715601 -0.0019114098 -0.0010270824 -0.00085551536
-0.00055249635 -0.00023702189 -0.0003647567 -0.0004978596 -0.0004983806 -0.0005111559 -0.0005142706 -0.0005142706
-0.0005142706 -0.0005142706 -0.0005142706 -0.0005142706 -0.00051426864 -0.0005161477 -0.0005189472 -0.00037586663
-0.0006375636 0.00019522624 -0.00019370118 0.00038193684 0.0011149066 0.00056280906 0.0005707541 -0.0001336735
-0.0005064762 -0.0020810042 -0.0017455601 -0.0015643258 -0.0012556576 -0.0004788451 -0.00060777523 -0.00093193055
-0.00050708663 -0.00053346984 -0.0005531379 -0.0005143119 -0.0005142706 -0.0005142706 -0.0005142706 -0.00051189977
-0.0005138043 -0.0005676193 -0.0001945671 0.00046511917 0.0006529062 0.0013293278 0.0018216887 0.0024592176
0.0019369512 0.00045075902 -7.428671e-05 -0.00020744432 0.0004815584 0.00023620047 0.00032082247 -0.0013270096
-0.0038854661 -0.003636818 -0.0032606095 -0.0030326946 -0.0015501924 -0.00061390136 -0.00056599954 -0.0005142706
-0.0005142706 -0.00051427167 -0.00051431847 -0.0005127422 -0.0005124645 -0.0005720456 0.00044867126 0.0009996818
0.0016128799 0.0021921801 0.0023247816 0.0023895153 0.0010419375 6.8276015e-05 0.0009974478 0.0015014303
0.003923551 0.0022098967 0.0015451092 0.0009050434 -0.0018728129 -0.0030619854 -0.0004054472 -0.00031915362
-0.00093052303 -0.00074746954 -0.0005156619 -0.0005155016 -0.0005142706 -0.00051429204 -0.00051453285 -0.0005169511
-0.0005785205 -0.00036734832 0.0008209913 0.0012845692 0.000683809 0.0013570057 0.0021641823 0.001796268
0.00035604747 0.0008947608 0.00087153044 0.0022011483 0.003670778 0.0035830918 0.0023583157 0.0010982533
0.0009451067 0.0003333679 0.0010860749 0.0003168554 -0.0005619379 -0.0007002412 -0.00062266795 -0.0005146588
-0.0005142706 -0.00051427295 -0.00051437 -0.0005170701 -0.00056389027 -0.00042884305 0.0010439352 -0.00018763913
-0.00070777984 -0.0007800192 -0.00020489508 -0.0017048195 -0.0014201847 -0.00012428 0.0014899689 0.0013579631
0.004210257 0.0050105825 0.0038789806 0.0026744816 0.0013290521 0.00027525966 0.00020327167 0.0005526693
-0.0011185849 -0.0011959436 -0.00080915634 -0.0005142719 -0.0005142706 -0.00051427085 -0.0005143177 -0.00051515567
00000000: 1ed0 06ba 1ed0 06ba 1ed0 06ba 1ed0 06ba
00000010: 1ed0 06ba 1ed0 06ba 1ed0 06ba 1ed0 06ba
00000020: 1ed0 06ba 1ed0 06ba 1ed0 06ba 1ed0 06ba
00000030: 1ed0 06ba 1ed0 06ba 1ed0 06ba 1ed0 06ba
00000040: 1ed0 06ba 1ed0 06ba 1ed0 06ba 1ed0 06ba
00000050: 1ed0 06ba 1ed0 06ba 1ed0 06ba 1ed0 06ba
00000060: 1ed0 06ba 1ed0 06ba 1ed0 06ba 1ed0 06ba
00000070: 1ed0 06ba 1ed0 06ba 1ed0 06ba 1ed0 06ba
00000080: 1ed0 06ba 1ed0 06ba 1ed0 06ba 1ed0 06ba
00000090: 14d0 06ba 17d0 06ba 9ed0 06ba 07d2 06ba
000000a0: 14c9 06ba 8c96 06ba d7a6 06ba 7cd0 06ba
000000b0: f2de 06ba b1d4 06ba 0ad0 06ba 1ed0 06ba
000000c0: 1ed0 06ba 1ed0 06ba 1ed0 06ba 1ed0 06ba
000000d0: 1ed0 06ba 1ed0 06ba 1ed0 06ba 1ed0 06ba
000000e0: 1ed0 06ba 1ed0 06ba 1ed0 06ba 1ed0 06ba
000000f0: b8c1 06ba 89cd 06ba 1ed0 06ba 19d0 06ba
00000100: 17d0 06ba f8cc 06ba c6c1 06ba cbba 06ba
00000110: 8eb7 04ba 1fd7 f2b9 b56e f7b9 e13c 04ba
00000120: 15a1 05ba 10bd 04ba 8c6d 04ba 4382 06ba
00000130: 10cc 06ba 27d0 06ba f3d0 06ba dfd0 06ba
00000140: 29d0 06ba 1ed0 06ba 1ed0 06ba 1ed0 06ba
00000150: 1ed0 06ba 1ed0 06ba 1ed0 06ba 1ed0 06ba
00000160: 89cd 06ba 64cf 06ba c6cc 06ba a7c9 06ba
00000170: 73c6 06ba ec08 04ba 0152 f9b9 42d2 edb9
00000180: 87b5 e0b9 4402 cfb9 cec0 4f37 63b0 5aba
00000190: 4018 dbba 4588 faba 2b9f 86ba aa44 60ba
000001a0: 67d5 10ba 1489 78b9 d13c bfb9 cb82 02ba
000001b0: c2a5 02ba 17ff 05ba 1ed0 06ba 1ed0 06ba
000001c0: 1ed0 06ba 1ed0 06ba 1ed0 06ba 1ed0 06ba
000001d0: fccf 06ba 164e 07ba f509 08ba f70f c5b9
000001e0: 2b22 27ba a5b5 4c39 441c 4bb9 b23e c839
000001f0: 0f22 923a 7a89 133a a99e 153a b52a 0cb9
00000200: 0bc5 04ba 7561 08bb 47cb e4ba 100a cdba
00000210: e194 a4ba 800d fbb9 1b53 1fba cd4c 74ba
00000220: 02ee 04ba 8ed8 0bba 7500 11ba e3d2 06ba
00000230: 1ed0 06ba 1ed0 06ba 1ed0 06ba 0331 06ba
00000240: d3b0 06ba 49cc 14ba b504 4cb9 3ddb f339
00000250: cb27 2b3a d73c ae3a bbc5 ee3a d32a 213b
00000260: 4ce1 fd3a da53 ec39 60ca 9bb8 6985 59b9
00000270: ad79 fc39 95ac 7739 1034 a839 0eef adba
00000280: 4ea3 7ebb ae57 6ebb f3af 55bb 2cc0 46bb
00000290: d32f cbba 39ee 20ba 965f 14ba 1ed0 06ba
000002a0: 1ed0 06ba 30d0 06ba 54d3 06ba 8c69 06ba
000002b0: e956 06ba 55f5 15ba a33b eb39 c107 833a
000002c0: 4567 d33a aeaa 0f3b 5d5b 183b 6a99 1c3b
000002d0: 9f91 883a 682f 8f38 cbbc 823a a4cb c43a
000002e0: 2291 803b ead3 103b 4385 ca3a 6f40 6d3a
000002f0: 2c79 f5ba 97ab 48bb 3492 d4b9 1354 a7b9
00000300: 58ee 73ba d5f1 43ba 7c2d 07ba ba22 07ba
00000310: 1ed0 06ba 8ed1 06ba b7e1 06ba 0084 07ba
00000320: dba7 17ba a898 c0b9 cb37 573a fd5e a83a
00000330: a541 333a 8edd b13a f4d4 0d3b c170 eb3a
00000340: e2ab ba39 618e 6a3a 6b77 643a 2441 103b
00000350: 6f91 703b 4ed2 6a3b f98d 1a3b 44f3 8f3a
00000360: 09c1 773a e2c7 ae39 a05a 8e3a 9d1f a639
00000370: 044f 13ba 6490 37ba 8a3a 23ba 2bea 06ba
00000380: 1ed0 06ba 46d0 06ba c9d6 06ba fd8b 07ba
00000390: 09d2 13ba 57d6 e0b9 a7d4 883a ffc0 44b9
000003a0: 4d8a 39ba 347a 4cba 1bd9 56b9 4074 dfba
000003b0: 7e25 baba 2951 02b9 0f4b c33a aefd b13a
000003c0: 32f6 893b d02f a43b 7f36 7e3b 5b46 2f3b
000003d0: 9733 ae3a ba50 9039 5325 5539 02e1 103a
000003e0: 7b9d 92ba 35c1 9cba 901d 54ba 34d0 06ba
000003f0: 1ed0 06ba 22d0 06ba 47d3 06ba 830b 07ba

exp_avg_sq f4 [4, 784]
7.3789365e-06 7.3789365e-06 7.3789365e-06 7.3789365e-06 7.3789365e-06 7.3789365e-06 7.3789365e-06 7.3789365e-06
7.3789365e-06 7.3789365e-06 7.3789365e-06 7.3789365e-06 7.3975784e-06 7.4754475e-06 7.398879e-06 7.3784618e-06
7.3789365e-06 7.3789365e-06 7.3789365e-06 7.3789365e-06 7.3789365e-06 7.3789365e-06 7.3789365e-06 7.3789365e-06
7.3789365e-06 7.3789365e-06 7.3789365e-06 7.3789365e-06 7.3789365e-06 7.3789365e-06 7.3789365e-06 7.3789365e-06
7.3789392e-06 7.378942e-06 7.3789456e-06 7.3790607e-06 7.380051e-06 7.378212e-06 7.3815577e-06 7.3996443e-06
7.402419e-06 7.476654e-06 7.36628e-06 7.4017357e-06 7.7604245e-06 7.519878e-06 7.400627e-06 7.3810365e-06
7.374839e-06 7.391004e-06 7.3796336e-06 7.3789365e-06 7.3789365e-06 7.3789365e-06 7.3789365e-06 7.3789365e-06
7.3789365e-06 7.3789365e-06 7.3789365e-06 7.3789365e-06 7.378693e-06 7.378922e-06 7.377202e-06 7.382421e-06
7.4622835e-06 7.833326e-06 8.070579e-06 8.095367e-06 8.602995e-06 9.30481e-06 9.003402e-06 8.605304e-06
8.562357e-06 8.263587e-06 7.759429e-06 7.490556e-06 7.425495e-06 7.722033e-06 7.5953594e-06 7.576998e-06
7.506666e-06 7.383996e-06 7.3789365e-06 7.3789365e-06 7.3789365e-06 7.3789365e-06 7.378921e-06 7.3789342e-06
7.3788774e-06 7.381525e-06 7.397823e-06 7.4706863e-06 7.887939e-06 8.954774e-06 9.989491e-06 1.03902985e-05
1.2385174e-05 1.38268415e-05 1.4564182e-05 1.4348284e-05 1.5659774e-05 1.6181537e-05 1.3296025e-05 1.1070096e-05
9.274889e-06 9.468738e-06 8.473124e-06 7.875836e-06 7.737298e-06 7.406394e-06 7.3719502e-06 7.3789365e-06
7.3789365e-06 7.378945e-06 7.3805713e-06 7.3618808e-06 7.349161e-06 7.4357044e-06 7.735968e-06 8.882264e-06
1.0595703e-05 1.3707668e-05 2.0031584e-05 2.5879453e-05 3.1216146e-05 3.5831636e-05 3.8843806e-05 4.4094377e-05
4.332742e-05 3.8106267e-05 3.3414435e-05 2.6125803e-05 1.9624486e-05 1.5126717e-05 1.2152084e-05 9.761098e-06
8.076531e-06 7.4189134e-06 7.393867e-06 7.3518936e-06 7.3789365e-06 7.3789365e-06 7.37903e-06 7.4119243e-06
7.585889e-06 7.99866e-06 9.864535e-06 1.343168e-05 1.9575424e-05 2.8030614e-05 4.085015e-05 5.6981557e-05
7.368056e-05 8.682213e-05 9.498011e-05 0.000101180245 0.00010193954 9.178167e-05 7.3498486e-05 5.0819835e-05
3.535879e-05 2.529749e-05 1.788679e-05 1.2624102e-05 8.834321e-06 8.149315e-06 7.3417505e-06 7.378328e-06
7.3789365e-06 7.377662e-06 7.369062e-06 7.458072e-06 7.986341e-06 9.5465475e-06 1.3266141e-05 2.0733223e-05
3.106761e-05 4.5027282e-05 6.355128e-05 8.0179656e-05 0.0001065397 0.00011914588 0.00013091174 0.00013922996
0.0001426676 0.00013383641 0.00011942065 8.5615495e-05 5.39521e-05 3.7685506e-05 2.5636828e-05 1.6290747e-05
1.059928e-05 8.715142e-06 7.5197217e-06 7.374374e-06 7.3789365e-06 7.3815754e-06 7.498505e-06 7.5925323e-06
8.709991e-06 1.1452074e-05 1.6594924e-05 2.654329e-05 3.8529655e-05 5.3714954e-05 7.1078815e-05 9.311503e-05
0.00011332435 0.00012387148 0.00013464745 0.00014046326 0.0001370399 0.00013389316 0.00012343997 9.508897e-05
6.2311985e-05 4.3702847e-05 3.060834e-05 2.017088e-05 1.223337e-05 8.803376e-06 7.7533905e-06 7.365524e-06
7.3789383e-06 7.371132e-06 7.4109576e-06 7.7350305e-06 9.506366e-06 1.298618e-05 1.9826117e-05 3.0557898e-05
4.176146e-05 5.552461e-05 6.703799e-05 8.49071e-05 0.00010208125 0.000111614194 0.00011706181 0.00011852894
0.00011311319 0.000110215784 0.00010628196 8.900732e-05 6.147348e-05 4.2138134e-05 3.1207634e-05 2.0275229e-05
1.3568778e-05 1.0020014e-05 8.059859e-06 7.400873e-06 7.378848e-06 7.3781703e-06 7.376107e-06 7.77347e-06
00000000: 9598 f736 9598 f736 9598 f736 9598 f736
00000010: 9598 f736 9598 f736 9598 f736 9598 f736
00000020: 9598 f736 9598 f736 9598 f736 9598 f736
00000030: b738 f836 9bd5 fa36 e343 f836 8194 f736
00000040: 9598 f736 9598 f736 9598 f736 9598 f736
00000050: 9598 f736 9598 f736 9598 f736 9598 f736
00000060: 9598 f736 9598 f736 9598 f736 9598 f736
00000070: 9598 f736 9598 f736 9598 f736 9598 f736
00000080: 9b98 f736 a198 f736 a998 f736 a699 f736
00000090: 28a2 f736 5c92 f736 19af f736 764a f836
000000a0: 4c62 f836 f8df fa36 dd2b f736 6d5c f836
000000b0: c532 0237 4353 fc36 e752 f836 9faa f736
000000c0: 6275 f736 3e00 f836 929e f736 9598 f736
000000d0: 9598 f736 9598 f736 9598 f736 9598 f736
000000e0: 9598 f736 9598 f736 9598 f736 9598 f736
000000f0: 7e96 f736 7598 f736 af89 f736 83b6 f736
00000100: 8764 fa36 e16b 0337 df66 0737 56d1 0737
00000110: 9555 1037 db1b 1c37 510d 1737 805f 1037
00000120: 0ba7 0f37 d6a3 0a37 7e2e 0237 6357 fb36
00000130: 8428 f936 e18d 0137 a4db fe36 eb3d fe36
00000140: c5e1 fb36 0bc4 f736 9598 f736 9598 f736
00000150: 9598 f736 9598 f736 7398 f736 9098 f736
00000160: 1398 f736 d1ae f736 d13a f836 b5ac fa36
00000170: 7156 0437 763c 1637 8a98 2737 fe51 2e37
00000180: ebc9 4f37 d5f9 6737 af58 7437 69b9 7037
00000190: 1c5d 8337 96bd 8737 fe11 5f37 b3b9 3937
000001a0: 589b 1b37 ecdb 1e37 ca27 0e37 7522 0437
000001b0: 71cf 0137 7184 f836 925c f736 9598 f736
000001c0: 9598 f736 a898 f736 a0a6 f736 1306 f736
000001d0: d098 f636 3780 f936 bbc9 0137 0905 1537
000001e0: 33c4 3137 fcf9 6537 8009 a837 b417 d937
000001f0: 15ee 0238 ed49 1638 38ec 2238 faf1 3838
00000200: 77ba 3538 4bd4 1f38 7a26 0c38 bc28 db37
00000210: 439f a437 c1c8 7d37 cee0 4b37 99c3 2337
00000220: 7080 0737 fbef f836 d518 f836 49b0 f636
00000230: 9598 f736 9598 f736 6399 f736 f2b3 f836
00000240: 4a8a fe36 fc31 0637 db7f 2537 a058 6137
00000250: e735 a437 4923 eb37 8456 2b38 7bff 6e38
00000260: f384 9a38 4714 b638 0f30 c738 bb30 d438
00000270: 60c8 d538 e97a c038 3323 9a38 6227 5538
00000280: 364e 1438 f235 d437 970b 9637 1bcc 5337
00000290: 1f37 1437 0bb9 0837 2859 f636 5b93 f736
000002a0: 9598 f736 a28d f736 c343 f736 5a40 fa36
000002b0: 13fd 0537 1c2a 2037 a491 5e37 42ec ad37
000002c0: 984e 0238 addb 3c38 d546 8538 2026 a838
000002d0: 116e df38 f5dd f938 5a45 0939 42fe 1139
000002e0: 0b99 1539 7056 0c39 7971 fa38 788c b338
000002f0: a04a 6238 8110 1e38 ab0e d737 1da8 8837
00000300: 90d3 3137 4037 1237 eb51 fc36 6471 f736
00000310: 9598 f736 40af f736 ab9b fb36 5bc3 fe36
00000320: 2021 1237 4922 4037 5435 8b37 48a9 de37
00000330: e79a 2138 fe4b 6138 2610 9538 c046 c338
00000340: 8ca8 ed38 7fe3 0139 2630 0d39 5249 1339
00000350: 5eb2 0f39 ac65 0c39 aa6f 0139 816a c738
00000360: 7ead 8238 934d 3738 7461 0038 a334 a937
00000370: ed3d 4d37 36b2 1337 8f14 0237 5f25 f736
00000380: 9998 f736 8b55 f736 a4ab f836 b4c5 0137
00000390: 887d 1f37 38df 5937 4350 a637 4b2b 0038
000003a0: 0729 2f38 19e3 6838 bf96 8c38 2710 b238
000003b0: 7414 d638 6a12 ea38 157f f538 bd92 f838
000003c0: 2e37 ed38 a623 e738 b1e3 de38 71a9 ba38
000003d0: 53eb 8038 7abd 3038 f1e4 0238 b914 aa37
000003e0: 75a5 6337 a21b 2837 d538 0737 0455 f836
000003f0: d297 f736 0092 f736 4780 f736 cd6a 0237

exp_avg f4 [4]
0.0012122934 0.00022427391 -0.0007123075 -0.0005515459
00000000: d1e5 9e3a 122b 6b39 26ba 3aba 9e95 10ba

exp_avg_sq f4 [4]
4.1003965e-05 3.1760275e-05 2.4401543e-05 5.4787775e-05
00000000: acfb 2b38 5636 0538 eab1 cc37 edcb 6538

exp_avg f4 [8, 4]
0.013407816 0.0019963465 -0.0026942326 0.0071504335 -0.0025372377 0.006565438 -0.014249904 -0.016368361
0.0074649556 0.008959559 0.01741046 0.026026221 0.0206895 -0.003964395 0.009619121 0.0027291828
-0.0040440853 -0.007509778 -0.025434451 -0.0016059546 -0.024232924 -0.0068867155 -0.019861935 -0.008874375
-0.016451042 -0.017187556 -0.047299966 -0.033146076 -0.009091695 -0.004446022 0.0044053774 -0.016259983
00000000: 75ac 5b3c 23d5 023b b991 30bb 2f4e ea3b
00000010: c947 26bb e322 d73b 6e78 69bc f116 86bc
00000020: 969c f43b 1dcb 123c 62a0 8e3c f134 d53c
00000030: 077d a93c c1e7 81bb 8599 1d3c 17dc 323b
00000040: 3f84 84bb 9514 f6bb e95b d0bc e57e d2ba
00000050: 2084 c6bc f5a9 e1bb 7fb5 a2bc d465 11bc
00000060: 56c4 86bc ebcc 8cbc 9cbd 41bd 2ec4 07bd
00000070: 55f5 14bc f0af 91bb fc5a 903b a833 85bc

exp_avg_sq f4 [8, 4]
0.006600411 0.007870254 0.011595377 0.01155816 0.0023251283 0.0021113427 0.006581818 0.004590558
0.0031673785 0.0031838687 0.014175302 0.00914705 0.0034821623 0.007083262 0.010685374 0.010809204
0.0013166238 0.0011590128 0.003872466 0.0021483712 0.002531072 0.0017624344 0.0033971649 0.006032092
0.0041321553 0.0080947755 0.01686001 0.011317028 0.0021202273 0.0015665342 0.005371023 0.0041268882
00000000: 4348 d83b 3df2 003c 89fa 3d3c 705e 3d3c
00000010: 2e61 183b 745e 0a3b 4bac d73b 646c 963b
00000020: cb93 4f3b 74a8 503b 873f 683c 82dd 153c
00000030: fd34 643b b51a e83b b511 2f3c 1619 313c
00000040: 9092 ac3a 04ea 973a 33c9 7d3b b0cb 0c3b
00000050: 57e0 253b 7c01 e73a f8a2 5e3b dba8 c53b
00000060: 0867 873b f39f 043c 011e 8a3c 0e6b 393c
00000070: 83f3 0a3b 2a54 cd3a 68ff af3b d93a 873b

exp_avg f4 [8]
-0.0005663439 -0.00022633343 0.0010677627 0.0003345673 -0.00036350114 -0.00034667325 -0.00075784884 -0.00037309513
00000000: b276 14ba eb53 6db9 2cf4 8b3a dd68 af39
00000010: 4c94 beb9 b2c1 b5b9 60aa 46ba fb9b c3b9

exp_avg_sq f4 [8]
2.295255e-05 8.369479e-06 1.7869825e-05 2.026272e-05 5.8551295e-06 9.512285e-06 2.2502867e-05 7.917942e-06
00000000: 3a8a c037 a36a 0c37 28e7 9537 dcf9 a937
00000010: 2e77 c436 f496 1f37 8ac4 bc37 4dd7 0437

exp_avg f4 [10, 8]
0.00022633516 0.046052363 0.022936188 0.0032043196 0.0051869256 0.029805187 0.016896974 0.030584503
0.0017915649 -0.004045643 0.0002597838 -0.0007630611 0.00026373233 0.0034472838 -0.0017584651 0.0010535371
-0.0018529502 0.016686533 0.014900274 0.006300418 0.009487398 0.0044358573 0.007691951 0.0039606197
0.00078731106 0.008250289 0.020068204 0.0016865942 0.009120763 0.016794678 0.0028479532 0.007390737
-0.0028706936 0.0025432438 -0.0056792516 -0.002163746 -0.0041353046 -0.01660929 -0.0023293195 -0.011428287
-0.0037168749 -0.09990378 -0.06761233 -0.026615068 -0.03845085 -0.06081415 -0.040788215 -0.05871983
-0.0016049835 -0.010427086 -9.61188e-05 -0.0061029824 -0.0037766006 -0.0047905105 -0.0062231026 -0.009222587
-0.0007642777 -0.0034577623 -0.024371672 -0.0005299156 -0.009877883 -0.017688613 -0.00031405926 -0.0030346354
-0.0018764662 0.042012304 0.013499704 0.014078138 0.012656432 0.014565102 0.018049443 0.023390455
0.009881063 0.0022895744 0.026095258 0.010905342 0.019525444 0.03085445 0.0059268633 0.016025493
00000000: 6254 6d39 67a1 3c3d ace4 bb3c 90ff 513b
00000010: 16f7 a93b 022a f43c 866b 8a3c 5a8c fa3c
00000020: f1d2 ea3a 5091 84bb 9733 8839 2a08 48ba
00000030: 8e45 8a39 d3eb 613b 4c7c e6ba d716 8a3a
00000040: b1de f2ba 32b2 883c 4720 743c bd73 ce3b
00000050: 0871 1b3c ab5a 913b c30c fc3b 16c8 813b
00000060: 8d63 4e3a 382c 073c 1366 a43c b610 dd3a
00000070: 416f 153c fe94 893c baa4 3a3b ff2d f23b
00000080: 3f22 3cbb 8dac 263b 0419 babb a2cd 0dbb
00000090: 7381 87bb 3510 88bc 7fa7 18bb b63d 3bbc
000000a0: d096 73bb 5a9a ccbd 5578 8abd d807 dabc
000000b0: a37e 1dbd 4218 79bd 8b11 27bd 3484 70bd
000000c0: 4f5e d2ba 5ed6 2abc 6393 c9b8 87fb c7bb
000000d0: d880 77bb b7f9 9cbb 2beb cbbb 551a 17bc
000000e0: cf59 48ba a09b 62bb 1aa7 c7bc 09ea 0aba
000000f0: d8d6 21bc b6e7 90bc 52a8 a4b9 bce0 46bb
00000100: c2f3 f5ba 1815 2c3d dd2d 5d3c fea7 663c
00000110: ec5c 4f3c 77a2 6e3c 6ddc 933c 579d bf3c
00000120: 2fe4 213c af0c 163b b9c5 d53c 52ac 323c
00000130: d3f3 9f3c 79c2 fc3c 2236 c23b e547 833c

exp_avg_sq f4 [10, 8]
4.3820077e-05 0.0036224355 0.00068546686 0.00046604927 0.0004199856 0.0027527662 0.00083845947 0.0033508227
0.00045124348 0.0006788364 0.0066638184 0.0009928249 0.004033504 0.0014188784 0.00015229962 7.682384e-05
0.0011200439 0.0019192372 0.005066383 0.0024477795 0.005061478 0.00030177517 0.0004325032 7.426976e-05
2.5643798e-05 0.0075828154 0.009093628 0.0009098923 0.0037624366 0.0036738124 0.0009990511 0.0017551788
0.0027939226 0.00021920264 0.0044198683 0.0031941968 0.0062798597 0.008559044 0.0006083194 0.0034669868
0.00026293527 0.01406306 0.0074784416 0.0027656541 0.0048340214 0.0081580775 0.0030096516 0.007911601
0.0011624004 0.0012812963 0.00058296055 0.0023045356 0.0024843113 0.0003131581 0.00058710127 0.0007491009
0.0001579813 0.00015017462 0.004475023 7.129527e-05 0.0014654571 0.0069774822 6.92128e-05 0.0018918621
0.0010539339 0.0068286397 0.012755337 0.0040290835 0.009410777 0.009473116 0.002134447 0.0052265255
0.0019967887 0.00031471235 0.009089366 0.001928093 0.0064323875 0.016894154 0.0005196543 0.005581858
00000000: 73cb 3738 6266 6d3b e7b0 333a 1358 f439
00000010: 8331 dc39 c167 343b 10cc 5b3a 7a99 5b3b
00000020: e094 ec39 f1f3 313a 295c da3b ad21 823a
00000030: 7c2b 843b a9f9 b93a 9eb2 1f39 7c1c a138
00000040: 70ce 923a ea8e fb3a e703 a63b ed6a 203b
00000050: c1da a53b 9437 9e39 99c1 e239 46c1 9b38
00000060: a31d d737 4479 f83b 71fd 143c d785 6e3a
00000070: 3693 763b 58c4 703b 98f2 823a 070e e63a
00000080: 3e1a 373b c3d9 6539 8bd4 903b bb55 513b
00000090: 48c7 cd3b 3c3b 0c3c a077 1f3a 6336 633b
000000a0: 93da 8939 c068 663c b70d f53b fa3f 353b
000000b0: b666 9e3b 75a9 053c 933d 453b a99f 013c
000000c0: af5b 983a 2bf1 a73a d2d1 183a b107 173b
000000d0: d4cf 223b 5e2f a439 b3e7 193a 4f5f 443a
000000e0: c8a7 2539 3178 1d39 37a3 923b 5b84 9538
000000f0: 9514 c03a 5da3 e43b 5726 9138 5cf8 f73a
00000100: 2724 8a3a c8c2 df3b c3fb 503c 6706 843b
00000110: a92f 1a3c 2135 1b3c 14e2 0b3b 4643 ab3b
00000120: 8edc 023b faff a439 90eb 143c 11b8 fc3a
00000130: c7c6 d23b 9c65 8a3c 6939 083a 05e8 b63b

exp_avg f4 [10]
0.00079134834 8.885908e-06 -3.6935623e-06 0.00091888715 -0.00023112932 -0.002761114 -0.00045320028 -0.0009075376
0.0017019156 0.0009356401
00000000: 7d72 4f3a af14 1537 ebde 77b6 79e1 703a
00000010: 4e5b 72b9 cef3 34bb 839b edb9 d1e7 6dba
00000020: d012 df3a bf45 753a

exp_avg_sq f4 [10]
8.5455595e-06 7.951059e-06 1.003873e-05 1.32260175e-05 1.9363319e-05 2.4235353e-05 7.734557e-06 1.0105413e-05
2.160113e-05 2.4291277e-05
00000000: e65e 0f37 8a65 0537 046c 2837 50e5 5d37
00000010: 696e a237 064d cb37 abc3 0137 6b8a 2937
00000020: 1334 b537 1fc5 cb37
